built_models/esc50_esc50cnn_model_fold2_20250430_203637.pth (torch, 654357 bytes, 24 tensors)

mel_transform.spectrogram.window f4 [1024]
0	0x00000000	0.0
1	0x371e0000	9.417534e-06
2	0x381de000	3.7640333e-05
3	0x38b1a000	8.46982e-05
4	0x391de800	0.00015059114
5	0x3976b800	0.00023528934
6	0x39b1a400	0.0003388226
7	0x39f1c400	0.00046113133
8	0x3a1de200	0.00060227513
9	0x3a47d000	0.0007622242
10	0x3a76aa00	0.0009409487
11	0x3a953900	0.0011384785
12	0x3ab19300	0.0013547838
13	0x3ad06300	0.0015898645
14	0x3af1a800	0.0018436909
15	0x3b0ab180	0.0021162927
16	0x3b1dc980	0.0024076402
17	0x3b321b80	0.0027177036
18	0x3b47a800	0.0030465126
19	0x3b5e6e80	0.0033940375
20	0x3b766e80	0.0037602484
21	0x3b87d3c0	0.0041451156
22	0x3b950d40	0.0045486987
23	0x3ba2e300	0.004970908
24	0x3bb15500	0.005411744
25	0x3bc06340	0.0058712065
26	0x3bd00dc0	0.0063492954
27	0x3be05400	0.006845951
28	0x3bf13600	0.0073611736
29	0x3c0159e0	0.007894963
30	0x3c0a6660	0.00844726
31	0x3c13c080	0.009018064
32	0x3c1d6820	0.009607345
33	0x3c275d40	0.010215104
34	0x3c319fc0	0.01084131
35	0x3c3c2f80	0.011485934
36	0x3c470c60	0.0121489465
37	0x3c523640	0.012830317
38	0x3c5dad00	0.013530016
39	0x3c6970a0	0.014248043
40	0x3c758100	0.014984369
41	0x3c80ef00	0.015738964
42	0x3c8743b0	0.016511768
43	0x3c8dbe90	0.017302781
44	0x3c945f90	0.018111974
45	0x3c9b2690	0.018939286
46	0x3ca213a0	0.019784749
47	0x3ca92690	0.02064827
48	0x3cb05f50	0.021529824
49	0x3cb7bde0	0.022429407
50	0x3cbf4230	0.02334699
51	0x3cc6ec10	0.024282485
52	0x3ccebb90	0.025235921
53	0x3cd6b080	0.026207209
54	0x3cdecae0	0.027196348
55	0x3ce70a90	0.028203279
56	0x3cef6f80	0.029227972
57	0x3cf7f9a0	0.030270398
58	0x3d005468	0.031330496
59	0x3d04be80	0.032408237
60	0x3d093b10	0.033503592
61	0x3d0dca10	0.03461653
62	0x3d126b68	0.03574696
63	0x3d171f18	0.036894888
64	0x3d1be510	0.038060248
65	0x3d20bd40	0.039242983
66	0x3d25a7a0	0.040443063
67	0x3d2aa428	0.041660458
68	0x3d2fb2d0	0.04289514
69	0x3d34d378	0.044146985
70	0x3d3a0628	0.045416027
71	0x3d3f4ac0	0.046702147
72	0x3d44a140	0.048005342
73	0x3d4a09a0	0.049325585
74	0x3d4f83c0	0.050662756
75	0x3d550fa8	0.052016884
76	0x3d5aad38	0.05338785
77	0x3d605c68	0.054775625
78	0x3d661d38	0.05618021
79	0x3d6bef80	0.057601452
80	0x3d71d348	0.059039384
81	0x3d77c870	0.060493886
82	0x3d7dcef8	0.06196496
83	0x3d81f364	0.06345251
84	0x3d8507ec	0.064956516
85	0x3d882508	0.06647688
86	0x3d8b4ab4	0.06801358
87	0x3d8e78e8	0.06956655
88	0x3d91af98	0.0711357
89	0x3d94eec0	0.072721004
90	0x3d983658	0.0743224
91	0x3d9b8658	0.075939834
92	0x3d9edeb4	0.07757321
93	0x3da23f6c	0.07922253
94	0x3da5a86c	0.080887645
95	0x3da919b8	0.082568586
96	0x3dac933c	0.0842652
97	0x3db014f8	0.085977495
98	0x3db39ee0	0.087705374
99	0x3db730e8	0.08944875
100	0x3dbacb0c	0.09120759
101	0x3dbe6d44	0.092981845
102	0x3dc21784	0.094771415
103	0x3dc5c9c0	0.096576214
104	0x3dc983f8	0.09839624
105	0x3dcd461c	0.10023138
106	0x3dd11020	0.10208154
107	0x3dd4e204	0.103946716
108	0x3dd8bbb8	0.105826795
109	0x3ddc9d30	0.10772169
110	0x3de0866c	0.10963139
111	0x3de4775c	0.111555785
112	0x3de86ff4	0.11349478
113	0x3dec702c	0.115448326
114	0x3df07800	0.11741638
115	0x3df48760	0.11939883
116	0x3df89e40	0.12139559
117	0x3dfcbc9c	0.12340662
118	0x3e007132	0.1254318
119	0x3e0287ca	0.12747112
120	0x3e04a20e	0.12952444
121	0x3e06bffc	0.13159174
122	0x3e08e18c	0.1336729
123	0x3e0b06b8	0.13576782
124	0x3e0d2f7c	0.13787645
125	0x3e0f5bd6	0.13999876
126	0x3e118bbc	0.1421346
127	0x3e13bf28	0.14428389
128	0x3e15f61a	0.14644662
129	0x3e183088	0.14862263
130	0x3e1a6e6e	0.15081188
131	0x3e1cafc6	0.15301427
132	0x3e1ef48c	0.15522975
133	0x3e213cb8	0.15745819
134	0x3e238844	0.1596995
135	0x3e25d72e	0.16195366
136	0x3e28296e	0.16422054
137	0x3e2a7efc	0.16650003
138	0x3e2cd7d8	0.16879213
139	0x3e2f33f6	0.17109665
140	0x3e319356	0.1734136
141	0x3e33f5ec	0.1757428
142	0x3e365bb6	0.17808422
143	0x3e38c4b0	0.1804378
144	0x3e3b30ce	0.18280336
145	0x3e3da010	0.1851809
146	0x3e40126c	0.18757027
147	0x3e4287de	0.18997142
148	0x3e45005e	0.19238421
149	0x3e477be8	0.1948086
150	0x3e49fa76	0.1972445
151	0x3e4c7c00	0.19969177
152	0x3e4f0080	0.20215034
153	0x3e5187f2	0.20462015
154	0x3e54124e	0.20710108
155	0x3e569f8e	0.20959303
156	0x3e592fac	0.21209592
157	0x3e5bc2a2	0.21460965
158	0x3e5e5866	0.21713409
159	0x3e60f0f8	0.21966922
160	0x3e638c4e	0.2222149
161	0x3e662a60	0.22477102
162	0x3e68cb2a	0.22733751
163	0x3e6b6ea4	0.22991425
164	0x3e6e14ca	0.23250118
165	0x3e70bd94	0.23509818
166	0x3e7368fc	0.23770517
167	0x3e7616fa	0.24032202
168	0x3e78c788	0.24294865
169	0x3e7b7aa0	0.24558496
170	0x3e7e3036	0.24823079
171	0x3e807426	0.25088614
172	0x3e81d16c	0.2535509
173	0x3e832fea	0.25622493
174	0x3e848f9c	0.25890815
175	0x3e85f07d	0.2616004
176	0x3e87528c	0.26430166
177	0x3e88b5c4	0.26701176
178	0x3e8a1a22	0.26973063
179	0x3e8b7fa4	0.2724582
180	0x3e8ce646	0.27519435
181	0x3e8e4e04	0.27793896
182	0x3e8fb6da	0.28069192
183	0x3e9120c4	0.2834531
184	0x3e928bc0	0.28622246
185	0x3e93f7ca	0.28899986
186	0x3e9564e0	0.29178524
187	0x3e96d2fc	0.29457843
188	0x3e98421c	0.29737937
189	0x3e99b23c	0.30018795
190	0x3e9b2358	0.30300403
191	0x3e9c956b	0.30582747
192	0x3e9e0876	0.3086583
193	0x3e9f7c72	0.31149632
194	0x3ea0f15c	0.31434143
195	0x3ea26730	0.3171935
196	0x3ea3ddec	0.3200525
197	0x3ea5558c	0.3229183
198	0x3ea6ce08	0.32579064
199	0x3ea84763	0.32866964
200	0x3ea9c196	0.33155507
201	0x3eab3c9e	0.33444685
202	0x3eacb878	0.33734488
203	0x3eae351e	0.340249
204	0x3eafb28f	0.34315917
205	0x3eb130c4	0.34607518
206	0x3eb2afbd	0.34899703
207	0x3eb42f75	0.35192457
208	0x3eb5afe8	0.35485768
209	0x3eb73112	0.35779625
210	0x3eb8b2f0	0.36074018
211	0x3eba357e	0.36368936
212	0x3ebbb8b6	0.3666436
213	0x3ebd3c99	0.36960295
214	0x3ebec120	0.37256718
215	0x3ec04648	0.3755362
216	0x3ec1cc0e	0.37850994
217	0x3ec3526d	0.38148823
218	0x3ec4d960	0.38447094
219	0x3ec660e6	0.38745803
220	0x3ec7e8fc	0.3904494
221	0x3ec9719b	0.39344487
222	0x3ecafac0	0.39644432
223	0x3ecc8469	0.3994477
224	0x3ece0e91	0.40245488
225	0x3ecf9932	0.40546566
226	0x3ed1244c	0.40848005
227	0x3ed2afda	0.4114979
228	0x3ed43bd8	0.41451907
229	0x3ed5c842	0.41754347
230	0x3ed75514	0.42057097
231	0x3ed8e24a	0.42360145
232	0x3eda6fdf	0.42663476
233	0x3edbfdd2	0.42967087
234	0x3edd8c1f	0.43270966
235	0x3edf1ac0	0.43575096
236	0x3ee0a9b2	0.43879467
237	0x3ee238f2	0.4418407
238	0x3ee3c87c	0.44488895
239	0x3ee55849	0.4479392
240	0x3ee6e859	0.45099142
241	0x3ee878a8	0.45404553
242	0x3eea0931	0.45710137
243	0x3eeb99f0	0.46015882
244	0x3eed2ae1	0.46321777
245	0x3eeebc00	0.46627808
246	0x3ef04d49	0.46933964
247	0x3ef1deba	0.4724024
248	0x3ef3704d	0.47546616
249	0x3ef50200	0.47853088
250	0x3ef693ce	0.4815964
251	0x3ef825b3	0.48466262
252	0x3ef9b7ac	0.48772943
253	0x3efb49b2	0.49079663
254	0x3efcdbc6	0.49386424
255	0x3efe6de1	0.49693206

mel_transform.mel_scale.fb f4 [513, 40]
0	0x80000000	-0.0
1	0x00000000	0.0
2	0x00000000	0.0
3	0x00000000	0.0
4	0x00000000	0.0
5	0x00000000	0.0
6	0x00000000	0.0
7	0x00000000	0.0
8	0x00000000	0.0
9	0x00000000	0.0
10	0x00000000	0.0
11	0x00000000	0.0
12	0x00000000	0.0
13	0x00000000	0.0
14	0x00000000	0.0
15	0x00000000	0.0
16	0x00000000	0.0
17	0x00000000	0.0
18	0x00000000	0.0
19	0x00000000	0.0
20	0x00000000	0.0
21	0x00000000	0.0
22	0x00000000	0.0
23	0x00000000	0.0
24	0x00000000	0.0
25	0x00000000	0.0
26	0x00000000	0.0
27	0x00000000	0.0
28	0x00000000	0.0
29	0x00000000	0.0
30	0x00000000	0.0
31	0x00000000	0.0
32	0x00000000	0.0
33	0x00000000	0.0
34	0x00000000	0.0
35	0x00000000	0.0
36	0x00000000	0.0
37	0x00000000	0.0
38	0x00000000	0.0
39	0x00000000	0.0
40	0x3f31bb11	0.69426066
41	0x00000000	0.0
42	0x00000000	0.0
43	0x00000000	0.0
44	0x00000000	0.0
45	0x00000000	0.0
46	0x00000000	0.0
47	0x00000000	0.0
48	0x00000000	0.0
49	0x00000000	0.0
50	0x00000000	0.0
51	0x00000000	0.0
52	0x00000000	0.0
53	0x00000000	0.0
54	0x00000000	0.0
55	0x00000000	0.0
56	0x00000000	0.0
57	0x00000000	0.0
58	0x00000000	0.0
59	0x00000000	0.0
60	0x00000000	0.0
61	0x00000000	0.0
62	0x00000000	0.0
63	0x00000000	0.0
64	0x00000000	0.0
65	0x00000000	0.0
66	0x00000000	0.0
67	0x00000000	0.0
68	0x00000000	0.0
69	0x00000000	0.0
70	0x00000000	0.0
71	0x00000000	0.0
72	0x00000000	0.0
73	0x00000000	0.0
74	0x00000000	0.0
75	0x00000000	0.0
76	0x00000000	0.0
77	0x00000000	0.0
78	0x00000000	0.0
79	0x00000000	0.0
80	0x3f24a294	0.64310575
81	0x3eb6bad8	0.35689425
82	0x00000000	0.0
83	0x00000000	0.0
84	0x00000000	0.0
85	0x00000000	0.0
86	0x00000000	0.0
87	0x00000000	0.0
88	0x00000000	0.0
89	0x00000000	0.0
90	0x00000000	0.0
91	0x00000000	0.0
92	0x00000000	0.0
93	0x00000000	0.0
94	0x00000000	0.0
95	0x00000000	0.0
96	0x00000000	0.0
97	0x00000000	0.0
98	0x00000000	0.0
99	0x00000000	0.0
100	0x00000000	0.0
101	0x00000000	0.0
102	0x00000000	0.0
103	0x00000000	0.0
104	0x00000000	0.0
105	0x00000000	0.0
106	0x00000000	0.0
107	0x00000000	0.0
108	0x00000000	0.0
109	0x00000000	0.0
110	0x00000000	0.0
111	0x00000000	0.0
112	0x00000000	0.0
113	0x00000000	0.0
114	0x00000000	0.0
115	0x00000000	0.0
116	0x00000000	0.0
117	0x00000000	0.0
118	0x00000000	0.0
119	0x00000000	0.0
120	0x3bafa669	0.005360414
121	0x3f7ea0b3	0.9946396
122	0x00000000	0.0
123	0x00000000	0.0
124	0x00000000	0.0
125	0x00000000	0.0
126	0x00000000	0.0
127	0x00000000	0.0
128	0x00000000	0.0
129	0x00000000	0.0
130	0x00000000	0.0
131	0x00000000	0.0
132	0x00000000	0.0
133	0x00000000	0.0
134	0x00000000	0.0
135	0x00000000	0.0
136	0x00000000	0.0
137	0x00000000	0.0
138	0x00000000	0.0
139	0x00000000	0.0
140	0x00000000	0.0
141	0x00000000	0.0
142	0x00000000	0.0
143	0x00000000	0.0
144	0x00000000	0.0
145	0x00000000	0.0
146	0x00000000	0.0
147	0x00000000	0.0
148	0x00000000	0.0
149	0x00000000	0.0
150	0x00000000	0.0
151	0x00000000	0.0
152	0x00000000	0.0
153	0x00000000	0.0
154	0x00000000	0.0
155	0x00000000	0.0
156	0x00000000	0.0
157	0x00000000	0.0
158	0x00000000	0.0
159	0x00000000	0.0
160	0x00000000	0.0
161	0x3ed69377	0.41909382
162	0x3f14b644	0.58090615
163	0x00000000	0.0
164	0x00000000	0.0
165	0x00000000	0.0
166	0x00000000	0.0
167	0x00000000	0.0
168	0x00000000	0.0
169	0x00000000	0.0
170	0x00000000	0.0
171	0x00000000	0.0
172	0x00000000	0.0
173	0x00000000	0.0
174	0x00000000	0.0
175	0x00000000	0.0
176	0x00000000	0.0
177	0x00000000	0.0
178	0x00000000	0.0
179	0x00000000	0.0
180	0x00000000	0.0
181	0x00000000	0.0
182	0x00000000	0.0
183	0x00000000	0.0
184	0x00000000	0.0
185	0x00000000	0.0
186	0x00000000	0.0
187	0x00000000	0.0
188	0x00000000	0.0
189	0x00000000	0.0
190	0x00000000	0.0
191	0x00000000	0.0
192	0x00000000	0.0
193	0x00000000	0.0
194	0x00000000	0.0
195	0x00000000	0.0
196	0x00000000	0.0
197	0x00000000	0.0
198	0x00000000	0.0
199	0x00000000	0.0
200	0x00000000	0.0
201	0x00000000	0.0
202	0x3f58ca45	0.8468364
203	0x3e1cd6ee	0.15316364
204	0x00000000	0.0
205	0x00000000	0.0
206	0x00000000	0.0
207	0x00000000	0.0
208	0x00000000	0.0
209	0x00000000	0.0
210	0x00000000	0.0
211	0x00000000	0.0
212	0x00000000	0.0
213	0x00000000	0.0
214	0x00000000	0.0
215	0x00000000	0.0
216	0x00000000	0.0
217	0x00000000	0.0
218	0x00000000	0.0
219	0x00000000	0.0
220	0x00000000	0.0
221	0x00000000	0.0
222	0x00000000	0.0
223	0x00000000	0.0
224	0x00000000	0.0
225	0x00000000	0.0
226	0x00000000	0.0
227	0x00000000	0.0
228	0x00000000	0.0
229	0x00000000	0.0
230	0x00000000	0.0
231	0x00000000	0.0
232	0x00000000	0.0
233	0x00000000	0.0
234	0x00000000	0.0
235	0x00000000	0.0
236	0x00000000	0.0
237	0x00000000	0.0
238	0x00000000	0.0
239	0x00000000	0.0
240	0x00000000	0.0
241	0x00000000	0.0
242	0x3e9e0d2b	0.3086942
243	0x3f30f96a	0.69130576
244	0x00000000	0.0
245	0x00000000	0.0
246	0x00000000	0.0
247	0x00000000	0.0
248	0x00000000	0.0
249	0x00000000	0.0
250	0x00000000	0.0
251	0x00000000	0.0
252	0x00000000	0.0
253	0x00000000	0.0
254	0x00000000	0.0
255	0x00000000	0.0

conv1.weight f4 [32, 1, 3, 3]
0	0x3e3bbd16	0.1833385
1	0x3ce1598d	0.027508521
2	0xbd9b58ad	-0.07585273
3	0x3d6ac139	0.057313178
4	0xbc8f0f0b	-0.017463228
5	0x3e6de64b	0.23232381
6	0xbe85f4bb	-0.26163277
7	0xbe173bd6	-0.1476892
8	0xbe92bf1c	-0.2866143
9	0xbe328708	-0.17434323
10	0x3e60b8e5	0.21945532
11	0x3e87f736	0.26555794
12	0xbeb2cdd8	-0.3492267
13	0xbe06344f	-0.13105892
14	0xbc3c6028	-0.011497535
15	0xbe0deb60	-0.1385932
16	0x3cda645a	0.02665918
17	0x3d729984	0.059228435
18	0x3c433ef2	0.011916863
19	0xbe750d11	-0.23930766
20	0x3e80fa2f	0.25190875
21	0x3e1cb489	0.15303244
22	0x3ceee4f5	0.02916191
23	0xbd922c32	-0.07137336
24	0x3e823c12	0.25436455
25	0x3de74439	0.11292309
26	0xbea4e8b9	-0.32208803
27	0xbe2ab1ad	-0.1666934
28	0x3ec507f5	0.38482633
29	0x3e3e77dd	0.18600412
30	0xbe0c932d	-0.13728018
31	0xbd3076a8	-0.04308191
32	0xbe590e28	-0.21196806
33	0xbdc3f10f	-0.09567463
34	0x3e93b5a8	0.2884953
35	0xbddda72a	-0.108229
36	0x3e203498	0.15645063
37	0xbd74a183	-0.059724342
38	0xbd300a46	-0.042978548
39	0xbe8184ed	-0.25296727
40	0xbe40134e	-0.18757364
41	0xbe568c5d	-0.20951982
42	0x3e424908	0.18973172
43	0x3d02442c	0.031803295
44	0x3df016a1	0.11723066
45	0x3ea3e739	0.32012346
46	0x3e1a9bf9	0.15098561
47	0x3d874463	0.066048406
48	0x3e35c9d5	0.17752774
49	0x3e3cff19	0.18456687
50	0xbe3e4202	-0.18579867
51	0xbe1e3139	-0.15448464
52	0xbe8b49c8	-0.27204728
53	0xbe11285f	-0.14175557
54	0xbe1d1d4f	-0.15343212
55	0x3e19fc61	0.15037681
56	0xbde1080c	-0.10987863
57	0x3e3b460d	0.18288441
58	0x3eba1da4	0.3635074
59	0x3ae94922	0.0017798285
60	0xbe02d126	-0.12775096
61	0xbd0e0941	-0.034676794
62	0xbe8ca7d2	-0.27471787
63	0x3e011e52	0.12609223
64	0x3e01068b	0.12600152
65	0xbe5ba15d	-0.21448274
66	0x3e9a7225	0.3016521
67	0xbead6345	-0.338648
68	0x3e92036b	0.28518233
69	0xbeb4559d	-0.35221568
70	0x3e7ca192	0.24671009
71	0xbe059f69	-0.13049091
72	0x3d8a530c	0.06754121
73	0x3e774b03	0.24149708
74	0x3d833ee2	0.06408478
75	0x3e49fd05	0.19725426
76	0xbd6989fe	-0.057016365
77	0x3d164972	0.036691137
78	0xbe58456b	-0.21120231
79	0xbd7156bb	-0.058920603
80	0xbe7a7f76	-0.24462685
81	0xbe00bccf	-0.12572025
82	0xbd82ba94	-0.06383243
83	0x3e65412c	0.22388142
84	0x3e8e5e8a	0.27806503
85	0xbe1f8ff2	-0.15582255
86	0xbe9c0bee	-0.30477852
87	0xbdf621e4	-0.12018183
88	0x3e5b9176	0.21442208
89	0x3dafb1a0	0.08578801
90	0x3ea2a190	0.31763887
91	0xbe729a45	-0.23691662
92	0xbe8982b6	-0.26857537
93	0x3c851d68	0.016249374
94	0x3e3097fc	0.17245477
95	0xbd9d73e5	-0.07688121
96	0xbe4267a2	-0.18984845
97	0xbe5bd480	-0.21467781
98	0x3e8e0ce2	0.27744204
99	0xbebdb070	-0.37048674
100	0xbe0ef2de	-0.13959834
101	0x3de5bb5b	0.11217376
102	0xbe27fa01	-0.16403963
103	0x3cc46f3e	0.023978826
104	0x3bce603f	0.0062980945
105	0x3e67c513	0.22633772
106	0xbe33e255	-0.17566808
107	0xbe53f305	-0.20698173
108	0xbe988806	-0.29791278
109	0xbe3e2a46	-0.18570814
110	0xbe37e8a3	-0.17959838
111	0xbe84e13f	-0.259531
112	0xbe8cd801	-0.27508548
113	0xbe5e2a36	-0.2169579
114	0xbcbae783	-0.022815472
115	0xbed60b36	-0.41805428
116	0x3c1f5bb2	0.009726452
117	0x3db8f483	0.09031012
118	0xbe4f6e28	-0.20256865
119	0xbd618e60	-0.05506742
120	0x3e586416	0.2113193
121	0x3e5f7d32	0.21825102
122	0x3d1d00e2	0.03833092
123	0xbea27bd4	-0.31735098
124	0x3dc9cb61	0.098532446
125	0x3db0c3d0	0.08631098
126	0xbc27652c	-0.010216992
127	0x3e4565d9	0.19277133
128	0xbd98f6de	-0.07468961
129	0xbe9ebe90	-0.31004763
130	0xbdf02e68	-0.11727601
131	0xbe21c867	-0.15799104
132	0xbe7880cb	-0.2426788
133	0x3ea31cc6	0.3185789
134	0x3e3e2faa	0.1857287
135	0x3e124b30	0.14286494
136	0xbe4ebd29	-0.20189346
137	0x3e079bfd	0.13243099
138	0xbe99b89c	-0.30023658
139	0xbe9d5722	-0.3073054
140	0x3dfa3e8c	0.12218961
141	0x3cab8576	0.020937663
142	0x3da4c6df	0.08045744
143	0x3e012f9f	0.12615822
144	0xbe7ecb48	-0.24882233
145	0x3dcaa262	0.09894253
146	0x3bd7007f	0.0065613384
147	0x3ebd7f12	0.3701101
148	0x3edbe90c	0.42951238
149	0x3e999fff	0.3000488
150	0xbdf83b04	-0.12120631
151	0xbe88a3b2	-0.2668739
152	0xbe7eff26	-0.24902019
153	0x3dfa61f0	0.12225711
154	0x3e390ef2	0.18072107
155	0x3e0e5154	0.13898212
156	0x3da5d962	0.08098103
157	0x3e5f88b2	0.21829489
158	0x3e433366	0.19062576
159	0x3d91d178	0.07120031
160	0x3e15c8e5	0.14627416
161	0x3e05ecb4	0.13078576
162	0x3e3dc7d0	0.18533254
163	0xbdb976cb	-0.09055861
164	0xbe201a03	-0.15634923
165	0x3d24ba6f	0.04021686
166	0x3e57a06f	0.21057294
167	0xbe01a600	-0.1266098
168	0x3e974cb9	0.29550722
169	0xbe249d27	-0.16075574
170	0xbdee31fa	-0.11630626
171	0x3e6a8f75	0.22906287
172	0x3e109f46	0.14123258
173	0xbe88481f	-0.26617524
174	0x3ea3763d	0.31926146
175	0xbe8d15d6	-0.27555722
176	0x3e777b39	0.241681
177	0xbda69dc8	-0.08135563
178	0x3dc1a2eb	0.09454902
179	0xbea50653	-0.32231387
180	0x3c3bdd8d	0.011466396
181	0x3e814335	0.25246587
182	0x3ea449e7	0.32087633
183	0xbe73f9a1	-0.23825695
184	0xbe8bbedc	-0.27294052
185	0x3e2f6229	0.17127289
186	0x3e3fa9ca	0.18717113
187	0xbe81795c	-0.25287902
188	0xbe97a280	-0.29616165
189	0xbe82ca63	-0.25545034
190	0x3e5b0329	0.21387924
191	0x3e37b7db	0.17941229
192	0xbe6744d9	-0.22584857
193	0x3dcdc50d	0.1004735
194	0x3e3462a9	0.17615761
195	0xbdb60538	-0.08887714
196	0x3e440fd8	0.19146669
197	0x3db5a162	0.08868672
198	0xbeb5d6e0	-0.355155
199	0xbe8c587f	-0.27411267
200	0xbea534d6	-0.32266873
201	0xbdc19091	-0.09451402
202	0xbd974217	-0.073856525
203	0xbcc2e900	-0.023792744
204	0xbc595933	-0.013265896
205	0xbe0fba82	-0.14035991
206	0xbe2a9533	-0.16658477
207	0xbe7d46b1	-0.24733998
208	0x3e003c18	0.12522924
209	0xbde44f2c	-0.11147913
210	0xbe02dc43	-0.12779336
211	0x3e560e86	0.20903978
212	0xbeb32b1a	-0.3499382
213	0xbc4ea989	-0.0126136625
214	0x3d1b016f	0.037843164
215	0x3e6c3a83	0.23069195
216	0xbe4cbcf6	-0.19993958
217	0xbdb6b5ef	-0.0892142
218	0x3e3bb918	0.18332326
219	0xbe7797ad	-0.24178953
220	0xbcb18c0c	-0.021673225
221	0xbe0b5e1a	-0.13610116
222	0xbe71b664	-0.23604733
223	0xbe7341f7	-0.23755632
224	0x3e6ca517	0.23109852
225	0xbe7a8e66	-0.24468383
226	0xbe9d0bd9	-0.30673102
227	0xbe200e84	-0.15630537
228	0xbdc0f66f	-0.094220035
229	0x3e83db04	0.25753033
230	0x3e5fd45f	0.21858357
231	0x3d8f1842	0.06987049
232	0x3de90385	0.113776244
233	0x3daf4fd3	0.08560147
234	0xbe823291	-0.25429204
235	0xbe83ae7a	-0.25719053
236	0x3d8915c5	0.06693605
237	0x3e5384fb	0.20656197
238	0x3e61e140	0.22058582
239	0xbb64b001	-0.0034894946
240	0x3e48fbb0	0.19627261
241	0x3de04608	0.109508574
242	0x3e6a4fb5	0.22881968
243	0xbe28e790	-0.16494584
244	0xbe8a4f2e	-0.27013534
245	0xbe45dfd6	-0.19323668
246	0x3e396dca	0.18108287
247	0x3e766fed	0.24066134
248	0x3dbcf889	0.09227092
249	0xbde44a0d	-0.111469366
250	0x3e43b9ca	0.19113842
251	0x3e664c36	0.2249001
252	0xbe0713df	-0.13191174
253	0x3d8b162e	0.0679134
254	0x3d80ea98	0.06294745
255	0xbeaba507	-0.33524343

conv1.bias f4 [32]
0	0x3b3021b8	0.0026875567
1	0xbe7e8682	-0.24855998
2	0xbe89d601	-0.26921085
3	0xbec0d03f	-0.3765888
4	0xbe7ccb3a	-0.246869
5	0xbe56a27c	-0.2096042
6	0x3e9bcbed	0.3042902
7	0xbe17b53a	-0.14815226
8	0x3dbb7a8c	0.09154233
9	0xbd439375	-0.047748048
10	0xbda673c7	-0.081275515
11	0x3e436872	0.19082811
12	0x3e0a22d2	0.13489845
13	0x3e35b0d8	0.17743242
14	0xbb93bb4c	-0.0045084115
15	0x3e51b815	0.20480378
16	0x3e62f0a8	0.22162116
17	0x3df4940c	0.119423
18	0x3e4efb1f	0.20212983
19	0x3e6b8ade	0.23002192
20	0xbe24445e	-0.16041705
21	0x3e41cd6e	0.18926021
22	0xbcf5659b	-0.029955676
23	0xbe644cce	-0.22294924
24	0xbe1f601b	-0.15564005
25	0xbd277cef	-0.04089063
26	0xbcd9393d	-0.026516551
27	0x3ddbb9dc	0.10728809
28	0x3e80403c	0.25049007
29	0xbe597951	-0.21237685
30	0x3d804617	0.062633686
31	0xbaf2b3e4	-0.0018516746

bn1.weight f4 [32]
0	0x3f6288f0	0.884902
1	0x3f4f9037	0.8107943
2	0x3f6ad49a	0.91730654
3	0x3f960f54	1.1723428
4	0x3f689aa2	0.9086095
5	0x3f981a2c	1.1882987
6	0x3f76454b	0.9619948
7	0x3f73f443	0.9529459
8	0x3f825bc9	1.0184261
9	0x3f88d150	1.0688877
10	0x3f6b137a	0.91826594
11	0x3f3a3205	0.72732574
12	0x3f3bd154	0.73366284
13	0x3f592d0d	0.8483437
14	0x3f6ceed6	0.92551935
15	0x3f819712	1.0124228
16	0x3f71168d	0.94175035
17	0x3f6a2468	0.914618
18	0x3f93f139	1.155799
19	0x3f67c949	0.9054151
20	0x3f60b8dc	0.87782073
21	0x3f7e044a	0.99225295
22	0x3f4bc603	0.79599017
23	0x3f49c796	0.7882017
24	0x3f3830bd	0.7194937
25	0x3f99781f	1.1989783
26	0x3f6053f4	0.876281
27	0x3f8ba057	1.0908307
28	0x3f88097c	1.0627894
29	0x3f692ad1	0.9108096
30	0x3f8c6630	1.0968685
31	0x3f57cf99	0.84301144

bn1.bias f4 [32]
0	0xbe30f65f	-0.17281483
1	0xbc9c9f1c	-0.019118838
2	0xbe335f23	-0.1751676
3	0xbd412582	-0.04715491
4	0xbd14a961	-0.036294345
5	0xbda7c957	-0.081926994
6	0x3ed1ab83	0.40951166
7	0x3d666573	0.056249093
8	0x3d188d52	0.03724415
9	0x3d0b5a5e	0.034021728
10	0xbc917197	-0.01775436
11	0xbdcd17a6	-0.10014276
12	0xbd8c44ed	-0.06849084
13	0xbe28ebc2	-0.16496184
14	0xbd92a3b1	-0.07160128
15	0xbd9f1390	-0.07767403
16	0xbe9867d8	-0.29766726
17	0xbebb142f	-0.36538836
18	0xbceaf7c1	-0.028682591
19	0x3b01c2e6	0.0019800006
20	0xbe42c802	-0.1902161
21	0xbe914229	-0.2837079
22	0xbe9861ec	-0.29762208
23	0xbe5c68f9	-0.21524419
24	0xbc24afd7	-0.010051689
25	0x3ea2f7b2	0.31829602
26	0xbe9cee25	-0.3065044
27	0xbe07b399	-0.13252105
28	0xbe2c59c1	-0.16831113
29	0x3e0572dd	0.13032098
30	0xbe4c098b	-0.19925515
31	0x3d38816a	0.045045294

bn1.running_mean f4 [32]
0	0x3ca45720	0.020061076
1	0xbe6e882c	-0.23294133
2	0xbe88d4bb	-0.267248
3	0xbeb7eafc	-0.35921466
4	0xbe8024e1	-0.25028136
5	0xbe32be33	-0.17455368
6	0x3e9c0555	0.30472818
7	0xbe151764	-0.14559704
8	0x3df25e94	0.118344456
9	0xbd463529	-0.04839054
10	0xbdba0530	-0.09083021
11	0x3e300258	0.17188394
12	0x3dda39cd	0.10655556
13	0x3e2f7d33	0.17137603
14	0xbab397fb	-0.001370191
15	0x3e50a5b2	0.20375708
16	0x3e6708d1	0.22561957
17	0x3e0d8497	0.1382011
18	0x3e49939c	0.19685215
19	0x3e7702a6	0.24122104
20	0xbdfcb15b	-0.12338515
21	0x3e44ebc9	0.1923057
22	0xbd9934e2	-0.0748079
23	0xbe755705	-0.23958977
24	0xbe22c56d	-0.15895624
25	0xbda67f8c	-0.081297964
26	0xbd66293a	-0.05619166
27	0x3d8a8d00	0.06765175
28	0x3e7c63ba	0.24647418
29	0xbe5641f2	-0.20923594
30	0x3da24c70	0.079247355
31	0x3ce6d298	0.02817659

bn1.running_var f4 [32]
0	0x3e1c2818	0.1524967
1	0x3ddebb9e	0.10875629
2	0x3d36a99a	0.04459534
3	0x3d1360bb	0.03598092
4	0x3e040339	0.12891854
5	0x3e0e19d8	0.13877046
6	0x3d7fba87	0.062433746
7	0x3cd01601	0.025401117
8	0x3da7f887	0.082017
9	0x3c4e0ec8	0.012576766
10	0x3d34f862	0.04418219
11	0x3ec654de	0.38736624
12	0x403526c7	2.8304918
13	0x3d6cda18	0.057825178
14	0x3dcf1e80	0.10113239
15	0x3d994724	0.07484272
16	0x3e91ab6c	0.28451097
17	0x3fadd5a9	1.3580829
18	0x3cf7f19e	0.03026658
19	0x3d6173b7	0.055041995
20	0x3dce49de	0.10072683
21	0x3e1ecd0e	0.1550791
22	0x3fd85257	1.6900128
23	0x3db6873a	0.08912511
24	0x3f03a14a	0.5141798
25	0x3da7f64b	0.082012735
26	0x3ea81a69	0.3283265
27	0x3dfc83a4	0.12329796
28	0x3ceb1afa	0.028699387
29	0x3ca4f7c1	0.02013767
30	0x3e308b63	0.17240672
31	0x3dbc6181	0.09198285

conv2.weight f4 [64, 32, 3, 3]
0	0xbdbfa089	-0.093567915
1	0xbcc541fb	-0.024079314
2	0xbcf4840c	-0.029848121
3	0xbcbacf6b	-0.022803983
4	0x3d48785b	0.048942905
5	0x3c1368dd	0.008997169
6	0xbdcc48ca	-0.09974821
7	0x3bac81b8	0.005264487
8	0xbd707507	-0.058705356
9	0xbd320c37	-0.04346868
10	0xbe296b80	-0.16544914
11	0xbd71eac6	-0.059061788
12	0x3d3f3ec2	0.04669071
13	0xbdc53890	-0.09629929
14	0xbce78000	-0.028259277
15	0x3df7d61f	0.12101387
16	0x3d9d5808	0.07682806
17	0xbb0193d2	-0.0019771946
18	0xbbab88b8	-0.005234804
19	0x3cac31ef	0.021019904
20	0x3bec7981	0.007216633
21	0xbcd75175	-0.026283959
22	0xbd0398c4	-0.03212811
23	0x3ca5558e	0.020182397
24	0xbc418c6d	-0.011813265
25	0xbc0e9a4b	-0.0087037785
26	0x3d5fc953	0.054635357
27	0xbc508070	-0.012725934
28	0xbccd5157	-0.0250632
29	0xbd9c12fc	-0.076208085
30	0xbdd9d941	-0.10637141
31	0xbdb9b058	-0.09066838
32	0xbde66438	-0.11249584
33	0xbd019e2b	-0.03164498
34	0xbdfe0324	-0.12402943
35	0xbd3e4640	-0.046453714
36	0xbe4c2479	-0.19935788
37	0xbe04f6fd	-0.12984844
38	0xbdf37826	-0.11888151
39	0xbe1c91da	-0.15290013
40	0xbe256651	-0.16152312
41	0xbe04244e	-0.12904474
42	0xbd07ac8c	-0.033123538
43	0x3d51cfbf	0.051223513
44	0xbc8c4bfd	-0.017126078
45	0x3e27db16	0.16392168
46	0x3d9f42d3	0.077764176
47	0xbccb88af	-0.02484545
48	0xbe006041	-0.12536718
49	0xbdf20c73	-0.11818781
50	0xbe5d38c8	-0.21603692
51	0x3c4f23a1	0.012642772
52	0xbda25510	-0.07926381
53	0xbdd8e9c4	-0.10591462
54	0x3dba8c42	0.09108783
55	0x3c92ad6a	0.017904956
56	0xbda318c2	-0.079637066
57	0xbdca5ea9	-0.09881336
58	0xbd20563f	-0.03914475
59	0xbc6ceb72	-0.014460431
60	0xbd6fdfa3	-0.058562886
61	0xbc8ed195	-0.01743392
62	0xbd1cd1c4	-0.038285986
63	0x3d7db980	0.061944485
64	0x3dedd537	0.11612933
65	0x3c912c90	0.017721444
66	0xbd28a3c9	-0.041171823
67	0x3c676e35	0.0141253965
68	0xbd1b5a50	-0.037927926
69	0x3c81b4c1	0.01583326
70	0xbd050ac0	-0.032480955
71	0xbd181f06	-0.03713896
72	0x3e277930	0.16354823
73	0x3d61b4e2	0.055104144
74	0xbc5151d2	-0.012775855
75	0x3d6f57fd	0.05843352
76	0xbd3e5e95	-0.04647692
77	0xbdd6b08e	-0.10482894
78	0xbd413284	-0.047167316
79	0xbd1172c9	-0.03550986
80	0xbcc6e5aa	-0.024279434
81	0x3d9bfa90	0.076161504
82	0xbd446954	-0.04795201
83	0xbdce45ae	-0.10071884
84	0x3dc92921	0.09822298
85	0x3d5b1732	0.053488918
86	0xbcf10790	-0.029422551
87	0x3c114520	0.008866578
88	0x3d744f44	0.059645906
89	0xbd4bef50	-0.049788773
90	0xbcfcaa51	-0.030842932
91	0xbd0109cb	-0.03150348
92	0x3cdbecb9	0.026846277
93	0xbc13020c	-0.008972656
94	0xbccd5e78	-0.02506946
95	0x3db2ceb1	0.087308295
96	0x3d7d1afd	0.061793316
97	0x3d1ff5ec	0.03905289
98	0xbaa8f83c	-0.0012891362
99	0xbe160f1c	-0.14654201
100	0xbd598756	-0.053107582
101	0xbd3a8860	-0.045540214
102	0xbca662fd	-0.020310873
103	0x3b6ceaad	0.003615062
104	0xbcf068d1	-0.029346855
105	0xbbab73fa	-0.0052323313
106	0x3bb52195	0.005527685
107	0x3dc4e99c	0.0961487
108	0xbd8d1bb3	-0.06890049
109	0xbde2afd5	-0.110686935
110	0xbbed1475	-0.0072351047
111	0xb839d5ec	-4.4306667e-05
112	0xbd0713e0	-0.03297794
113	0x3cd136b5	0.025538782
114	0x3d8fd507	0.070230536
115	0x3d188a2c	0.037241146
116	0x3d6b090e	0.057381682
117	0x3cc1ddbf	0.023665307
118	0x3cd5fc9f	0.026121436
119	0xbd649a4b	-0.055811208
120	0xbd5c4888	-0.05378011
121	0xbdbc2089	-0.09185893
122	0xbc3e8d94	-0.011630435
123	0x3dd271cd	0.10275612
124	0x3da706f5	0.08155624
125	0x3d53dca7	0.051724102
126	0xbd33d490	-0.043903887
127	0xbdd6d237	-0.10489314
128	0xbcb0fdb0	-0.021605343
129	0xbd8574b3	-0.06516399
130	0xbd623cf3	-0.055233907
131	0xbcd5fbe6	-0.026121091
132	0x3d857c57	0.065178566
133	0xbc32abb6	-0.010905197
134	0x3baf16d8	0.0053432994
135	0xbdcdedc4	-0.10055116
136	0xbe403106	-0.18768701
137	0xbd847c5e	-0.06469034
138	0xbda546db	-0.08070155
139	0xbd8ab71a	-0.06773205
140	0x3b9c7566	0.004774737
141	0x3cd1910b	0.025581857
142	0xbd0c913f	-0.034318205
143	0x3dcc0c94	0.099633366
144	0xbc782e50	-0.0151477605
145	0xbdabcc2e	-0.083885536
146	0xbd877888	-0.066147864
147	0xbd203023	-0.039108407
148	0xbd730b3c	-0.059336886
149	0xbd7a1322	-0.061053403
150	0x3e092c86	0.1339589
151	0x3e20d556	0.15706381
152	0x3d8f96ee	0.070112094
153	0xbd97a382	-0.074042335
154	0xbc81b701	-0.015834333
155	0xbdf78a71	-0.120869525
156	0x3ca7bd97	0.020476146
157	0x3d2c677d	0.04209088
158	0x3d188937	0.037240233
159	0x3df52c11	0.119712956
160	0x3de7d741	0.11320353
161	0x3de74d99	0.112940975
162	0x3d8777b6	0.0661463
163	0xbca0422a	-0.0195628
164	0x3d551227	0.052019265
165	0xbd6e910d	-0.0582438
166	0x3d15385f	0.036430713
167	0xbb841994	-0.0040313695
168	0xbd926350	-0.071478486
169	0x3ccabab0	0.024747223
170	0x3d9ddc83	0.07708075
171	0x3c9b3d13	0.01895002
172	0x3d44be40	0.048033
173	0x3ddb767c	0.107159585
174	0xbc42f3a2	-0.011898907
175	0xbcc7357b	-0.024317494
176	0x3ad73fdb	0.0016422229
177	0xbd27d9c5	-0.040979166
178	0xbba434d8	-0.0050111823
179	0xbd2621c6	-0.040559553
180	0x3c65c470	0.014023885
181	0xbd86ce60	-0.06582332
182	0xbc5baaad	-0.0134073915
183	0x3cc74382	0.024324182
184	0xbbff7b06	-0.007796648
185	0xbc827025	-0.015922615
186	0x3c313584	0.010815982
187	0xbd7fdaa2	-0.062464364
188	0xbd4bae34	-0.04972668
189	0xbdc5794b	-0.096422754
190	0xbe26065a	-0.1621336
191	0xbd518185	-0.05114891
192	0xbd695eef	-0.0569753
193	0xbd600c5d	-0.05469929
194	0x3cf8ed69	0.030386643
195	0x3d873133	0.06601181
196	0x3d87c4e1	0.066293485
197	0xbcbf5e13	-0.023360288
198	0xbe1c1f6d	-0.15246363
199	0xbe26fc14	-0.16307098
200	0xbd409d20	-0.047024846
201	0xbe044b7a	-0.12919417
202	0xbd95a810	-0.07307446
203	0xbd78aa8c	-0.06070952
204	0x3c8bb2bd	0.017053002
205	0xbd1f908d	-0.038956214
206	0xbca8980f	-0.02058032
207	0xbdb59057	-0.08865421
208	0xbd2d59f8	-0.04232213
209	0xbd8bba4d	-0.068226434
210	0xbe10b6b7	-0.141322
211	0xbdbc1c4a	-0.09185083
212	0xbe009e97	-0.12560497
213	0x3baca58b	0.0052687577
214	0x3cc1cd29	0.023657398
215	0x3d4f9f60	0.0506891
216	0xbcbd12e3	-0.023080295
217	0xbd1ad4ac	-0.037800476
218	0xbd9f27fe	-0.077713
219	0xbce89770	-0.028392524
220	0xbc6a5975	-0.014303555
221	0xbc1cbcd1	-0.009566502
222	0x3d7de9dc	0.061990604
223	0xbca9be8f	-0.020720748
224	0x3ce35e49	0.02775492
225	0x3c2bc9ae	0.010485096
226	0xbc0436d1	-0.00806971
227	0x3cf44a92	0.029820714
228	0x3d1f2bb4	0.038860038
229	0xbccfc342	-0.02536166
230	0xbc1e3005	-0.009655003
231	0x3d5e6633	0.054296684
232	0x3d3d87ae	0.046271972
233	0x3c3c3b4a	0.011488745
234	0x3ceb69e8	0.028737023
235	0xbd9671f4	-0.073459536
236	0xbd64eb63	-0.055888545
237	0x3dae7837	0.08519023
238	0x3d49d997	0.049279775
239	0x3d157acc	0.03649406
240	0x3dfee912	0.124467984
241	0x3e1e8597	0.15480648
242	0x3dc6339d	0.09677813
243	0x3c2322a4	0.009956989
244	0xbd92327b	-0.07138535
245	0xbc0f700d	-0.008754742
246	0x3cbcb63c	0.023036115
247	0xbd0bea10	-0.034158766
248	0xbb92105f	-0.004457518
249	0x3d75783e	0.059929125
250	0x3de54ef9	0.111967035
251	0x3da80668	0.08204347
252	0xbd2d0cd8	-0.042248577
253	0xbd9ccd70	-0.076563716
254	0xbd956324	-0.072943
255	0x3d245f28	0.04012981

conv2.bias f4 [64]
0	0x3d14c3a1	0.03631938
1	0x3bd91a2d	0.006625435
2	0xbd4cd588	-0.050008327
3	0x3d604881	0.054756645
4	0x3cc6763e	0.024226304
5	0x3cf0e247	0.029404772
6	0x3d32a6f0	0.043616235
7	0x3d6ea0f6	0.058258973
8	0xbb0a7f8e	-0.0021133157
9	0xbcb6275c	-0.022235565
10	0x3d4b6fe7	0.049667265
11	0xbd3a6f33	-0.045516204
12	0x3d6d4f1f	0.057936784
13	0x3bcbe882	0.0062227855
14	0xbd187894	-0.037224367
15	0x3b438320	0.0029832795
16	0xbd71d86b	-0.059044283
17	0xbd170605	-0.036870975
18	0x3cfe92d2	0.031075869
19	0x3c35f115	0.011104842
20	0x3b56d658	0.0032781567
21	0xbcc9c841	-0.024631621
22	0x3cf055fe	0.02933788
23	0x3d81b7bf	0.06333875
24	0x3c96c1c7	0.018402947
25	0x3a63b673	0.000868655
26	0xbcde86cd	-0.027163887
27	0xbc6f289f	-0.014597087
28	0xbc6099b9	-0.013708525
29	0x3d1a9fd2	0.037750073
30	0x3d0d6e33	0.034528922
31	0x3d332e5f	0.043745395
32	0xbd3b4d39	-0.045727942
33	0xbcbf268a	-0.023333807
34	0xbbef7c11	-0.007308491
35	0xbcd39a85	-0.025830517
36	0x3da4b8c1	0.080430515
37	0xbbd5f480	-0.006529391
38	0xbd4d9b47	-0.050196912
39	0x3d41e03d	0.04733299
40	0x3c393873	0.011304962
41	0x3caf705a	0.021415878
42	0xbd99b0c7	-0.07504421
43	0x3d112472	0.035435148
44	0x3b63afaa	0.0034742155
45	0x3dc82755	0.09773127
46	0x3bb1cf93	0.005426356
47	0xbce3b091	-0.027794154
48	0xbcc06b72	-0.023488734
49	0x3cc87043	0.024467593
50	0x3c2935f0	0.010327801
51	0xbd9462ac	-0.07245383
52	0xbc910922	-0.01770455
53	0x3d1afe35	0.037840087
54	0x3d2a03af	0.04150742
55	0x3d24c9a6	0.04023137
56	0xbca1ccbd	-0.019750947
57	0xbcfb35ed	-0.030665362
58	0xbd18dbfe	-0.037319176
59	0x3d4cddce	0.050016217
60	0xbd3d22f4	-0.046175912
61	0xbc432834	-0.011911441
62	0xbc9838d9	-0.018581795
63	0xbc754c01	-0.014971734

bn2.weight f4 [64]
0	0x3f81ec03	1.015015
1	0x3f804f92	1.0024283
2	0x3f7c35dc	0.9851968
3	0x3f594e2e	0.8488492
4	0x3f798b95	0.9747861
5	0x3f796cfa	0.9743191
6	0x3f440e9a	0.7658478
7	0x3f3a9b83	0.7289354
8	0x3f71addd	0.9440592
9	0x3f60c8fd	0.87806684
10	0x3f75fbbe	0.96087253
11	0x3f883a3d	1.0642773
12	0x3f7a7815	0.9783948
13	0x3f7d65ad	0.9898327
14	0x3f89bd8f	1.0760974
15	0x3f796675	0.9742196
16	0x3f7e1db0	0.9926405
17	0x3f8861d8	1.065486
18	0x3f7db1d3	0.99099463
19	0x3f711e3b	0.94186753
20	0x3f670d8f	0.90255064
21	0x3f5a62ae	0.85306823
22	0x3f6e8480	0.9317093
23	0x3f6c408e	0.92286
24	0x3f59052c	0.84773517
25	0x3f91bc64	1.1385617
26	0x3f7deb55	0.99187213
27	0x3f831579	1.0240928
28	0x3f7def19	0.9919296
29	0x3f6efba7	0.9335274
30	0x3f4a1bb2	0.7894851
31	0x3f7bf966	0.98427427
32	0x3f7da256	0.9907583
33	0x3f809b9c	1.0047488
34	0x3f4c8fb3	0.7990677
35	0x3f685eb0	0.9076948
36	0x3f8593b9	1.0435706
37	0x3f5a678c	0.8531425
38	0x3f6cc472	0.9248725
39	0x3f6d2cc7	0.9264645
40	0x3f70286e	0.9381169
41	0x3f85fd38	1.0467901
42	0x3f93267e	1.1496122
43	0x3f829b25	1.0203596
44	0x3f840286	1.031327
45	0x3f842bbe	1.0325849
46	0x3f74d43d	0.9563635
47	0x3f809e99	1.00484
48	0x3f6da78a	0.9283377
49	0x3f7a913c	0.9787786
50	0x3f891976	1.0710895
51	0x3f8021cc	1.0010314
52	0x3f74d727	0.95640796
53	0x3f68e0c5	0.9096797
54	0x3f8438f7	1.0329884
55	0x3f707bde	0.93939006
56	0x3f802264	1.0010495
57	0x3f69b834	0.91296697
58	0x3f72d7ec	0.9486072
59	0x3f81e6bf	1.0148543
60	0x3f6d11f0	0.92605495
61	0x3f8a5578	1.0807333
62	0x3f88ceab	1.068807
63	0x3f3f0628	0.7461877

bn2.bias f4 [64]
0	0xbe3b38e7	-0.18283425
1	0xbe3f7bd5	-0.18699582
2	0xbeb1b564	-0.34708703
3	0xbee32976	-0.4436757
4	0xbe5dcafc	-0.21659464
5	0xbef7f45a	-0.48428613
6	0xbed33770	-0.41253233
7	0xbe9a0577	-0.30082294
8	0xbe92d4b2	-0.286779
9	0xbed35c11	-0.4128118
10	0xbdc32ff6	-0.09530632
11	0xbe0262e2	-0.12733033
12	0xbf0cb776	-0.5496744
13	0xbea64478	-0.32474113
14	0xbe5b2e1f	-0.21404313
15	0xbe846321	-0.2585688
16	0xbe8e2963	-0.2776595
17	0xbebea800	-0.3723755
18	0xbe2dbb0c	-0.16965884
19	0xbea45d4e	-0.32102436
20	0xbe7f8186	-0.24951753
21	0xbeb14d3f	-0.34629247
22	0xbe111d3a	-0.14171305
23	0xbeca6af2	-0.39534718
24	0xbdef74ff	-0.11692237
25	0xbdbbe728	-0.09174949
26	0xbe67acca	-0.22624508
27	0xbe468986	-0.19388399
28	0xbe8acbb5	-0.2710854
29	0xbe7b0998	-0.24515378
30	0xbe9dee18	-0.30845714
31	0xbec0d2ce	-0.3766083
32	0xbe4842c9	-0.19556727
33	0xbeff800e	-0.49902385
34	0xbec61af7	-0.38692448
35	0xbe97e24d	-0.2966484
36	0xbe5c6da5	-0.21526201
37	0xbead8428	-0.3388989
38	0xbec5e58d	-0.38651696
39	0xbeb81ef0	-0.35961103
40	0xbe108f91	-0.14117266
41	0xbe2b9a33	-0.16758041
42	0xbe0357c0	-0.12826443
43	0xbeba800f	-0.36425826
44	0xbe39d74d	-0.18148537
45	0xbf00ff65	-0.503897
46	0xbe2625e2	-0.16225389
47	0xbe2e600b	-0.17028825
48	0xbe83535f	-0.25649545
49	0xbe3e62b2	-0.18592337
50	0xbf0ff4be	-0.5623282
51	0xbe0c7d3c	-0.13719648
52	0xbd95175e	-0.072798476
53	0xbe9ef8ea	-0.3104928
54	0xbe03635c	-0.12830871
55	0xbe432872	-0.19058397
56	0xbe5804ab	-0.2109553
57	0xbeccbfff	-0.3999023
58	0xbec5d3ce	-0.38638157
59	0xbea2087b	-0.31647095
60	0xbea5b361	-0.32363418
61	0xbe8afe62	-0.27147204
62	0xbc4b3afa	-0.012404198
63	0xbecc26ba	-0.39873296

bn2.running_mean f4 [64]
0	0xbfcba516	-1.5909755
1	0xbfee4bff	-1.8616942
2	0xc0328b46	-2.7897506
3	0x3f356639	0.70859104
4	0xbfb1a065	-1.3877074
5	0xbf9d771c	-1.2301974
6	0x3f9c470f	1.2209185
7	0xc0859c97	-4.175365
8	0xc01bfbf7	-2.4372537
9	0xbf9f0cd9	-1.2425796
10	0xc027d874	-2.6225863
11	0xbf8a0a19	-1.0784332
12	0xc00e0f26	-2.2196746
13	0xc043945a	-3.0559297
14	0xbffbc5af	-1.9669703
15	0xc062c6a4	-3.543374
16	0xc01d8512	-2.461247
17	0xc00a3f63	-2.1601188
18	0xc00734ac	-2.1125898
19	0xbfa4de30	-1.2880306
20	0xbfa9dd07	-1.3270577
21	0xbebc3863	-0.3676177
22	0xc02a49b3	-2.6607482
23	0x402cd641	2.700577
24	0x3fc3e44a	1.5304043
25	0xc01a72c1	-2.413254
26	0xbfaf1829	-1.3679248
27	0xc00b3702	-2.1752324
28	0xbf8ba3fc	-1.0909419
29	0xbfe81f7f	-1.8134612
30	0xbf97ffd4	-1.1874948
31	0xbf9d1901	-1.2273256
32	0xc01d22fc	-2.4552603
33	0xbed3eed6	-0.41393155
34	0x3ebc65be	0.36796373
35	0xc08c76b7	-4.3894916
36	0xc020d684	-2.513093
37	0xbf9ec72d	-1.2404534
38	0xbfaabb6c	-1.3338447
39	0xc049dc28	-3.1540623
40	0xc0013101	-2.018616
41	0xbff49e9e	-1.9110906
42	0xc0218e83	-2.5243232
43	0xbfd72568	-1.680829
44	0xbfc863d2	-1.5655463
45	0xbf9a224d	-1.2041718
46	0xc0707d89	-3.757662
47	0xc031537b	-2.7707202
48	0xc01048de	-2.2544475
49	0xc0771827	-3.8608491
50	0xbf828765	-1.0197569
51	0xbf698e2f	-0.9123258
52	0xbfb79520	-1.4342384
53	0xbfb5a2ae	-1.4190271
54	0xc02b8c6b	-2.6804454
55	0xc01ce829	-2.45167
56	0xbffccdaf	-1.975027
57	0xbfef5f76	-1.8701007
58	0xbfd83cc7	-1.6893548
59	0xc0337ff2	-2.8046842
60	0xbf8f4beb	-1.1195043
61	0xc01fc180	-2.4961853
62	0xbf9e4e55	-1.2367655
63	0xbff692d8	-1.9263563

bn2.running_var f4 [64]
0	0x406846eb	3.6293285
1	0x40377924	2.8667688
2	0x40d572ca	6.6702623
3	0x40007604	2.007203
4	0x404b3530	3.1751213
5	0x40860edd	4.1893144
6	0x4100cb80	8.049683
7	0x41966418	18.798874
8	0x4051d3d9	3.2785552
9	0x407b2ae9	3.924494
10	0x408cd077	4.4004474
11	0x4031e285	2.7794507
12	0x4095d874	4.6826725
13	0x40da9700	6.8309326
14	0x40cfc0e4	6.492296
15	0x40a89c44	5.2690754
16	0x40dd1996	6.9093733
17	0x40d73635	6.725367
18	0x40861e3d	4.191191
19	0x40bd1f25	5.910052
20	0x401a95e3	2.4153984
21	0x404b3d6a	3.1756234
22	0x4114ea4f	9.307204
23	0x408e1e12	4.4411707
24	0x401dd05d	2.4658425
25	0x40ddeaeb	6.9349265
26	0x401a1602	2.4075933
27	0x409118fd	4.5343003
28	0x40ffd14b	7.9942985
29	0x40e2d9b9	7.0890775
30	0x40781a48	3.876604
31	0x400b13e8	2.17309
32	0x40d9c991	6.8058553
33	0x4029805a	2.648459
34	0x40432d69	3.0496466
35	0x4147be1f	12.483916
36	0x409efb8a	4.9682055
37	0x404b8256	3.17983
38	0x41083fda	8.515589
39	0x408f6ac0	4.481781
40	0x40ce4c9e	6.4468527
41	0x40770e56	3.86025
42	0x409da9cb	4.9269767
43	0x40877e44	4.2341633
44	0x409f122d	4.9709687
45	0x400a126f	2.157375
46	0x40c13b04	6.038454
47	0x41016897	8.088035
48	0x4127084b	10.439525
49	0x418a9b5f	17.325865
50	0x4015e3c7	2.3420274
51	0x4080b702	4.02234
52	0x408eb559	4.459637
53	0x40617df4	3.5233126
54	0x40930339	4.5941434
55	0x40b65e8b	5.699041
56	0x405e7fca	3.4765496
57	0x40bbc272	5.867486
58	0x4085dffc	4.183592
59	0x4070acb4	3.760541
60	0x3fd46449	1.6593105
61	0x408e7df1	4.4528737
62	0x40832d95	4.099314
63	0x40d5f519	6.686169

conv3.weight f4 [128, 64, 3, 3]
0	0xbde54fed	-0.11196885
1	0xbdd0b8da	-0.10191508
2	0xbe147cc5	-0.14500721
3	0x3d9e5ab3	0.07732143
4	0xbcf1d599	-0.029520797
5	0x3d2b2ece	0.041792683
6	0xbc8e8f33	-0.017402267
7	0x3c3742c2	0.01118535
8	0xbca6624e	-0.020310547
9	0xbcfc9ca5	-0.030836413
10	0x3d01ea83	0.03171779
11	0x3c392cc6	0.011302179
12	0x3b7746f4	0.00377315
13	0x3d1c0a92	0.038096018
14	0xbae1f895	-0.0017240221
15	0x3b4a290d	0.0030847222
16	0xbcc25bd8	-0.023725435
17	0x3c2780e3	0.0102236
18	0x3e1b2db2	0.1515415
19	0x3e3ad2e5	0.18244512
20	0x3e622594	0.22084647
21	0x3d5bc886	0.05365803
22	0x3dd744ed	0.105111934
23	0x3d9f91c8	0.077914774
24	0x3c09c92b	0.008409779
25	0x3c0fdf63	0.008781287
26	0x3d80efcd	0.06295738
27	0xbd642762	-0.05570162
28	0x3d079ee9	0.033110533
29	0x3d028154	0.03186162
30	0xbdfda58a	-0.1238509
31	0xbd3edc6f	-0.04659694
32	0xbd8a04f3	-0.06739225
33	0xbdfcb8da	-0.12339945
34	0xbda5d725	-0.08097676
35	0xbda9f040	-0.08297777
36	0xb9b73d6e	-0.0003495025
37	0x3c9a1964	0.018810935
38	0xbd1d5364	-0.038409606
39	0x3824e15c	3.931053e-05
40	0xbd09d121	-0.033646706
41	0xbd1ee7f5	-0.03879543
42	0x3cadd0f3	0.021217799
43	0x3d03ec51	0.03220779
44	0x3d82d243	0.063877605
45	0x3dc46110	0.09588826
46	0x3d75e82f	0.06003588
47	0x3dac9a4d	0.08427868
48	0xbaaa5bfd	-0.0012997385
49	0x3d5143a9	0.051089916
50	0x3d8ff974	0.07030001
51	0x3cdd5d45	0.027022013
52	0x3d153b82	0.036433704
53	0x3da2171f	0.07914566
54	0x3d0cd682	0.034384258
55	0x3caeb105	0.021324644
56	0x3d00e9ac	0.031472847
57	0xbd5dedf4	-0.054182008
58	0xbd2ee1be	-0.042695753
59	0xbce0a76e	-0.027423587
60	0xbd28c182	-0.04120017
61	0xbd1dd891	-0.038536612
62	0xbd6cbafb	-0.057795506
63	0x3a157911	0.0005701939
64	0x3c934f50	0.017982155
65	0x3d58ddd9	0.052945945
66	0x3d36d2fe	0.04463481
67	0x3da0fcc1	0.07860709
68	0x3c73a4ef	0.014870866
69	0xbcdfbbe9	-0.027311282
70	0xb828e925	-4.0271454e-05
71	0x3d029009	0.031875644
72	0x3c857b44	0.01629413
73	0x3dab7dee	0.083736286
74	0xbc9e348f	-0.019312171
75	0xbd6f630f	-0.05844408
76	0x3d531a7a	0.051538922
77	0xbd837f35	-0.06420747
78	0xbd6b9ec9	-0.057524476
79	0xbc835843	-0.016033297
80	0xbd59a437	-0.053135123
81	0x3d2abd21	0.041684274
82	0xbbbf900f	-0.0058460305
83	0xbc110a56	-0.008852562
84	0xbda0e282	-0.07855703
85	0xbdae6031	-0.08514441
86	0xbd5edcd6	-0.054409824
87	0x3d9341f0	0.07190311
88	0xbbfdbb35	-0.007743264
89	0x3d37f79c	0.044913873
90	0xbd3dbb7f	-0.04632139
91	0xbc8a4a55	-0.016881147
92	0xbce5d704	-0.028056629
93	0xbdbf2f7b	-0.09335228
94	0xbe012e7c	-0.12615389
95	0xbd4adeff	-0.049529072
96	0xbdf43ffc	-0.119262666
97	0xbd60fc40	-0.054928064
98	0xbd222805	-0.039588947
99	0x3dd9c18c	0.10632619
100	0x3d5487dd	0.05188738
101	0x3dafefed	0.08590684
102	0x3d18acc9	0.037274156
103	0x3d82c0ee	0.06384455
104	0x3d8b8998	0.06813353
105	0xbd446f50	-0.04795772
106	0xbd9fb3f0	-0.07797992
107	0xbc95cb94	-0.01828555
108	0x3d601627	0.054708626
109	0x3cc8b017	0.024498029
110	0x3b97b814	0.004630098
111	0xbd63a866	-0.05558052
112	0xbd8fe86b	-0.07026752
113	0xbddc05f6	-0.107433245
114	0x3cd0c4a3	0.025484389
115	0xbce714b5	-0.028208116
116	0x3cea56c4	0.028605826
117	0xbcefcbc7	-0.029271973
118	0x3d10c8aa	0.03534762
119	0x3c3b0255	0.01141413
120	0xbd496424	-0.049167767
121	0xbd1029cd	-0.035196114
122	0xbd8502c5	-0.06494669
123	0xbb252c98	-0.0025203582
124	0xbd6245c9	-0.055242334
125	0xbd3bb040	-0.045822382
126	0x3cbcf170	0.023064345
127	0x3c37c106	0.011215454
128	0x3d9e5199	0.07730407
129	0x3b664df3	0.0035141676
130	0xbaf73f39	-0.0018863446
131	0xbb92c01b	-0.004478467
132	0xbd85c876	-0.065323755
133	0xbddbe3b4	-0.1073679
134	0xbdc8d5c5	-0.09806398
135	0xbd2ce81b	-0.04221354
136	0xbcdb6880	-0.026783228
137	0xbb933c37	-0.004493262
138	0x3c90016f	0.017578809
139	0xbca81156	-0.020516079
140	0xbd3e2803	-0.046424877
141	0x3cb6d83a	0.022319902
142	0x3d1486ed	0.036261488
143	0x3c6352ec	0.013874751
144	0x3d47f9c9	0.048822198
145	0x3d07f9fc	0.033197388
146	0x3bed9f79	0.0072516766
147	0x3a2b28de	0.0006529222
148	0x3cbf3d14	0.023344554
149	0x3d158104	0.036499992
150	0xbdb597d4	-0.088668495
151	0xbca35139	-0.01993619
152	0xbcd11af1	-0.025525542
153	0xbe0d2129	-0.13782181
154	0xbe205ff7	-0.15661608
155	0xbd864c73	-0.0655755
156	0xbc0d602a	-0.008628884
157	0x3d405650	0.046957314
158	0x3d057b0c	0.03258805
159	0xbd315061	-0.043289546
160	0xbd4a2992	-0.04935605
161	0xbca496a9	-0.020091372
162	0x3e19ad53	0.15007524
163	0x3d887ffe	0.066650376
164	0x3da28a99	0.07936592
165	0x3decd582	0.11564161
166	0xbae80644	-0.0017702063
167	0x3d69d472	0.05708737
168	0x3e0d824a	0.13819233
169	0x3c682f1a	0.014171386
170	0x3c9a03d8	0.018800661
171	0xbcbefd9d	-0.023314292
172	0x3c4ca65c	0.012490835
173	0xbddc70eb	-0.10763725
174	0x3c26179c	0.010137465
175	0x3d683180	0.056687832
176	0xbd62e2b6	-0.05539199
177	0xbd25579e	-0.04036676
178	0x3d48fdd2	0.049070187
179	0xbccaad92	-0.024740968
180	0x3c74586c	0.01491366
181	0x3cb0c800	0.021579742
182	0xbc4ef3b2	-0.012631344
183	0xbdae125a	-0.08499594
184	0xbda48388	-0.080329
185	0xbd817a31	-0.06322134
186	0x3cb4dc42	0.022077683
187	0x3c2bb3f6	0.010479918
188	0x3b16754c	0.0022958098
189	0xbd41cb96	-0.047313295
190	0xbe099aac	-0.13437909
191	0xbd453669	-0.048147593
192	0x3c274651	0.010209636
193	0xbce1c452	-0.027559433
194	0x3d52439f	0.05133402
195	0x3bdac3d1	0.006676175
196	0xbd4800f9	-0.048829053
197	0x3c01608e	0.007896556
198	0x3dda5a03	0.106616996
199	0x3dfc7a2d	0.12327991
200	0x3d36a7f2	0.04459376
201	0xbb3d6d6a	-0.0028904327
202	0xbc293ae7	-0.010328985
203	0xbce8f7a3	-0.028438395
204	0x3d90fcb9	0.07079453
205	0x3db9cdd6	0.09072463
206	0x3d7fe5f5	0.062475163
207	0x3d22337f	0.03959989
208	0xbc2644b0	-0.010148212
209	0x3db1516b	0.08658107
210	0xbdb068c0	-0.086137295
211	0xbe211abf	-0.15732859
212	0xbdc9df27	-0.09857016
213	0xbd62027a	-0.055178143
214	0xbe2a917e	-0.16657063
215	0xbc6d1e24	-0.014472518
216	0xbd74b2e7	-0.059740927
217	0x3ba6ebf3	0.0050940453
218	0xbb81363d	-0.0039432333
219	0xbdb5e49c	-0.088814944
220	0xbbdb0bfc	-0.0066847783
221	0xbd5c793b	-0.053826552
222	0x3b4f6def	0.003165122
223	0x3b997060	0.0046825856
224	0x3c45513b	0.012043293
225	0xbca5a75a	-0.020221401
226	0x3d3f0c45	0.04664256
227	0x3d0d9153	0.03456242
228	0x3cf822c4	0.030290015
229	0x3d455845	0.048179884
230	0x3d541924	0.05178179
231	0xbcdcf9e9	-0.026974635
232	0x3c498832	0.012300538
233	0x3cc295f0	0.023753136
234	0x3d3cdad8	0.046107143
235	0x3d3f0ef1	0.04664511
236	0x3c9d6c7f	0.019216774
237	0x3d03595d	0.032067645
238	0x3cd2636d	0.025682176
239	0xbc63e1fe	-0.013908861
240	0xbd6295cf	-0.05531865
241	0xbd55c464	-0.052189246
242	0xbdfcfa4e	-0.12352429
243	0x3e064ea9	0.13115944
244	0x3dbd4b95	0.09242932
245	0x3d9123e2	0.07086922
246	0xbd98b0f7	-0.07455628
247	0x3ba95834	0.0051679853
248	0x3cd34684	0.02579046
249	0x3ca1d64e	0.019755509
250	0x3dded84a	0.108810976
251	0x3dd2548b	0.102700315
252	0xbcc0941d	-0.023508126
253	0x3c60b330	0.013714597
254	0x3c9ba438	0.018999204
255	0x3cd5689f	0.026050864

conv3.bias f4 [128]
0	0x3d302034	0.04299946
1	0x3c91a4b4	0.017778732
2	0xbbc26c1d	-0.0059332983
3	0xbd1636b5	-0.036673266
4	0xbd245030	-0.040115535
5	0x3d198adf	0.037485953
6	0x3c932ce7	0.017965747
7	0x3c01bf4d	0.007919145
8	0x3c2f9d67	0.01071868
9	0x3cb5d67d	0.022197003
10	0x3b6fe469	0.003660465
11	0xbcefc1cf	-0.02926722
12	0x3caca6b8	0.021075591
13	0xbd0f74c2	-0.03502346
14	0xbc207b53	-0.009795028
15	0xbd8488d7	-0.06471413
16	0xbd2f8a5f	-0.04285657
17	0x3d22302e	0.03959673
18	0x3bd9b6f2	0.0066441232
19	0xbc54b780	-0.012983203
20	0xbd0cbdaa	-0.034360565
21	0x3c547014	0.012966175
22	0x3d5e03e4	0.05420293
23	0xbcb4a6e7	-0.022052241
24	0xbd37adf3	-0.044843625
25	0xbc00203a	-0.007820183
26	0xbc3bf9d6	-0.01147314
27	0x3cdae64c	0.026721142
28	0x3d83ab0b	0.06429108
29	0x3d683302	0.05668927
30	0x3ca0d8e6	0.019634675
31	0x3cb3b921	0.021938862
32	0x3ba66db8	0.0050789975
33	0xba882c2f	-0.0010389144
34	0x3d56dd99	0.052457426
35	0x3d1444c7	0.036198404
36	0xbb5e0478	-0.0033877175
37	0x3d66503b	0.056228857
38	0xbc89d9b5	-0.016827444
39	0x3d3567cc	0.04428844
40	0x3be8f405	0.0071091675
41	0x3b4be01d	0.0031108924
42	0x3d3bcf60	0.045852065
43	0xbc9a667d	-0.018847698
44	0xbd5fb09e	-0.054611795
45	0x3cc16e5f	0.0236122
46	0xbcb50834	-0.022098638
47	0x3d0a8fb3	0.03382845
48	0x3c9083a5	0.017640898
49	0x3cc202c6	0.023682963
50	0xbc6e5531	-0.014546678
51	0xbd541494	-0.051777437
52	0x3d3499c1	0.044091944
53	0xbcc8ccd4	-0.024511732
54	0xbcc80ed6	-0.024421137
55	0x3c4b6613	0.012414473
56	0xbb838b93	-0.0040144413
57	0x3c89be52	0.016814385
58	0xbb6d188b	-0.0036177959
59	0xbca8ab2e	-0.020589437
60	0x3ba812d4	0.0051291976
61	0x3c224a26	0.009905374
62	0x3d653f7c	0.055968747
63	0x3cb8f674	0.022578456
64	0x3b164e91	0.0022935013
65	0xbd1181f0	-0.03552431
66	0x3bf1a2e9	0.0073741567
67	0xbb89a3be	-0.004200428
68	0x3cf9e4bd	0.030504579
69	0x3c7b6d63	0.015345904
70	0xbd200076	-0.03906294
71	0xbd0890e9	-0.033341322
72	0x3d1f90e3	0.038956534
73	0x3c59acce	0.013285829
74	0x3c70732c	0.014675897
75	0xbc45de85	-0.012076979
76	0xbc9680d6	-0.01837198
77	0xbca50f78	-0.020148978
78	0xbc18c6e4	-0.009324763
79	0xbd40eda4	-0.04710163
80	0xbc722930	-0.014780328
81	0x3d06fa6e	0.032953672
82	0xbcc3e102	-0.023911003
83	0x3af6e7dc	0.001883741
84	0xbca4f96d	-0.020138467
85	0xbb34f645	-0.0027612608
86	0xbc861562	-0.016367618
87	0xbd1b6190	-0.03793484
88	0xbd152d5c	-0.03642021
89	0xbb8dc068	-0.004325915
90	0x3d6adab6	0.057337485
91	0x3cef719c	0.029228978
92	0x3b67bdf4	0.0035361024
93	0xbc546c31	-0.012965248
94	0xbc21c9cc	-0.009874772
95	0x3d294960	0.04132974
96	0xbcff9d7d	-0.031203026
97	0x3c8d0986	0.017216455
98	0xbc8e0a49	-0.017338889
99	0x3b318297	0.0027085894
100	0xbd523f6d	-0.05133002
101	0x3d13bdf7	0.036069836
102	0xbd44afed	-0.04801934
103	0x3d3baaa5	0.045817036
104	0x3d6f40b8	0.05841133
105	0x3a93bc3f	0.0011271312
106	0x3cf6d231	0.030129524
107	0xbc18d37e	-0.009327767
108	0x3c2855f3	0.010274398
109	0xbc728b29	-0.014803686
110	0xbaf3fd45	-0.0018614909
111	0xbcb7a435	-0.022417167
112	0x3c6475e0	0.013944119
113	0x3d66917a	0.05629108
114	0x3cc6cfcb	0.024269005
115	0x3cabf048	0.020988598
116	0x3d8fb990	0.07017815
117	0x3d5654a7	0.052326825
118	0x3d4a15e1	0.04933727
119	0x3c951817	0.018199963
120	0xbd31bf52	-0.043395348
121	0x3d2b2c40	0.041790247
122	0xbc623cb5	-0.013808419
123	0x3c0e4446	0.00868327
124	0x3c82a3ed	0.015947307
125	0xbc8e33b4	-0.017358638
126	0xbd1d4f69	-0.03840581
127	0x3c43e870	0.011957273
