built_models/esc50_esc50cnn_model_fold1_20250430_210354.pth (torch, 654357 bytes, 24 tensors)

mel_transform.spectrogram.window f4 [1024]
0	0x00000000	0.0
1	0x371e0000	9.417534e-06
2	0x381de000	3.7640333e-05
3	0x38b1a000	8.46982e-05
4	0x391de800	0.00015059114
5	0x3976b800	0.00023528934
6	0x39b1a400	0.0003388226
7	0x39f1c400	0.00046113133
8	0x3a1de200	0.00060227513
9	0x3a47d000	0.0007622242
10	0x3a76aa00	0.0009409487
11	0x3a953900	0.0011384785
12	0x3ab19300	0.0013547838
13	0x3ad06300	0.0015898645
14	0x3af1a800	0.0018436909
15	0x3b0ab180	0.0021162927
16	0x3b1dc980	0.0024076402
17	0x3b321b80	0.0027177036
18	0x3b47a800	0.0030465126
19	0x3b5e6e80	0.0033940375
20	0x3b766e80	0.0037602484
21	0x3b87d3c0	0.0041451156
22	0x3b950d40	0.0045486987
23	0x3ba2e300	0.004970908
24	0x3bb15500	0.005411744
25	0x3bc06340	0.0058712065
26	0x3bd00dc0	0.0063492954
27	0x3be05400	0.006845951
28	0x3bf13600	0.0073611736
29	0x3c0159e0	0.007894963
30	0x3c0a6660	0.00844726
31	0x3c13c080	0.009018064
32	0x3c1d6820	0.009607345
33	0x3c275d40	0.010215104
34	0x3c319fc0	0.01084131
35	0x3c3c2f80	0.011485934
36	0x3c470c60	0.0121489465
37	0x3c523640	0.012830317
38	0x3c5dad00	0.013530016
39	0x3c6970a0	0.014248043
40	0x3c758100	0.014984369
41	0x3c80ef00	0.015738964
42	0x3c8743b0	0.016511768
43	0x3c8dbe90	0.017302781
44	0x3c945f90	0.018111974
45	0x3c9b2690	0.018939286
46	0x3ca213a0	0.019784749
47	0x3ca92690	0.02064827
48	0x3cb05f50	0.021529824
49	0x3cb7bde0	0.022429407
50	0x3cbf4230	0.02334699
51	0x3cc6ec10	0.024282485
52	0x3ccebb90	0.025235921
53	0x3cd6b080	0.026207209
54	0x3cdecae0	0.027196348
55	0x3ce70a90	0.028203279
56	0x3cef6f80	0.029227972
57	0x3cf7f9a0	0.030270398
58	0x3d005468	0.031330496
59	0x3d04be80	0.032408237
60	0x3d093b10	0.033503592
61	0x3d0dca10	0.03461653
62	0x3d126b68	0.03574696
63	0x3d171f18	0.036894888
64	0x3d1be510	0.038060248
65	0x3d20bd40	0.039242983
66	0x3d25a7a0	0.040443063
67	0x3d2aa428	0.041660458
68	0x3d2fb2d0	0.04289514
69	0x3d34d378	0.044146985
70	0x3d3a0628	0.045416027
71	0x3d3f4ac0	0.046702147
72	0x3d44a140	0.048005342
73	0x3d4a09a0	0.049325585
74	0x3d4f83c0	0.050662756
75	0x3d550fa8	0.052016884
76	0x3d5aad38	0.05338785
77	0x3d605c68	0.054775625
78	0x3d661d38	0.05618021
79	0x3d6bef80	0.057601452
80	0x3d71d348	0.059039384
81	0x3d77c870	0.060493886
82	0x3d7dcef8	0.06196496
83	0x3d81f364	0.06345251
84	0x3d8507ec	0.064956516
85	0x3d882508	0.06647688
86	0x3d8b4ab4	0.06801358
87	0x3d8e78e8	0.06956655
88	0x3d91af98	0.0711357
89	0x3d94eec0	0.072721004
90	0x3d983658	0.0743224
91	0x3d9b8658	0.075939834
92	0x3d9edeb4	0.07757321
93	0x3da23f6c	0.07922253
94	0x3da5a86c	0.080887645
95	0x3da919b8	0.082568586
96	0x3dac933c	0.0842652
97	0x3db014f8	0.085977495
98	0x3db39ee0	0.087705374
99	0x3db730e8	0.08944875
100	0x3dbacb0c	0.09120759
101	0x3dbe6d44	0.092981845
102	0x3dc21784	0.094771415
103	0x3dc5c9c0	0.096576214
104	0x3dc983f8	0.09839624
105	0x3dcd461c	0.10023138
106	0x3dd11020	0.10208154
107	0x3dd4e204	0.103946716
108	0x3dd8bbb8	0.105826795
109	0x3ddc9d30	0.10772169
110	0x3de0866c	0.10963139
111	0x3de4775c	0.111555785
112	0x3de86ff4	0.11349478
113	0x3dec702c	0.115448326
114	0x3df07800	0.11741638
115	0x3df48760	0.11939883
116	0x3df89e40	0.12139559
117	0x3dfcbc9c	0.12340662
118	0x3e007132	0.1254318
119	0x3e0287ca	0.12747112
120	0x3e04a20e	0.12952444
121	0x3e06bffc	0.13159174
122	0x3e08e18c	0.1336729
123	0x3e0b06b8	0.13576782
124	0x3e0d2f7c	0.13787645
125	0x3e0f5bd6	0.13999876
126	0x3e118bbc	0.1421346
127	0x3e13bf28	0.14428389
128	0x3e15f61a	0.14644662
129	0x3e183088	0.14862263
130	0x3e1a6e6e	0.15081188
131	0x3e1cafc6	0.15301427
132	0x3e1ef48c	0.15522975
133	0x3e213cb8	0.15745819
134	0x3e238844	0.1596995
135	0x3e25d72e	0.16195366
136	0x3e28296e	0.16422054
137	0x3e2a7efc	0.16650003
138	0x3e2cd7d8	0.16879213
139	0x3e2f33f6	0.17109665
140	0x3e319356	0.1734136
141	0x3e33f5ec	0.1757428
142	0x3e365bb6	0.17808422
143	0x3e38c4b0	0.1804378
144	0x3e3b30ce	0.18280336
145	0x3e3da010	0.1851809
146	0x3e40126c	0.18757027
147	0x3e4287de	0.18997142
148	0x3e45005e	0.19238421
149	0x3e477be8	0.1948086
150	0x3e49fa76	0.1972445
151	0x3e4c7c00	0.19969177
152	0x3e4f0080	0.20215034
153	0x3e5187f2	0.20462015
154	0x3e54124e	0.20710108
155	0x3e569f8e	0.20959303
156	0x3e592fac	0.21209592
157	0x3e5bc2a2	0.21460965
158	0x3e5e5866	0.21713409
159	0x3e60f0f8	0.21966922
160	0x3e638c4e	0.2222149
161	0x3e662a60	0.22477102
162	0x3e68cb2a	0.22733751
163	0x3e6b6ea4	0.22991425
164	0x3e6e14ca	0.23250118
165	0x3e70bd94	0.23509818
166	0x3e7368fc	0.23770517
167	0x3e7616fa	0.24032202
168	0x3e78c788	0.24294865
169	0x3e7b7aa0	0.24558496
170	0x3e7e3036	0.24823079
171	0x3e807426	0.25088614
172	0x3e81d16c	0.2535509
173	0x3e832fea	0.25622493
174	0x3e848f9c	0.25890815
175	0x3e85f07d	0.2616004
176	0x3e87528c	0.26430166
177	0x3e88b5c4	0.26701176
178	0x3e8a1a22	0.26973063
179	0x3e8b7fa4	0.2724582
180	0x3e8ce646	0.27519435
181	0x3e8e4e04	0.27793896
182	0x3e8fb6da	0.28069192
183	0x3e9120c4	0.2834531
184	0x3e928bc0	0.28622246
185	0x3e93f7ca	0.28899986
186	0x3e9564e0	0.29178524
187	0x3e96d2fc	0.29457843
188	0x3e98421c	0.29737937
189	0x3e99b23c	0.30018795
190	0x3e9b2358	0.30300403
191	0x3e9c956b	0.30582747
192	0x3e9e0876	0.3086583
193	0x3e9f7c72	0.31149632
194	0x3ea0f15c	0.31434143
195	0x3ea26730	0.3171935
196	0x3ea3ddec	0.3200525
197	0x3ea5558c	0.3229183
198	0x3ea6ce08	0.32579064
199	0x3ea84763	0.32866964
200	0x3ea9c196	0.33155507
201	0x3eab3c9e	0.33444685
202	0x3eacb878	0.33734488
203	0x3eae351e	0.340249
204	0x3eafb28f	0.34315917
205	0x3eb130c4	0.34607518
206	0x3eb2afbd	0.34899703
207	0x3eb42f75	0.35192457
208	0x3eb5afe8	0.35485768
209	0x3eb73112	0.35779625
210	0x3eb8b2f0	0.36074018
211	0x3eba357e	0.36368936
212	0x3ebbb8b6	0.3666436
213	0x3ebd3c99	0.36960295
214	0x3ebec120	0.37256718
215	0x3ec04648	0.3755362
216	0x3ec1cc0e	0.37850994
217	0x3ec3526d	0.38148823
218	0x3ec4d960	0.38447094
219	0x3ec660e6	0.38745803
220	0x3ec7e8fc	0.3904494
221	0x3ec9719b	0.39344487
222	0x3ecafac0	0.39644432
223	0x3ecc8469	0.3994477
224	0x3ece0e91	0.40245488
225	0x3ecf9932	0.40546566
226	0x3ed1244c	0.40848005
227	0x3ed2afda	0.4114979
228	0x3ed43bd8	0.41451907
229	0x3ed5c842	0.41754347
230	0x3ed75514	0.42057097
231	0x3ed8e24a	0.42360145
232	0x3eda6fdf	0.42663476
233	0x3edbfdd2	0.42967087
234	0x3edd8c1f	0.43270966
235	0x3edf1ac0	0.43575096
236	0x3ee0a9b2	0.43879467
237	0x3ee238f2	0.4418407
238	0x3ee3c87c	0.44488895
239	0x3ee55849	0.4479392
240	0x3ee6e859	0.45099142
241	0x3ee878a8	0.45404553
242	0x3eea0931	0.45710137
243	0x3eeb99f0	0.46015882
244	0x3eed2ae1	0.46321777
245	0x3eeebc00	0.46627808
246	0x3ef04d49	0.46933964
247	0x3ef1deba	0.4724024
248	0x3ef3704d	0.47546616
249	0x3ef50200	0.47853088
250	0x3ef693ce	0.4815964
251	0x3ef825b3	0.48466262
252	0x3ef9b7ac	0.48772943
253	0x3efb49b2	0.49079663
254	0x3efcdbc6	0.49386424
255	0x3efe6de1	0.49693206

mel_transform.mel_scale.fb f4 [513, 40]
0	0x80000000	-0.0
1	0x00000000	0.0
2	0x00000000	0.0
3	0x00000000	0.0
4	0x00000000	0.0
5	0x00000000	0.0
6	0x00000000	0.0
7	0x00000000	0.0
8	0x00000000	0.0
9	0x00000000	0.0
10	0x00000000	0.0
11	0x00000000	0.0
12	0x00000000	0.0
13	0x00000000	0.0
14	0x00000000	0.0
15	0x00000000	0.0
16	0x00000000	0.0
17	0x00000000	0.0
18	0x00000000	0.0
19	0x00000000	0.0
20	0x00000000	0.0
21	0x00000000	0.0
22	0x00000000	0.0
23	0x00000000	0.0
24	0x00000000	0.0
25	0x00000000	0.0
26	0x00000000	0.0
27	0x00000000	0.0
28	0x00000000	0.0
29	0x00000000	0.0
30	0x00000000	0.0
31	0x00000000	0.0
32	0x00000000	0.0
33	0x00000000	0.0
34	0x00000000	0.0
35	0x00000000	0.0
36	0x00000000	0.0
37	0x00000000	0.0
38	0x00000000	0.0
39	0x00000000	0.0
40	0x3f31bb11	0.69426066
41	0x00000000	0.0
42	0x00000000	0.0
43	0x00000000	0.0
44	0x00000000	0.0
45	0x00000000	0.0
46	0x00000000	0.0
47	0x00000000	0.0
48	0x00000000	0.0
49	0x00000000	0.0
50	0x00000000	0.0
51	0x00000000	0.0
52	0x00000000	0.0
53	0x00000000	0.0
54	0x00000000	0.0
55	0x00000000	0.0
56	0x00000000	0.0
57	0x00000000	0.0
58	0x00000000	0.0
59	0x00000000	0.0
60	0x00000000	0.0
61	0x00000000	0.0
62	0x00000000	0.0
63	0x00000000	0.0
64	0x00000000	0.0
65	0x00000000	0.0
66	0x00000000	0.0
67	0x00000000	0.0
68	0x00000000	0.0
69	0x00000000	0.0
70	0x00000000	0.0
71	0x00000000	0.0
72	0x00000000	0.0
73	0x00000000	0.0
74	0x00000000	0.0
75	0x00000000	0.0
76	0x00000000	0.0
77	0x00000000	0.0
78	0x00000000	0.0
79	0x00000000	0.0
80	0x3f24a294	0.64310575
81	0x3eb6bad8	0.35689425
82	0x00000000	0.0
83	0x00000000	0.0
84	0x00000000	0.0
85	0x00000000	0.0
86	0x00000000	0.0
87	0x00000000	0.0
88	0x00000000	0.0
89	0x00000000	0.0
90	0x00000000	0.0
91	0x00000000	0.0
92	0x00000000	0.0
93	0x00000000	0.0
94	0x00000000	0.0
95	0x00000000	0.0
96	0x00000000	0.0
97	0x00000000	0.0
98	0x00000000	0.0
99	0x00000000	0.0
100	0x00000000	0.0
101	0x00000000	0.0
102	0x00000000	0.0
103	0x00000000	0.0
104	0x00000000	0.0
105	0x00000000	0.0
106	0x00000000	0.0
107	0x00000000	0.0
108	0x00000000	0.0
109	0x00000000	0.0
110	0x00000000	0.0
111	0x00000000	0.0
112	0x00000000	0.0
113	0x00000000	0.0
114	0x00000000	0.0
115	0x00000000	0.0
116	0x00000000	0.0
117	0x00000000	0.0
118	0x00000000	0.0
119	0x00000000	0.0
120	0x3bafa669	0.005360414
121	0x3f7ea0b3	0.9946396
122	0x00000000	0.0
123	0x00000000	0.0
124	0x00000000	0.0
125	0x00000000	0.0
126	0x00000000	0.0
127	0x00000000	0.0
128	0x00000000	0.0
129	0x00000000	0.0
130	0x00000000	0.0
131	0x00000000	0.0
132	0x00000000	0.0
133	0x00000000	0.0
134	0x00000000	0.0
135	0x00000000	0.0
136	0x00000000	0.0
137	0x00000000	0.0
138	0x00000000	0.0
139	0x00000000	0.0
140	0x00000000	0.0
141	0x00000000	0.0
142	0x00000000	0.0
143	0x00000000	0.0
144	0x00000000	0.0
145	0x00000000	0.0
146	0x00000000	0.0
147	0x00000000	0.0
148	0x00000000	0.0
149	0x00000000	0.0
150	0x00000000	0.0
151	0x00000000	0.0
152	0x00000000	0.0
153	0x00000000	0.0
154	0x00000000	0.0
155	0x00000000	0.0
156	0x00000000	0.0
157	0x00000000	0.0
158	0x00000000	0.0
159	0x00000000	0.0
160	0x00000000	0.0
161	0x3ed69377	0.41909382
162	0x3f14b644	0.58090615
163	0x00000000	0.0
164	0x00000000	0.0
165	0x00000000	0.0
166	0x00000000	0.0
167	0x00000000	0.0
168	0x00000000	0.0
169	0x00000000	0.0
170	0x00000000	0.0
171	0x00000000	0.0
172	0x00000000	0.0
173	0x00000000	0.0
174	0x00000000	0.0
175	0x00000000	0.0
176	0x00000000	0.0
177	0x00000000	0.0
178	0x00000000	0.0
179	0x00000000	0.0
180	0x00000000	0.0
181	0x00000000	0.0
182	0x00000000	0.0
183	0x00000000	0.0
184	0x00000000	0.0
185	0x00000000	0.0
186	0x00000000	0.0
187	0x00000000	0.0
188	0x00000000	0.0
189	0x00000000	0.0
190	0x00000000	0.0
191	0x00000000	0.0
192	0x00000000	0.0
193	0x00000000	0.0
194	0x00000000	0.0
195	0x00000000	0.0
196	0x00000000	0.0
197	0x00000000	0.0
198	0x00000000	0.0
199	0x00000000	0.0
200	0x00000000	0.0
201	0x00000000	0.0
202	0x3f58ca45	0.8468364
203	0x3e1cd6ee	0.15316364
204	0x00000000	0.0
205	0x00000000	0.0
206	0x00000000	0.0
207	0x00000000	0.0
208	0x00000000	0.0
209	0x00000000	0.0
210	0x00000000	0.0
211	0x00000000	0.0
212	0x00000000	0.0
213	0x00000000	0.0
214	0x00000000	0.0
215	0x00000000	0.0
216	0x00000000	0.0
217	0x00000000	0.0
218	0x00000000	0.0
219	0x00000000	0.0
220	0x00000000	0.0
221	0x00000000	0.0
222	0x00000000	0.0
223	0x00000000	0.0
224	0x00000000	0.0
225	0x00000000	0.0
226	0x00000000	0.0
227	0x00000000	0.0
228	0x00000000	0.0
229	0x00000000	0.0
230	0x00000000	0.0
231	0x00000000	0.0
232	0x00000000	0.0
233	0x00000000	0.0
234	0x00000000	0.0
235	0x00000000	0.0
236	0x00000000	0.0
237	0x00000000	0.0
238	0x00000000	0.0
239	0x00000000	0.0
240	0x00000000	0.0
241	0x00000000	0.0
242	0x3e9e0d2b	0.3086942
243	0x3f30f96a	0.69130576
244	0x00000000	0.0
245	0x00000000	0.0
246	0x00000000	0.0
247	0x00000000	0.0
248	0x00000000	0.0
249	0x00000000	0.0
250	0x00000000	0.0
251	0x00000000	0.0
252	0x00000000	0.0
253	0x00000000	0.0
254	0x00000000	0.0
255	0x00000000	0.0

conv1.weight f4 [32, 1, 3, 3]
0	0xbe011e3f	-0.12609194
1	0x3e885cd4	0.26633322
2	0x3ea6022b	0.3242353
3	0xbe2d0d61	-0.16899635
4	0x3e53ed97	0.20696102
5	0xbdfd9088	-0.12381083
6	0x3c5de87b	0.013544197
7	0xbbdc6c3e	-0.0067267707
8	0xbe5e4280	-0.21705055
9	0xbe7b2657	-0.24526344
10	0x3bbe625c	0.005810065
11	0x3e0d0feb	0.13775603
12	0x3d693a6f	0.056940492
13	0xbe0d541e	-0.1380162
14	0x3cded581	0.027201416
15	0xbd2d4720	-0.04230416
16	0xbebd0ffb	-0.36926255
17	0xbe50cb72	-0.20390108
18	0x3e4cd309	0.20002379
19	0xbcd8c52c	-0.026461206
20	0xbe2091b8	-0.15680587
21	0x3ea23fea	0.31689388
22	0xbd83c693	-0.064343594
23	0xbe8e1c0a	-0.27755767
24	0x3c8e5223	0.01737315
25	0xbc348636	-0.0110183265
26	0x3dd083d9	0.10181398
27	0x3e6e6129	0.23279251
28	0x3e12ed68	0.14348376
29	0xbe3bc748	-0.18337739
30	0xbe7e64f8	-0.24843204
31	0x3e2eba54	0.17063266
32	0xbe106152	-0.14099625
33	0x3eb9bd85	0.36277404
34	0x3d54a4f7	0.051915135
35	0x3c52b20c	0.0128598325
36	0x3ce3e5e8	0.027819589
37	0x3d6f6622	0.05844701
38	0x3e78e54e	0.24306223
39	0x3e2457ab	0.16049068
40	0xbdffd9ea	-0.12492736
41	0x3f047437	0.5173983
42	0x3d6a268b	0.057165664
43	0x3e077083	0.13226514
44	0x3e892068	0.26782537
45	0xbdbca2b6	-0.09210722
46	0x3e818fb9	0.25304964
47	0x3d61624e	0.05502539
48	0xbdcf43ee	-0.101203784
49	0x3e3ba655	0.1832517
50	0x3e00b714	0.12569839
51	0xbe9bd341	-0.3043461
52	0xbe0d604b	-0.13806264
53	0xbe0b91af	-0.13629793
54	0x3e8af655	0.2714106
55	0xbd91e4e2	-0.07123734
56	0xbd80fa27	-0.06297713
57	0x3e9f397b	0.31098542
58	0x3e0d63aa	0.1380755
59	0xbe155813	-0.14584379
60	0x3e814cc4	0.2525388
61	0xbe45d369	-0.19318928
62	0x3c89a098	0.01680021
63	0xbe901e38	-0.28148055
64	0x3e190b70	0.1494577
65	0x3e95f8e5	0.29291454
66	0x3e9d91c7	0.30775282
67	0xbe0022dd	-0.125133
68	0xbe11189f	-0.14169548
69	0xbe979df6	-0.29612702
70	0xbe238969	-0.15970387
71	0x3e72b737	0.23702703
72	0x3e085fd0	0.133178
73	0x3e2c0198	0.16797483
74	0xbde30807	-0.110855155
75	0x3e6f2ce9	0.23356976
76	0x3d75fa1b	0.060052972
77	0x3d48b787	0.04900315
78	0xbe83571e	-0.25652403
79	0xbe997538	-0.29972243
80	0xbc159fa0	-0.009132296
81	0x3e07d1dc	0.13263649
82	0xbeac53b0	-0.33657598
83	0xbe2c9315	-0.16852982
84	0x3d91a9b5	0.07112447
85	0x3dbb3efe	0.09142874
86	0x3e0c75a7	0.13716756
87	0xbe0791ca	-0.13239208
88	0x3dbe8283	0.09302237
89	0x3e049f3c	0.12951368
90	0x3db44edb	0.08804103
91	0xbe7eecc6	-0.2489501
92	0x3c6bcc03	0.014391902
93	0xbebd3bbe	-0.36959642
94	0x3e19d339	0.15021981
95	0xbd69fd96	-0.057126604
96	0x3e3cbbd2	0.18431023
97	0x3eab54fc	0.33463275
98	0x3d9dd5a3	0.077067636
99	0x3d511de9	0.051053915
100	0x3e97f555	0.2967936
101	0xbe8d52ab	-0.27602133
102	0x3e3609ec	0.17777222
103	0x3e31b390	0.17353654
104	0x3d0a3be8	0.033748537
105	0xbe637164	-0.22211224
106	0xbdee9055	-0.11648623
107	0x3c83fad7	0.01611082
108	0x3e83a042	0.25708205
109	0xbe71707a	-0.23578063
110	0xbe91b9fb	-0.28462204
111	0xbd91d49d	-0.07120631
112	0xbea5bb37	-0.32369396
113	0xbe49f2f8	-0.19721591
114	0x3cd8dd3d	0.026472682
115	0xbe400f14	-0.18755752
116	0x3ea35c7e	0.31906503
117	0xbd8f3aae	-0.06993614
118	0xbea5c6f0	-0.3237834
119	0x3dec2418	0.11530322
120	0xbb6cdc63	-0.0036142103
121	0xbd7cc298	-0.061709017
122	0x3e35ccc7	0.17753898
123	0xbe3fb7b5	-0.18722422
124	0x3e87fdad	0.26560727
125	0x3b7b56ae	0.0038351226
126	0xbe1ed87d	-0.15512271
127	0xbdb0091b	-0.08595487
128	0x3e9073da	0.28213388
129	0x3e1f7581	0.15572168
130	0xbd9e80e1	-0.077394255
131	0xbe996c1f	-0.29965302
132	0x3daccd59	0.084376045
133	0x3d7db46f	0.061939653
134	0xbdb6f7ef	-0.08934008
135	0x3e05a226	0.13050136
136	0x39c72cf7	0.0003798974
137	0x3ed53ef0	0.4164958
138	0xbeb19ac0	-0.34688377
139	0x3dd745fb	0.105113946
140	0x3e2ec67a	0.170679
141	0x3dedcf50	0.11611807
142	0xbe9df924	-0.30854142
143	0x3e15e77f	0.1463909
144	0xbe93685a	-0.2879055
145	0xbd91fd71	-0.07128418
146	0xbe0b3d1f	-0.13597535
147	0xbd89471e	-0.06703018
148	0xbe3eb915	-0.1862529
149	0x3e9a0ae3	0.3008643
150	0xbe553c6f	-0.20823835
151	0x3e2a6fb5	0.16644175
152	0xbe07d2eb	-0.13264053
153	0x3e9163b8	0.28396392
154	0x3e1efa08	0.15525067
155	0x3cbfedb4	0.023428775
156	0xbe36bab3	-0.17844658
157	0xbd6a6299	-0.057222936
158	0xbe27a3e2	-0.1637111
159	0xbe4c28cb	-0.19937436
160	0xbde8da60	-0.11369777
161	0x3e32501c	0.17413372
162	0x3e721978	0.23642528
163	0xbe0d6265	-0.13807066
164	0xbe05643f	-0.13026522
165	0x3ee1ed5a	0.44126397
166	0x3eaf52de	0.3424291
167	0x3e8b184d	0.27166978
168	0x3e866886	0.2625162
169	0xbe5c1721	-0.21493198
170	0x3e702847	0.23452865
171	0x3ccf43a7	0.025300814
172	0x3e4b64ca	0.19862667
173	0x3e0fe99c	0.14053959
174	0x3e2e38e6	0.17013893
175	0xbd65fa8d	-0.056147147
176	0x3ec29a04	0.3800813
177	0x3e9b7752	0.30364472
178	0x3ebac9ea	0.36482173
179	0xbe18cf71	-0.14922883
180	0xbe97b13f	-0.29627416
181	0xbe5fa203	-0.21839146
182	0x3e83e474	0.25760233
183	0xbdea151d	-0.11429808
184	0x3e2668f3	0.16250972
185	0x3e93bcee	0.2885508
186	0xbe5859c7	-0.21127997
187	0xbe669dc1	-0.22521116
188	0x3e8840c4	0.26611912
189	0x3ea7c9ba	0.32771093
190	0xbdacbfdf	-0.08435034
191	0x3e99898a	0.29987746
192	0xbebc7fa2	-0.36816126
193	0xbdea2025	-0.11431912
194	0x3c51f9a0	0.012815863
195	0x3e4f9fde	0.20275828
196	0x3e1156d9	0.14193286
197	0xbe26fd99	-0.16307677
198	0xbd0e03e1	-0.034671668
199	0x3e80341a	0.2503975
200	0x3dd4613a	0.10370107
201	0xbc8a326d	-0.016869748
202	0xbe9598b0	-0.29218054
203	0xbe8a9690	-0.27067995
204	0xbc95490d	-0.01822331
205	0x3dc209a1	0.09474493
206	0x3d231675	0.03981634
207	0x3e9f6470	0.31131315
208	0x3e321269	0.17389835
209	0x3d46d4bc	0.048542723
210	0xbe9c83f3	-0.3056942
211	0x3d9844c3	0.0743499
212	0x3ca1a815	0.019733468
213	0xbe15dd56	-0.14635214
214	0x3e7a7f4f	0.24462627
215	0xbea066d1	-0.31328443
216	0xbd76e41f	-0.060276147
217	0xbe92c331	-0.28664544
218	0x3eb3976f	0.35076472
219	0x3d0570b4	0.032578185
220	0x3de611ac	0.112338394
221	0x3e0fb09c	0.14032215
222	0xbd8b91a0	-0.06814885
223	0x3d9ae1e0	0.075626135
224	0xbe2366bd	-0.1595716
225	0xbe9bd45d	-0.30435458
226	0x3e54756f	0.20747922
227	0xbe80e3da	-0.25173837
228	0xbe0a6d92	-0.1351836
229	0xbe92cb6b	-0.2867082
230	0x3d07206d	0.032989908
231	0xbdba70fb	-0.091035806
232	0xbe26ed87	-0.16301547
233	0xbe48dca6	-0.1961542
234	0x3d8fb709	0.07017333
235	0xbe33e6b6	-0.17568478
236	0xbe62c2f2	-0.22144678
237	0xbeac593a	-0.33661824
238	0xbdfda7a2	-0.12385489
239	0xbc93bf40	-0.018035531
240	0x3e97a454	0.2961756
241	0x3e4b29d7	0.1984018
242	0x3e9d24f6	0.3069226
243	0x3db09eb4	0.0862402
244	0x3de18d18	0.110132396
245	0xbe7dfc3b	-0.2480325
246	0x3c1818fa	0.009283299
247	0x3e001a83	0.12510113
248	0xbe92279e	-0.2854585
249	0x3de0cf2f	0.10977017
250	0x3e47beff	0.19506453
251	0xbdc8505d	-0.09780953
252	0x3e2ebf13	0.17065077
253	0xbe3f12be	-0.18659493
254	0xbe1ef7c2	-0.155242
255	0xbca1edcb	-0.019766709

conv1.bias f4 [32]
0	0xbdf2a9ea	-0.11848815
1	0xbe928c90	-0.28622866
2	0x3e358438	0.17726219
3	0xbe20d1bf	-0.15705012
4	0xbea09bef	-0.31368968
5	0x3d00fce9	0.031491194
6	0x3db8dbbb	0.09026285
7	0x3d31088e	0.04322105
8	0xbda36929	-0.07979042
9	0xbe84f55d	-0.25968447
10	0xbe59aa77	-0.21256433
11	0x3e1946ec	0.14968461
12	0xbdacb053	-0.08432069
13	0xbe26f952	-0.16306046
14	0xbd1ee375	-0.03879114
15	0x3ea9addc	0.33140457
16	0x3cf6a61e	0.030108508
17	0x3e864607	0.26225302
18	0xbea25161	-0.31702712
19	0xbe9c8ba1	-0.30575278
20	0x3e737c67	0.23777924
21	0x3e622a43	0.22086434
22	0xbe70e390	-0.23524308
23	0x3da94eb1	0.08266962
24	0x3e2c0048	0.16796982
25	0x3d82fa86	0.0639544
26	0xbcba49d9	-0.022740291
27	0x3c33a5f1	0.0109648565
28	0x3e8e8297	0.27834007
29	0x3e51fd97	0.20506893
30	0x3e93ba50	0.28853083
31	0x3d59a00c	0.05313115

bn1.weight f4 [32]
0	0x3f765e75	0.9623788
1	0x3f66a4dd	0.9009531
2	0x3f88d764	1.0690732
3	0x3f64bff6	0.8935541
4	0x3f63871c	0.88878036
5	0x3f76032d	0.96098596
6	0x3f5eb52f	0.86995214
7	0x3f84e39c	1.0381961
8	0x3f8b4f21	1.0883523
9	0x3f79c30c	0.9756324
10	0x3f700551	0.9375811
11	0x3f6f5798	0.9349303
12	0x3f5e3d6f	0.8681249
13	0x3f80e911	1.0071126
14	0x3f7c115e	0.98464
15	0x3f63cf99	0.88988644
16	0x3f6c3ab5	0.9227708
17	0x3f76fd78	0.9648051
18	0x3f5cd322	0.86259663
19	0x3f64bb94	0.8934872
20	0x3f83c8b7	1.0295628
21	0x3f7defcc	0.99194026
22	0x3f76654e	0.9624833
23	0x3f8e0559	1.1095382
24	0x3f8164dc	1.0108905
25	0x3f6668bc	0.9000356
26	0x3f84b15e	1.0366628
27	0x3f8716ac	1.0553794
28	0x3f8cb724	1.099339
29	0x3f834f5c	1.0258594
30	0x3f65aa90	0.8971338
31	0x3f5cf3e8	0.8630967

bn1.bias f4 [32]
0	0xbd98dab7	-0.074635915
1	0x3d0cbe3d	0.034361113
2	0xbd51efc0	-0.051254034
3	0xbe30aab8	-0.17252624
4	0xbde5b58b	-0.11216267
5	0x3cbd4210	0.02310279
6	0xbdd77718	-0.10520762
7	0x3e09cc80	0.13456917
8	0x3e2c0e8c	0.16802424
9	0x3e18a266	0.149057
10	0xbe2f1e85	-0.17101486
11	0xbe009f8d	-0.12560864
12	0xbdc16e01	-0.0944481
13	0x3cd69ac6	0.026196849
14	0x3cfa6c92	0.030569348
15	0xbdaba2c9	-0.08380658
16	0xbd7c2a09	-0.061563525
17	0x3dab0b1a	0.08351727
18	0xbe2651cb	-0.16242139
19	0xbe17975a	-0.1480383
20	0x3dd7f937	0.10545581
21	0xbdba4880	-0.090958595
22	0x3b09f4d2	0.0021050465
23	0xbd6f545c	-0.05843006
24	0xbd5819d8	-0.05275902
25	0xbd282ded	-0.041059423
26	0xbe28c56f	-0.16481565
27	0x3e2ab0e9	0.16669048
28	0x3e0f0cae	0.1396968
29	0x3e652c2c	0.22380131
30	0xbe22029f	-0.15821312
31	0xbc92070e	-0.01782563

bn1.running_mean f4 [32]
0	0xbdc8b09c	-0.097993106
1	0xbe917712	-0.28411156
2	0x3e358598	0.17726743
3	0xbe1d2521	-0.15346195
4	0xbe9c582b	-0.30536017
5	0x3d3b6ec6	0.04575994
6	0x3dc35418	0.09537524
7	0x3d54377d	0.05181073
8	0xbd87a353	-0.066229485
9	0xbe8cfad9	-0.27535132
10	0xbe661575	-0.22469123
11	0x3e1fbe35	0.15599902
12	0xbdc5185e	-0.09623788
13	0xbe335645	-0.17513378
14	0xbd1a9f57	-0.037749615
15	0x3eb4f307	0.35341665
16	0x3c43d443	0.011952463
17	0x3e9056c8	0.2819121
18	0xbea435ea	-0.32072383
19	0xbe97c593	-0.29642925
20	0x3e6a674d	0.22890969
21	0x3e76462b	0.24050204
22	0xbe654030	-0.22387767
23	0x3dd90a58	0.10597676
24	0x3e2dae10	0.16960931
25	0x3d5f7889	0.05455831
26	0xbd3405d7	-0.04395088
27	0x3be544cc	0.0069967266
28	0x3e8d0b9a	0.27547914
29	0x3e3a55fc	0.18196863
30	0x3e976a3b	0.29573235
31	0x3d5281ff	0.051393505

bn1.running_var f4 [32]
0	0x3d651d32	0.055936046
1	0x3f0683d6	0.52544916
2	0x3ce5532f	0.027993767
3	0x3e1b1d5a	0.15147915
4	0x3fc3af30	1.5287838
5	0x3db4d536	0.08829729
6	0x3e82078a	0.25396377
7	0x3cc4e084	0.024032839
8	0x3d8ba222	0.06818034
9	0x3caa5373	0.020791745
10	0x3db27831	0.08714331
11	0x3d55d08b	0.052200835
12	0x3ef41b51	0.4767709
13	0x3caec985	0.021336326
14	0x3cb54a19	0.02213006
15	0x3e34b445	0.17646892
16	0x3ea1996c	0.31562364
17	0x3d26568c	0.04060988
18	0x3fc81c73	1.5633682
19	0x3fcd6ab0	1.6048183
20	0x3d78d748	0.060752183
21	0x3d82c189	0.0638457
22	0x3d503dc1	0.050840143
23	0x3d3e10fc	0.046402916
24	0x3d066db6	0.032819472
25	0x3f973494	1.181292
26	0x3e0e94f1	0.13924004
27	0x3cd77457	0.026300592
28	0x3d1b05dd	0.03784739
29	0x3d46d5d8	0.04854378
30	0x3f7521a9	0.95754486
31	0x3e1f299a	0.15543213

conv2.weight f4 [64, 32, 3, 3]
0	0x3d75b446	0.059986375
1	0x3d33758b	0.04381327
2	0x3da8b065	0.082367696
3	0x3d3b30cc	0.045700833
4	0xbd035e3e	-0.0320723
5	0x3c752572	0.014962541
6	0x3d493e57	0.049131718
7	0xbc194553	-0.009354907
8	0x3da541e6	0.0806921
9	0xbce74586	-0.028231394
10	0x3be6e179	0.0070459214
11	0xbd472bdf	-0.048625823
12	0x3d234623	0.03986181
13	0xbd4fa7b3	-0.05069704
14	0xbd21720f	-0.039415415
15	0x3cd8fd56	0.026487987
16	0xbd2b93bf	-0.04188895
17	0xbd54f097	-0.051987257
18	0xbdac44f9	-0.08411593
19	0xbd9c6bac	-0.07637724
20	0x3abb6164	0.0014295992
21	0xbd55a30d	-0.05215745
22	0xbd269a4b	-0.04067449
23	0xbb86f9bc	-0.004119126
24	0xbc461d12	-0.012091892
25	0xbcb1e6de	-0.021716531
26	0xbc19a6b2	-0.009378122
27	0xbcc615ad	-0.024180258
28	0xbbb99590	-0.005663581
29	0xb9c6bb96	-0.00037905265
30	0xbd44d667	-0.048056033
31	0xbd168211	-0.036745135
32	0x3c46a6d0	0.012124732
33	0xbd722daa	-0.05912558
34	0xbd0e343f	-0.034717795
35	0x3d07aebf	0.033125635
36	0x3d39487f	0.045235153
37	0xbaabfbd2	-0.0013121313
38	0x3d017d56	0.03161367
39	0xbd0926b9	-0.033484194
40	0xbb391795	-0.0028242816
41	0xbce72a6e	-0.028218474
42	0x3cc2a5a6	0.023760628
43	0xbd31983d	-0.043358076
44	0x3d3ac336	0.045596324
45	0x3c24adf8	0.010051243
46	0xbdb21fd5	-0.08697478
47	0xbd94391c	-0.07237455
48	0xbc70918f	-0.014683141
49	0xbd39d0c1	-0.0453651
50	0xbc525527	-0.012837685
51	0xbd8b8067	-0.068116
52	0xbd7e6d7f	-0.062116142
53	0xbc729d2b	-0.01480798
54	0xbd667bee	-0.056270532
55	0x3d4fe05e	0.050751083
56	0xbcc6b444	-0.02425588
57	0x3a4f0035	0.0007896454
58	0xbc68d53b	-0.014210994
59	0x3d26e75f	0.040747996
60	0x3c445d44	0.011985127
61	0xbcbff25e	-0.023431
62	0xbbd84935	-0.006600524
63	0x3bda0163	0.0066529973
64	0xbc9bd12b	-0.019020637
65	0xbd269060	-0.04066503
66	0xbd11d654	-0.03560479
67	0xbd5549d1	-0.05207235
68	0xbd0d3d67	-0.034482386
69	0xbd3a9a68	-0.04555741
70	0xbcf2903e	-0.029609796
71	0xbd4a5b9a	-0.049403764
72	0xbb856d19	-0.0040718433
73	0xbc4021fe	-0.011726854
74	0xbc16ea8c	-0.009211194
75	0xbc8bbc09	-0.017057436
76	0x3c1f04f8	0.0097057745
77	0x3ccbb4f5	0.02486656
78	0xbd919284	-0.07108024
79	0xbde37ffe	-0.11108397
80	0xbd9d5acd	-0.076833345
81	0x3cde7305	0.027154455
82	0xbd9b948f	-0.07596695
83	0xbb218145	-0.00246437
84	0x3d5f92f6	0.054583512
85	0xbcb64299	-0.022248553
86	0x3d9dbd38	0.07702106
87	0xbcafea8e	-0.02147415
88	0xbd3c12d4	-0.045916393
89	0xbc08d761	-0.008352132
90	0xbd63dd11	-0.055630747
91	0x3a547acd	0.0008105457
92	0xbb8e1a12	-0.004336604
93	0x3c66f720	0.014097005
94	0xbcc5d255	-0.024148146
95	0x3d468c56	0.04847368
96	0xbd2393c8	-0.039935857
97	0xbc8d3869	-0.017238813
98	0xbd4df383	-0.05028106
99	0x3cef87dd	0.02923959
100	0x3d3a9b6e	0.045558386
101	0x3d2ada34	0.041712
102	0x3d6992fe	0.05702495
103	0xbc72872a	-0.014802733
104	0x3d66c060	0.056335807
105	0xbd182acf	-0.0371502
106	0x3b26c6cf	0.002544809
107	0xbcea8bcf	-0.028631119
108	0xbb085a4e	-0.002080578
109	0xbd8a6844	-0.06758168
110	0xbd7066c5	-0.05869176
111	0xbbcc5c09	-0.0062365574
112	0xbd662f3e	-0.056197397
113	0xbb128d20	-0.002236195
114	0xbb85cee7	-0.0040835026
115	0xbd01b37d	-0.031665314
116	0xbd202f00	-0.039107323
117	0x3cfdb1d2	0.03096858
118	0xbdd5ea36	-0.10445063
119	0xbcdea462	-0.027177993
120	0xbcd886cf	-0.02643147
121	0xbd95d51b	-0.07316037
122	0xbd434b4f	-0.04767924
123	0xbd07e5c8	-0.03317812
124	0xbc933a79	-0.017972218
125	0xbdae025c	-0.08496544
126	0xbd0605d3	-0.0327204
127	0xbc93878e	-0.018008973
128	0xbb2f4f7e	-0.0026750262
129	0xbd81637c	-0.06317803
130	0xbd55e935	-0.052224357
131	0xbe058f44	-0.13042933
132	0x3c0c34c5	0.008557503
133	0xbd8cebff	-0.0688095
134	0x3cd159db	0.025555542
135	0x3d31be66	0.04339447
136	0x3d700811	0.058601443
137	0x3cebb728	0.02877386
138	0xbc8ef70d	-0.017451787
139	0x3d30d855	0.04317506
140	0x3da7b498	0.081887424
141	0x3c984b00	0.01859045
142	0x3bf94489	0.007607047
143	0x3d3ec04c	0.046570107
144	0xbc8f8383	-0.017518764
145	0x3d2186f7	0.039435353
146	0xbd4c559c	-0.04988633
147	0xbad07e41	-0.0015906767
148	0x3c29f08e	0.010372294
149	0x3cafd366	0.021463107
150	0x3db11cb5	0.086480536
151	0x3daeb94e	0.08531438
152	0xbd23809d	-0.039917577
153	0x3d9d9989	0.076953
154	0xbce1d5b6	-0.027567726
155	0xbd22295b	-0.03959022
156	0xbd4d8e69	-0.05018464
157	0xbddaf94c	-0.10692081
158	0xbdaa762f	-0.08323323
159	0xbc622689	-0.013803133
160	0x3d96470e	0.07337771
161	0x3d287801	0.04113007
162	0xbc99b0dd	-0.018761093
163	0x3b881f63	0.004154132
164	0x3cfdc82f	0.030979244
165	0xbd43d337	-0.047808852
166	0x3c3f06ba	0.011659319
167	0x3cf71ec0	0.03016603
168	0xbcbe5702	-0.023234848
169	0xbc9bfb47	-0.019040717
170	0xbd269bdb	-0.04067598
171	0x3cdce506	0.026964676
172	0xbd42f1eb	-0.047593992
173	0xbd2f4d0a	-0.04279808
174	0xbd83f573	-0.064433
175	0x3b0bae1f	0.00213135
176	0x3cd478f3	0.02593658
177	0x3c9a3dcb	0.018828293
178	0xbc85467a	-0.016268957
179	0xbd50cc74	-0.05097623
180	0xbda4c59d	-0.08045504
181	0xbe198221	-0.14991046
182	0xbe106094	-0.14099342
183	0xbce970b4	-0.028496124
184	0xbdaca05f	-0.08429026
185	0xbb6da1d6	-0.0036259792
186	0xbd538355	-0.05163892
187	0xbd10518b	-0.035234015
188	0xbd9c932a	-0.07645257
189	0x3d645fd2	0.055755444
190	0x3a756c90	0.00093621854
191	0x3db936e3	0.09043672
192	0x3d54dae7	0.051966574
193	0x3c02e086	0.007988101
194	0x3d6f93d8	0.058490604
195	0x3dbaaef8	0.09115404
196	0x3c8b93b0	0.017038196
197	0x3c61fd46	0.013793295
198	0x3d8162a4	0.06317642
199	0xbd39b48e	-0.045338206
200	0xbcd2bf6f	-0.025726048
201	0xbdee6087	-0.11639505
202	0xbd96343b	-0.07334181
203	0xbcebd033	-0.0287858
204	0x3c735961	0.014852853
205	0xbcf5da00	-0.030011177
206	0x39a34e0a	0.00031147926
207	0x3cf255e0	0.029581964
208	0x3c84693b	0.016163459
209	0x3d9cd8f1	0.07658566
210	0xbd5a0ac4	-0.053232923
211	0x3d0533c1	0.03252006
212	0xbb6c301a	-0.0036039413
213	0xbcae2a80	-0.0212605
214	0x3d50dafc	0.05099009
215	0xbd01a4f4	-0.031651452
216	0x3d4d55e4	0.05013074
217	0x3d76dedc	0.06027113
218	0xbb3f3b96	-0.0029179803
219	0xbb5da42b	-0.0033819776
220	0x3d301bd7	0.0429953
221	0x3de04370	0.10950363
222	0xbd51f37b	-0.05125759
223	0x3d16afd9	0.036788795
224	0xbcd96c98	-0.02654104
225	0xbcf377be	-0.029720183
226	0xbc768522	-0.01504639
227	0x3c9ae5bc	0.018908374
228	0xbcc13e7e	-0.023589369
229	0x3d0bf69a	0.034170724
230	0xbd49f63d	-0.049307097
231	0xbd042341	-0.032260183
232	0x3cb93983	0.022610432
233	0x3d4356e7	0.0476903
234	0xbcb82a4f	-0.022481112
235	0xbb14d2d7	-0.0022708678
236	0xbd0252e0	-0.031817317
237	0x3a25b3fe	0.00063210714
238	0x3cf8c4dc	0.030367307
239	0xbc49cbd5	-0.012316664
240	0xbccc9043	-0.024971133
241	0xbda4740f	-0.08029949
242	0xbb4d0426	-0.003128299
243	0xbdf22a7a	-0.11824508
244	0xbde962a8	-0.1139577
245	0xbdbbedb0	-0.09176195
246	0xbe1f0190	-0.1552794
247	0xbd8b3533	-0.06797256
248	0xbe09c151	-0.1345265
249	0xbd1aed54	-0.03782399
250	0xbde5c846	-0.1121984
251	0x3a8c46e1	0.0010702276
252	0x3d465ac5	0.04842641
253	0xbd14dc67	-0.036343005
254	0x3d0e31ae	0.034715347
255	0x3d725721	0.059165124

conv2.bias f4 [64]
0	0x3c625e0c	0.013816368
1	0x3c7c728a	0.015408168
2	0xbd1ffc00	-0.039058685
3	0xbd1b4a28	-0.037912518
4	0x3ca6d8bb	0.020367017
5	0xbd35ee20	-0.044416547
6	0x3cec94d7	0.028879566
7	0xbc8bf968	-0.0170867
8	0x3d574c75	0.05256315
9	0xbb361cfb	-0.002778827
10	0x3d10684d	0.03525572
11	0x3d5bebcd	0.053691674
12	0xbd4424c1	-0.047886614
13	0xbb56586c	-0.0032706512
14	0xbd349445	-0.044086713
15	0xbd3d4518	-0.04620847
16	0x3cbee91d	0.023304516
17	0xbd337b8d	-0.043819
18	0xbc867cbb	-0.016416898
19	0x3d033507	0.032032993
20	0xbb13eab1	-0.0022570307
21	0x3b32b783	0.0027270026
22	0xbcd01644	-0.025401242
23	0xbd0aa9b1	-0.033853237
24	0xbd35bad8	-0.04436764
25	0xbc8caf16	-0.017173331
26	0xbcdec7b5	-0.027194837
27	0x3cba57c2	0.022746924
28	0x3d1356f3	0.035971593
29	0xbc39c069	-0.011337378
30	0x3d8aa31f	0.06769394
31	0xbb684cd8	-0.0035446193
32	0xbd0a94e3	-0.033833396
33	0x3a926ea3	0.0011171888
34	0x3cefcb25	0.029271672
35	0x3c99f2fa	0.018792618
36	0xbd798c8c	-0.06092505
37	0xbd298473	-0.04138608
38	0xbc984048	-0.01858534
39	0xbd03e037	-0.03219625
40	0x3d26edc0	0.04075408
41	0xbd7789c0	-0.060434103
42	0x3d49b734	0.04924698
43	0x3d14cf33	0.036330413
44	0xb8f99379	-0.00011900714
45	0xbd3d97f2	-0.046287484
46	0xbc9940bd	-0.018707627
47	0xbd6a827f	-0.057253357
48	0xbc6d5555	-0.014485677
49	0xbd37d24e	-0.044878297
50	0xbd3466fc	-0.044043526
51	0x3d1fcb31	0.039012138
52	0x3c9ff62a	0.01952656
53	0xbd129d80	-0.035794735
54	0xbbfd52a6	-0.0077307997
55	0xbcc3306c	-0.0238268
56	0xbcf71bf2	-0.030164693
57	0x3ac2bdb1	0.0014857558
58	0x3cf4ecda	0.029898096
59	0x3cb9d652	0.022685204
60	0x3cfa80e6	0.030579042
61	0x3c98931b	0.018624833
62	0x3d522fde	0.05131518
63	0xbb4a5e6e	-0.0030879038

bn2.weight f4 [64]
0	0x3f829867	1.020276
1	0x3f84f3c9	1.0386897
2	0x3f70acf9	0.94013935
3	0x3f8edf3e	1.1161878
4	0x3f7d05e1	0.98837095
5	0x3f81987b	1.0124658
6	0x3f7246cc	0.9463928
7	0x3f8671ff	1.0503539
8	0x3f7847f6	0.96984804
9	0x3f68c839	0.90930516
10	0x3f7c2b4a	0.98503554
11	0x3f6bc2ee	0.92094314
12	0x3f7fbf39	0.9990116
13	0x3f8c5734	1.0964112
14	0x3f65ba3b	0.8973729
15	0x3f877fcc	1.0585876
16	0x3f6e5ef9	0.93113667
17	0x3f7e6028	0.9936547
18	0x3f60fb00	0.87882996
19	0x3f8921d7	1.0713452
20	0x3f81bd5e	1.0135915
21	0x3f8856b5	1.0651461
22	0x3f81e025	1.0146528
23	0x3f650444	0.89459634
24	0x3f811fae	1.0087793
25	0x3f70cce0	0.94062614
26	0x3f733c9f	0.95014375
27	0x3f72e8a5	0.9488624
28	0x3f8d498c	1.103807
29	0x3f87bca4	1.0604444
30	0x3f848395	1.0352656
31	0x3f86bacb	1.0525755
32	0x3f87f79a	1.0622437
33	0x3f6f6baa	0.9352366
34	0x3f7200a4	0.9453223
35	0x3f82d675	1.0221697
36	0x3f8470f8	1.0346975
37	0x3f831d0f	1.0243243
38	0x3f8ef625	1.1168867
39	0x3f5d4e09	0.864472
40	0x3f83dd04	1.0301824
41	0x3f754149	0.9580274
42	0x3f8ccb44	1.0999532
43	0x3f7d615d	0.9897669
44	0x3f7b819e	0.98244655
45	0x3f84f799	1.0388061
46	0x3f7b6ed3	0.9821598
47	0x3f7b65e6	0.9820236
48	0x3f72803c	0.9472692
49	0x3f85e7d1	1.046137
50	0x3f688f7d	0.90843946
51	0x3f863628	1.0485277
52	0x3f6b4812	0.91906846
53	0x3f848d49	1.0355617
54	0x3f860ffc	1.0473628
55	0x3f753c6d	0.9579533
56	0x3f67e92e	0.9059018
57	0x3f931236	1.1489933
58	0x3f6da1f2	0.92825234
59	0x3f75b5e4	0.9598067
60	0x3f87871c	1.0588107
61	0x3f7a5ee9	0.9780107
62	0x3f687728	0.9080682
63	0x3f88b513	1.068026

bn2.bias f4 [64]
0	0xbd86a185	-0.06573776
1	0xbde9db92	-0.11418833
2	0xbdf776e7	-0.12083226
3	0xbd80fc1b	-0.06298085
4	0xbd569c4e	-0.052395158
5	0xbdf32778	-0.118727624
6	0xbde8233e	-0.11334847
7	0xbcde07a0	-0.027103245
8	0xbdcbb72e	-0.09947048
9	0xbe3b8be5	-0.18315084
10	0xbde4cbbc	-0.11171672
11	0xbe26a0d3	-0.16272287
12	0xbe169c76	-0.14708123
13	0x3d9ccc4a	0.076561525
14	0xbe5744d9	-0.21022357
15	0xbe21f59d	-0.1581635
16	0xbe095fa9	-0.13415398
17	0xbe16c2a5	-0.14722688
18	0xbe99e4f6	-0.30057496
19	0x3d327e86	0.043577693
20	0xbdbc8877	-0.09205716
21	0xbe7ae1a4	-0.24500138
22	0xbd041055	-0.032242138
23	0xbe486a45	-0.19571789
24	0xbdbdcb44	-0.092672855
25	0xbe1c9350	-0.1529057
26	0xbe5b8df0	-0.21440864
27	0xbe1df2c6	-0.15424642
28	0xbc1e55ea	-0.009664038
29	0xbda53e8c	-0.080685705
30	0xbd5ddc7e	-0.054165356
31	0x3d3d7a48	0.046259195
32	0xbdf51486	-0.11966805
33	0xbe20805d	-0.15673967
34	0xbdc0d42b	-0.09415468
35	0x3c82002d	0.015869224
36	0xbdf54f46	-0.11978011
37	0xbe25b6c2	-0.16182998
38	0xbda1f526	-0.079080865
39	0xbe78f23f	-0.2431116
40	0xbe02998b	-0.12753884
41	0xbe4bcc03	-0.19902043
42	0x3da3f196	0.08005063
43	0xbe3a0d05	-0.18169029
44	0xbe350069	-0.17675938
45	0xbdc455d1	-0.09586681
46	0xbe4c45e8	-0.19948542
47	0xbe2a6cc9	-0.1664306
48	0xbe0b3db1	-0.13597752
49	0xbdb8b76b	-0.09019359
50	0xbe681aa9	-0.2266642
51	0xbdc87c64	-0.09789351
52	0xbe8028fd	-0.25031272
53	0xbe22a5d2	-0.15883568
54	0xbd4ceaf3	-0.050028753
55	0xbe515c9d	-0.20445485
56	0xbe181642	-0.1485224
57	0xbe4b3ff7	-0.1984862
58	0xbe008fcc	-0.12554854
59	0xbe65ff6e	-0.2246072
60	0xbd535172	-0.051591344
61	0xbdea0f4d	-0.114287
62	0xbe448fbe	-0.19195458
63	0x3bf9ed5d	0.007627173

bn2.running_mean f4 [64]
0	0xc01286e6	-2.2894835
1	0xbfdcdaf3	-1.7254318
2	0xbf6cc7ba	-0.9249226
3	0xbfe9e98e	-1.82744
4	0xbf3973da	-0.724424
5	0xbf99cd86	-1.2015846
6	0xc0203c3f	-2.5036771
7	0xc00e04cf	-2.2190435
8	0xbff2a80d	-1.8957535
9	0xbf56e5f2	-0.8394462
10	0xbfee8b5d	-1.863628
11	0x3f820765	1.0158507
12	0xbde349dd	-0.11098073
13	0xbf93887a	-1.1526024
14	0x404d600c	3.2089872
15	0xbf788af4	-0.97087026
16	0xbf83101d	-1.0239292
17	0xbffde70a	-1.9836133
18	0xbea27261	-0.3172789
19	0xbf5ea31a	-0.86967623
20	0xbf8a39cb	-1.0798887
21	0xbdc490ae	-0.09597908
22	0xc01a5597	-2.411474
23	0x3f6cac25	0.9245017
24	0xbfcc217a	-1.5947716
25	0xbf901bee	-1.1258523
26	0xbf48fe62	-0.7851316
27	0xbe46ff67	-0.19433366
28	0xbfabee0b	-1.343202
29	0x3cdc7fa4	0.026916333
30	0xc0173e2a	-2.3631692
31	0xbfca7df0	-1.5819683
32	0xbfd28bba	-1.6448891
33	0x3e14150f	0.14461158
34	0x3fa5f0e6	1.2964141
35	0xbfe32c75	-1.7747942
36	0xc03a8398	-2.9142818
37	0xbf9f48ba	-1.2444069
38	0xbf25448f	-0.6455774
39	0x3d8cd9a8	0.06877452
40	0xbfac87bb	-1.3478922
41	0xbf9496f3	-1.1608566
42	0xbf428171	-0.7597876
43	0xbf80f9ce	-1.0076234
44	0xbf570083	-0.83985156
45	0xbfdbca47	-1.7171105
46	0xbf36f06b	-0.714606
47	0xc00469bf	-2.0689542
48	0x3f8c9e87	1.0985879
49	0xbfb5b3db	-1.4195513
50	0xbecda82a	-0.40167361
51	0xbfdc878d	-1.7228867
52	0xbf5a129e	-0.8518466
53	0xbf6c560e	-0.9231881
54	0xbfc771fe	-1.5581663
55	0x3f7fc8bf	0.9991569
56	0x3f3c0299	0.73441464
57	0xbf56ff09	-0.839829
58	0x406a5478	3.6614056
59	0xbf6c6417	-0.92340225
60	0xbf63d6e2	-0.8899976
61	0xbf8eb792	-1.1149771
62	0x3f3447be	0.7042197
63	0xbfbb45a6	-1.463063

bn2.running_var f4 [64]
0	0x4067fb44	3.624711
1	0x400d11c3	2.204209
2	0x406c25ee	3.689815
3	0x403b6ba4	2.9284449
4	0x40212550	2.5179024
5	0x3ffa95cb	1.9576963
6	0x4089f186	4.310733
7	0x403eda92	2.9820905
8	0x40489338	3.1339855
9	0x3fd1a992	1.6379874
10	0x3fc39414	1.5279565
11	0x4018ac8a	2.385531
12	0x3fc58d1f	1.5433692
13	0x4013ea25	2.311166
14	0x406f5e97	3.7401483
15	0x3fc8e3fb	1.5694574
16	0x3fb3c74d	1.4045197
17	0x40b24dd9	5.572003
18	0x3fd7f953	1.6872963
19	0x400ca12b	2.197337
20	0x3f979a38	1.1843939
21	0x3fa7bbd3	1.3104194
22	0x40480399	3.1252196
23	0x40426d83	3.037934
24	0x3fbc30ad	1.4702355
25	0x402fb699	2.7455199
26	0x3f9f93b6	1.2466953
27	0x3f95077c	1.1642909
28	0x4027e34d	2.6232483
29	0x3fad5345	1.3541037
30	0x40220247	2.531389
31	0x4000f452	2.0149121
32	0x3fd825a2	1.6886485
33	0x3f8bb256	1.0913799
34	0x3ffc305c	1.9702258
35	0x40061280	2.0948792
36	0x40de22bd	6.9417405
37	0x3fc2d2fe	1.522064
38	0x3f9acfa3	1.2094616
39	0x404875e5	3.1321957
40	0x3fb66028	1.4248095
41	0x402ca89f	2.6977918
42	0x3f8f03dc	1.1173053
43	0x4011ad3f	2.276199
44	0x3fa35e59	1.2763168
45	0x400e9d1e	2.2283397
46	0x3f37e478	0.7183299
47	0x4087ef68	4.2479744
48	0x3fc6df2b	1.5536855
49	0x3f8d3821	1.1032754
50	0x3fef462a	1.8693287
51	0x3fc345e1	1.52557
52	0x3fa48d9a	1.2855713
53	0x3fb63103	1.4233707
54	0x40192de0	2.393425
55	0x400b6097	2.1777704
56	0x3f761beb	0.9613635
57	0x3f8d6ed1	1.1049443
58	0x408eddb6	4.4645643
59	0x3f815c53	1.01063
60	0x3fa1bb36	1.2635257
61	0x3f93e568	1.1554384
62	0x400854f6	2.1301856
63	0x40106c1a	2.256598

conv3.weight f4 [128, 64, 3, 3]
0	0x3ca2320f	0.01979926
1	0x3c26a170	0.010170326
2	0x3c298fc5	0.010349219
3	0x3a5bd4c9	0.00083858945
4	0x3cd718d4	0.026256956
5	0x3d40fb65	0.04711475
6	0x3d23668a	0.03989271
7	0xbce45078	-0.027870402
8	0x3bc21101	0.005922437
9	0x3cb8983f	0.022533534
10	0x3cd33837	0.025783641
11	0xbd44deb5	-0.048063952
12	0xbca37b3d	-0.019956226
13	0x3ca3bb42	0.019986752
14	0x3cdde709	0.027087705
15	0x3b589ba2	0.0033051749
16	0xbc296ed9	-0.01034137
17	0xbbcf7737	-0.00633135
18	0xbd3b0710	-0.045661032
19	0x3d5b6baf	0.053569492
20	0x3d073f86	0.033019565
21	0xbcad1f6a	-0.021133143
22	0x3b0a950d	0.002114597
23	0x3bfb5c73	0.007670933
24	0xbd744f65	-0.05964603
25	0xb9bf6740	-0.00036507286
26	0xbc881fe2	-0.016616765
27	0x3cd64950	0.026158005
28	0x3c36866a	0.011140445
29	0xbbb107b5	-0.00540253
30	0xbd86cb45	-0.06581739
31	0xbd1afdb2	-0.0378396
32	0xbd82b458	-0.06382054
33	0xbcc2f744	-0.023799546
34	0x3b98ffb1	0.0046691527
35	0x3bb3fc56	0.0054927273
36	0x3d04a614	0.032384947
37	0x3d2006e6	0.03906908
38	0x3d4c1a69	0.049829874
39	0x3b70b400	0.0036728382
40	0xbc8e2ad3	-0.017354405
41	0x3cda97a6	0.02668364
42	0xbc6aeeb7	-0.014339141
43	0xbc446a19	-0.011988186
44	0xbc553a58	-0.0130143985
45	0x3d3ea692	0.046545573
46	0x3d1edd6f	0.038785394
47	0x3cea5d02	0.028608803
48	0x3d91146d	0.07083974
49	0x3d025138	0.031815737
50	0x3a1ff756	0.00061022246
51	0xbcb089e8	-0.021550134
52	0x3cbee037	0.023300273
53	0xb9e443bc	-0.00043538015
54	0x3b8160e5	0.0039483183
55	0x3b2b1271	0.0026103521
56	0xbd10808f	-0.035278853
57	0x3b922f19	0.004461181
58	0x3b791565	0.0038007137
59	0x3cfa7e48	0.030577794
60	0xbd23f08a	-0.040024318
61	0x3c634aec	0.013872843
62	0xbacd0b4d	-0.0015643627
63	0xbbbdd47f	-0.005793154
64	0xbd384302	-0.04498578
65	0xbc8b7f2d	-0.017028416
66	0xbc9d39cd	-0.0191926
67	0x3c6ccc79	0.014453047
68	0x3c93a52e	0.0180231
69	0x3c37cbb5	0.011218001
70	0x3c8871b8	0.016655788
71	0xbc32539a	-0.01088419
72	0xbd958ab5	-0.07301847
73	0xbc02682d	-0.007959408
74	0xbcd8dddd	-0.02647298
75	0x3cf7abc0	0.030233264
76	0x3c98ff2d	0.018676365
77	0x3cb86e99	0.022513675
78	0xbd11ac4c	-0.035564706
79	0xbcea7992	-0.028622422
80	0xbc1ca923	-0.00956181
81	0x3c9be8e6	0.019031953
82	0x3d21a4e5	0.039463896
83	0x3d3f3eba	0.04669068
84	0x3c941a10	0.018078834
85	0xbc9d8d71	-0.019232484
86	0x3b119dfa	0.0022219406
87	0xbbce60a2	-0.0062981406
88	0x3d4d941a	0.05019007
89	0xbc757602	-0.014981749
90	0x3d9f064f	0.07764875
91	0x3d6acd99	0.05732498
92	0xbbb79de5	-0.0056035393
93	0x3d422985	0.047402877
94	0x3d326086	0.043549083
95	0xbc795ff7	-0.015220634
96	0x3c58823f	0.013214647
97	0xbb6c700c	-0.0036077527
98	0xbc6cf202	-0.014461996
99	0x3d0ed7c6	0.034873746
100	0x3d2e35a6	0.042531632
101	0x3d6043e0	0.05475223
102	0xbc58dd93	-0.013236421
103	0xbceb43fb	-0.028718939
104	0x3cbbf991	0.022946151
105	0xbb0ebbc1	-0.002177939
106	0xbc201cf3	-0.009772527
107	0x3d0a7b8b	0.033809226
108	0xbc8258e6	-0.01591153
109	0xbd6b14fd	-0.057393063
110	0x3d22d31d	0.039752115
111	0xb867efdd	-5.5298082e-05
112	0xbcb1a85c	-0.021686725
113	0xbc40d250	-0.011768892
114	0xbc4a6741	-0.012353719
115	0xbc1e5795	-0.009664436
116	0xbc53900f	-0.012912764
117	0x3d7a88cd	0.06116562
118	0x3dd70b5a	0.10500212
119	0x3ddb1c1c	0.10698721
120	0x3d1e1119	0.038590524
121	0x3d65818a	0.05603174
122	0x3d2c9f06	0.042143844
123	0xbd38f7c2	-0.045158155
124	0x3bce75c8	0.0063006617
125	0x3b564344	0.0032693902
126	0xbc90d54b	-0.017679831
127	0xbc87f86e	-0.016597953
128	0xbcfbb477	-0.0307257
129	0xbd64dd8f	-0.055875357
130	0xbcbf0bbd	-0.023321027
131	0xbd8b6674	-0.06806651
132	0x3c8202bb	0.015870443
133	0x3cd3adbd	0.02583968
134	0xbd14f5af	-0.036367115
135	0x3c1d4f3a	0.009601409
136	0xbcb669be	-0.022267219
137	0xbd849143	-0.06473019
138	0x3c249503	0.010045293
139	0x3ceb9226	0.028756212
140	0x3bd8217d	0.006595789
141	0x3d8ac0aa	0.06775029
142	0x3d31e5d1	0.04343206
143	0x3d2c51a2	0.04207004
144	0x3c9ce2a9	0.019151049
145	0x3cabfb51	0.02099386
146	0x3d007282	0.031359203
147	0x3d20b938	0.03923914
148	0xbc887d9d	-0.01666146
149	0x3cbff91b	0.023434212
150	0x3cf8c752	0.03036848
151	0x3cab71bb	0.020928254
152	0x3cdc16fe	0.026866432
153	0xbd4177ea	-0.0472335
154	0x3c1a09cb	0.009401749
155	0xbd50913e	-0.050919764
156	0x3b27903e	0.0025568153
157	0x3c51af83	0.012798193
158	0x3cf2585a	0.029583145
159	0xbd82fcb1	-0.06395853
160	0xbd186ec4	-0.03721501
161	0xbd94b676	-0.07261364
162	0x3cde9696	0.027171414
163	0x3d34312b	0.043992203
164	0x3b826862	0.0039797286
165	0xbbc3e60d	-0.005978352
166	0xbd0f9983	-0.03505851
167	0xbd28f927	-0.041253235
168	0x3d804b4f	0.06264364
169	0x3d7f950c	0.062398
170	0xbb112080	-0.0022144616
171	0x3d6863af	0.05673569
172	0x3ce040c2	0.027374629
173	0x3d5bbcb1	0.053646747
174	0xbc86ad0c	-0.016439937
175	0x3bc27915	0.0059348443
176	0x3d4bd7be	0.049766295
177	0xbc9e4e69	-0.019324498
178	0x3c9d18ae	0.019176807
179	0x3c66b536	0.01408129
180	0xbc952e27	-0.018210484
181	0xbb41e6e3	-0.0029587082
182	0x3cb302d3	0.021851933
183	0xbc89d002	-0.016822819
184	0x3d1227d2	0.035682507
185	0x3d9fc407	0.07801061
186	0x3da7a571	0.08185852
187	0x3d52660f	0.051366862
188	0x3d508c75	0.0509152
189	0xbd2fc82b	-0.042915504
190	0xbc66e777	-0.014093271
191	0x3c8108f7	0.015751345
192	0xbc2e8896	-0.010652682
193	0x3d5181a2	0.051149018
194	0xbd14ecdc	-0.0363587
195	0x3d9a1948	0.07524353
196	0x3dd8ce97	0.10586279
197	0x3d9bf27a	0.07614608
198	0xbc7cf5c5	-0.015439455
199	0xbd4f52b7	-0.050615992
200	0x3bfd41de	0.0077287992
201	0xbd42fce5	-0.04760446
202	0xbd578c70	-0.052624166
203	0xbd482e29	-0.048872147
204	0xbd448c25	-0.047985215
205	0xbd07ed05	-0.033185024
206	0xbd458a4d	-0.048227597
207	0xbd2b73cd	-0.041858483
208	0x3c8166d4	0.015796103
209	0x3cbce408	0.023057953
210	0xbd683cb2	-0.05669851
211	0x3bde60a8	0.0067864247
212	0x3cc28bc0	0.023748279
213	0x3bb09685	0.005389037
214	0x3c691b6d	0.01422773
215	0x3b175f04	0.0023097405
216	0x3cad4e85	0.021155605
217	0x3d165505	0.036702175
218	0x3d4883f5	0.04895397
219	0xbd617b82	-0.055049427
220	0xbd435388	-0.047687083
221	0xbca8f7ab	-0.02062591
222	0x3d9c8ba2	0.0764382
223	0x3d93a300	0.07208824
224	0x3d95ef9d	0.07321093
225	0x3c76610e	0.015037788
226	0x3cbd5ddd	0.023116047
227	0xbcf805ca	-0.030276198
228	0x3d2323f2	0.039829202
229	0xbbf5c510	-0.0075002983
230	0xbb06255e	-0.002046905
231	0xbbb3e232	-0.005489611
232	0xbd6f5b05	-0.058436412
233	0xbc9906da	-0.018680025
234	0x3c3d3b03	0.011549714
235	0x3be82bf5	0.007085318
236	0xbd0d9bc2	-0.03457237
237	0x3ca5ac81	0.020223858
238	0x3bca8d6a	0.0061814087
239	0xbb4f7db1	-0.0031660611
240	0x3dfd11bb	0.123568974
241	0x3cd59659	0.026072668
242	0x3d88b821	0.06675745
243	0x3d4698aa	0.048485436
244	0x3d2071b3	0.039170932
245	0x3c94dd5d	0.01817196
246	0x3c25cd7d	0.010119793
247	0xbc6680f7	-0.014068834
248	0x3cd09bc1	0.025464894
249	0x3d5f00d1	0.054444138
250	0x3d5eb0b5	0.05436774
251	0xbbb2ea76	-0.005460079
252	0xbb8a8c8c	-0.0042281803
253	0xbd8290bc	-0.06375262
254	0x3b854d7b	0.0040680743
255	0xbcf8ca61	-0.03036994

conv3.bias f4 [128]
0	0x3d1ffc6a	0.03905908
1	0x3b5c58ab	0.0033622186
2	0xbb8a4af7	-0.0042203623
3	0xbc27cb3c	-0.010241326
4	0xbc5610e7	-0.013065553
5	0x3c0f5528	0.00874833
6	0x3beedfff	0.007289886
7	0xbbb16ae2	-0.0054143528
8	0xba5b95b4	-0.00083764945
9	0x3b7894b0	0.0037930422
10	0x389d8173	7.510455e-05
11	0x3b61518e	0.0034380886
12	0x3ce82248	0.02833666
13	0x3d1e36a1	0.038626317
14	0x3aa90e56	0.0012897949
15	0xbbd847cd	-0.006600356
16	0x3ca6b7a6	0.020351242
17	0xbc4dd4e0	-0.01256296
18	0xbcb8d955	-0.02256457
19	0xbc710bf4	-0.0147123225
20	0x3d1051bd	0.0352342
21	0xbd01f5ec	-0.03172867
22	0x3d3290e1	0.0435952
23	0x3bd33eec	0.00644671
24	0xbd15e7bf	-0.036597963
25	0xbd079858	-0.03310427
26	0xbcbd9ae2	-0.023145143
27	0x3d088a03	0.033334743
28	0x3d1fbc84	0.038998142
29	0xbc1ab05f	-0.009441464
30	0x3d0ffb5a	0.035151817
31	0x3d0bdcc5	0.03414609
32	0xbcbf730e	-0.023370292
33	0x3c82047b	0.015871277
34	0xbc8b3039	-0.016990768
35	0xbd1111e5	-0.035417456
36	0xbd09e32c	-0.033663914
37	0xbc9087ab	-0.017642817
38	0xbd2f822f	-0.042848762
39	0xbd319675	-0.043356378
40	0xbd15ee04	-0.036603943
41	0xbc2e8176	-0.010650983
42	0xbbc78dfa	-0.006089923
43	0x3c890882	0.01672769
44	0x3bf4b265	0.0074675553
45	0x3d1a5186	0.037675403
46	0x3cc6e99b	0.024281314
47	0x3d020fee	0.031753473
48	0xbcc2cd64	-0.023779579
49	0xbb98a612	-0.004658469
50	0x3d3e91f4	0.04652591
51	0xbcde2ab4	-0.027119972
52	0xbc59016e	-0.01324497
53	0xbc758d1d	-0.014987257
54	0xbb774724	-0.0037731612
55	0xbc9d5e92	-0.019210134
56	0xbc3a533b	-0.011372383
57	0x3ca34276	0.019929152
58	0x3a9685fd	0.0011484023
59	0x3d05e61c	0.032690153
60	0xbd015c68	-0.031582266
61	0xbd24b06f	-0.040207323
62	0xbc925a19	-0.017865228
63	0xbc66ed71	-0.014094696
64	0x3c2cd496	0.010548731
65	0x3d01d692	0.03169877
66	0xbcc018d5	-0.02344934
67	0x3c25c08b	0.010116707
68	0x3d206287	0.039156463
69	0x3c8ef62a	0.017451365
70	0xbce6a594	-0.028155126
71	0xbc8231f8	-0.015892968
72	0x3d21e007	0.03952029
73	0x3c967c0b	0.018369695
74	0x3cbd4819	0.023105668
75	0x3cb62b17	0.022237344
76	0x3d3b7eed	0.045775343
77	0x3c7356ff	0.014852284
78	0x3d28d843	0.04122187
79	0x3d02c1ea	0.031923212
80	0xbafa432c	-0.0019093505
81	0xbcc370cb	-0.023857495
82	0xbd0776c0	-0.033072233
83	0xbb676024	-0.0035305107
84	0xbd1106eb	-0.035406988
85	0xbb9e3c9d	-0.004829003
86	0x3c954a4f	0.01822391
87	0xb8576b1d	-5.135975e-05
88	0xbcd5d5df	-0.026102958
89	0xbd161f88	-0.036651164
90	0xbd0333fc	-0.032031998
91	0x3cb4807d	0.022033924
92	0x3d1b40a3	0.03790344
93	0xbca7ad2f	-0.020468323
94	0xbccf084c	-0.025272511
95	0xbd1070e9	-0.03526393
96	0xbca8f9fe	-0.020627018
97	0xbc4d287a	-0.012521857
98	0x3cbaf26e	0.022820678
99	0x3d0e50c5	0.034744997
100	0x3cb53f40	0.022124887
101	0xbcbe6e5a	-0.02324598
102	0x3cd805f8	0.026370034
103	0xbd1bbdd0	-0.038022816
104	0xbbd937b2	-0.006628954
105	0xbc7e1151	-0.015507058
106	0xbb9dd50f	-0.0048166583
107	0x3c118373	0.008881438
108	0xbcc790c4	-0.024361022
109	0xbd1503ca	-0.036380567
110	0xbc320d76	-0.010867467
111	0xbb058199	-0.0020371436
112	0x3c990671	0.01867983
113	0xbd17a496	-0.037022196
114	0x3bce7eed	0.006301752
115	0x3c4745c9	0.012162634
116	0x3d22763c	0.03966354
117	0x3cd01c18	0.025404021
118	0xb86dd0d0	-5.6699675e-05
119	0x3b390112	0.0028229398
120	0xbc51d6e3	-0.012807581
121	0x3ced49ef	0.028965918
122	0xbcd32f61	-0.025779428
123	0xbd0adab3	-0.033899974
124	0xbccc40d4	-0.024933256
125	0xbd091833	-0.033470344
126	0x3d4cefcc	0.050033376
127	0xbbe935a1	-0.0071169888
