built_models/esc50_esc50cnn_model_fold2_20250430_205742.pth (torch, 654357 bytes, 24 tensors)

mel_transform.spectrogram.window f4 [1024]
0.0 9.417534e-06 3.7640333e-05 8.46982e-05 0.00015059114 0.00023528934 0.0003388226 0.00046113133
0.00060227513 0.0007622242 0.0009409487 0.0011384785 0.0013547838 0.0015898645 0.0018436909 0.0021162927
0.0024076402 0.0027177036 0.0030465126 0.0033940375 0.0037602484 0.0041451156 0.0045486987 0.004970908
0.005411744 0.0058712065 0.0063492954 0.006845951 0.0073611736 0.007894963 0.00844726 0.009018064
0.009607345 0.010215104 0.01084131 0.011485934 0.0121489465 0.012830317 0.013530016 0.014248043
0.014984369 0.015738964 0.016511768 0.017302781 0.018111974 0.018939286 0.019784749 0.02064827
0.021529824 0.022429407 0.02334699 0.024282485 0.025235921 0.026207209 0.027196348 0.028203279
0.029227972 0.030270398 0.031330496 0.032408237 0.033503592 0.03461653 0.03574696 0.036894888
0.038060248 0.039242983 0.040443063 0.041660458 0.04289514 0.044146985 0.045416027 0.046702147
0.048005342 0.049325585 0.050662756 0.052016884 0.05338785 0.054775625 0.05618021 0.057601452
0.059039384 0.060493886 0.06196496 0.06345251 0.064956516 0.06647688 0.06801358 0.06956655
0.0711357 0.072721004 0.0743224 0.075939834 0.07757321 0.07922253 0.080887645 0.082568586
0.0842652 0.085977495 0.087705374 0.08944875 0.09120759 0.092981845 0.094771415 0.096576214
0.09839624 0.10023138 0.10208154 0.103946716 0.105826795 0.10772169 0.10963139 0.111555785
0.11349478 0.115448326 0.11741638 0.11939883 0.12139559 0.12340662 0.1254318 0.12747112
0.12952444 0.13159174 0.1336729 0.13576782 0.13787645 0.13999876 0.1421346 0.14428389
0.14644662 0.14862263 0.15081188 0.15301427 0.15522975 0.15745819 0.1596995 0.16195366
0.16422054 0.16650003 0.16879213 0.17109665 0.1734136 0.1757428 0.17808422 0.1804378
0.18280336 0.1851809 0.18757027 0.18997142 0.19238421 0.1948086 0.1972445 0.19969177
0.20215034 0.20462015 0.20710108 0.20959303 0.21209592 0.21460965 0.21713409 0.21966922
0.2222149 0.22477102 0.22733751 0.22991425 0.23250118 0.23509818 0.23770517 0.24032202
0.24294865 0.24558496 0.24823079 0.25088614 0.2535509 0.25622493 0.25890815 0.2616004
0.26430166 0.26701176 0.26973063 0.2724582 0.27519435 0.27793896 0.28069192 0.2834531
0.28622246 0.28899986 0.29178524 0.29457843 0.29737937 0.30018795 0.30300403 0.30582747
0.3086583 0.31149632 0.31434143 0.3171935 0.3200525 0.3229183 0.32579064 0.32866964
0.33155507 0.33444685 0.33734488 0.340249 0.34315917 0.34607518 0.34899703 0.35192457
0.35485768 0.35779625 0.36074018 0.36368936 0.3666436 0.36960295 0.37256718 0.3755362
0.37850994 0.38148823 0.38447094 0.38745803 0.3904494 0.39344487 0.39644432 0.3994477
0.40245488 0.40546566 0.40848005 0.4114979 0.41451907 0.41754347 0.42057097 0.42360145
0.42663476 0.42967087 0.43270966 0.43575096 0.43879467 0.4418407 0.44488895 0.4479392
0.45099142 0.45404553 0.45710137 0.46015882 0.46321777 0.46627808 0.46933964 0.4724024
0.47546616 0.47853088 0.4815964 0.48466262 0.48772943 0.49079663 0.49386424 0.49693206
00000000: 0000 0000 0000 1e37 00e0 1d38 00a0 b138
00000010: 00e8 1d39 00b8 7639 00a4 b139 00c4 f139
00000020: 00e2 1d3a 00d0 473a 00aa 763a 0039 953a
00000030: 0093 b13a 0063 d03a 00a8 f13a 80b1 0a3b
00000040: 80c9 1d3b 801b 323b 00a8 473b 806e 5e3b
00000050: 806e 763b c0d3 873b 400d 953b 00e3 a23b
00000060: 0055 b13b 4063 c03b c00d d03b 0054 e03b
00000070: 0036 f13b e059 013c 6066 0a3c 80c0 133c
00000080: 2068 1d3c 405d 273c c09f 313c 802f 3c3c
00000090: 600c 473c 4036 523c 00ad 5d3c a070 693c
000000a0: 0081 753c 00ef 803c b043 873c 90be 8d3c
000000b0: 905f 943c 9026 9b3c a013 a23c 9026 a93c
000000c0: 505f b03c e0bd b73c 3042 bf3c 10ec c63c
000000d0: 90bb ce3c 80b0 d63c e0ca de3c 900a e73c
000000e0: 806f ef3c a0f9 f73c 6854 003d 80be 043d
000000f0: 103b 093d 10ca 0d3d 686b 123d 181f 173d
00000100: 10e5 1b3d 40bd 203d a0a7 253d 28a4 2a3d
00000110: d0b2 2f3d 78d3 343d 2806 3a3d c04a 3f3d
00000120: 40a1 443d a009 4a3d c083 4f3d a80f 553d
00000130: 38ad 5a3d 685c 603d 381d 663d 80ef 6b3d
00000140: 48d3 713d 70c8 773d f8ce 7d3d 64f3 813d
00000150: ec07 853d 0825 883d b44a 8b3d e878 8e3d
00000160: 98af 913d c0ee 943d 5836 983d 5886 9b3d
00000170: b4de 9e3d 6c3f a23d 6ca8 a53d b819 a93d
00000180: 3c93 ac3d f814 b03d e09e b33d e830 b73d
00000190: 0ccb ba3d 446d be3d 8417 c23d c0c9 c53d
000001a0: f883 c93d 1c46 cd3d 2010 d13d 04e2 d43d
000001b0: b8bb d83d 309d dc3d 6c86 e03d 5c77 e43d
000001c0: f46f e83d 2c70 ec3d 0078 f03d 6087 f43d
000001d0: 409e f83d 9cbc fc3d 3271 003e ca87 023e
000001e0: 0ea2 043e fcbf 063e 8ce1 083e b806 0b3e
000001f0: 7c2f 0d3e d65b 0f3e bc8b 113e 28bf 133e
00000200: 1af6 153e 8830 183e 6e6e 1a3e c6af 1c3e
00000210: 8cf4 1e3e b83c 213e 4488 233e 2ed7 253e
00000220: 6e29 283e fc7e 2a3e d8d7 2c3e f633 2f3e
00000230: 5693 313e ecf5 333e b65b 363e b0c4 383e
00000240: ce30 3b3e 10a0 3d3e 6c12 403e de87 423e
00000250: 5e00 453e e87b 473e 76fa 493e 007c 4c3e
00000260: 8000 4f3e f287 513e 4e12 543e 8e9f 563e
00000270: ac2f 593e a2c2 5b3e 6658 5e3e f8f0 603e
00000280: 4e8c 633e 602a 663e 2acb 683e a46e 6b3e
00000290: ca14 6e3e 94bd 703e fc68 733e fa16 763e
000002a0: 88c7 783e a07a 7b3e 3630 7e3e 2674 803e
000002b0: 6cd1 813e ea2f 833e 9c8f 843e 7df0 853e
000002c0: 8c52 873e c4b5 883e 221a 8a3e a47f 8b3e
000002d0: 46e6 8c3e 044e 8e3e dab6 8f3e c420 913e
000002e0: c08b 923e caf7 933e e064 953e fcd2 963e
000002f0: 1c42 983e 3cb2 993e 5823 9b3e 6b95 9c3e
00000300: 7608 9e3e 727c 9f3e 5cf1 a03e 3067 a23e
00000310: ecdd a33e 8c55 a53e 08ce a63e 6347 a83e
00000320: 96c1 a93e 9e3c ab3e 78b8 ac3e 1e35 ae3e
00000330: 8fb2 af3e c430 b13e bdaf b23e 752f b43e
00000340: e8af b53e 1231 b73e f0b2 b83e 7e35 ba3e
00000350: b6b8 bb3e 993c bd3e 20c1 be3e 4846 c03e
00000360: 0ecc c13e 6d52 c33e 60d9 c43e e660 c63e
00000370: fce8 c73e 9b71 c93e c0fa ca3e 6984 cc3e
00000380: 910e ce3e 3299 cf3e 4c24 d13e daaf d23e
00000390: d83b d43e 42c8 d53e 1455 d73e 4ae2 d83e
000003a0: df6f da3e d2fd db3e 1f8c dd3e c01a df3e
000003b0: b2a9 e03e f238 e23e 7cc8 e33e 4958 e53e
000003c0: 59e8 e63e a878 e83e 3109 ea3e f099 eb3e
000003d0: e12a ed3e 00bc ee3e 494d f03e bade f13e
000003e0: 4d70 f33e 0002 f53e ce93 f63e b325 f83e
000003f0: acb7 f93e b249 fb3e c6db fc3e e16d fe3e

mel_transform.mel_scale.fb f4 [513, 40]
-0.0 0.0 0.0 0.0 0.0 0.0 0.0 0.0
0.0 0.0 0.0 0.0 0.0 0.0 0.0 0.0
0.0 0.0 0.0 0.0 0.0 0.0 0.0 0.0
0.0 0.0 0.0 0.0 0.0 0.0 0.0 0.0
0.0 0.0 0.0 0.0 0.0 0.0 0.0 0.0
0.69426066 0.0 0.0 0.0 0.0 0.0 0.0 0.0
0.0 0.0 0.0 0.0 0.0 0.0 0.0 0.0
0.0 0.0 0.0 0.0 0.0 0.0 0.0 0.0
0.0 0.0 0.0 0.0 0.0 0.0 0.0 0.0
0.0 0.0 0.0 0.0 0.0 0.0 0.0 0.0
0.64310575 0.35689425 0.0 0.0 0.0 0.0 0.0 0.0
0.0 0.0 0.0 0.0 0.0 0.0 0.0 0.0
0.0 0.0 0.0 0.0 0.0 0.0 0.0 0.0
0.0 0.0 0.0 0.0 0.0 0.0 0.0 0.0
0.0 0.0 0.0 0.0 0.0 0.0 0.0 0.0
0.005360414 0.9946396 0.0 0.0 0.0 0.0 0.0 0.0
0.0 0.0 0.0 0.0 0.0 0.0 0.0 0.0
0.0 0.0 0.0 0.0 0.0 0.0 0.0 0.0
0.0 0.0 0.0 0.0 0.0 0.0 0.0 0.0
0.0 0.0 0.0 0.0 0.0 0.0 0.0 0.0
0.0 0.41909382 0.58090615 0.0 0.0 0.0 0.0 0.0
0.0 0.0 0.0 0.0 0.0 0.0 0.0 0.0
0.0 0.0 0.0 0.0 0.0 0.0 0.0 0.0
0.0 0.0 0.0 0.0 0.0 0.0 0.0 0.0
0.0 0.0 0.0 0.0 0.0 0.0 0.0 0.0
0.0 0.0 0.8468364 0.15316364 0.0 0.0 0.0 0.0
0.0 0.0 0.0 0.0 0.0 0.0 0.0 0.0
0.0 0.0 0.0 0.0 0.0 0.0 0.0 0.0
0.0 0.0 0.0 0.0 0.0 0.0 0.0 0.0
0.0 0.0 0.0 0.0 0.0 0.0 0.0 0.0
0.0 0.0 0.3086942 0.69130576 0.0 0.0 0.0 0.0
0.0 0.0 0.0 0.0 0.0 0.0 0.0 0.0
00000000: 0000 0080 0000 0000 0000 0000 0000 0000
00000010: 0000 0000 0000 0000 0000 0000 0000 0000
00000020: 0000 0000 0000 0000 0000 0000 0000 0000
00000030: 0000 0000 0000 0000 0000 0000 0000 0000
00000040: 0000 0000 0000 0000 0000 0000 0000 0000
00000050: 0000 0000 0000 0000 0000 0000 0000 0000
00000060: 0000 0000 0000 0000 0000 0000 0000 0000
00000070: 0000 0000 0000 0000 0000 0000 0000 0000
00000080: 0000 0000 0000 0000 0000 0000 0000 0000
00000090: 0000 0000 0000 0000 0000 0000 0000 0000
000000a0: 11bb 313f 0000 0000 0000 0000 0000 0000
000000b0: 0000 0000 0000 0000 0000 0000 0000 0000
000000c0: 0000 0000 0000 0000 0000 0000 0000 0000
000000d0: 0000 0000 0000 0000 0000 0000 0000 0000
000000e0: 0000 0000 0000 0000 0000 0000 0000 0000
000000f0: 0000 0000 0000 0000 0000 0000 0000 0000
00000100: 0000 0000 0000 0000 0000 0000 0000 0000
00000110: 0000 0000 0000 0000 0000 0000 0000 0000
00000120: 0000 0000 0000 0000 0000 0000 0000 0000
00000130: 0000 0000 0000 0000 0000 0000 0000 0000
00000140: 94a2 243f d8ba b63e 0000 0000 0000 0000
00000150: 0000 0000 0000 0000 0000 0000 0000 0000
00000160: 0000 0000 0000 0000 0000 0000 0000 0000
00000170: 0000 0000 0000 0000 0000 0000 0000 0000
00000180: 0000 0000 0000 0000 0000 0000 0000 0000
00000190: 0000 0000 0000 0000 0000 0000 0000 0000
000001a0: 0000 0000 0000 0000 0000 0000 0000 0000
000001b0: 0000 0000 0000 0000 0000 0000 0000 0000
000001c0: 0000 0000 0000 0000 0000 0000 0000 0000
000001d0: 0000 0000 0000 0000 0000 0000 0000 0000
000001e0: 69a6 af3b b3a0 7e3f 0000 0000 0000 0000
000001f0: 0000 0000 0000 0000 0000 0000 0000 0000
00000200: 0000 0000 0000 0000 0000 0000 0000 0000
00000210: 0000 0000 0000 0000 0000 0000 0000 0000
00000220: 0000 0000 0000 0000 0000 0000 0000 0000
00000230: 0000 0000 0000 0000 0000 0000 0000 0000
00000240: 0000 0000 0000 0000 0000 0000 0000 0000
00000250: 0000 0000 0000 0000 0000 0000 0000 0000
00000260: 0000 0000 0000 0000 0000 0000 0000 0000
00000270: 0000 0000 0000 0000 0000 0000 0000 0000
00000280: 0000 0000 7793 d63e 44b6 143f 0000 0000
00000290: 0000 0000 0000 0000 0000 0000 0000 0000
000002a0: 0000 0000 0000 0000 0000 0000 0000 0000
000002b0: 0000 0000 0000 0000 0000 0000 0000 0000
000002c0: 0000 0000 0000 0000 0000 0000 0000 0000
000002d0: 0000 0000 0000 0000 0000 0000 0000 0000
000002e0: 0000 0000 0000 0000 0000 0000 0000 0000
000002f0: 0000 0000 0000 0000 0000 0000 0000 0000
00000300: 0000 0000 0000 0000 0000 0000 0000 0000
00000310: 0000 0000 0000 0000 0000 0000 0000 0000
00000320: 0000 0000 0000 0000 45ca 583f eed6 1c3e
00000330: 0000 0000 0000 0000 0000 0000 0000 0000
00000340: 0000 0000 0000 0000 0000 0000 0000 0000
00000350: 0000 0000 0000 0000 0000 0000 0000 0000
00000360: 0000 0000 0000 0000 0000 0000 0000 0000
00000370: 0000 0000 0000 0000 0000 0000 0000 0000
00000380: 0000 0000 0000 0000 0000 0000 0000 0000
00000390: 0000 0000 0000 0000 0000 0000 0000 0000
000003a0: 0000 0000 0000 0000 0000 0000 0000 0000
000003b0: 0000 0000 0000 0000 0000 0000 0000 0000
000003c0: 0000 0000 0000 0000 2b0d 9e3e 6af9 303f
000003d0: 0000 0000 0000 0000 0000 0000 0000 0000
000003e0: 0000 0000 0000 0000 0000 0000 0000 0000
000003f0: 0000 0000 0000 0000 0000 0000 0000 0000

conv1.weight f4 [32, 1, 3, 3]
0.2598129 0.13701169 0.007413645 -0.04619471 0.12955694 -0.21047026 -0.025049051 -0.21433061
0.19485927 0.27555993 0.25192767 -0.2278163 -0.26045033 0.08805356 0.036243945 -0.03287362
0.064145565 -0.11456132 -0.265602 0.008252584 -0.0065170587 -0.08856566 -0.23499517 0.05714104
-0.07814213 -0.1400454 -0.0692709 -0.1840368 0.04862235 0.2628619 -0.12911558 0.1581811
-0.3098115 -0.050630044 0.093001075 0.24882104 -0.13828689 0.0023664332 0.23115218 0.10412225
0.21170804 0.07382551 0.348048 0.015311712 0.19895507 0.120231315 0.110570475 0.3005892
0.023500184 -0.108147286 0.049624514 0.041335005 0.2104336 0.2344615 -0.27621716 0.1200499
-0.17294408 0.0627546 -0.19797291 0.13062835 -0.23693517 -0.090702094 -0.0886294 0.16071898
-0.023108024 -0.26822078 0.19922838 -0.08317713 -0.10453273 0.24023211 0.10245644 0.17425308
-0.28238222 -0.27564362 0.3283995 -0.2904465 -0.24609731 0.35405263 -0.30395395 0.10503277
0.22753042 -0.22367015 -0.10118869 0.1862234 0.04064585 -0.11248372 0.24402903 -0.116237335
0.21458003 -0.14112715 -0.11456331 0.20602556 0.11420164 -0.22256932 0.14199486 0.14122824
-0.20785075 -0.19456755 0.21669243 -0.08706991 -0.3072359 -0.17375833 -0.27322936 -0.08960767
-0.39011407 -0.045385562 -0.23375413 -0.2310072 -0.13443996 0.2335059 0.11944478 -0.35783312
0.22490263 -0.026207952 -0.13459545 0.025577003 0.2645963 -0.09586869 -0.2690302 -0.30517486
-0.19415775 -0.24054173 -0.3202332 -0.18149848 0.0426845 -0.028432345 0.20094182 0.27652758
-0.25651821 -0.1606683 0.36949503 0.28783956 0.119928464 -0.18401004 0.1137699 -0.13201685
0.12113022 -0.16826865 0.06414023 0.28946164 0.07921985 -0.0055651143 -0.13154393 -0.31557396
-0.33142012 0.30925307 -0.082695216 -0.003789312 0.25987378 0.15498738 -0.26235044 -0.12474302
-0.043855846 -0.14364779 0.058643095 -0.27586287 -0.08712247 -0.046941955 -0.028748259 -0.1318342
0.28497246 0.31920823 0.32671264 0.090125814 0.17676213 0.2946347 -0.26824024 -0.1800184
0.12546508 0.08524266 -0.27869 -0.3561237 -0.21093325 0.21857145 0.18929265 0.01819227
0.34029415 0.04777905 0.023059227 0.2768098 0.030037437 0.14648257 0.20972827 -0.15606065
0.06946199 0.23301831 -0.043884356 -0.22591354 -0.2600975 -0.018675156 0.057007276 0.2287232
-0.04534811 0.008037702 -0.30941245 0.1812089 -0.16681443 0.06627811 -0.19739148 -0.24818107
-0.21861456 -0.045145106 -0.15732077 -0.011481164 0.31658217 0.21752228 0.30312467 0.047300525
-0.12777248 0.0774495 0.038963262 0.034810875 0.23660265 0.045679722 0.26690385 0.18962696
0.11986037 0.039404146 0.18383195 0.063698895 0.32556367 0.35028696 -0.16359259 0.04327759
0.0948249 0.29466918 0.055434715 -0.25659066 -0.14391078 -0.2995906 -0.32478404 0.05465459
0.052358083 0.2877515 0.20534644 -0.20320214 -0.078700855 -0.036359746 -0.14856964 -0.27211672
-0.040527206 0.23390959 -0.27470177 0.07708649 -0.22727776 -0.13611393 0.12603772 -0.074554466
0.13366173 0.30752903 0.16901313 0.23442239 -0.08175197 0.29918414 -0.039482594 -0.006837939
00000000: 3206 853e cb4c 0c3e 29ee f23b aa36 3dbd
00000010: 93aa 043e 8485 57be ab33 cdbc 7c79 5bbe
00000020: 3089 473e 3116 8d3e aafc 803e ad48 69be
00000030: bf59 85be 6d55 b43d 8874 143d 7da6 06bd
00000040: c05e 833d 209f eabd fcfc 87be d935 073c
00000050: 0d8d d5bb ea61 b5bd 93a2 70be b90c 6a3d
00000060: fb08 a0bd 1068 0fbe e7dd 8dbd 2574 3cbe
00000070: 3b28 473d d695 863e e036 04be 3afa 213e
00000080: 9d9f 9ebe 7361 4fbd 5977 be3d f1ca 7e3e
00000090: 149b 0dbe 2916 1b3b 28b3 6c3e 0c3e d53d
000000a0: fec9 583e d431 973d 5933 b23e fadd 7a3c
000000b0: e1ba 4b3e d63b f63d c672 e23d d4e6 993e
000000c0: 7583 c03c 537c ddbd 1343 4b3d e54e 293d
000000d0: e87b 573e ad16 703e 566c 8dbe b9dc f53d
000000e0: 4118 31be 7c85 803d 69b9 4abe 70c3 053e
000000f0: 229f 72be 05c2 b9bd 5583 b5bd 8493 243e
00000100: 0a4d bdbc 3c54 89be 8602 4c3e c558 aabd
00000110: 4215 d6bd 68ff 753e afd4 d13d 666f 323e
00000120: 6794 90be 2921 8dbe fb23 a83e 67b5 94be
00000130: ef00 7cbe 6346 b53e da9f 9bbe 6c1b d73d
00000140: bcfd 683e ca09 65be 043c cfbd 59b1 3e3e
00000150: 437c 263d dd5d e6bd bfe2 793e d70d eebd
00000160: deba 5b3e a383 10be 2ba0 eabd 5df8 523e
00000170: 8de2 e93d 36e9 63be 1a67 113e 239e 103e
00000180: d4d6 54be b73c 47be 9fe4 5d3e b551 b2bd
00000190: 064e 9dbe b4ed 31be b8e4 8bbe 3a84 b7bd
000001a0: 08bd c7be 36e6 39bd 3e5d 6fbe 278d 6cbe
000001b0: a1aa 09be 2c1c 6f3e 779f f43d e735 b7be
000001c0: e04c 663e 0fb2 d6bc 64d3 09be dd86 d13c
000001d0: 2b79 873e ce56 c4bd 54be 89be e13f 9cbe
000001e0: 4ad1 46be 9250 76be 9bf5 a3be bdda 39be
000001f0: f1d5 2e3d f3ea e8bc b1c3 4d3e 0695 8d3e
00000200: 5b56 83be 3b86 24be 742e bd3e b55f 933e
00000210: 0e9d f53d 216d 3cbe 3100 e93d 6d2f 07be
00000220: 1f13 f83d 9e4e 2cbe f45b 833d 5134 943e
00000230: 043e a23d 905b b6bb 74b3 06be e992 a1be
00000240: e6af a9be 6b56 9e3e 1c5c a9bd 1b56 78bb
00000250: 2d0e 853e 03b5 1e3e cc52 86be 4579 ffbd
00000260: 30a2 33bd 6818 13be be33 703d e63d 8dbe
00000270: 446d b2bd 3546 40bd 7881 ebbc 8bff 06be
00000280: e9e7 913e 436f a33e e146 a73e e293 b83d
00000290: 2201 353e 5cda 963e c956 89be be56 38be
000002a0: eb79 003e b493 ae3d 75b0 8ebe d855 b6be
000002b0: e3fe 57be 32d1 5f3e efd5 413e f507 953c
000002c0: 093b ae3e f7b3 433d b4e6 bc3c 04ba 8d3e
000002d0: 1211 f63c 87ff 153e 02c3 563e 5dce 1fbe
000002e0: 1642 8e3d 5a9c 6e3e 15c0 33bd e155 67be
000002f0: 802b 85be a4fc 98bc 7680 693d 6a36 6a3e
00000300: f1be 39bd 91b0 033c 4f6b 9ebe d38e 393e
00000310: 67d1 2abe d1bc 873d fe20 4abe 2e23 7ebe
00000320: 7fdc 5fbe 13ea 38bd b218 21be 7e1b 3cbc
00000330: 0f17 a23e 29be 5e3e 2833 9b3e 32be 413d
00000340: cad6 02be d89d 9e3d f197 1f3d d995 0e3d
00000350: f747 723e a91a 3b3d 9fa7 883e 922d 423e
00000360: 5b79 f53d 3e66 213d 713e 3c3e 9174 823d
00000370: 48b0 a63e d058 b33e d184 27be d843 313d
00000380: 8f33 c23d e1de 963e 830f 633d da5f 83be
00000390: 595d 13be f063 99be 184a a6be 7edd 5f3d
000003a0: 6e75 563d 2a54 933e 5646 523e 3914 50be
000003b0: ea2d a1bd f5ed 14bd a422 18be e252 8bbe
000003c0: dbff 25bd ff85 6f3e b6a5 8cbe 86df 9d3d
000003d0: 80bb 68be 7361 0bbe 0810 013e 03b0 98bd
000003e0: 9fde 083e 7274 9d3e c711 2d3e 6c0c 703e
000003f0: 946d a7bd aa2e 993e 80b8 21bd ca10 e0bb

conv1.bias f4 [32]
-0.003360457 -0.18390813 -0.2566344 0.14415422 -0.10660528 -0.31593448 0.02762481 -0.102920525
-0.29704732 0.29718432 -0.17039666 0.18308683 0.07141181 -0.2801852 0.20273384 0.23361978
-0.08528328 -0.30208156 0.26690477 -0.26813763 -0.07769836 -0.27955452 0.16947487 -0.15397453
0.05459483 -0.03589915 0.0874153 -0.122330725 -0.205957 -0.16284879 0.19390728 -0.32466212
00000000: 1d3b 5cbb 6a52 3cbe 9665 83be 2a9d 133e
00000010: de53 dabd 2ac2 a1be 6d4d e23c ffc7 d2bd
00000020: 9616 98be 8b28 983e 767c 2ebe 1d7b 3b3e
00000030: 5b40 923d 6f74 8fbe 7699 4f3e 063a 6f3e
00000040: 00a9 aebd 6faa 9abe bea7 883e 5649 89be
00000050: 5120 9fbd c521 8fbe d28a 2d3e 80ab 1dbe
00000060: d49e 5f3d fd0a 13bd cb06 b33d 8888 fabd
00000070: 64e6 52be d5c1 26be a18f 463e 1d3a a6be

bn1.weight f4 [32]
0.98929703 1.0346286 0.9377988 1.0051425 0.9992727 0.9694097 0.9294303 1.0025606
1.0056044 1.0293022 1.0258359 0.90398204 1.0393072 0.96562475 0.9521074 0.9726067
0.9791483 1.0156671 1.0047452 0.99273694 0.98704785 1.0048873 1.0420235 1.0127901
1.0034177 0.9640708 0.96091664 1.0126874 0.9815712 0.96448505 1.0395062 1.0125767
00000000: 9242 7d3f b66e 843f 9513 703f 82a8 803f
00000010: 56d0 7f3f 3c2b 783f 25ef 6d3f e853 803f
00000020: a5b7 803f 2dc0 833f 974e 833f 5e6b 673f
00000030: 0508 853f 2f33 773f 50bd 733f c1fc 783f
00000040: 77a9 7a3f 6101 823f 7e9b 803f 0224 7e3f
00000050: 2baf 7c3f 26a0 803f 0761 853f 1ba3 813f
00000060: fe6f 803f 58cd 763f a2fe 753f be9f 813f
00000070: 4048 7b3f 7ee8 763f 8a0e 853f 1d9c 813f

bn1.bias f4 [32]
-0.020883432 0.016231438 -0.03992765 -0.045879554 -0.036269955 -0.03538409 0.0056966213 -0.042013876
0.012159502 0.025013093 -0.04679111 -0.008950926 -0.05239903 0.019281594 -0.03399568 0.039737873
0.016998265 0.11289222 -0.05164246 -0.10477244 0.03236765 0.065096445 0.021389663 -0.0693008
-0.02776698 -0.011749824 0.02821056 -0.058698375 0.01120477 0.04180543 -0.03938153 0.045086395
00000000: bb13 abbc cbf7 843c 2d8b 23bd 33ec 3bbd
00000010: ce8f 14bd e8ee 10bd b9aa ba3b be16 2cbd
00000020: a638 473c 42e8 cc3c 09a8 3fbd e8a6 12bc
00000030: 5ea0 56bd 6ff4 9d3c 0e3f 0bbd 2ec4 223d
00000040: f23f 8b3c 0934 e73d 0b87 53bd ef92 d6bd
00000050: f193 043d 4951 853d 6039 af3c 94ed 8dbd
00000060: 9477 e3bc 5582 40bc d519 e73c b56d 70bd
00000070: 3694 373c 2c3c 2b3d 874e 21bd 83ac 383d

bn1.running_mean f4 [32]
0.012753139 -0.17154251 -0.26477858 0.1444617 -0.10680141 -0.2997089 0.01823367 -0.11172286
-0.30720544 0.29184836 -0.15881534 0.1642793 0.0796334 -0.3056688 0.2118654 0.22966887
-0.08418513 -0.31757805 0.29141885 -0.28485337 -0.0567829 -0.26997966 0.13587333 -0.15830553
0.068548284 -0.036839545 0.08483015 -0.14056022 -0.19458221 -0.16223036 0.19587746 -0.30483347
00000000: 8bf2 503c d7a8 2fbe 0f91 87be c5ed 133e
00000010: b3ba dabd 7273 99be c75e 953c f4ce e4bd
00000020: 084a 9dbe 266d 953e 7da0 22be d538 283e
00000030: d616 a33d 9f80 9cbe 3ef3 583e 512e 6b3e
00000040: 4169 acbd 9799 a2be da34 953e 4dd8 91be
00000050: 3095 68bd c63a 8abe 6122 0b3e d81a 22be
00000060: 0b63 8c3d 10e5 16bd 6ebb ad3d 05ef 0fbe
00000070: 8f40 47be b71f 26be 1a94 483e 2213 9cbe

bn1.running_var f4 [32]
0.060561784 0.018251084 0.5712707 0.03665148 0.96815866 0.82034534 0.47983435 0.19869281
0.21048371 0.012109792 0.041162554 2.9048216 0.061707262 2.2225451 0.5332687 0.07701905
0.05465509 0.068352714 0.17427535 0.38443574 0.077848226 0.012380129 0.19387403 0.6014393
1.0548066 0.16299707 0.3952611 0.43008342 0.057672266 0.25392044 0.037411846 0.043915343
00000000: a20f 783d 4c83 953c cc3e 123f dd1f 163d
00000010: 3fd9 773f 2702 523f d9ac f53e 2176 4b3e
00000020: 0b89 573e 2668 463c 119a 283d 99e8 3940
00000030: c1c0 7c3d 2e3e 0e40 4c84 083f 2abc 9d3d
00000040: 04de 5f3d 82fc 8b3d 3d75 323e c3d4 c43e
00000050: e46e 9f3d 06d6 4a3c ea86 463e edf7 193f
00000060: e703 873f b4e8 263e aa5f ca3e e533 dc3e
00000070: c139 6c3d dc01 823e 2a3d 193d 93e0 333d

conv2.weight f4 [64, 32, 3, 3]
0.04830502 0.06553194 0.006419812 -0.085603446 -0.03983638 -0.06296939 0.015070397 -0.05104353
0.035739724 -0.02693461 0.05909525 0.023298388 -0.060142417 -0.047490224 -0.031639323 0.010156346
0.0283891 0.045954525 -0.07058002 0.024083285 -0.033803176 0.024885956 0.010431442 0.047457278
-0.045920912 0.038205363 -0.0023504964 0.02526833 0.03908643 0.005097496 0.024550121 0.025600221
-0.020375947 -0.050340313 -0.036398474 -0.005486689 -0.03941846 0.050060168 0.02803222 0.045933116
-0.05355706 -0.035151463 0.051630266 -0.0033773743 -0.034689587 -0.022195175 0.017669518 -0.05711917
-0.026425418 0.017604599 -0.046181165 -0.01721084 0.050917715 0.05868461 -0.074271455 -0.014145587
-0.03690747 0.033618957 0.004670943 0.029345142 0.04297712 -0.004483426 0.034357943 -0.010670887
0.061391834 -0.015342995 -0.009307175 0.038224522 0.042750556 -0.05175746 0.037023816 0.041473236
-0.0848186 -0.06086434 -0.013067391 -0.028886195 -0.0056617386 -0.047044646 -0.058204103 -0.06565675
0.037704818 -0.05624287 -0.06410651 -0.07031439 -0.040194627 -0.013246392 -0.032045964 0.011333013
-0.035108592 -0.07889328 -0.032461528 -0.05133497 0.017293265 0.017827569 -0.092247665 0.012952372
-0.027260335 -0.06207132 -0.05163089 -0.003374518 0.0007202913 0.014173249 -0.022784442 -0.01567222
0.02742437 -0.016254554 0.0075921267 -0.013649739 0.040334232 0.031455304 0.005896132 -0.06095179
0.01841333 -0.061447136 -0.014396841 0.016383136 -0.027002042 -0.06686094 -0.07218098 -0.015062239
-0.007155018 -0.007373048 -0.0010594203 0.032185815 0.05187157 -0.009623993 0.006182752 -0.036728587
-0.06866012 -0.06493404 -0.045957405 0.030091409 0.034194637 -0.0009409374 -0.045756664 -0.00087389466
0.040398363 0.028611492 -0.00799398 -0.008042667 0.047979657 -0.0477419 -0.043714624 0.0765401
-0.05007747 -0.0463085 -0.078463346 0.030164821 0.011880825 -0.067216136 0.0038533933 -0.013840491
0.009547247 -0.029488508 -0.009578469 0.033996508 0.019857462 -0.025309835 0.0125215575 0.012788889
0.042263605 -0.01687746 0.029780747 -0.011392735 0.058927983 -0.079557635 -0.020243375 -0.059353527
-0.023046896 0.05262471 0.03658802 -0.000761493 -0.03941712 0.03826234 -0.037609305 0.04833858
0.011704816 0.009865252 -0.0018278685 -0.044798102 -0.029772935 0.03583389 0.027296435 -0.008570466
-0.023352101 -0.005249938 -0.042912923 0.0018557322 0.055645134 0.06318823 0.08109591 0.086335
-0.037208647 0.0068680225 0.046986967 0.08447727 0.004355218 0.034130882 0.032421343 -0.0038748244
0.06538441 0.066106744 0.060986098 0.027676677 0.039159738 0.064180166 -0.016258093 0.025338054
-0.037110776 0.0037455896 -0.034818918 0.05146982 -0.021931652 0.055612132 0.0010822705 -0.02267223
-0.0054467577 -0.054220784 -0.0020090402 0.011249024 0.0072879656 0.03846958 0.016360292 0.042720925
0.03068628 -0.086096935 0.023516115 -0.037445616 -0.0143592665 0.021438502 0.048383057 -0.02121526
0.04341048 0.05022208 -0.07796027 -0.0091188 0.02180355 -0.050276693 0.044174217 0.034715388
-0.016516987 -0.0062784133 0.026556112 -0.03480504 0.011441834 0.031697888 0.06621279 -0.042275142
-0.036539037 -0.034415778 0.020860504 -0.045596402 -0.03866755 -0.047161624 -0.025322232 -0.071968615
00000000: 7cdb 453d 9c35 863d 495d d23b dc50 afbd
00000010: 792b 23bd 18f6 80bd d4e9 763c 0513 51bd
00000020: d163 123d f9a5 dcbc dc0d 723d 43dc be3c
00000030: e557 76bd 1c85 42bd 3c98 01bd cd66 263c
00000040: 4290 e83c d03a 3c3d 428c 90bd 4f4a c53c
00000050: 3375 0abd a2dd cb3c a4e8 2a3c 9062 423d
00000060: 9117 3cbd 3a7d 1c3d c90a 1abb 87ff ce3c
00000070: 1819 203d e508 a73b 561d c93c 8eb7 d13c
00000080: 75eb a6bc a531 4ebd 9116 15bd afc9 b3bb
00000090: 4075 21bd e40b 4d3d d4a3 e53c 5d24 3c3d
000000a0: a65e 5bbd fbfa 0fbd 427a 533d f056 5dbb
000000b0: ab16 0ebd a8d2 b5bc aabf 903c caf5 69bd
000000c0: 1e7a d8bc 8537 903c 7628 3dbd bffd 8cbc
000000d0: 188f 503d 465f 703d a21b 98bd e4c2 67bc
000000e0: 4a2c 17bd 08b4 093d b60e 993b 3965 f03c
000000f0: c708 303d b4e9 92bb eaba 0c3d f2d4 2ebc
00000100: 0176 7b3d 2f61 7bbc 1f7d 18bc 5191 1c3d
00000110: 351b 2f3d a1ff 53bd 49a6 173d d7df 293d
00000120: 60b5 adbd e34c 79bd 9c18 56bc bea2 ecbc
00000130: 1b86 b9bb e3b1 40bd 6d67 6ebd 0c77 86bd
00000140: 5e70 1a3d ec5e 66bd 464a 83bd fe00 90bd
00000150: 1fa3 24bd 6507 59bc a142 03bd 1aae 393c
00000160: 07ce 0fbd cd92 a1bd 61f6 04bd 9e44 52bd
00000170: 9baa 8d3c 1f0b 923c 58ec bcbd 3036 543c
00000180: 1151 dfbc 7f3e 7ebd ea7a 53bd 0427 5dbb
00000190: eed1 3c3a ea36 683c 70a6 babc 0763 80bc
000001a0: 13a9 e03c 4528 85bc 60c7 f83b 28a3 5fbc
000001b0: 8235 253d 47d7 003d 5734 c13b 96a8 79bd
000001c0: 8dd7 963c feaf 7bbd bae0 6bbc ed35 863c
000001d0: 6333 ddbc 63ee 88bd 9fd3 93bd 9cc7 76bc
000001e0: a474 eabb 9c99 f1bb 3fdc 8aba 46d5 033d
000001f0: 4977 543d f4ad 1dbc af98 ca3b b770 16bd
00000200: ad9d 8cbd 23fc 84bd d53d 3cbd 4282 f63c
00000210: ad0f 0c3d 3da9 76ba 576b 3bbd 1416 65ba
00000220: c178 253d a662 ea3c 2ff9 02bc 64c5 03bc
00000230: 5186 443d 038d 43bd 1b0e 33bd 0ec1 9c3d
00000240: 081e 4dbd fbad 3dbd 64b1 a0bd 371c f73c
00000250: cba7 423c 9da8 89bd 3689 7c3b 3ac3 62bc
00000260: 0e6c 1c3c e291 f1bc 03ef 1cbc ec3f 0b3d
00000270: 1eac a23c 9256 cfbc 3827 4d3c 7d88 513c
00000280: 9a1c 2d3d 9942 8abc c1f6 f33c 98a8 3abc
00000290: 785e 713d 1def a2bd 6fd5 a5bc af1c 73bd
000002a0: d8cc bcbc 028d 573d 52dd 153d ee9e 47ba
000002b0: d973 21bd f9b8 1c3d 370c 1abd adfe 453d
000002c0: 8ec5 3f3c dea1 213c 1795 efba 377e 37bd
000002d0: 5fe6 f3bc 8fc6 123d c69c df3c 246b 0cbc
000002e0: e84c bfbc ac07 acbb 76c5 2fbd 0a3c f33a
000002f0: 27ec 633d d568 813d 9d15 a63d 68d0 b03d
00000300: 1868 18bd 260d e13b 6875 403d 6b02 ad3d
00000310: 37b6 8e3b d3cc 0b3d 3ecc 043d c4f0 7dbb
00000320: 43e8 853d f962 873d 8fcc 793d 33ba e23c
00000330: f665 203d e470 833d b12f 85bc c091 cf3c
00000340: 7801 18bd 9178 753b 489e 0ebd 05d2 523d
00000350: 02aa b3bc 8cc9 633d f9da 8d3a 1dbb b9bc
00000360: b77a b2bb 9d16 5ebd 1aaa 03bb d44d 383c
00000370: e3cf ee3b 4792 1d3d 0506 863c 23fc 2e3d
00000380: cb61 fb3c 9753 b0bd dea4 c03c 9360 19bd
00000390: 2143 6bbc cc9f af3c 502d 463d a0cb adbc
000003a0: 30cf 313d abb5 4d3d a2a9 9fbd 0567 15bc
000003b0: 5c9d b23c efee 4dbd 06f0 343d b931 0e3d
000003c0: a24e 87bc 26bb cdbb 348c d93c bb8f 0ebd
000003d0: 8876 3b3c a5d5 013d 929a 873d b328 2dbd
000003e0: f5a9 15bd 8ff7 0cbd a6e3 aa3c 4bc3 3abd
000003f0: dd61 1ebd 8c2c 41bd 9270 cfbc 4864 93bd

conv2.bias f4 [64]
-0.042841047 0.0028857233 0.011283718 -0.020885937 -0.048950683 -0.025720906 0.011639165 -0.008642019
-0.023779107 -0.03359184 0.05086451 0.030625317 0.0065499083 0.004906924 0.024777029 0.023361066
0.028109401 0.053425852 0.056090742 0.012412124 0.031216895 -0.05292876 0.019984322 0.03876546
-0.028682366 0.028179327 0.046188172 -0.020355253 -0.034079682 0.023937482 -0.04545522 -0.05913033
-0.019220559 0.0423671 0.022894243 -0.04052942 0.010978846 0.047591843 0.026869655 -0.0030425459
-0.026075585 0.03076749 -0.0011554842 0.023079956 -0.04400525 0.040913552 -0.0076840045 0.013852169
-0.043415137 0.03918315 0.036228217 0.034499783 0.029954424 -0.054094348 0.045353096 0.032510847
-0.025197761 0.046524383 -0.023185857 -0.002961552 0.00372218 -0.039421123 -0.020575467 -0.03882376
00000000: 187a 2fbd 671e 3d3b 58df 383c fc18 abbc
00000010: 8380 48bd a6b4 d2bc 32b2 3e3c 4197 0dbc
00000020: 67cc c2bc 9997 09bd 4e57 503d f2e1 fa3c
00000030: 9da0 d63b 43ca a03b 32f9 ca3c b55f bf3c
00000040: b045 e63c 11d5 5a3d 68bf 653d 395c 4b3c
00000050: 93ba ff3c d4cb 58bd 29b6 a33c 88c8 1e3d
00000060: 48f7 eabc 55d8 e63c cf2f 3d3d 0fc0 a6bc
00000070: 2397 0bbd 8a18 c43c 412f 3abd a532 72bd
00000080: 6f74 9dbc 2089 2d3d b58c bb3c 2d02 26bd
00000090: 9ee0 333c aaef 423d c01d dc3c 7365 47bb
000000a0: 779c d5bc 1a0c fc3c 9e73 97ba 2d12 bd3c
000000b0: d93e 34bd f894 273d 1aca fbbb 35f4 623c
000000c0: 12d4 31bd 837e 203d 0a64 143d a54f 0d3d
000000d0: fb62 f53c 0992 5dbd 2bc4 393d 182a 053d
000000e0: 896b cebc 5a90 3e3d 44f0 bdbc 9916 42bb
000000f0: d1ef 733b 0b78 21bd e28d a8bc aa05 1fbd

bn2.weight f4 [64]
0.96960664 0.9697532 1.0264503 0.98092073 1.0447997 1.0087267 0.94470906 1.0677516
1.0406157 0.9724748 0.91914773 0.93205166 1.0610886 1.0074224 0.95637536 1.0228665
0.99033904 0.9773625 1.024721 0.94144654 0.9435615 0.90746886 1.0093805 1.0015007
0.98234886 0.9841681 0.9333958 0.9585419 0.9687766 0.9521673 1.04167 0.9492875
0.9955314 0.9604701 0.9361759 0.96784467 1.0608759 0.9259772 1.0623952 1.0241219
1.0599308 0.99986535 0.9757546 0.9434015 1.0544659 1.0639976 0.96102345 1.0077657
1.0672643 1.0240207 1.0463483 1.0704302 0.9455029 1.0188904 0.96700984 1.0032599
1.0120027 1.0741079 1.0094731 0.992039 0.9929984 1.0571218 0.9425671 1.0408255
00000000: 2438 783f bf41 783f b962 833f 9f1d 7b3f
00000010: ffbb 853f f51d 813f 74d8 713f 16ac 883f
00000020: e532 853f 1cf4 783f 444d 6b3f f09a 6e3f
00000030: c0d1 873f 38f3 803f 04d5 743f 4aed 823f
00000040: dc86 7d3f 6e34 7a3f 0f2a 833f a402 713f
00000050: 3f8d 713f e14f 683f 6133 813f 2d31 803f
00000060: 377b 7b3f 71f2 7b3f 07f3 6e3f 0163 753f
00000070: be01 783f 3cc1 733f 7155 853f 8104 733f
00000080: 25db 7e3f 5ee1 753f 39a9 6f3f abc4 773f
00000090: c8ca 873f d70c 6d3f 91fc 873f 6d16 833f
000000a0: d0ab 873f 2df7 7f3f 0ecb 793f c382 713f
000000b0: bdf8 863f 1331 883f a205 763f 77fe 803f
000000c0: 1e9c 883f 1c13 833f beee 853f db03 893f
000000d0: 7a0c 723f 006b 823f f58d 773f d26a 803f
000000e0: 4e89 813f 5e7c 893f 6a36 813f 45f6 7d3f
000000f0: 2535 7e3f c44f 873f 144c 713f c539 853f

bn2.bias f4 [64]
-0.086284265 -0.07464977 -0.024744734 -0.03401161 -0.019859623 -0.032216325 -0.07184628 0.0031899693
0.0062498217 -0.049896337 -0.073766485 -0.08360869 -0.044918053 -0.03790049 -0.06357508 -0.063058846
-0.016828915 -0.02521145 0.010948385 -0.08932381 -0.069794014 -0.12604629 -0.020606337 -0.09942217
-0.042348657 -0.015965369 -0.080778405 -0.08779007 -0.015382656 -0.08013436 -0.04816892 -0.06568027
0.0014214183 -0.11128739 -0.07642165 -0.10388112 0.019028418 -0.0951625 -0.021973819 -0.041683692
-0.016598187 -0.117299296 -0.12429883 -0.041901655 0.04367885 0.00087913347 -0.1490262 -0.059157245
-0.051056042 0.021620715 -0.021488551 -0.035530962 -0.1061861 -0.06237373 -0.08724601 -0.037783638
0.010401189 0.008362845 0.0012126082 -0.021957476 -0.09780506 -0.030218918 -0.101833306 -0.013290204
00000000: ceb5 b0bd fbe1 98bd 78b5 cabc c24f 0bbd
00000010: a6b0 a2bc 44f5 03bd 2424 93bd ce0e 513b
00000020: 4ecb cc3b 1a60 4cbd e212 97bd 083b abbd
00000030: fefb 37bd 8b3d 1bbd a733 82bd ff24 81bd
00000040: cbdc 89bc 3e88 cebc db60 333c 67ef b6bd
00000050: 2af0 8ebd 4712 01be 9fce a8bc da9d cbbd
00000060: c975 2dbd cec9 82bc 266f a5bd 48cb b3bd
00000070: 8907 7cbc 7c1d a4bd c64c 45bd 6183 86bd
00000080: e24e ba3a a5ea e3bd f482 9cbd a0bf d4bd
00000090: 7ce1 9b3c 8fe4 c2bd 7002 b4bc 85bc 2abd
000000a0: ecf8 87bc 9d3a f0bd 6390 febd 12a1 2bbd
000000b0: 98e8 323d a675 663a 539a 18be de4e 72bd
000000c0: 2420 51bd ed1d b13c c208 b0bc ea88 11bd
000000d0: 1978 d9bd 997b 7fbd 09ae b2bd 04c3 1abd
000000e0: c069 2a3c 5004 093c 61f0 9e3a 2ae0 b3bc
000000f0: 054e c8bd aa8d f7bc fb8d d0bd 28bf 59bc

bn2.running_mean f4 [64]
-0.5515815 0.17671597 -0.7076406 -1.7881839 -1.0627722 -0.4659638 -0.5071978 -1.3119326
-2.1153324 -0.4059526 -0.16650052 -1.0163186 -0.6282994 0.025488917 -0.78750974 -1.0464989
-1.0038168 0.00836159 -1.7419745 -0.429448 1.0956297 -0.9809316 -0.27606845 -0.73781043
-0.23292126 -1.1017722 0.34018403 1.5539587 0.1868612 0.06890917 -1.1110872 -0.2939717
-0.79135144 1.1663113 -1.3293611 1.648021 -0.8536279 1.6500193 -0.63232577 -0.43832812
-0.51649445 -0.6128493 0.5559799 -0.6802186 -1.6871508 -1.1010575 1.6648338 -0.045736335
-0.8771103 -1.5655179 -0.7419406 -0.5327922 -0.534717 -1.0563366 -0.3228615 -0.5109958
-1.866227 -0.4625707 -2.2715418 -1.8950257 0.4679663 -0.4251313 0.9190315 -0.1754797
00000000: 7234 0dbf 08f5 343e ef27 35bf 36e3 e4bf
00000010: eb08 88bf cf92 eebe b7d7 01bf 68ed a7bf
00000020: 9b61 07c0 05d9 cfbe 1d7f 2abe ba16 82bf
00000030: 3bd8 20bf 22ce d03c 3d9a 49bf adf3 85bf
00000040: 127d 80bf 0dff 083c 05f9 debf 9ce0 dbbe
00000050: 983d 8c3f 551e 7bbf d858 8dbe 25e1 3cbf
00000060: e982 6ebe df06 8dbf 9a2c ae3e 1ee8 c63f
00000070: 8b58 3f3e 4020 8d3d 1b38 8ebf 7583 96be
00000080: 0296 4abf b049 953f 8128 aabf 5af2 d23f
00000090: 5c87 5abf d533 d33f 1ae0 21bf 8b6c e0be
000000a0: fb38 04bf b1e3 1cbf b354 0e3f ce22 2ebf
000000b0: 8ff4 d7bf 74ef 8cbf 4619 d53f 0656 3bbd
000000c0: 4d8a 60bf e462 c8bf d2ef 3dbf 1265 08bf
000000d0: 37e3 08bf 0a36 87bf 1a4e a5be 9fd0 02bf
000000e0: 87e0 eebf 11d6 ecbe f160 11c0 3490 f2bf
000000f0: 4799 ef3e cfaa d9be a645 6b3f f3b0 33be

bn2.running_var f4 [64]
0.4814522 1.8823744 1.0186399 2.4855597 0.62984747 0.88827366 1.3958079 0.86399055
2.390702 1.1707827 1.3917062 2.0443416 0.86865383 0.6072851 1.3755612 1.096124
0.96241885 0.79065573 3.2764988 0.6821552 0.8812163 1.3627678 0.5944984 0.8977189
0.65752834 0.7506517 2.2748766 1.4005032 0.6573147 1.6648688 0.800825 1.2590224
0.68282574 2.4668157 1.3699806 3.9179983 0.7888523 4.73727 1.0516129 0.9932528
0.81757015 0.5478396 0.9993386 0.74579793 1.2839715 1.029471 1.4931668 0.58449984
0.85745174 2.5516608 0.82271737 1.136634 0.63597304 0.80126905 1.4500022 0.8413363
1.6586828 1.0513234 2.4520125 2.47856 1.170025 0.37103304 2.5864465 0.92672336
00000000: e780 f63e a5f1 f03f cb62 823f 6913 1f40
00000010: af3d 213f e765 633f d5a9 b23f 7c2e 5d3f
00000020: 4301 1940 35dc 953f 6e23 b23f 7ed6 0240
00000030: 1960 5e3f 0977 1b3f 6412 b03f cb4d 8c3f
00000040: 1561 763f 6a68 4a3f 28b2 5140 b9a1 2e3f
00000050: 6497 613f 2d6f ae3f 0c31 183f e8d0 653f
00000060: c753 283f b62a 403f 9497 1140 b043 b33f
00000070: c745 283f 6c1a d53f de02 4d3f a527 a13f
00000080: abcd 2e3f 4fe0 1d40 865b af3f 7cc0 7a40
00000090: 39f2 493f b797 9740 409b 863f d145 7e3f
000000a0: 474c 513f 373f 0c3f a8d4 7f3f 9dec 3e3f
000000b0: 2e59 a43f b5c5 833f 1720 bf3f c8a1 153f
000000c0: f581 5b3f 694e 2340 9b9d 523f 397d 913f
000000d0: 21cf 223f f81f 4d3f ac99 b93f d161 573f
000000e0: b84f d43f c491 863f c6ed 1c40 baa0 1e40
000000f0: 61c3 953f 0bf8 bd3e 5788 2540 be3d 6d3f

conv3.weight f4 [128, 64, 3, 3]
-0.008339889 -0.025025679 -0.010285201 -0.0334111 -0.046934605 0.003091514 0.016982608 -0.037510406
-0.029063838 -0.03994875 -0.0037917555 0.045134187 -0.026474912 -0.041513886 -0.0052551534 -0.0273846
-0.012375683 -0.032683667 0.015893547 0.032712415 0.01044961 0.012623013 0.03507905 0.036329415
-0.0042708647 0.00594289 -0.02107639 -0.0128629645 0.01540147 0.011342239 0.045115475 0.04544963
0.007940597 -0.0005075942 -0.01279424 -0.04883486 0.016337508 -0.0425007 -0.045483936 -0.03634233
0.007621956 0.0043472177 -0.046654895 -0.02208392 -0.049426217 0.0033060196 -0.0321028 0.008514795
0.052843727 0.056921665 0.041276425 -0.0045345067 0.014125199 -0.019713264 0.03461333 -0.026000952
0.029907169 0.035357293 -0.00025456175 -0.010812104 -0.0051562693 0.03735403 -0.03144443 -0.0040817596
0.01801218 -0.04254779 0.016565172 0.00681519 -0.027176524 -0.0033275303 -0.044297155 -0.0011353452
0.022398276 -0.02912018 0.037175067 -0.0064053116 -0.019326763 0.042911105 -0.0019654504 0.021947173
-0.003433853 0.0037544544 -0.007221567 0.0073463884 0.023541711 0.039461184 0.02139709 -0.036575846
0.0014352066 -0.022646658 0.036771126 0.023684027 0.032898217 -0.028043337 -0.0022898177 -0.027756056
-0.022106804 -0.016275318 -0.00057495397 0.019270394 0.03322059 0.0046020746 0.03724372 0.033992503
-0.0076286127 0.0145372795 0.037532207 -0.025174005 0.014983001 -0.019662138 -0.031396538 -0.007855577
-0.0067008347 0.030553369 -0.01603128 -0.012547504 -0.024293926 0.013607399 -0.024917426 -0.019843936
0.010852215 0.025108583 0.010448062 0.0046027717 -0.0030507157 0.051680855 0.04133205 0.026102673
0.015985621 0.015425453 0.037761565 0.02993693 0.01603244 0.00011571229 0.012663962 -0.018986294
0.0323377 0.036112756 0.036457714 -0.01673249 -0.0059804744 0.029127112 -0.033495154 0.008678995
-0.021290913 0.05132526 -0.012412584 -0.018195158 -9.651644e-05 -0.02042761 0.00086583936 -0.018603606
-0.0054946025 0.019113474 2.6697921e-06 0.022572575 -0.011136873 0.01852907 -0.0020507374 0.035091877
-0.021431522 0.037767235 -0.02790023 0.019909924 0.005480484 -0.012524203 -0.021718182 -0.018970491
-0.026833339 -0.057052143 -0.04883865 -0.027649809 0.0018226805 0.025489429 -0.052077625 -0.005917612
-0.01841146 -0.017244905 -0.024227764 0.009800044 -0.026199838 0.011562137 0.00017036298 0.028540242
-0.044319417 0.026921509 0.022613967 0.017443394 0.014524594 -0.007204694 0.0008364363 0.011721942
0.015360853 0.042847753 0.016527815 -0.020228503 -0.030736387 -0.027954672 0.06116874 0.047139894
0.03138664 -0.023256198 0.029284665 -0.017086353 0.06280638 0.0045248372 0.06585519 0.024955047
0.018016115 0.021539293 0.022355894 -0.010243858 0.04787529 0.013859055 0.013100803 0.025738994
0.0052311383 -0.027592562 -0.020064518 -0.016745782 -0.018057382 -0.049643885 0.0017040385 0.001643315
-0.061398335 0.012076146 -0.03954541 -0.01973651 0.005150716 -0.025890233 0.010570743 -0.030586425
-0.0065580825 -0.018745644 -0.015812647 -0.03939281 0.0032862243 0.04993587 0.0042672977 0.034427237
0.015574524 -0.025162064 0.007493804 0.022770297 -0.02103231 -0.0075749075 -0.028230386 -0.03144181
-0.008088178 0.0018878867 -0.001058499 0.00023032725 0.06964498 0.052429695 0.050859377 0.005462903
00000000: 08a4 08bc a702 cdbc 4283 28bc 14da 08bd
00000010: 803e 40bd 009b 4a3b 1c1f 8b3c 83a4 19bd
00000020: 4917 eebc 4da1 23bd 1a7f 78bb a0de 383d
00000030: eae1 d8bc 770a 2abd 6c33 acbb ab55 e0bc
00000040: 60c3 4abc 4fdf 05bd 2f33 823c 74fd 053d
00000050: d734 2b3c c1d0 4e3c 0daf 0f3d 27ce 143d
00000060: 9cf2 8bbb 93bc c23b 65a8 acbc 2fbf 52bc
00000070: 7256 7c3c ccd4 393c 01cb 383d 6429 3a3d
00000080: 4719 023c 1210 05ba ef9e 51bc 1007 48bd
00000090: 3dd6 853c 3715 2ebd 5d4d 3abd b2db 14bd
000000a0: 9ac1 f93b 1b73 8e3b 3419 3fbd 56e9 b4bc
000000b0: 2573 4abd cea9 583b 3a7e 03bd a481 0b3c
000000c0: aa72 583d b126 693d 7811 293d 3396 94bb
000000d0: 616d 673c b67d a1bc b5c6 0d3d f3ff d4bc
000000e0: e1ff f43c cfd2 103d b376 85b9 4025 31bc
000000f0: ecf5 a8bb 8a00 193d e0cb 00bd 48c0 85bb
00000100: 488e 933c 9746 2ebd afb3 873c f551 df3b
00000110: 4da1 debc b212 5abb ef70 35bd ddcf 94ba
00000120: 977c b73c 728d eebc e244 183d a6e3 d1bb
00000130: 2953 9ebc 8ec3 2f3d c9ce 00bb 8fca b33c
00000140: 7e0a 61bb 4b0d 763b e5a2 ecbb f9b9 f03b
00000150: 8cda c03c 0da2 213d f348 af3c 8ed0 15bd
00000160: 8b1d bc3a 7c85 b9bc 529d 163d 0105 c23c
00000170: 48c0 063d 24bb e5bc c410 16bb ab60 e3bc
00000180: 5419 b5bc d153 85bc 82b8 16ba f2dc 9d3c
00000190: 5012 083d 00cd 963b df8c 183d b93b 0b3d
000001a0: 71f9 f9bb c52d 6e3c 5fbb 193d b739 cebc
000001b0: 437b 753c 7e12 a1bc a899 00bd aeb4 00bc
000001c0: ad92 dbbb 0f4b fa3c 0854 83bc 0c94 4dbc
000001d0: 0e04 c7bc 91f1 5e3c a11f ccbc c08f a2bc
000001e0: 7dcd 313c 84b0 cd3c 592e 2b3c d9d2 963b
000001f0: 84ee 47bb 4eaf 533d cc4b 293d 46d5 d53c
00000200: 47f4 823c 0abb 7c3c dfab 1a3d 4b3e f53c
00000210: 7756 833c 90aa f238 827c 4f3c 2589 9bbc
00000220: 8974 043d f8ea 133d af54 153d 9312 89bc
00000230: dbf7 c3bb fb9b ee3c 3732 09bd 5832 0e3c
00000240: 486a aebc 703a 523d 275e 4bbc 030e 95bc
00000250: df68 cab8 ce57 a7bc 7ff9 623a 9766 98bc
00000260: 110c b4bb dc93 9c3c ae2a 3336 1fea b83c
00000270: 6e77 36bc 47ca 973c aa65 06bb 80bc 0f3d
00000280: 2991 afbc d1b1 1a3d 068f e4bc 231a a33c
00000290: a295 b33b 5132 4dbc 54ea b1bc 0168 9bbc
000002a0: 97d1 dbbc 82af 69bd 090b 48bd da81 e2bc
000002b0: 02e7 ee3a 35cf d03c 594f 55bd 87e8 c1bb
000002c0: a1d3 96bc 3045 8dbc 4e79 c6bc 5d90 203c
000002d0: 0ba1 d6bc 1e6f 3d3c 77a3 3239 3acd e93c
000002e0: 4788 35bd 7f8a dc3c ed40 b93c 73e5 8e3c
000002f0: 90f8 6d3c 5b15 ecbb 4a44 5b3a 630d 403c
00000300: 16ac 7b3c 2081 2f3d 5765 873c 3fb6 a5bc
00000310: e0ca fbbc 3201 e5bc 138c 7a3d c315 413d
00000320: 478f 003d c883 bebc 65e6 ef3c aef8 8bbc
00000330: a2a0 803d 1645 943b 16df 863d 876e cc3c
00000340: 8896 933c 2c73 b03c b523 b73c dbd5 27bc
00000350: e118 443d 1711 633c c0a4 563c 95da d23c
00000360: f869 ab3b cc09 e2bc 585e a4bc 732e 89bc
00000370: 13ed 93bc 6357 4bbd 0b5a df3a 8064 d73a
00000380: d27c 7bbd 07db 453c 5efa 21bd 76ae a1bc
00000390: 56c7 a83b c117 d4bc e930 2d3c 6290 fabc
000003a0: 2fe5 d6bb 7790 99bc 8689 81bc 5b5a 21bd
000003b0: b25d 573b 8e89 4c3d b0d4 8b3b 9303 0d3d
000003c0: 4a2c 7f3c ac20 cebc 968e f53b c688 ba3c
000003d0: f34b acbc ee36 f8bb 6943 e7bc 21c9 00bd
000003e0: 4784 04bc f772 f73a 55bd 8aba 0084 7139
000003f0: 07a2 8e3d 85c0 563d ec51 503d 2702 b33b

conv3.bias f4 [128]
-0.017151825 -0.021279743 0.043733634 -0.026440613 -0.033412308 -0.023449935 -0.030812101 -0.028826019
0.0128054535 -0.013855336 0.02417001 -0.0035846627 -0.014914372 0.012707447 -0.0061326697 -0.0124226585
-0.040932287 0.008694525 -0.037652735 -0.02295081 0.009309533 0.010691997 0.0024651408 0.0008096751
-0.031423274 -0.0068506715 -0.022361808 -0.045706104 0.012642604 0.018147979 -0.00919216 0.030794283
-0.018306505 0.032506097 -0.0097150095 -0.012119636 -0.01377094 -0.007848536 -0.03714498 0.032487392
-0.03318851 -0.03464698 0.022510255 0.032411635 0.007176459 -0.034273196 -0.040966697 0.030458426
0.010707764 0.022437524 0.0019913348 -0.038944624 0.013060805 0.04515999 0.016008379 0.03335986
0.03354697 0.008142212 0.035786048 0.015094912 -0.0043674894 0.03779069 -0.032149334 -0.017959332
-0.01896823 -0.0017248116 0.036096863 -0.024798546 0.025450854 0.036969893 -0.03945015 -0.0031877847
0.0056456327 0.0067283665 -0.0015839873 0.018332934 0.010841233 0.026531044 -0.0046554524 0.023210555
0.007018207 0.023697425 -0.0012733833 -0.004652825 -0.03999974 -0.035663374 0.010028147 0.01995908
-0.024393978 0.00574323 0.007596199 -0.008852511 -0.0036646647 0.027917959 0.0033212844 0.01886369
-0.018384805 -0.042661164 -0.01146518 -0.036954477 0.007903713 0.039217364 0.03757984 0.016022233
-0.0048477845 0.036795266 -0.004695585 -0.019528018 -0.027206335 0.019793618 0.041795995 -0.031037297
0.008919481 -0.012418094 0.005127469 -0.02778299 0.00964898 -0.035938445 -0.03401305 0.024045387
-0.02876063 0.016143795 -0.017860943 0.0040840236 -0.0033967816 0.012327535 0.015810072 -0.009752102
00000000: fc81 8cbc db52 aebc 0a22 333d fc99 d8bc
00000010: 58db 08bd 141a c0bc a969 fcbc 8b24 ecbc
00000020: f7cd 513c 7e01 63bc 2f00 c63c a9ec 6abb
00000030: 695b 74bc e532 503c 90f4 c8bb 6888 4bbc
00000040: 9da8 27bd 7b73 0e3c c139 1abd 5603 bcbc
00000050: 0387 183c 7c2d 2f3c 338e 213b 6040 543a
00000060: b1b5 00bd 997b e0bb 1c30 b7bc 5336 3bbd
00000070: ed22 4f3c 12ab 943c b79a 16bc 4b44 fc3c
00000080: 86f7 95bc 1d25 053d b42b 1fbc 7091 46bc
00000090: 829f 61bc 2597 00bc 5625 18bd 8011 053d
000000a0: adf0 07bd fee9 0dbd 6d67 b83c 10c2 043d
000000b0: 8028 eb3b 0d62 0cbd b2cc 27bd f383 f93c
000000c0: 9e6f 2f3c e6ce b73c 0e81 023b 6684 1fbd
000000d0: fdfc 553c aff9 383d 0124 833c 59a4 083d
000000e0: 8c68 093d ea66 053c 6494 123d a650 773c
000000f0: 281d 8fbb 69ca 1a3d 05af 03bd 731f 93bc
00000100: 4363 9bbc 1313 e2ba 4eda 133d 5226 cbbc
00000110: 4f7e d03c be6d 173d 7b96 21bd 27ea 50bb
00000120: 00ff b83b a179 dc3b cb9d cfba f32e 963c
00000130: 6d9f 313c a257 d93c c48c 98bb 1024 be3c
00000140: fdf8 e53b 1a21 c23c a7e7 a6ba ba76 98bb
00000150: c4d6 23bd c213 12bd 194d 243c 3981 a33c
00000160: e1d5 c7bc b531 bc3b 89e9 f83b 1f0a 11bc
00000170: df2a 70bb 34b4 e43c e8a9 593b 0688 9a3c
00000180: bb9b 96bc 79bd 2ebd 73d8 3bbc 945d 17bd
00000190: 937e 013c 63a2 203d 51ed 193d 0f41 833c
000001a0: 2ada 9ebb a2b6 163d 6cdd 99bb 39f9 9fbc
000001b0: d2df debc 3a26 a23c 4732 2b3d ee41 febc
000001c0: 0423 123c 4375 4bbc 5404 a83b 2799 e3bc
000001d0: c116 1e3c 3134 13bd 4551 0bbd d5fa c43c
000001e0: 6a9b ebbc fe3f 843c 1d51 92bc 46d3 853b
000001f0: 8a9c 5ebb 6ef9 493c 2084 813c 48c7 1fbc

bn3.weight f4 [128]
1.0714623 1.104676 1.062565 1.1172032 1.0736402 1.0520614 1.0851877 1.0738074
1.089863 1.0605054 1.0599252 1.0534052 1.0781152 1.0786312 1.0440142 1.0807356
1.0484809 1.051484 1.0786042 1.0856702 1.086045 1.074832 1.1081437 1.0861801
1.0405151 1.0647522 1.0838915 1.0985706 1.0896758 1.0738412 1.0784849 1.0440552
1.0827584 1.1115416 1.0618887 1.0490174 1.0784564 1.0689026 1.094428 1.0912575
1.0550728 1.0819159 1.0837829 1.0817747 1.0653658 1.067384 1.0593444 1.0834992
1.0678731 1.1075997 1.0910269 1.0846298 1.0311443 1.0519822 1.0527223 1.0936593
1.0788225 1.0415874 1.0885543 1.0555277 1.0378145 1.0514671 1.0477287 1.0517342
1.0815465 1.0537865 1.0767506 1.0867722 1.0426925 1.0662284 1.0942779 1.0667927
1.1199703 1.069527 1.0452236 1.0752412 1.067597 1.0467951 1.0592756 1.0780882
1.0784183 1.1195927 1.0367795 1.0628372 1.0472524 1.102085 1.0716265 1.0530913
1.0620879 1.0876923 1.0655838 1.106359 1.1013745 1.1038705 1.0670605 1.0930377
1.1118631 1.0453932 1.0661058 1.0491428 1.063466 1.0678345 1.0984935 1.0749316
1.0816782 1.0585791 1.046862 1.0918605 1.0978631 1.0839305 1.0534017 1.0543493
1.0700252 1.0393943 1.0859864 1.0462124 1.1038215 1.0839354 1.0736645 1.0689347
1.1048628 1.0521921 1.0446163 1.0751635 1.0551839 1.0817362 1.0657175 1.0471276
00000000: ad25 893f 0666 8d3f 2102 883f 8400 8f3f
00000010: 0b6d 893f f3a9 863f 6ee7 8a3f 8572 893f
00000020: a180 8b3f a4be 873f a1ab 873f fbd5 863f
00000030: aeff 893f 9610 8a3f 42a2 853f 8b55 8a3f
00000040: 9f34 863f 0797 863f b40f 8a3f 3ef7 8a3f
00000050: 8603 8b3f 1894 893f a7d7 8d3f f307 8b3f
00000060: 992f 853f cd49 883f f5bc 8a3f f69d 8c3f
00000070: 7f7a 8b3f a173 893f cb0b 8a3f 9aa3 853f
00000080: d497 8a3f ff46 8e3f f8eb 873f 3446 863f
00000090: dc0a 8a3f cdd1 883f 3716 8c3f 53ae 8b3f
000000a0: a00c 873f 387c 8a3f 66b9 8a3f 9877 8a3f
000000b0: e85d 883f 0aa0 883f 9998 873f 1ab0 8a3f
000000c0: 11b0 883f d4c5 8d3f c5a6 8b3f 26d5 8a3f
000000d0: 89fc 833f 5aa7 863f 9bbf 863f 07fd 8b3f
000000e0: db16 8a3f bc52 853f bf55 8b3f 881b 873f
000000f0: 1bd7 843f 7996 863f f91b 863f 3a9f 863f
00000100: 1e70 8a3f 7ae2 863f f7d2 893f 5a1b 8b3f
00000110: f376 853f 2c7a 883f 4c11 8c3f aa8c 883f
00000120: 305b 8f3f 43e6 883f e3c9 853f 81a1 893f
00000130: 05a7 883f 62fd 853f 5896 873f cbfe 893f
00000140: 9c09 8a3f d04e 8f3f 31b5 843f 0d0b 883f
00000150: 5e0c 863f 1f11 8d3f 0f2b 893f b2cb 863f
00000160: 7ff2 873f 8039 8b3f 0d65 883f 2c9d 8d3f
00000170: d7f9 8c3f a14b 8d3f 7095 883f a9e8 8b3f
00000180: 8851 8e3f 72cf 853f 2876 883f 504a 863f
00000190: a71f 883f cdae 883f 6f9b 8c3f 5c97 893f
000001a0: 6e74 8a3f 857f 873f 93ff 853f 16c2 8b3f
000001b0: c786 8c3f 3cbe 8a3f ded5 863f ebf4 863f
000001c0: 96f6 883f df0a 853f 9a01 8b3f 4aea 853f
000001d0: 064a 8d3f 65be 8a3f d76d 893f dad2 883f
000001e0: 256c 8d3f 3bae 863f fdb5 853f f59e 893f
000001f0: 4410 873f 5576 8a3f 6e69 883f 4708 863f

bn3.bias f4 [128]
0.019715847 0.025660388 -0.004808705 0.04884124 0.035008844 -0.023225725 0.017409269 0.025453283
0.057867628 0.023611045 0.027366398 0.020000791 0.027934873 0.015881903 0.0052542267 0.044330165
0.02327534 -0.0030132465 0.010928776 0.041172717 0.050738264 0.025364377 0.023658402 0.0360146
0.013950883 0.024615983 0.04639232 0.05175451 0.045526113 0.03723189 0.0019411774 0.02096909
0.041719545 0.05685292 0.007683369 0.009386364 0.013711802 0.046106182 0.05444464 0.016680572
7.037695e-05 0.035185497 0.024879288 0.031969238 0.013938548 -0.0006103534 0.020647295 0.04493915
0.008532878 0.058596343 0.021224761 0.035579346 -0.0037005409 0.003474113 0.022201588 0.0017444997
0.03808325 0.008689271 0.024411857 -0.010095019 0.0033470683 -0.008786091 0.011748849 -0.013975004
0.033562936 0.022215651 0.029491015 0.027334414 0.023748256 0.02510353 0.030434106 0.023283647
0.05652731 0.0027141026 0.02242172 0.018264746 -0.004118351 0.01128717 0.0040456406 0.04222546
0.025084117 0.03832917 -0.01475567 0.0019093456 -0.0020192526 0.037532534 0.022994181 -0.009436381
0.007430299 0.037345137 0.00598015 0.057658624 0.038158387 0.027575847 0.02395413 0.05372926
0.036466837 0.034414798 0.012796415 0.0040343064 0.011539294 0.035623018 0.04527094 0.032605585
0.032367546 0.021959525 0.01292428 0.058596455 0.017093 0.030319842 0.001558864 0.015395005
0.028654633 0.0047573964 0.0470036 0.012681956 0.06580498 0.019518176 0.012373527 0.006344428
0.036906544 0.021369549 0.0059941444 0.039004125 0.017509034 0.049769636 0.02184463 0.028758796
00000000: 2183 a13c bc35 d23c 5792 9dbb c10d 483d
00000010: 6f65 0f3d e043 bebc e29d 8e3c 6783 d03c
00000020: 9b06 6d3d f36b c13c 7f2f e03c b3d8 a33c
00000030: add7 e43c c41a 823c a62b ac3b 8c93 353d
00000040: edab be3c e379 45bb 9c0e 333c b9a4 283d
00000050: edd2 4f3d f4c8 cf3c 44cf c13c 0c84 133d
00000060: 3f92 643c 75a7 c93c e005 3e3d 89fc 533d
00000070: 9779 3a3d 7780 183d 1b6f fe3a 5ec7 ab3c
00000080: 1de2 2a3d 9cde 683d c5c4 fb3b 44c9 193c
00000090: 77a7 603c d6d9 3c3d 5801 5f3d b2a5 883c
000000a0: 5697 9338 ab1e 103d a6cf cb3c 2df2 023d
000000b0: 825e 643c 2000 20ba 8424 a93c 1d12 383d
000000c0: 7ccd 0b3c b802 703d 8ddf ad3c a6bb 113d
000000d0: c684 72bb f2ad 633b 1be0 b53c b2a7 e43a
000000e0: 2ffd 1b3d 725d 0e3c 60fb c73c 9465 25bc
000000f0: 7d5a 5b3b 89f3 0fbc 3f7e 403c 6af7 64bc
00000100: 4a79 093d 99fd b53c 2497 f13c 6cec df3c
00000110: b48b c23c eba5 cd3c f250 f93c 59bd be3c
00000120: 2e89 673d 16df 313b c1ad b73c f39f 953c
00000130: 3bf3 86bb d3ed 383c 4b91 843b 9bf4 2c3d
00000140: 357d cd3c 0cff 1c3d c4c1 71bc 0243 fa3a
00000150: 7055 04bb b7bb 193d 4b5e bc3c 0d9b 1abc
00000160: de79 f33b 37f7 183d 22f5 c33b 732b 6c3d
00000170: f84b 1c3d bee6 e13c 743b c43c 3613 5c3d
00000180: 405e 153d 88f6 0c3d 0ea8 513c 3732 843b
00000190: 4f0f 3d3c 71e9 113d 056e 393d 6f8d 053d
000001a0: d593 043d 76e4 b33c 5cc0 533c d602 703d
000001b0: 9e06 8c3c 5161 f83c cc52 cc3a 553b 7c3c
000001c0: 1fbd ea3c efe3 9b3b d986 403d fbc7 4f3c
000001d0: c3c4 863d 95e4 9f3c 55ba 4a3c ebe4 cf3b
000001e0: 512b 173d 310f af3c 876a c43b cac2 1f3d
000001f0: 1b6f 8f3c 3fdb 4b3d 82f3 b23c 9197 eb3c
