built_models/esc50_esc50cnn_model_fold1_20250430_222605.pth (torch, 654357 bytes, 24 tensors)

mel_transform.spectrogram.window f4 [1024]
000000 00 00 00 00 00 00 1e 37 00 e0 1d 38 00 a0 b1 38
       0.0 9.417534e-06 3.7640333e-05 8.46982e-05
000010 00 e8 1d 39 00 b8 76 39 00 a4 b1 39 00 c4 f1 39
       0.00015059114 0.00023528934 0.0003388226 0.00046113133
000020 00 e2 1d 3a 00 d0 47 3a 00 aa 76 3a 00 39 95 3a
       0.00060227513 0.0007622242 0.0009409487 0.0011384785
000030 00 93 b1 3a 00 63 d0 3a 00 a8 f1 3a 80 b1 0a 3b
       0.0013547838 0.0015898645 0.0018436909 0.0021162927
000040 80 c9 1d 3b 80 1b 32 3b 00 a8 47 3b 80 6e 5e 3b
       0.0024076402 0.0027177036 0.0030465126 0.0033940375
000050 80 6e 76 3b c0 d3 87 3b 40 0d 95 3b 00 e3 a2 3b
       0.0037602484 0.0041451156 0.0045486987 0.004970908
000060 00 55 b1 3b 40 63 c0 3b c0 0d d0 3b 00 54 e0 3b
       0.005411744 0.0058712065 0.0063492954 0.006845951
000070 00 36 f1 3b e0 59 01 3c 60 66 0a 3c 80 c0 13 3c
       0.0073611736 0.007894963 0.00844726 0.009018064
000080 20 68 1d 3c 40 5d 27 3c c0 9f 31 3c 80 2f 3c 3c
       0.009607345 0.010215104 0.01084131 0.011485934
000090 60 0c 47 3c 40 36 52 3c 00 ad 5d 3c a0 70 69 3c
       0.0121489465 0.012830317 0.013530016 0.014248043
0000a0 00 81 75 3c 00 ef 80 3c b0 43 87 3c 90 be 8d 3c
       0.014984369 0.015738964 0.016511768 0.017302781
0000b0 90 5f 94 3c 90 26 9b 3c a0 13 a2 3c 90 26 a9 3c
       0.018111974 0.018939286 0.019784749 0.02064827
0000c0 50 5f b0 3c e0 bd b7 3c 30 42 bf 3c 10 ec c6 3c
       0.021529824 0.022429407 0.02334699 0.024282485
0000d0 90 bb ce 3c 80 b0 d6 3c e0 ca de 3c 90 0a e7 3c
       0.025235921 0.026207209 0.027196348 0.028203279
0000e0 80 6f ef 3c a0 f9 f7 3c 68 54 00 3d 80 be 04 3d
       0.029227972 0.030270398 0.031330496 0.032408237
0000f0 10 3b 09 3d 10 ca 0d 3d 68 6b 12 3d 18 1f 17 3d
       0.033503592 0.03461653 0.03574696 0.036894888
000100 10 e5 1b 3d 40 bd 20 3d a0 a7 25 3d 28 a4 2a 3d
       0.038060248 0.039242983 0.040443063 0.041660458
000110 d0 b2 2f 3d 78 d3 34 3d 28 06 3a 3d c0 4a 3f 3d
       0.04289514 0.044146985 0.045416027 0.046702147
000120 40 a1 44 3d a0 09 4a 3d c0 83 4f 3d a8 0f 55 3d
       0.048005342 0.049325585 0.050662756 0.052016884
000130 38 ad 5a 3d 68 5c 60 3d 38 1d 66 3d 80 ef 6b 3d
       0.05338785 0.054775625 0.05618021 0.057601452
000140 48 d3 71 3d 70 c8 77 3d f8 ce 7d 3d 64 f3 81 3d
       0.059039384 0.060493886 0.06196496 0.06345251
000150 ec 07 85 3d 08 25 88 3d b4 4a 8b 3d e8 78 8e 3d
       0.064956516 0.06647688 0.06801358 0.06956655
000160 98 af 91 3d c0 ee 94 3d 58 36 98 3d 58 86 9b 3d
       0.0711357 0.072721004 0.0743224 0.075939834
000170 b4 de 9e 3d 6c 3f a2 3d 6c a8 a5 3d b8 19 a9 3d
       0.07757321 0.07922253 0.080887645 0.082568586
000180 3c 93 ac 3d f8 14 b0 3d e0 9e b3 3d e8 30 b7 3d
       0.0842652 0.085977495 0.087705374 0.08944875
000190 0c cb ba 3d 44 6d be 3d 84 17 c2 3d c0 c9 c5 3d
       0.09120759 0.092981845 0.094771415 0.096576214
0001a0 f8 83 c9 3d 1c 46 cd 3d 20 10 d1 3d 04 e2 d4 3d
       0.09839624 0.10023138 0.10208154 0.103946716
0001b0 b8 bb d8 3d 30 9d dc 3d 6c 86 e0 3d 5c 77 e4 3d
       0.105826795 0.10772169 0.10963139 0.111555785
0001c0 f4 6f e8 3d 2c 70 ec 3d 00 78 f0 3d 60 87 f4 3d
       0.11349478 0.115448326 0.11741638 0.11939883
0001d0 40 9e f8 3d 9c bc fc 3d 32 71 00 3e ca 87 02 3e
       0.12139559 0.12340662 0.1254318 0.12747112
0001e0 0e a2 04 3e fc bf 06 3e 8c e1 08 3e b8 06 0b 3e
       0.12952444 0.13159174 0.1336729 0.13576782
0001f0 7c 2f 0d 3e d6 5b 0f 3e bc 8b 11 3e 28 bf 13 3e
       0.13787645 0.13999876 0.1421346 0.14428389
000200 1a f6 15 3e 88 30 18 3e 6e 6e 1a 3e c6 af 1c 3e
       0.14644662 0.14862263 0.15081188 0.15301427
000210 8c f4 1e 3e b8 3c 21 3e 44 88 23 3e 2e d7 25 3e
       0.15522975 0.15745819 0.1596995 0.16195366
000220 6e 29 28 3e fc 7e 2a 3e d8 d7 2c 3e f6 33 2f 3e
       0.16422054 0.16650003 0.16879213 0.17109665
000230 56 93 31 3e ec f5 33 3e b6 5b 36 3e b0 c4 38 3e
       0.1734136 0.1757428 0.17808422 0.1804378
000240 ce 30 3b 3e 10 a0 3d 3e 6c 12 40 3e de 87 42 3e
       0.18280336 0.1851809 0.18757027 0.18997142
000250 5e 00 45 3e e8 7b 47 3e 76 fa 49 3e 00 7c 4c 3e
       0.19238421 0.1948086 0.1972445 0.19969177
000260 80 00 4f 3e f2 87 51 3e 4e 12 54 3e 8e 9f 56 3e
       0.20215034 0.20462015 0.20710108 0.20959303
000270 ac 2f 59 3e a2 c2 5b 3e 66 58 5e 3e f8 f0 60 3e
       0.21209592 0.21460965 0.21713409 0.21966922
000280 4e 8c 63 3e 60 2a 66 3e 2a cb 68 3e a4 6e 6b 3e
       0.2222149 0.22477102 0.22733751 0.22991425
000290 ca 14 6e 3e 94 bd 70 3e fc 68 73 3e fa 16 76 3e
       0.23250118 0.23509818 0.23770517 0.24032202
0002a0 88 c7 78 3e a0 7a 7b 3e 36 30 7e 3e 26 74 80 3e
       0.24294865 0.24558496 0.24823079 0.25088614
0002b0 6c d1 81 3e ea 2f 83 3e 9c 8f 84 3e 7d f0 85 3e
       0.2535509 0.25622493 0.25890815 0.2616004
0002c0 8c 52 87 3e c4 b5 88 3e 22 1a 8a 3e a4 7f 8b 3e
       0.26430166 0.26701176 0.26973063 0.2724582
0002d0 46 e6 8c 3e 04 4e 8e 3e da b6 8f 3e c4 20 91 3e
       0.27519435 0.27793896 0.28069192 0.2834531
0002e0 c0 8b 92 3e ca f7 93 3e e0 64 95 3e fc d2 96 3e
       0.28622246 0.28899986 0.29178524 0.29457843
0002f0 1c 42 98 3e 3c b2 99 3e 58 23 9b 3e 6b 95 9c 3e
       0.29737937 0.30018795 0.30300403 0.30582747
000300 76 08 9e 3e 72 7c 9f 3e 5c f1 a0 3e 30 67 a2 3e
       0.3086583 0.31149632 0.31434143 0.3171935
000310 ec dd a3 3e 8c 55 a5 3e 08 ce a6 3e 63 47 a8 3e
       0.3200525 0.3229183 0.32579064 0.32866964
000320 96 c1 a9 3e 9e 3c ab 3e 78 b8 ac 3e 1e 35 ae 3e
       0.33155507 0.33444685 0.33734488 0.340249
000330 8f b2 af 3e c4 30 b1 3e bd af b2 3e 75 2f b4 3e
       0.34315917 0.34607518 0.34899703 0.35192457
000340 e8 af b5 3e 12 31 b7 3e f0 b2 b8 3e 7e 35 ba 3e
       0.35485768 0.35779625 0.36074018 0.36368936
000350 b6 b8 bb 3e 99 3c bd 3e 20 c1 be 3e 48 46 c0 3e
       0.3666436 0.36960295 0.37256718 0.3755362
000360 0e cc c1 3e 6d 52 c3 3e 60 d9 c4 3e e6 60 c6 3e
       0.37850994 0.38148823 0.38447094 0.38745803
000370 fc e8 c7 3e 9b 71 c9 3e c0 fa ca 3e 69 84 cc 3e
       0.3904494 0.39344487 0.39644432 0.3994477
000380 91 0e ce 3e 32 99 cf 3e 4c 24 d1 3e da af d2 3e
       0.40245488 0.40546566 0.40848005 0.4114979
000390 d8 3b d4 3e 42 c8 d5 3e 14 55 d7 3e 4a e2 d8 3e
       0.41451907 0.41754347 0.42057097 0.42360145
0003a0 df 6f da 3e d2 fd db 3e 1f 8c dd 3e c0 1a df 3e
       0.42663476 0.42967087 0.43270966 0.43575096
0003b0 b2 a9 e0 3e f2 38 e2 3e 7c c8 e3 3e 49 58 e5 3e
       0.43879467 0.4418407 0.44488895 0.4479392
0003c0 59 e8 e6 3e a8 78 e8 3e 31 09 ea 3e f0 99 eb 3e
       0.45099142 0.45404553 0.45710137 0.46015882
0003d0 e1 2a ed 3e 00 bc ee 3e 49 4d f0 3e ba de f1 3e
       0.46321777 0.46627808 0.46933964 0.4724024
0003e0 4d 70 f3 3e 00 02 f5 3e ce 93 f6 3e b3 25 f8 3e
       0.47546616 0.47853088 0.4815964 0.48466262
0003f0 ac b7 f9 3e b2 49 fb 3e c6 db fc 3e e1 6d fe 3e
       0.48772943 0.49079663 0.49386424 0.49693206

mel_transform.mel_scale.fb f4 [513, 40]
000000 00 00 00 80 00 00 00 00 00 00 00 00 00 00 00 00
       -0.0 0.0 0.0 0.0
000010 00 00 00 00 00 00 00 00 00 00 00 00 00 00 00 00
       0.0 0.0 0.0 0.0
000020 00 00 00 00 00 00 00 00 00 00 00 00 00 00 00 00
       0.0 0.0 0.0 0.0
000030 00 00 00 00 00 00 00 00 00 00 00 00 00 00 00 00
       0.0 0.0 0.0 0.0
000040 00 00 00 00 00 00 00 00 00 00 00 00 00 00 00 00
       0.0 0.0 0.0 0.0
000050 00 00 00 00 00 00 00 00 00 00 00 00 00 00 00 00
       0.0 0.0 0.0 0.0
000060 00 00 00 00 00 00 00 00 00 00 00 00 00 00 00 00
       0.0 0.0 0.0 0.0
000070 00 00 00 00 00 00 00 00 00 00 00 00 00 00 00 00
       0.0 0.0 0.0 0.0
000080 00 00 00 00 00 00 00 00 00 00 00 00 00 00 00 00
       0.0 0.0 0.0 0.0
000090 00 00 00 00 00 00 00 00 00 00 00 00 00 00 00 00
       0.0 0.0 0.0 0.0
0000a0 11 bb 31 3f 00 00 00 00 00 00 00 00 00 00 00 00
       0.69426066 0.0 0.0 0.0
0000b0 00 00 00 00 00 00 00 00 00 00 00 00 00 00 00 00
       0.0 0.0 0.0 0.0
0000c0 00 00 00 00 00 00 00 00 00 00 00 00 00 00 00 00
       0.0 0.0 0.0 0.0
0000d0 00 00 00 00 00 00 00 00 00 00 00 00 00 00 00 00
       0.0 0.0 0.0 0.0
0000e0 00 00 00 00 00 00 00 00 00 00 00 00 00 00 00 00
       0.0 0.0 0.0 0.0
0000f0 00 00 00 00 00 00 00 00 00 00 00 00 00 00 00 00
       0.0 0.0 0.0 0.0
000100 00 00 00 00 00 00 00 00 00 00 00 00 00 00 00 00
       0.0 0.0 0.0 0.0
000110 00 00 00 00 00 00 00 00 00 00 00 00 00 00 00 00
       0.0 0.0 0.0 0.0
000120 00 00 00 00 00 00 00 00 00 00 00 00 00 00 00 00
       0.0 0.0 0.0 0.0
000130 00 00 00 00 00 00 00 00 00 00 00 00 00 00 00 00
       0.0 0.0 0.0 0.0
000140 94 a2 24 3f d8 ba b6 3e 00 00 00 00 00 00 00 00
       0.64310575 0.35689425 0.0 0.0
000150 00 00 00 00 00 00 00 00 00 00 00 00 00 00 00 00
       0.0 0.0 0.0 0.0
000160 00 00 00 00 00 00 00 00 00 00 00 00 00 00 00 00
       0.0 0.0 0.0 0.0
000170 00 00 00 00 00 00 00 00 00 00 00 00 00 00 00 00
       0.0 0.0 0.0 0.0
000180 00 00 00 00 00 00 00 00 00 00 00 00 00 00 00 00
       0.0 0.0 0.0 0.0
000190 00 00 00 00 00 00 00 00 00 00 00 00 00 00 00 00
       0.0 0.0 0.0 0.0
0001a0 00 00 00 00 00 00 00 00 00 00 00 00 00 00 00 00
       0.0 0.0 0.0 0.0
0001b0 00 00 00 00 00 00 00 00 00 00 00 00 00 00 00 00
       0.0 0.0 0.0 0.0
0001c0 00 00 00 00 00 00 00 00 00 00 00 00 00 00 00 00
       0.0 0.0 0.0 0.0
0001d0 00 00 00 00 00 00 00 00 00 00 00 00 00 00 00 00
       0.0 0.0 0.0 0.0
0001e0 69 a6 af 3b b3 a0 7e 3f 00 00 00 00 00 00 00 00
       0.005360414 0.9946396 0.0 0.0
0001f0 00 00 00 00 00 00 00 00 00 00 00 00 00 00 00 00
       0.0 0.0 0.0 0.0
000200 00 00 00 00 00 00 00 00 00 00 00 00 00 00 00 00
       0.0 0.0 0.0 0.0
000210 00 00 00 00 00 00 00 00 00 00 00 00 00 00 00 00
       0.0 0.0 0.0 0.0
000220 00 00 00 00 00 00 00 00 00 00 00 00 00 00 00 00
       0.0 0.0 0.0 0.0
000230 00 00 00 00 00 00 00 00 00 00 00 00 00 00 00 00
       0.0 0.0 0.0 0.0
000240 00 00 00 00 00 00 00 00 00 00 00 00 00 00 00 00
       0.0 0.0 0.0 0.0
000250 00 00 00 00 00 00 00 00 00 00 00 00 00 00 00 00
       0.0 0.0 0.0 0.0
000260 00 00 00 00 00 00 00 00 00 00 00 00 00 00 00 00
       0.0 0.0 0.0 0.0
000270 00 00 00 00 00 00 00 00 00 00 00 00 00 00 00 00
       0.0 0.0 0.0 0.0
000280 00 00 00 00 77 93 d6 3e 44 b6 14 3f 00 00 00 00
       0.0 0.41909382 0.58090615 0.0
000290 00 00 00 00 00 00 00 00 00 00 00 00 00 00 00 00
       0.0 0.0 0.0 0.0
0002a0 00 00 00 00 00 00 00 00 00 00 00 00 00 00 00 00
       0.0 0.0 0.0 0.0
0002b0 00 00 00 00 00 00 00 00 00 00 00 00 00 00 00 00
       0.0 0.0 0.0 0.0
0002c0 00 00 00 00 00 00 00 00 00 00 00 00 00 00 00 00
       0.0 0.0 0.0 0.0
0002d0 00 00 00 00 00 00 00 00 00 00 00 00 00 00 00 00
       0.0 0.0 0.0 0.0
0002e0 00 00 00 00 00 00 00 00 00 00 00 00 00 00 00 00
       0.0 0.0 0.0 0.0
0002f0 00 00 00 00 00 00 00 00 00 00 00 00 00 00 00 00
       0.0 0.0 0.0 0.0
000300 00 00 00 00 00 00 00 00 00 00 00 00 00 00 00 00
       0.0 0.0 0.0 0.0
000310 00 00 00 00 00 00 00 00 00 00 00 00 00 00 00 00
       0.0 0.0 0.0 0.0
000320 00 00 00 00 00 00 00 00 45 ca 58 3f ee d6 1c 3e
       0.0 0.0 0.8468364 0.15316364
000330 00 00 00 00 00 00 00 00 00 00 00 00 00 00 00 00
       0.0 0.0 0.0 0.0
000340 00 00 00 00 00 00 00 00 00 00 00 00 00 00 00 00
       0.0 0.0 0.0 0.0
000350 00 00 00 00 00 00 00 00 00 00 00 00 00 00 00 00
       0.0 0.0 0.0 0.0
000360 00 00 00 00 00 00 00 00 00 00 00 00 00 00 00 00
       0.0 0.0 0.0 0.0
000370 00 00 00 00 00 00 00 00 00 00 00 00 00 00 00 00
       0.0 0.0 0.0 0.0
000380 00 00 00 00 00 00 00 00 00 00 00 00 00 00 00 00
       0.0 0.0 0.0 0.0
000390 00 00 00 00 00 00 00 00 00 00 00 00 00 00 00 00
       0.0 0.0 0.0 0.0
0003a0 00 00 00 00 00 00 00 00 00 00 00 00 00 00 00 00
       0.0 0.0 0.0 0.0
0003b0 00 00 00 00 00 00 00 00 00 00 00 00 00 00 00 00
       0.0 0.0 0.0 0.0
0003c0 00 00 00 00 00 00 00 00 2b 0d 9e 3e 6a f9 30 3f
       0.0 0.0 0.3086942 0.69130576
0003d0 00 00 00 00 00 00 00 00 00 00 00 00 00 00 00 00
       0.0 0.0 0.0 0.0
0003e0 00 00 00 00 00 00 00 00 00 00 00 00 00 00 00 00
       0.0 0.0 0.0 0.0
0003f0 00 00 00 00 00 00 00 00 00 00 00 00 00 00 00 00
       0.0 0.0 0.0 0.0

conv1.weight f4 [32, 1, 3, 3]
000000 50 e0 a1 bd 39 ca a9 be 26 fd c6 3c 28 d5 24 3e
       -0.07904112 -0.33162096 0.024290632 0.16096938
000010 20 95 a0 bd 22 6f af 3e 3b de ca bd 6f 14 3d 3e
       -0.07840943 0.34264475 -0.09905668 0.18464826
000020 06 b1 6c be be 92 8e be c2 c1 83 3b c3 7c 57 3e
       -0.23114404 -0.2784633 0.0040209005 0.21043687
000030 8f dd 16 bd bf 2e 41 be c2 f7 3f 3e df aa a7 be
       -0.03683239 -0.18865488 0.18746856 -0.32747552
000040 05 96 ad 3e 1d 85 04 be 5b c4 81 3e 70 88 0e 3d
       0.33903518 -0.12941404 0.2534512 0.034798086
000050 1a 3f c4 3d f5 5c 59 3d 42 44 9f be 06 f9 8e bd
       0.09582348 0.053067166 -0.31106764 -0.06981091
000060 1c a4 10 be a0 68 e9 3d 36 1d 59 3e 88 95 42 3e
       -0.14125103 0.11396909 0.2120255 0.19002354
000070 f0 cc 38 bd a4 ad 92 3d ce f5 31 3d d8 30 99 3d
       -0.04511732 0.071620256 0.04344731 0.07480019
000080 d0 88 70 3e ff e4 57 be f1 6e e3 3d d6 5f 9e 3e
       0.2348969 -0.21083449 0.11105145 0.30932492
000090 e9 98 41 bc 6a fe 3f be cf 38 c9 be df 87 47 bd
       -0.011816242 -0.18749395 -0.39301154 -0.04871356
0000a0 75 fa 80 bd 6c b4 04 bd 41 cb 4a 3e f2 7d ab bd
       -0.06297771 -0.032398626 0.19804098 -0.083736315
0000b0 16 51 5b 3b f4 92 9b 3e 36 0e b5 3b 93 90 97 bd
       0.003346508 0.30385554 0.0055253757 -0.07400622
0000c0 7e c1 c8 3c 68 a7 54 be 97 09 15 3e 84 f6 9e bd
       0.024506327 -0.20766985 0.1455444 -0.07761863
0000d0 5b 00 12 3e 7b 82 31 be 71 d2 9e be 81 6a 75 be
       0.14257948 -0.1733493 -0.3101993 -0.2396641
0000e0 05 37 59 3d f7 7c 91 3e 94 03 78 3c 03 36 6a bd
       0.053030986 0.28415653 0.015137572 -0.057180416
0000f0 72 17 0c be b5 86 54 3e ce 23 22 3e 6b b9 4b be
       -0.13680819 0.20754512 0.15833971 -0.1989495
000100 f2 9c 90 bd 6f b5 9a be 52 90 c6 3e 16 4a 7b 3e
       -0.07061185 -0.30216548 0.38781983 0.2453998
000110 59 06 ae bd 90 39 4b 3e 1d 3f 4e be 11 e4 12 be
       -0.084973045 0.19846177 -0.20141263 -0.14344813
000120 59 99 16 3e 87 ca e6 bd e0 8c b9 be ee f1 fd 3d
       0.14706935 -0.11269098 -0.36240292 0.1239966
000130 94 a2 54 3e e6 a5 8b 3e 90 d8 76 3e 11 e7 49 be
       0.20765144 0.27275008 0.2410605 -0.19717051
000140 21 b4 21 be ce 75 70 3e 43 ed a9 bc c3 39 ff 3d
       -0.1579137 0.23482439 -0.020743018 0.12462189
000150 e9 f6 d3 bc 46 a0 8a be 3d bf 5d be 06 d2 91 3e
       -0.025874572 -0.27075404 -0.21654983 0.28480548
000160 ff d4 70 3e 75 a2 84 be d6 c0 93 3e b7 a4 dc 3b
       0.23518752 -0.25905195 0.2885806 0.0067335027
000170 15 72 c5 bc 90 78 3c be cb 24 4f bd ac ba 8d 3e
       -0.02410225 -0.18405366 -0.050572198 0.27681482
000180 70 93 c0 be d9 e9 c9 bd e8 d7 00 be 59 a9 53 3e
       -0.37612486 -0.09859056 -0.12582362 0.2067007
000190 65 04 e1 3d 64 5a a3 bc 02 66 a8 be 2c 61 99 3e
       0.10987166 -0.019940563 -0.32890326 0.2995695
0001a0 2b 71 fc 3d cb 14 72 be 81 62 8a 3d 26 c8 19 be
       0.123262726 -0.23640744 0.067570694 -0.15017757
0001b0 77 f7 da 3d 51 09 b3 3e 8c 7e 8a be 6d 4a e6 3d
       0.106917314 0.34968045 -0.27049673 0.11244664
0001c0 33 bd 13 be 4b 09 7f be 41 a5 68 bd 24 b7 37 bc
       -0.14427643 -0.24905889 -0.056798223 -0.011213098
0001d0 da c7 b4 bc 3c c7 cd bd 20 72 7c be 30 e1 7a 3e
       -0.022067953 -0.100477666 -0.2465291 0.24499965
0001e0 85 ed 93 3d cb 66 83 3e e0 aa 49 bd ee c3 0b be
       0.07223038 0.25664362 -0.049235225 -0.1364896
0001f0 9c 14 a4 bd 7f 2f d9 3d 87 78 8d 3e 89 d9 54 3e
       -0.080117434 0.10604762 0.27631018 0.20786108
000200 c6 da 61 bd d8 f4 33 be b5 1b eb 3b 88 99 dd bd
       -0.05514028 -0.17573869 0.007174934 -0.108202994
000210 0c f2 57 be 28 ef 77 bd ad 3f 85 be 65 e1 6f be
       -0.21088427 -0.06053081 -0.26025143 -0.23425825
000220 08 83 41 bd 49 bf 3d bd ec 2f 6b be 14 03 99 be
       -0.0472441 -0.046325002 -0.229675 -0.2988516
000230 5b 9f 28 3e 11 83 92 3e e0 79 c0 3d bf 0a 08 3e
       0.1646704 0.2861562 0.09398246 0.1328535
000240 4a d7 e8 3a 7a d8 98 3e 8d 1f 8c bc 0f da 91 3c
       0.0017764356 0.2985266 -0.017104888 0.017804174
000250 76 80 80 3e 45 47 86 3e 4d 90 f4 bd 99 58 35 3e
       0.25098008 0.2622625 -0.11941586 0.17709579
000260 80 5a 8e be 12 3d b5 3d 17 bd 2a be ba 31 36 3d
       -0.2780342 0.08849539 -0.16673695 0.044481017
000270 20 16 db 3d 8e e3 17 be 1f 8e 88 3e 3c 59 46 3e
       0.106975794 -0.14832899 0.2667093 0.19369978
000280 53 94 a8 be 8a 0d 3b ba 7d ad 6a be 8f 59 69 3c
       -0.32925662 -0.00071355014 -0.22917743 0.014242544
000290 3d 50 4c be c6 46 72 3c 0a 44 88 3e 6b 5e 0e 3d
       -0.19952483 0.0147873815 0.2661441 0.034758013
0002a0 73 6a 5d bd d3 f0 b5 3d 64 79 ae 3d af ff f4 3d
       -0.054056596 0.08883824 0.08519247 0.1196283
0002b0 2e 42 6d 3e 3a bf 94 be 2a 09 a6 be 36 0d b6 3e
       0.23169777 -0.29052144 -0.32428867 0.35556954
0002c0 19 77 63 3d d2 d4 03 3d 58 bd 07 3d 5f d7 8c 3d
       0.055533502 0.032185383 0.033139557 0.06877016
0002d0 22 59 7b 3d 29 c9 d7 bd 84 99 a9 3e 7c bf 25 be
       0.0613643 -0.10536415 0.33124936 -0.16186327
0002e0 33 95 87 3e 2a e7 52 bd c6 6c 61 be 3d c1 7a be
       0.26481017 -0.051489986 -0.2201415 -0.24487777
0002f0 bb 0b 78 3e f2 e9 3e 3d 4a bf 98 3e fd 5e c0 3d
       0.24223225 0.046609826 0.29833442 0.093931176
000300 bf ac 15 be b5 a0 07 bc 55 7e 83 be b7 b7 21 be
       -0.14616679 -0.008278062 -0.2568232 -0.15792738
000310 90 5b a8 3e cc 7d 54 be 6d e4 ac be ca 6f aa 3c
       0.32882357 -0.20751113 -0.33768025 0.020805258
000320 ac e9 29 be 87 7a 90 3d 4e ac 30 be 2b e7 3b be
       -0.16593045 0.0705462 -0.17253229 -0.18349902
000330 d5 ce 68 3e fc 25 0a 3e f4 31 14 be b0 56 88 3e
       0.2273515 0.13491052 -0.1447218 0.26628637
000340 18 d1 c3 3d bc e9 aa be 3e 0f 88 be 9e 7e 7e bd
       0.09561366 -0.3338145 -0.2657413 -0.06213247
000350 49 f2 61 3e 0c 00 a5 bd bf d7 78 bd 26 ce 57 3e
       0.2206508 -0.080566496 -0.060752627 0.21074733
000360 27 43 5b be c3 b9 ef bd e7 a4 45 3e 9d 46 69 be
       -0.21412335 -0.11705353 0.19301187 -0.22780843
000370 66 57 30 3e 60 69 71 3e 8a 9f 86 be 88 81 8a 3e
       0.1722084 0.23575354 -0.26293594 0.2705195
000380 54 3f 6e bd 41 49 a6 3e 02 0c 8e 3d a7 0f 7b be
       -0.058165863 0.32477763 0.06935884 -0.2451769
000390 ab 13 93 3e 61 a9 92 be eb b3 64 3e 98 59 a2 3e
       0.28725943 -0.2864485 0.22334258 0.3170898
0003a0 54 01 1f be 55 c9 67 be e9 43 96 be f4 65 45 3d
       -0.1552785 -0.22635396 -0.29348686 0.048192933
0003b0 77 6d 51 3e c4 cf 63 3e 03 ea ef 3d 1b 8a d1 3e
       0.20451914 0.22247225 0.11714556 0.4092568
0003c0 88 5f bd 3d b0 bc 8e be cc b8 42 3c 3c f6 31 3e
       0.09246737 -0.27878332 0.011884879 0.17379087
0003d0 b4 d3 8d be 9a 7c 7f be a8 05 82 3d c5 0d bb 3d
       -0.2770058 -0.24949875 0.06348735 0.09133486
0003e0 4f 9f 4c be 17 c5 f2 3d 15 79 97 3e a0 70 2e 3e
       -0.19982646 0.11853998 0.29584566 0.1703515
0003f0 85 81 54 be b3 6f 01 be 26 0d a0 3d e1 2a 73 bd
       -0.20752533 -0.12640266 0.07815008 -0.059367064

conv1.bias f4 [32]
000000 67 0f 8a be 2c 64 4f 3e 50 7c 91 3e ac bb bf 3c
       -0.26964876 0.20253056 0.28415155 0.023404919
000010 82 48 81 be 2b 55 6d 3e 6d 2a 78 be 1e bb 81 be
       -0.25250632 0.2317702 -0.24234934 -0.25338072
000020 41 b3 f4 bd 28 2f 5e be 62 07 4a bd 0d ad 94 bd
       -0.119482525 -0.21697676 -0.049323447 -0.07259569
000030 e7 70 b8 bd 5d e6 a9 bd 0d bf af 3d bd cc 4c 3b
       -0.090059094 -0.082958914 0.08581362 0.0031249963
000040 2e fa dd 3d 6e 44 ec 3d ec 59 0c be d1 2d 7d 3d
       0.108387336 0.115364894 -0.13706177 0.061811272
000050 30 b0 1c be b4 c9 a6 3e 56 07 2f be e6 34 2f 3e
       -0.15301585 0.32575762 -0.17092642 0.17110023
000060 bb 6f 01 bc 2e 89 d7 3d 36 12 cf bd 5a 11 96 3e
       -0.007900174 0.10524212 -0.10110895 0.29310113
000070 00 f2 be be 06 23 48 be bf 22 71 be c1 25 96 be
       -0.37294006 -0.1954461 -0.23548411 -0.2932568

bn1.weight f4 [32]
000000 e2 db 76 3f 04 20 75 3f 4a 6d 7d 3f 9b 35 81 3f
       0.96429265 0.95751977 0.98994887 1.0094484
000010 09 df 62 3f 5d 57 81 3f 67 b8 7d 3f 3f 9d 73 3f
       0.88621575 1.0104786 0.991095 0.95161813
000020 d9 47 7c 3f 8d ed 8e 3f d0 bf 70 3f 85 ee 81 3f
       0.9854713 1.1166245 0.9404268 1.0150915
000030 b6 79 6c 3f c1 e4 74 3f e9 aa 6f 3f de 1b 70 3f
       0.92373216 0.9566155 0.93620163 0.9379252
000040 bd 39 70 3f 03 8e 82 3f 25 4b 84 3f 0c 46 7a 3f
       0.938381 1.0199589 1.0335432 0.97763133
000050 62 aa 84 3f 21 c6 82 3f c7 a6 67 3f 37 f2 7e 3f
       1.0364497 1.0216714 0.9048886 0.9958834
000060 07 e7 82 3f a0 33 7e 3f 6d 32 6e 3f f1 53 82 3f
       1.0226754 0.99297523 0.93045694 1.0181867
000070 bb 44 6e 3f 3c 65 81 3f a0 c3 88 3f 6c ee 85 3f
       0.93073624 1.0109019 1.06847 1.0463386

bn1.bias f4 [32]
000000 19 d7 be bd b0 1d a4 bd 6b 36 92 bd 93 2f d1 bd
       -0.0931837 -0.08013475 -0.07139286 -0.10214152
000010 14 20 9d bd 73 90 c3 bd 0d 77 27 3e 17 8f f3 bd
       -0.07672134 -0.09549036 0.16354008 -0.118925266
000020 a9 9a 37 be 42 ec 48 bd ff 2c 69 bd 5f 24 91 bd
       -0.17930092 -0.049053438 -0.056927677 -0.07087015
000030 06 4d 75 bd b0 df ca bd 20 9e 53 bd 84 41 dd 3b
       -0.05988791 -0.09905946 -0.05166447 0.006752195
000040 31 23 b5 bd c8 66 86 bd 10 4b 21 3e 81 47 b2 bd
       -0.08844603 -0.06562573 0.1575129 -0.087050445
000050 a5 04 e9 bc 83 e8 48 bc 7d d9 42 bd db 84 ff 3d
       -0.028444597 -0.012262466 -0.047570694 0.12476512
000060 ff 10 09 3d 3a 12 0b be f1 cb 21 be 6e 6a 14 be
       0.033463474 -0.13581172 -0.15800454 -0.14493725
000070 5b 7a 98 bc dd 70 24 3d 83 7b a5 3d 8a 5a fd 3d
       -0.018613031 0.040146697 0.080801986 0.123707846

bn1.running_mean f4 [32]
000000 4a 55 91 be 32 99 4d 3e a8 5f 98 3e 7f 99 f3 3c
       -0.28385383 0.2007797 0.2976048 0.029736279
000010 e0 16 8e be 27 30 78 3e ed 90 87 be d3 79 8c be
       -0.27751827 0.24237119 -0.26477757 -0.27436695
000020 1a 35 06 be 11 90 52 be c8 8b 04 bd 42 a4 6c bd
       -0.13106194 -0.2056277 -0.03235987 -0.057773836
000030 c0 01 a7 bd 21 0c b0 bd 13 72 de 3d 84 83 7f bc
       -0.08154631 -0.085960634 0.10861602 -0.015595321
000040 4e ea f9 3d e7 88 ec 3d 8c e1 1e be 40 99 80 3d
       0.12202893 0.115495495 -0.15515727 0.0627923
000050 1b b2 0e be ca f8 af 3e 4c 29 45 be 71 c4 2f 3e
       -0.1393513 0.34369498 -0.19254035 0.1716478
000060 f3 5b 5a bc ed 36 e6 3d 9b 35 cf bd 4b c6 8b 3e
       -0.013327586 0.11240945 -0.10117646 0.27299723
000070 4a 84 c5 be 3d 5c 61 be 73 b2 69 be 6a 4e 8d be
       -0.3857749 -0.22007842 -0.22821979 -0.27598888

bn1.running_var f4 [32]
000000 2b 98 c1 3c a2 fd 6b 3d d3 41 49 3d 3a db 01 3f
       0.02363213 0.05761493 0.04913504 0.5072514
000010 19 e8 ab 3e 3c 86 84 3c f2 b9 1e 3d f7 45 80 3d
       0.33575514 0.01617729 0.03875155 0.06263345
000020 23 d9 8f 3d 62 5c 2b 3d f0 39 0c 3e e3 e3 23 3d
       0.070238374 0.04183615 0.13693976 0.04001225
000030 c7 54 5b 3d 0f 0b 8c 3c 8f 04 49 3e c5 31 d8 3d
       0.053547647 0.017095117 0.19630645 0.10556368
000040 3b 40 b0 3e 8d 23 65 3c e6 05 d3 3c 0f da 96 3d
       0.34424004 0.013985527 0.025759649 0.0736581
000050 26 40 35 3d 85 40 e1 3c 4b 0d 92 3e ce 23 ef 3b
       0.04425063 0.027496586 0.28525767 0.0072979694
000060 46 08 fb 3c 78 a7 ec 3d 31 75 9b 3e 79 26 e4 3d
       0.030643594 0.1155538 0.30362847 0.111401506
000070 af 9d fa 3c 3d ed 84 3d 8a 98 17 3d f8 da b0 3c
       0.030592768 0.06490562 0.037010707 0.021588787

conv2.weight f4 [64, 32, 3, 3]
000000 5c a1 34 3d 73 b8 1b 3d 45 8b 13 bc f0 90 1d 3d
       0.044099197 0.0380177 -0.009005372 0.0384683
000010 66 3b 44 3d 80 3a 49 3d 95 fa bb 3d 38 94 75 3d
       0.04790821 0.049128056 0.09178654 0.059955806
000020 aa 57 76 3d 33 8a b3 3d e2 68 e2 3c 0e 22 e0 3b
       0.060142197 0.08766594 0.027637903 0.006839997
000030 2d 66 ad bc b0 34 c5 bc 7a ec 7e bd e6 d3 54 3d
       -0.021166885 -0.024072975 -0.06223724 0.051959895
000040 58 25 14 3d 8a 0a 2c bd fd 08 d9 bd 2a 7d c6 bd
       0.036168426 -0.04200224 -0.105974175 -0.09691842
000050 08 22 29 bd bb 54 5c 3d 0a e2 b1 3d 9e f0 c7 3d
       -0.04129222 0.053791743 0.08685692 0.09762691
000060 5e b5 4d bb f9 45 1c bb 12 90 78 3d 28 7c e1 bc
       -0.003138862 -0.0023845418 0.06068427 -0.027525023
000070 ea a9 8f bd 48 39 b4 bc 34 7d cb 3b 6f 50 79 bd
       -0.070148304 -0.02199997 0.0062099937 -0.060867723
000080 0e 91 17 bd aa 05 c0 39 83 a3 8e 3d a8 a2 a9 3d
       -0.03700357 0.00036625314 0.06964781 0.08282977
000090 b2 d8 81 3d d9 0f 4e bc ec d7 b5 3c d1 f3 1d bc
       0.063401595 -0.012577021 0.022197686 -0.00964065
0000a0 db 60 b8 bc 6b dd aa bb 2f 0c 6b bc 36 f5 76 bd
       -0.022507122 -0.0052143834 -0.0143461665 -0.060292445
0000b0 71 4c 9e bd 35 58 90 3b eb 08 05 3d d5 69 ea bc
       -0.07729424 0.0044050463 0.032479208 -0.028614918
0000c0 22 7d 2e bc e5 d8 b3 bd e7 25 3a bd 74 c3 9f bb
       -0.010649951 -0.08781604 -0.045446303 -0.0048755948
0000d0 d6 d2 4b bd f4 84 0d bd 6a 40 f2 3d b9 55 bd 3d
       -0.049761616 -0.034550622 0.11828692 0.09244866
0000e0 6c d3 92 3d 20 43 a2 3d 71 37 2f 3d 37 b1 97 3d
       0.07169232 0.07922959 0.042777482 0.07406848
0000f0 48 f8 d8 3d 62 82 00 3e e7 25 30 3d 58 36 3e 3c
       0.10594231 0.12549737 0.043004896 0.011609636
000100 76 50 8a bd 3b fc 9a bd a5 98 0f 3d b5 62 3a bd
       -0.06753628 -0.075676404 0.035057683 -0.04550429
000110 98 62 2f bd 1d 84 31 3d 86 2b 95 bc 94 f6 8d bd
       -0.042818636 0.043338884 -0.01820923 -0.06931797
000120 65 fa ee 3c 46 ae dd bb 28 c5 b3 ba 87 ae 30 3d
       0.029172132 -0.00676516 -0.0013715373 0.043135192
000130 55 b9 84 bc 0f 38 e9 bb da 1a 69 3d ac c9 42 bd
       -0.016201654 -0.0071172784 0.056910373 -0.04755561
000140 1d 42 28 bd 55 c5 62 bd 91 58 b1 bd 7c fb 0a be
       -0.041078676 -0.05536397 -0.08659471 -0.13572496
000150 0f 87 72 3d 23 85 b1 3c a7 55 5f bc 69 02 3f 3d
       0.059210833 0.02166993 -0.013631261 0.046633158
000160 42 0c a6 3c 73 e2 1a 3d 37 fd 4a 3d 0b c6 c9 bc
       0.020269517 0.037813615 0.04955789 -0.024630567
000170 46 dd 55 bd 62 e2 97 bc 11 78 32 3d e6 aa 94 3c
       -0.052212976 -0.018540565 0.043571535 0.018147897
000180 75 04 a7 bc 78 ba 57 bd 67 23 01 3c bc f9 f0 bc
       -0.020387867 -0.052668065 0.007881976 -0.029415958
000190 c0 6e 3f 3c 53 1a 45 bd 7c 48 02 3d d5 7e 76 bc
       0.01168412 -0.048120808 0.031807408 -0.015044888
0001a0 de 6e cd 3c 01 15 a4 3c dd e7 d6 3b 43 f2 74 bd
       0.02507728 0.020029547 0.006558402 -0.05980135
0001b0 a1 c2 78 3d 20 f1 3f 3c 0e e8 a3 bc e9 49 0d bc
       0.060732488 0.0117152035 -0.020008113 -0.008623579
0001c0 33 e8 b3 bd 71 3f ab bd d5 b7 03 3d 2c 07 88 bd
       -0.08784523 -0.0836171 0.032157738 -0.06641993
0001d0 45 d0 c1 bd d6 ae 1b 3d de 72 3e bd 88 51 bc 3c
       -0.094635524 0.038008533 -0.046496265 0.022988096
0001e0 80 b7 92 3c 40 91 ac bc 39 10 b1 3c a9 56 5b bc
       0.017909765 -0.021065354 0.02161418 -0.013387361
0001f0 64 7d a7 bc 71 78 f2 3d 21 a3 04 3c ae 2b 5f bd
       -0.020445533 0.118393786 0.008095534 -0.054485016
000200 f5 fe 18 3b 08 22 03 bd a6 a5 20 bd f9 19 1f 3c
       0.0023345326 -0.032014877 -0.039220475 0.009710782
000210 45 71 25 3c 05 fd 1e 3d b4 98 85 bc 4c 3d d2 3d
       0.010097806 0.038815517 -0.016308166 0.10265598
000220 fb 26 c6 3d f1 6f 92 3d 79 03 d5 3c 94 b2 00 3d
       0.09675404 0.071502574 0.026002632 0.031420305
000230 02 24 75 3c 6e 73 c5 3b 7d e8 00 3c 8c a7 ba bc
       0.014962198 0.006025723 0.0078679295 -0.02278497
000240 1f 38 96 3d 74 4b eb 3c 90 52 3b 3c 03 96 b3 3c
       0.07334923 0.028722502 0.011433259 0.021922117
000250 74 84 46 bd 46 72 5c 3d 57 3f da bc 82 2c 2c 3d
       -0.04846616 0.053819917 -0.02664153 0.042034633
000260 4e fe 69 bc 28 fe da bc 1e 42 b0 bb 84 5a d5 bc
       -0.014281822 -0.02673252 -0.0053789755 -0.026044138
000270 15 02 90 bd f3 b7 18 bd 5f 09 ac bd bd 32 f3 ba
       -0.07031647 -0.037284803 -0.08400225 -0.001855455
000280 92 1e 80 bd 7d 1e 7e 3a 49 93 96 3d d4 41 a4 3d
       -0.06255831 0.0009693874 0.07352311 0.08020368
000290 32 92 cb 3d 22 b8 86 bc d8 14 f9 bc c5 7f aa 3d
       0.09939994 -0.016445223 -0.030405447 0.08325151
0002a0 6f 05 49 3d 0f a0 c8 3c f6 2a 9c 3d fd b1 78 bd
       0.049077448 0.024490384 0.07625382 -0.060716618
0002b0 f5 c7 11 bc a4 c7 42 bd 66 1b 35 bd d1 2e 16 bd
       -0.008897771 -0.047553673 -0.044215582 -0.03666574
0002c0 a5 6b 14 bd 70 b8 0e bd 7c ed 17 3d 34 d3 d0 3c
       -0.03623547 -0.034843862 0.037091717 0.025491334
0002d0 63 9a 06 3d 29 64 8e 3a fb 46 77 3d 95 d7 3b bc
       0.03286208 0.001086359 0.060370427 -0.011464973
0002e0 8f f5 14 bc 09 fa 52 bc 96 ac a3 3c 6a f6 c7 3c
       -0.009091749 -0.012876996 0.019979756 0.024409492
0002f0 b6 fe ee 3c 2d 61 15 bd 36 22 6c bd 55 f2 4f bd
       0.02917419 -0.036469627 -0.057649814 -0.050768215
000300 c3 42 91 bd 67 17 5f bd 88 ef 8d bd 38 82 3b 3d
       -0.07092812 -0.054465678 -0.069304526 0.045778483
000310 5e 52 01 3b cc f6 9f 3c 0b e6 11 3d f5 94 57 3d
       0.0019732933 0.019526862 0.035619777 0.05263229
000320 de d8 18 3d 72 55 35 bd 5f ef 50 3c 02 a2 81 bd
       0.037316196 -0.04427094 0.012752383 -0.06329729
000330 61 78 1b 3d 65 14 0f bd 0f 88 d7 ba d0 88 c9 bd
       0.0379566 -0.03493156 -0.0016443747 -0.09840548
000340 c4 4b 09 be 9b 95 9d bd a3 3a ca bd d4 27 24 bd
       -0.13407809 -0.076945506 -0.09874465 -0.040077046
000350 d3 c7 c7 bd 7d 5f 3e bd 12 ac 29 bd 15 2f 5e bd
       -0.0975491 -0.046477783 -0.041423865 -0.05424412
000360 d0 66 87 ba c6 d8 32 bd 8f db af bc ce ae 17 3d
       -0.0010330323 -0.043663763 -0.021466998 0.03703194
000370 bc 8d 13 bd bd 7f 7b bb 82 e5 29 3d e0 50 7e 3d
       -0.03602384 -0.0038375698 0.04147864 0.062088847
000380 a1 97 3b 3d 76 81 bc bc 2e 2f 88 bd 1e 25 88 3c
       0.0457989 -0.02301095 -0.06649624 0.016619261
000390 e3 3e a3 bb a5 05 e6 bc ef a8 71 bc a1 10 d6 3b
       -0.004981862 -0.028078863 -0.01474975 0.006532744
0003a0 37 eb 8b bd ad 1c 90 bd 1f 19 1f bd cb ca 1b bd
       -0.06831973 -0.070367195 -0.038842317 -0.038035195
0003b0 ba be 9e 3d 12 4c 16 bc c8 d2 17 3d 28 e1 49 bc
       0.07751222 -0.00917341 0.03706625 -0.012321748
0003c0 f3 8e de 3c a3 e1 b9 bc 65 d6 ba 3d fc be 81 3d
       0.027167773 -0.0226906 0.09122924 0.063352555
0003d0 6c d1 f5 3c 1e c0 85 bc a5 21 d7 bc 7f 2e 05 bc
       0.030007087 -0.01632696 -0.02626116 -0.008128761
0003e0 28 19 71 bc aa a3 a4 3d 5e 46 6a 3d 60 4b 23 bd
       -0.01471547 0.08039029 0.057196014 -0.039866805
0003f0 14 08 29 3e 93 bd be 3d cf ba e7 3d ba 6f fa 3c
       0.16506988 0.09313502 0.11314928 0.030570854

conv2.bias f4 [64]
000000 df ff 86 3b ae 75 d7 3c 5b 94 1a 3d 6e eb 3c 3d
       0.0041198577 0.026301231 0.03773914 0.04612296
000010 b3 68 66 3c 16 38 c1 3c 04 59 31 bd 41 53 93 3c
       0.014063048 0.023586314 -0.043297783 0.017984034
000020 8e 1a 43 3d 44 3e e4 3c 46 04 cf bc 88 9d b8 3c
       0.047632746 0.027861722 -0.025270592 0.022536054
000030 d1 b8 3d 3b 49 09 09 3d c2 e9 16 bd c6 0b 93 bb
       0.002894927 0.03345612 -0.036844023 -0.0044874875
000040 a5 74 61 3c 4a 7d cb bc 32 c2 5c 3c 60 0e 5c 3d
       0.01376072 -0.024840016 0.013474034 0.053724647
000050 28 e8 ab bb fd 47 35 3c f3 73 6a 3d 52 f6 17 3d
       -0.005246181 0.011064527 0.057239484 0.037100144
000060 4f 35 ac 3c de c3 d9 3a e1 cf e8 3b 0a a0 66 3d
       0.021021513 0.0016614159 0.007104859 0.05630497
000070 cb 20 58 bb 07 f2 d3 3c 6d cd a1 bc 26 0a d7 bc
       -0.003297853 0.025872244 -0.019751275 -0.026249956
000080 6d f7 14 bd 48 30 83 bd 1d 59 57 3c e3 95 31 3d
       -0.036368776 -0.06405693 0.013143805 0.043355834
000090 06 d1 03 bd ad 72 a8 3a 25 58 e7 3c 00 3f 1b bd
       -0.032181762 0.0012851559 0.028240273 -0.03790188
0000a0 ea b5 38 3c aa 1b 4e 3d 6e be ea 3c 53 1d 66 3d
       0.01127384 0.05031935 0.028655257 0.05618031
0000b0 ae 10 09 3d 87 6d 53 3d cb b8 ed 3c 89 15 56 bd
       0.033463173 0.051618125 0.02901878 -0.05226663
0000c0 1a 9d 71 3d 78 73 39 3d 2a 3b 56 3d 15 60 19 bd
       0.058987714 0.045276135 0.052302517 -0.037445147
0000d0 33 e3 51 3d 95 6e 88 bc 14 bb 3c 3d 41 ac 81 bd
       0.051242065 -0.016654292 0.04607685 -0.06331683
0000e0 d1 d9 b9 3c 90 f1 05 bd 7e 79 11 3c e3 41 36 bd
       0.02268687 -0.032701075 0.008879064 -0.04449643
0000f0 bc 07 12 3d 7b 75 24 3d 5b c3 ec bc 0f db 24 bc
       0.035651907 0.0401511 -0.028901746 -0.010061993

bn2.weight f4 [64]
000000 60 ae 6e 3f ff 58 85 3f 1a f7 87 3f 10 1d 87 3f
       0.93234825 1.0417784 1.0622284 1.0555744
000010 37 31 7c 3f 71 08 80 3f 0a b7 82 3f 99 9b 83 3f
       0.98512596 1.0002576 1.0212109 1.028186
000020 c7 8f 73 3f cb bd 68 3f 23 3b 7c 3f 02 15 89 3f
       0.9514126 0.909146 0.98527735 1.0709536
000030 96 32 87 3f ab 0b 79 3f 1b 79 80 3f 78 84 79 3f
       1.0562313 0.9728343 1.0036958 0.97467756
000040 b9 67 81 3f 7d dd 6c 3f 89 5d 78 3f 6d a6 81 3f
       1.0109779 0.92525464 0.97017723 1.0128914
000050 be 7e 70 3f 08 a8 8a 3f ad 81 75 3f 29 73 84 3f
       0.93943393 1.0832529 0.95900995 1.0347644
000060 49 27 86 3f d3 0c 88 3f d0 ce 81 3f 78 0c 71 3f
       1.0480739 1.0628914 1.0141239 0.9415965
000070 92 97 7e 3f 25 b4 7b 3f d4 42 81 3f 3f d2 7f 3f
       0.9945003 0.98321754 1.0098519 0.99930185
000080 2c 8b 7c 3f 60 82 82 3f cf f2 6d 3f a7 cb 7b 3f
       0.9864986 1.0196037 0.9294862 0.98357624
000090 c2 3c 66 3f 69 d2 7f 3f d3 4b 7a 3f 19 5b 83 3f
       0.8993646 0.99930435 0.9777195 1.0262176
0000a0 37 9c 85 3f 45 8c 5d 3f 18 0c 84 3f 13 c7 87 3f
       1.0438298 0.8654216 1.0316191 1.0607628
0000b0 c1 6c 87 3f 86 9b 7e 3f bf 67 80 3f d4 2a 74 3f
       1.0580064 0.9945606 1.0031661 0.9537785
0000c0 32 21 86 3f 2e 6f 89 3f 22 98 82 3f 95 22 6d 3f
       1.047888 1.0737054 1.0202677 0.92630893
0000d0 56 44 82 3f 2b 0b 59 3f 98 97 7b 3f 6d 5f 85 3f
       1.0177104 0.84782666 0.9827819 1.0419747
0000e0 9c 15 81 3f ce 0f 6f 3f 2b 5a 73 3f 96 ca 80 3f
       1.008472 0.9338349 0.9505946 1.0061824
0000f0 9a 94 79 3f 17 b1 87 3f 81 59 7e 3f 20 64 7c 3f
       0.97492373 1.0600919 0.9935532 0.9859028

bn2.bias f4 [64]
000000 f3 77 1d be 7e 43 c4 bd 2d e7 ae bd 8a 76 24 be
       -0.15377788 -0.095831856 -0.08540187 -0.16060844
000010 d9 90 5a be 9e d9 44 be a1 fd 36 bd 8c ed a4 bd
       -0.21344317 -0.1922364 -0.044675473 -0.08053121
000020 74 f6 ee bd 69 d1 fe bd 64 90 3f be 8b 29 f1 bd
       -0.11668101 -0.124422856 -0.18707424 -0.11775502
000030 00 a4 23 be 08 71 8c bc 3f 53 ad bd 27 74 a3 bd
       -0.1598053 -0.017143741 -0.084631436 -0.07981139
000040 60 41 10 bd 1e 34 38 be 16 8e f7 bd 61 7c c2 bd
       -0.035218596 -0.17988631 -0.120876476 -0.0949638
000050 3e f8 62 be 0f fc 1e bd 41 00 32 be af 8f 21 be
       -0.2216501 -0.0388146 -0.1738291 -0.15777467
000060 39 f4 e1 bd 4a 63 73 bc a1 34 62 be 78 51 d1 bd
       -0.1103291 -0.014855215 -0.22090389 -0.10220617
000070 b9 2f 23 be 8c a6 ce bd 71 76 89 bd 75 32 f9 bd
       -0.15936173 -0.1009036 -0.06712044 -0.12167827
000080 22 b3 02 be 92 77 42 be 26 e9 50 be 31 5a 10 be
       -0.12763646 -0.18990925 -0.20401439 -0.14096905
000090 3b 25 3b be b4 fa 36 bd 52 57 80 be c2 ba 5a bd
       -0.18275921 -0.044672683 -0.2506662 -0.053400762
0000a0 b6 14 71 bd 23 fb 5d be 0a 1a be bd d6 bf 09 be
       -0.058857642 -0.21677832 -0.0928231 -0.13452086
0000b0 61 1c 27 be 28 d5 d0 bd 82 97 23 be 59 3b 85 be
       -0.1631942 -0.10196906 -0.15975764 -0.2602184
0000c0 e4 13 bc bd bf 30 ea bd 1c 9d ee bc 2c 17 2a be
       -0.09183481 -0.11435079 -0.02912765 -0.16610402
0000d0 a6 8c b4 bd 9f 03 7b be 45 36 2a be 50 f0 47 be
       -0.08815889 -0.245131 -0.16622265 -0.19525266
0000e0 e1 89 b7 bd 2b e4 ea bd b8 51 3e be 8d d1 94 be
       -0.08961845 -0.11469301 -0.1858586 -0.29066125
0000f0 d2 b2 12 be ff 94 0a be 6f 31 7f bd 18 f0 64 be
       -0.14326027 -0.135334 -0.062303003 -0.22357213

bn2.running_mean f4 [64]
000000 48 1c 05 3e a2 a6 c9 bf 14 7b 08 c0 d2 d1 dc be
       0.1299907 -1.5753977 -2.132512 -0.4312883
000010 7c cf a7 bf d1 b4 91 bf 6c 34 d8 bf 79 db da bf
       -1.3110194 -1.1383306 -1.6890998 -1.7098228
000020 5c 35 d2 bf d1 41 4c 40 03 14 28 bf 6c 83 19 be
       -1.6422534 3.191517 -0.65655535 -0.1499154
000030 b4 32 5d bf 6c 27 2a c0 7e c9 fc bf 2c 77 f1 bf
       -0.8640549 -2.6586561 -1.974899 -1.8864493
000040 d9 0a 04 c0 0b 61 5f 3f 31 1e 35 bf f7 09 2d c0
       -2.063162 0.8725745 -0.70749193 -2.7037332
000050 7c 75 27 bf 3b 39 18 c0 48 6b cf 3c 7b cd 90 bf
       -0.6541364 -2.378493 0.02531971 -1.1312708
000060 03 65 94 bf c2 a7 d4 bf fc 1e 5d bf d9 ba db bf
       -1.1593326 -1.6613696 -0.86375403 -1.7166396
000070 dc 7d 95 bf 05 2b f8 be 76 f2 79 bf 79 95 d7 bf
       -1.1679034 -0.4847032 -0.9763559 -1.684249
000080 c2 51 2a bf 34 28 82 bf a9 72 b6 bf 3f 82 7e bf
       -0.66531 -1.0168519 -1.4253742 -0.9941749
000090 11 8b 70 3f 27 6f ce bf 2d e8 6c bf 16 57 84 bf
       0.939622 -1.6127671 -0.9254177 -1.0339077
0000a0 ae 15 f9 be 73 01 25 40 aa e7 ad bf b8 35 2d bf
       -0.48649353 2.5782135 -1.3586323 -0.67660093
0000b0 dd 07 6d bf 4e b1 97 bf 95 69 01 c0 71 0c 47 3f
       -0.92590123 -1.1850984 -2.0220692 0.7775336
0000c0 70 10 f2 bf 33 99 ad bf 9c e1 cb bf e6 ec 8c be
       -1.8911266 -1.3562378 -1.5928226 -0.2752449
0000d0 96 07 b3 bf 6f 3b a7 bf 20 27 01 c0 22 f8 dd bf
       -1.398669 -1.3065013 -2.018013 -1.7341349
0000e0 e6 fa 04 bf 00 5b 72 3f e5 af fd be c3 82 ee bf
       -0.5194534 0.94670105 -0.4954826 -1.8633655
0000f0 e8 40 cd bf ce dd f3 bf d3 21 03 c0 84 19 39 bf
       -1.6035433 -1.9052064 -2.0489395 -0.7230456

bn2.running_var f4 [64]
000000 02 4c 8f 3f f6 85 0b 40 e2 b8 3a 40 d1 28 9e 3f
       1.1195071 2.1800513 2.9175344 1.2356206
000010 74 8b b4 3f b4 dd a7 3f 08 72 dd 3f f2 8e 06 40
       1.4105058 1.3114533 1.7300425 2.1024747
000020 4d f5 99 40 62 11 86 40 be 5a b9 3f 7d 3d 59 3f
       4.811194 4.189622 1.4480817 0.8485945
000030 f5 61 c6 3f ab c4 80 40 91 77 65 40 e6 e7 27 40
       1.5498644 4.0240073 3.5854228 2.623529
000040 26 84 1b 40 4a 2d 9e 3f 8e f9 8e 3f 1f 8a 05 41
       2.4299407 1.2357571 1.1169908 8.346221
000050 bc 88 fc 3f ff f6 49 40 de 1a f8 3f 71 d2 a1 3f
       1.9729228 3.1557004 1.9383199 1.2642347
000060 e0 e0 cd 3f 23 a3 21 40 97 ff cc 3f d5 69 94 40
       1.6084251 2.525582 1.60155 4.637919
000070 6c 3e be 3f d2 37 c1 3f 6d 9e 06 40 7b 56 51 40
       1.48628 1.509516 2.1034195 3.2709033
000080 72 33 b9 3f 3e a3 9c 3f a3 7b 00 40 75 c5 d7 3f
       1.4468825 1.2237318 2.0075462 1.6857134
000090 77 89 80 40 87 d3 96 3f a6 32 98 3f 08 6e 10 40
       4.0167804 1.1783303 1.1890457 2.2567158
0000a0 98 d7 d0 3f b1 fb 9f 40 68 eb 1a 40 fb 18 5e 3f
       1.6315794 4.999474 2.420618 0.8675687
0000b0 a5 33 fe 3f 05 67 0f 40 ca 31 17 40 2a 81 9c 3f
       1.9859511 2.2406628 2.362414 1.2226918
0000c0 e8 6f 4e 40 d5 93 23 40 0e 80 22 40 ac a6 c2 3f
       3.2255802 2.555898 2.5390658 1.5207114
0000d0 c6 c6 09 40 95 03 35 40 e9 02 29 40 95 99 ff 3f
       2.1527572 2.8283436 2.6408026 1.9968745
0000e0 66 2c c9 3f f3 76 e1 3f 6b b7 06 40 0a fc 3f 40
       1.5716674 1.7614425 2.104945 2.9997582
0000f0 98 12 02 40 98 ec 06 40 a5 09 47 40 7f 59 91 3f
       2.0323849 2.1081905 3.1099637 1.1355437

conv3.weight f4 [128, 64, 3, 3]
000000 c5 86 4e 3d b0 20 65 3d 1e 4e 69 3d 50 a1 05 3d
       0.050421495 0.055939376 0.056959264 0.032624543
000010 11 0e c8 3b ce f7 41 3d cb 8b b2 3c f3 05 93 bb
       0.0061051925 0.047355466 0.021795174 -0.004486793
000020 b9 2a 84 ba af cc b7 3c a6 8a 25 bd 2b a8 0f 3c
       -0.0010083533 0.022436468 -0.04041543 0.008768122
000030 09 7b 60 3c a8 c6 96 3c b2 fa 78 bb 7e 32 f2 3c
       0.013701209 0.018405274 -0.0037991223 0.029565092
000040 3a ab 9d bd 8b 58 1f bd 08 76 fe 3a 13 68 69 bc
       -0.076986745 -0.0389028 0.0019413838 -0.014246005
000050 88 d1 0d 3d 64 1b 4a bb 2a a5 86 bb 26 30 1c bd
       0.034623653 -0.003083908 -0.0041090446 -0.038131855
000060 73 f4 54 3d 20 4d 3a 3c 84 df 49 bb 1d 00 28 bd
       0.051990937 0.011370927 -0.0030803392 -0.041015733
000070 a9 6f 68 bb 09 3d d5 bb d6 49 17 3d 7a d4 3e bd
       -0.0035466945 -0.00650752 0.03693565 -0.046589352
000080 48 75 51 bd 43 b7 c5 bc f8 04 64 bd fb 67 22 bd
       -0.05113724 -0.024135238 -0.0556688 -0.039649945
000090 1f e8 18 bb 40 22 0c 3d 71 14 1c 3d 72 b6 c7 3c
       -0.0023331714 0.03421235 0.038105432 0.024378989
0000a0 82 d2 6b bc 66 ee d8 bc bd 06 56 3c f9 18 b7 bc
       -0.014393451 -0.026480865 0.01306313 -0.022350775
0000b0 77 cf f1 3b df 22 80 3c 76 6a 3a 3d 4d 03 b8 bd
       0.007379468 0.015641628 0.045511685 -0.089850046
0000c0 47 fa ad bc c4 3e b0 3b 7d e4 dd bb 04 9f 51 bd
       -0.021237506 0.005378576 -0.0067716227 -0.05117704
0000d0 bb 96 94 3c f1 4f 72 3c df 91 0d 3d 10 89 90 3d
       0.01813828 0.014789567 0.03456294 0.070573926
0000e0 51 77 6e 3d 88 1e 62 3c 26 98 af bb 84 9f 8e 3c
       0.058219258 0.0138012245 -0.0053587137 0.017410047
0000f0 8b 53 1f 3d b8 39 ca 3c 9e 7c 04 3d b3 dd 94 3d
       0.038898032 0.024685726 0.032345407 0.07268848
000100 59 ce a2 3b ff 62 60 3d 50 85 4a bd f2 39 38 bd
       0.004968446 0.05478191 -0.049443543 -0.044977136
000110 55 45 2b 3d b1 97 a8 3c 5f 02 29 ba 61 d3 ff 3c
       0.041814167 0.020580145 -0.00064471917 0.031228723
000120 0a 15 5d bd 5a 51 80 bd f1 ef 67 bd ee 69 c0 bc
       -0.053975143 -0.062655166 -0.05662531 -0.023488011
000130 a6 d8 98 bc 06 16 1a bd b3 e8 20 bc 02 45 dd 3b
       -0.018657994 -0.03761866 -0.009821105 0.006752611
000140 69 fc 4f bc 1d b9 70 3d 47 05 cb 3d c8 fc 8b 3c
       -0.012694457 0.058770288 0.09913116 0.017088309
000150 46 ec 52 3d 33 63 06 bc 73 c6 06 3d a7 86 44 bd
       0.05149486 -0.008202362 0.0329041 -0.047979977
000160 8a 39 8c 3a 29 bb 04 bd d9 17 b7 bc bd ba d9 3c
       0.00106983 -0.032405052 -0.022350239 0.026578302
000170 b6 b9 0d 3c c2 0a 0d bd f5 f3 8a bc db 30 55 3c
       0.008650234 -0.034434088 -0.01696203 0.013012136
000180 43 6c 26 3b 2c d3 2c 3d 57 e1 3a bd 88 c1 7b 3d
       0.002539412 0.042193577 -0.045625057 0.061463863
000190 3e e1 6a 3d a9 f4 15 3d 1f 28 1b bc 05 a8 0f bc
       0.057343714 0.03661028 -0.009470015 -0.008768086
0001a0 26 96 a5 bc 4a 8d 44 3a bd 7b 79 3d e3 6e 8a 3c
       -0.020213198 0.00074978604 0.06090902 0.016898578
0001b0 41 63 7a bc 4b 2e 78 bd c0 a1 aa bc 41 e2 91 bc
       -0.015282453 -0.060591023 -0.020829082 -0.017808082
0001c0 75 01 ec bc cd bd 96 bc 44 ea 13 bc d2 1c 28 bd
       -0.028809289 -0.018401051 -0.009028021 -0.04104311
0001d0 71 2e 92 bc af 40 3f 3d 46 61 7f 3d 1c 63 39 3d
       -0.01784441 0.046692546 0.062348627 0.045260534
0001e0 de 7d d2 3c 69 69 40 3d 8e 8e 98 3c d4 ce 77 3d
       0.025694784 0.046975527 0.018622663 0.06049998
0001f0 00 89 4e 3d f2 7a ce 3c 53 0c 91 3d 31 85 7f 3d
       0.050423622 0.02520511 0.07082429 0.06238288
000200 7c 0d 44 3d c2 5a 2d 3d bb 70 8b 3d 57 aa 36 3d
       0.047864422 0.04232288 0.06808611 0.044596042
000210 41 e9 80 3d 9e 78 58 3d 04 af e0 3d 33 b0 2d 3c
       0.0629449 0.052849405 0.109708816 0.010601091
000220 3a 2d 7c bd 32 82 a9 bc f4 a9 01 bd 91 fa ff 3c
       -0.06156657 -0.020691965 -0.03165622 0.031247409
000230 99 d7 20 bc 1d 1c 0b bd 0a d0 57 bb 3d 7a f8 bc
       -0.0098170275 -0.033962358 -0.0032930397 -0.030331725
000240 60 48 82 3d 98 5a 62 3d 1b 3b ee 3d 7b d1 59 3d
       0.06361461 0.05526218 0.11632367 0.05317829
000250 60 67 99 3d 86 d0 d5 3d 4d 1b e5 3d ba e7 b2 3d
       0.0749042 0.10440163 0.11186848 0.087356046
000260 1f 19 ad 3d 21 bb 48 3d 61 9d da 3c 20 93 09 3d
       0.08452057 0.049006585 0.026686372 0.033587575
000270 9a 42 1a 3d ba e3 03 3c d3 16 e4 3c 5e 34 1d 3c
       0.037661172 0.0080499 0.027842915 0.009595005
000280 2f 64 20 bd a8 d1 84 3c ad b7 c2 3c 88 3e 3d 3d
       -0.039158043 0.016213253 0.023769224 0.046202213
000290 fa c2 72 3c 79 f9 57 bd 43 0f c2 3b 28 1a 6f bb
       0.014816994 -0.05272815 0.0059222295 -0.0036484096
0002a0 ef ea 4d bd db 2e 3e bd 3c f7 6b bc ec 97 04 3d
       -0.05027288 -0.046431404 -0.014402207 0.032371446
0002b0 3c 02 89 3c d3 10 23 3b ed 56 37 bc 28 e1 87 bd
       0.016724698 0.0024881854 -0.011190158 -0.06634742
0002c0 78 63 31 bd 7d 89 0d 3d e8 34 d8 bc 86 e1 42 3b
       -0.04330775 0.034554947 -0.026392415 0.0029736473
0002d0 ed a0 a2 bd 90 80 a0 bc b7 1a f3 bc 52 eb 16 bd
       -0.079408504 -0.019592553 -0.029675825 -0.036845513
0002e0 53 cd ae 3c 30 1c c2 bc 37 3b a9 bc 65 a7 cd bc
       0.02133814 -0.023695081 -0.020658119 -0.025104234
0002f0 8a 02 2b 3c 00 42 70 3d 0e e2 7f 3d 3d cf 81 3c
       0.010437617 0.058656693 0.062471442 0.01584589
000300 63 b8 19 3d 01 d2 1a 3d 08 07 a2 3d 69 0f 3d bc
       0.03752936 0.03779793 0.07911497 -0.011539319
000310 a0 8f 6b bc a5 db 2d 3c 45 95 9d bd 28 92 ec bc
       -0.014377505 0.010611449 -0.076944865 -0.028878286
000320 c0 a3 b5 bd 4a 6e 5a bd 72 2a 1e bd cc 23 98 bd
       -0.088691235 -0.053327836 -0.038614698 -0.07428703
000330 58 a4 03 bd 97 da d4 bc e6 be ca bb cf ff 2d bd
       -0.032139152 -0.025983138 -0.0061873076 -0.042480286
000340 56 e1 8c bd 05 cb f7 bc 56 42 47 bd 52 84 fa 3b
       -0.06878917 -0.030248174 -0.048647247 0.0076451683
000350 e3 c9 93 bd 32 1c bb bd b0 96 26 bc 48 12 97 bc
       -0.07216241 -0.09136237 -0.010167763 -0.018441334
000360 18 f1 cc 3d 87 be 8a 3c 64 d9 63 3d 00 5c 8f 3d
       0.100069225 0.016936554 0.05562724 0.069999695
000370 63 63 52 3d 68 6f 04 3d 8d cb 27 3d 4c 9b 17 3d
       0.051364314 0.032332808 0.040965606 0.037013337
000380 93 6b 2a 3d b4 49 c9 3d 2d 3c 41 3d 61 39 f1 3d
       0.041606497 0.09828511 0.04717653 0.11778522
000390 ff 28 90 3d d7 75 7c 3b fa 49 0f 3d 66 a6 93 3c
       0.070390694 0.0038522386 0.03498266 0.01802368
0003a0 54 44 95 3c 2b d7 29 3d c4 19 ee bc c6 39 93 bc
       0.018221058 0.041464966 -0.02906502 -0.017971884
0003b0 7d 40 ad bc 88 22 0b bd a2 fe a8 bd 7b 80 83 bd
       -0.021148914 -0.03396848 -0.08251692 -0.0642099
0003c0 da ee c6 3c b7 3f 4b bc de df 1e 3c 49 d4 87 bd
       0.024283815 -0.0124053275 0.009696929 -0.06632287
0003d0 02 ad b8 bc f7 78 51 bc f9 d2 07 3d ed 00 dc bc
       -0.022543434 -0.012785188 0.033160184 -0.02685591
0003e0 c0 e0 89 3d 53 f6 4d 3d ef 53 09 3d 66 05 58 3d
       0.06732321 0.05028374 0.03352731 0.052739523
0003f0 dd c6 2a 3b 35 44 dc 3b 94 8b 4e 3a 4b c5 16 3c
       0.0026058473 0.006721998 0.0007879075 0.009202312

conv3.bias f4 [128]
000000 a5 7d 8b bc a4 f3 14 bb 56 a2 46 3d 96 a1 96 3c
       -0.017027685 -0.002272823 0.04849466 0.018387597
000010 d7 4e 1b bd 92 05 01 bd 70 69 33 3d 88 9c de bc
       -0.037916984 -0.031499453 0.043801725 -0.02717425
000020 c0 af 1b bd 93 1b bc bc f8 c5 23 3d e2 5b c8 bc
       -0.038009405 -0.022962367 0.03998372 -0.024457876
000030 94 10 7d ba 12 da 35 bd c4 b6 ec 3c 3c 5e 0f bd
       -0.00096536544 -0.04439742 0.028895743 -0.03500198
000040 8e dc c1 3c 07 ff 55 bc ac 7c 30 3d a1 f5 05 3c
       0.023664739 -0.013061292 0.043087646 0.008176238
000050 b8 35 47 bc ec 7f 6b bc 36 45 6b 3a 11 28 8f bc
       -0.012158804 -0.014373761 0.0008974852 -0.01747516
000060 92 d0 30 bd 51 42 38 bd 43 d7 0c bc ff 27 7e bc
       -0.04316766 -0.04498512 -0.008596244 -0.0155124655
000070 4e 75 07 bd 11 a9 7f 3c e4 04 10 3d 38 f0 af bb
       -0.033070855 0.015604273 0.035160914 -0.0053692125
000080 6f f2 01 3d bd 6f 8d 3c c6 c4 a3 bc b5 1c d0 3c
       0.031725343 0.017265195 -0.01999129 0.025404314
000090 0b 45 46 3c 73 21 a9 3c 93 b2 09 3d 72 3c b1 bb
       0.012101422 0.020645833 0.033617567 -0.005408817
0000a0 f1 69 07 bd f7 85 a0 3c 05 3b 3a bd 95 21 d0 bc
       -0.033060018 0.01959513 -0.04546644 -0.025406638
0000b0 be f0 85 3b 9d da 06 3d 22 9b 1b 3c 9b 28 1b bd
       0.0040875366 0.03292333 0.009497436 -0.03788052
0000c0 2f 8b 04 3d cf f3 9e 3c 06 de 86 bc 73 97 85 3b
       0.0323593 0.019403366 -0.01646329 0.004076892
0000d0 ae 73 ed 3c f9 35 31 bc e5 ee a8 3c 27 3c c5 bc
       0.028985824 -0.010816091 0.020621726 -0.024076534
0000e0 47 03 e8 bb ce fd 75 3c 9b 99 a8 3c f8 19 a9 ba
       -0.007080469 0.015014125 0.020581057 -0.0012901416
0000f0 15 a3 a5 bb a6 d5 88 39 01 d7 ea 3c d4 07 f2 3b
       -0.0050548413 0.00026099122 0.028666975 0.007386187
000100 d6 5d fa bc 87 a6 9d 3c 55 8b af 3a c8 55 9c bc
       -0.030562323 0.019244445 0.0013392965 -0.019083872
000110 a7 0f 24 3d 69 f6 a4 3c 6d 3f 2d bd 6f 6b 2c 3d
       0.04005399 0.020137029 -0.042296816 0.042094644
000120 d2 50 12 3d 0d 02 51 3c 85 8d 0d bd 18 c7 0d 3d
       0.035721608 0.012756837 -0.03455879 0.0346137
000130 ed 06 d5 3c 2c 4f 14 3b e2 bf de bb 4b 3c 00 bd
       0.026004279 0.0022630198 -0.0067977766 -0.0313075
000140 dc 53 fe 3b 59 9e b2 bc 59 cb e9 bc 20 dc 8d bc
       0.0077614617 -0.021804022 -0.028539347 -0.017316878
000150 66 13 04 bd 53 7e 00 3d 9b ea 28 3c 44 55 be 3c
       -0.032245062 0.031370472 0.010309841 0.023234017
000160 4b 64 f4 3c d8 22 ed bc 59 dd 08 bb 78 cf e1 3c
       0.02983298 -0.028947279 -0.0020883887 0.02756475
000170 35 cf 0a 3d 8b 40 14 3d 38 0a fe 3c f8 6e f8 3c
       0.033889014 0.036194365 0.031010732 0.030326352
000180 02 87 0b bc b8 9f e2 bc 1f ca b7 3b ff e5 c7 3c
       -0.008516075 -0.02766405 0.0056088115 0.024401663
000190 1d e8 d5 bc 10 85 0f bc 57 f5 5e 3c 0a 87 3f bd
       -0.026111657 -0.008759752 0.013608298 -0.046759643
0001a0 b5 a0 15 bd 6d b2 71 bb 90 08 19 bd de ba 62 bc
       -0.036530215 -0.0036880032 -0.03736168 -0.013838498
0001b0 b1 1a 22 3d 55 65 3d bb 3a 6e 47 3d 9f 73 04 3d
       0.039576236 -0.002889951 0.048689105 0.032336827
0001c0 d9 f3 01 3d d7 d6 0f bd e5 99 c4 bc 81 5c 00 3d
       0.031726692 -0.035116997 -0.023999164 0.03133822
0001d0 68 c7 52 bd 9f e4 9f bc 4c 4a 98 bc 61 24 1c 3d
       -0.0514597 -0.019518195 -0.018590115 0.03812063
0001e0 ac bf d4 bc 91 f0 1a 3d e9 3e 29 bc 61 f3 f2 3b
       -0.025970303 0.03782708 -0.01032994 0.007414267
0001f0 0d ed 12 3d 27 a3 14 bd 1a e3 25 3d 80 3e cf 3b
       0.0358706 -0.036288407 0.040499784 0.0063245893
