built_models/esc50_esc50cnn_model_fold1_20250430_203637.pth (torch, 654357 bytes, 24 tensors)

mel_transform.spectrogram.window f4 [1024]
0.0 9.417534e-06 3.7640333e-05 8.46982e-05 0.00015059114 0.00023528934 0.0003388226 0.00046113133
0.00060227513 0.0007622242 0.0009409487 0.0011384785 0.0013547838 0.0015898645 0.0018436909 0.0021162927
0.0024076402 0.0027177036 0.0030465126 0.0033940375 0.0037602484 0.0041451156 0.0045486987 0.004970908
0.005411744 0.0058712065 0.0063492954 0.006845951 0.0073611736 0.007894963 0.00844726 0.009018064
0.009607345 0.010215104 0.01084131 0.011485934 0.0121489465 0.012830317 0.013530016 0.014248043
0.014984369 0.015738964 0.016511768 0.017302781 0.018111974 0.018939286 0.019784749 0.02064827
0.021529824 0.022429407 0.02334699 0.024282485 0.025235921 0.026207209 0.027196348 0.028203279
0.029227972 0.030270398 0.031330496 0.032408237 0.033503592 0.03461653 0.03574696 0.036894888
0.038060248 0.039242983 0.040443063 0.041660458 0.04289514 0.044146985 0.045416027 0.046702147
0.048005342 0.049325585 0.050662756 0.052016884 0.05338785 0.054775625 0.05618021 0.057601452
0.059039384 0.060493886 0.06196496 0.06345251 0.064956516 0.06647688 0.06801358 0.06956655
0.0711357 0.072721004 0.0743224 0.075939834 0.07757321 0.07922253 0.080887645 0.082568586
0.0842652 0.085977495 0.087705374 0.08944875 0.09120759 0.092981845 0.094771415 0.096576214
0.09839624 0.10023138 0.10208154 0.103946716 0.105826795 0.10772169 0.10963139 0.111555785
0.11349478 0.115448326 0.11741638 0.11939883 0.12139559 0.12340662 0.1254318 0.12747112
0.12952444 0.13159174 0.1336729 0.13576782 0.13787645 0.13999876 0.1421346 0.14428389
0.14644662 0.14862263 0.15081188 0.15301427 0.15522975 0.15745819 0.1596995 0.16195366
0.16422054 0.16650003 0.16879213 0.17109665 0.1734136 0.1757428 0.17808422 0.1804378
0.18280336 0.1851809 0.18757027 0.18997142 0.19238421 0.1948086 0.1972445 0.19969177
0.20215034 0.20462015 0.20710108 0.20959303 0.21209592 0.21460965 0.21713409 0.21966922
0.2222149 0.22477102 0.22733751 0.22991425 0.23250118 0.23509818 0.23770517 0.24032202
0.24294865 0.24558496 0.24823079 0.25088614 0.2535509 0.25622493 0.25890815 0.2616004
0.26430166 0.26701176 0.26973063 0.2724582 0.27519435 0.27793896 0.28069192 0.2834531
0.28622246 0.28899986 0.29178524 0.29457843 0.29737937 0.30018795 0.30300403 0.30582747
0.3086583 0.31149632 0.31434143 0.3171935 0.3200525 0.3229183 0.32579064 0.32866964
0.33155507 0.33444685 0.33734488 0.340249 0.34315917 0.34607518 0.34899703 0.35192457
0.35485768 0.35779625 0.36074018 0.36368936 0.3666436 0.36960295 0.37256718 0.3755362
0.37850994 0.38148823 0.38447094 0.38745803 0.3904494 0.39344487 0.39644432 0.3994477
0.40245488 0.40546566 0.40848005 0.4114979 0.41451907 0.41754347 0.42057097 0.42360145
0.42663476 0.42967087 0.43270966 0.43575096 0.43879467 0.4418407 0.44488895 0.4479392
0.45099142 0.45404553 0.45710137 0.46015882 0.46321777 0.46627808 0.46933964 0.4724024
0.47546616 0.47853088 0.4815964 0.48466262 0.48772943 0.49079663 0.49386424 0.49693206
00000000: 0000 0000 0000 1e37 00e0 1d38 00a0 b138
00000010: 00e8 1d39 00b8 7639 00a4 b139 00c4 f139
00000020: 00e2 1d3a 00d0 473a 00aa 763a 0039 953a
00000030: 0093 b13a 0063 d03a 00a8 f13a 80b1 0a3b
00000040: 80c9 1d3b 801b 323b 00a8 473b 806e 5e3b
00000050: 806e 763b c0d3 873b 400d 953b 00e3 a23b
00000060: 0055 b13b 4063 c03b c00d d03b 0054 e03b
00000070: 0036 f13b e059 013c 6066 0a3c 80c0 133c
00000080: 2068 1d3c 405d 273c c09f 313c 802f 3c3c
00000090: 600c 473c 4036 523c 00ad 5d3c a070 693c
000000a0: 0081 753c 00ef 803c b043 873c 90be 8d3c
000000b0: 905f 943c 9026 9b3c a013 a23c 9026 a93c
000000c0: 505f b03c e0bd b73c 3042 bf3c 10ec c63c
000000d0: 90bb ce3c 80b0 d63c e0ca de3c 900a e73c
000000e0: 806f ef3c a0f9 f73c 6854 003d 80be 043d
000000f0: 103b 093d 10ca 0d3d 686b 123d 181f 173d
00000100: 10e5 1b3d 40bd 203d a0a7 253d 28a4 2a3d
00000110: d0b2 2f3d 78d3 343d 2806 3a3d c04a 3f3d
00000120: 40a1 443d a009 4a3d c083 4f3d a80f 553d
00000130: 38ad 5a3d 685c 603d 381d 663d 80ef 6b3d
00000140: 48d3 713d 70c8 773d f8ce 7d3d 64f3 813d
00000150: ec07 853d 0825 883d b44a 8b3d e878 8e3d
00000160: 98af 913d c0ee 943d 5836 983d 5886 9b3d
00000170: b4de 9e3d 6c3f a23d 6ca8 a53d b819 a93d
00000180: 3c93 ac3d f814 b03d e09e b33d e830 b73d
00000190: 0ccb ba3d 446d be3d 8417 c23d c0c9 c53d
000001a0: f883 c93d 1c46 cd3d 2010 d13d 04e2 d43d
000001b0: b8bb d83d 309d dc3d 6c86 e03d 5c77 e43d
000001c0: f46f e83d 2c70 ec3d 0078 f03d 6087 f43d
000001d0: 409e f83d 9cbc fc3d 3271 003e ca87 023e
000001e0: 0ea2 043e fcbf 063e 8ce1 083e b806 0b3e
000001f0: 7c2f 0d3e d65b 0f3e bc8b 113e 28bf 133e
00000200: 1af6 153e 8830 183e 6e6e 1a3e c6af 1c3e
00000210: 8cf4 1e3e b83c 213e 4488 233e 2ed7 253e
00000220: 6e29 283e fc7e 2a3e d8d7 2c3e f633 2f3e
00000230: 5693 313e ecf5 333e b65b 363e b0c4 383e
00000240: ce30 3b3e 10a0 3d3e 6c12 403e de87 423e
00000250: 5e00 453e e87b 473e 76fa 493e 007c 4c3e
00000260: 8000 4f3e f287 513e 4e12 543e 8e9f 563e
00000270: ac2f 593e a2c2 5b3e 6658 5e3e f8f0 603e
00000280: 4e8c 633e 602a 663e 2acb 683e a46e 6b3e
00000290: ca14 6e3e 94bd 703e fc68 733e fa16 763e
000002a0: 88c7 783e a07a 7b3e 3630 7e3e 2674 803e
000002b0: 6cd1 813e ea2f 833e 9c8f 843e 7df0 853e
000002c0: 8c52 873e c4b5 883e 221a 8a3e a47f 8b3e
000002d0: 46e6 8c3e 044e 8e3e dab6 8f3e c420 913e
000002e0: c08b 923e caf7 933e e064 953e fcd2 963e
000002f0: 1c42 983e 3cb2 993e 5823 9b3e 6b95 9c3e
00000300: 7608 9e3e 727c 9f3e 5cf1 a03e 3067 a23e
00000310: ecdd a33e 8c55 a53e 08ce a63e 6347 a83e
00000320: 96c1 a93e 9e3c ab3e 78b8 ac3e 1e35 ae3e
00000330: 8fb2 af3e c430 b13e bdaf b23e 752f b43e
00000340: e8af b53e 1231 b73e f0b2 b83e 7e35 ba3e
00000350: b6b8 bb3e 993c bd3e 20c1 be3e 4846 c03e
00000360: 0ecc c13e 6d52 c33e 60d9 c43e e660 c63e
00000370: fce8 c73e 9b71 c93e c0fa ca3e 6984 cc3e
00000380: 910e ce3e 3299 cf3e 4c24 d13e daaf d23e
00000390: d83b d43e 42c8 d53e 1455 d73e 4ae2 d83e
000003a0: df6f da3e d2fd db3e 1f8c dd3e c01a df3e
000003b0: b2a9 e03e f238 e23e 7cc8 e33e 4958 e53e
000003c0: 59e8 e63e a878 e83e 3109 ea3e f099 eb3e
000003d0: e12a ed3e 00bc ee3e 494d f03e bade f13e
000003e0: 4d70 f33e 0002 f53e ce93 f63e b325 f83e
000003f0: acb7 f93e b249 fb3e c6db fc3e e16d fe3e

mel_transform.mel_scale.fb f4 [513, 40]
-0.0 0.0 0.0 0.0 0.0 0.0 0.0 0.0
0.0 0.0 0.0 0.0 0.0 0.0 0.0 0.0
0.0 0.0 0.0 0.0 0.0 0.0 0.0 0.0
0.0 0.0 0.0 0.0 0.0 0.0 0.0 0.0
0.0 0.0 0.0 0.0 0.0 0.0 0.0 0.0
0.69426066 0.0 0.0 0.0 0.0 0.0 0.0 0.0
0.0 0.0 0.0 0.0 0.0 0.0 0.0 0.0
0.0 0.0 0.0 0.0 0.0 0.0 0.0 0.0
0.0 0.0 0.0 0.0 0.0 0.0 0.0 0.0
0.0 0.0 0.0 0.0 0.0 0.0 0.0 0.0
0.64310575 0.35689425 0.0 0.0 0.0 0.0 0.0 0.0
0.0 0.0 0.0 0.0 0.0 0.0 0.0 0.0
0.0 0.0 0.0 0.0 0.0 0.0 0.0 0.0
0.0 0.0 0.0 0.0 0.0 0.0 0.0 0.0
0.0 0.0 0.0 0.0 0.0 0.0 0.0 0.0
0.005360414 0.9946396 0.0 0.0 0.0 0.0 0.0 0.0
0.0 0.0 0.0 0.0 0.0 0.0 0.0 0.0
0.0 0.0 0.0 0.0 0.0 0.0 0.0 0.0
0.0 0.0 0.0 0.0 0.0 0.0 0.0 0.0
0.0 0.0 0.0 0.0 0.0 0.0 0.0 0.0
0.0 0.41909382 0.58090615 0.0 0.0 0.0 0.0 0.0
0.0 0.0 0.0 0.0 0.0 0.0 0.0 0.0
0.0 0.0 0.0 0.0 0.0 0.0 0.0 0.0
0.0 0.0 0.0 0.0 0.0 0.0 0.0 0.0
0.0 0.0 0.0 0.0 0.0 0.0 0.0 0.0
0.0 0.0 0.8468364 0.15316364 0.0 0.0 0.0 0.0
0.0 0.0 0.0 0.0 0.0 0.0 0.0 0.0
0.0 0.0 0.0 0.0 0.0 0.0 0.0 0.0
0.0 0.0 0.0 0.0 0.0 0.0 0.0 0.0
0.0 0.0 0.0 0.0 0.0 0.0 0.0 0.0
0.0 0.0 0.3086942 0.69130576 0.0 0.0 0.0 0.0
0.0 0.0 0.0 0.0 0.0 0.0 0.0 0.0
00000000: 0000 0080 0000 0000 0000 0000 0000 0000
00000010: 0000 0000 0000 0000 0000 0000 0000 0000
00000020: 0000 0000 0000 0000 0000 0000 0000 0000
00000030: 0000 0000 0000 0000 0000 0000 0000 0000
00000040: 0000 0000 0000 0000 0000 0000 0000 0000
00000050: 0000 0000 0000 0000 0000 0000 0000 0000
00000060: 0000 0000 0000 0000 0000 0000 0000 0000
00000070: 0000 0000 0000 0000 0000 0000 0000 0000
00000080: 0000 0000 0000 0000 0000 0000 0000 0000
00000090: 0000 0000 0000 0000 0000 0000 0000 0000
000000a0: 11bb 313f 0000 0000 0000 0000 0000 0000
000000b0: 0000 0000 0000 0000 0000 0000 0000 0000
000000c0: 0000 0000 0000 0000 0000 0000 0000 0000
000000d0: 0000 0000 0000 0000 0000 0000 0000 0000
000000e0: 0000 0000 0000 0000 0000 0000 0000 0000
000000f0: 0000 0000 0000 0000 0000 0000 0000 0000
00000100: 0000 0000 0000 0000 0000 0000 0000 0000
00000110: 0000 0000 0000 0000 0000 0000 0000 0000
00000120: 0000 0000 0000 0000 0000 0000 0000 0000
00000130: 0000 0000 0000 0000 0000 0000 0000 0000
00000140: 94a2 243f d8ba b63e 0000 0000 0000 0000
00000150: 0000 0000 0000 0000 0000 0000 0000 0000
00000160: 0000 0000 0000 0000 0000 0000 0000 0000
00000170: 0000 0000 0000 0000 0000 0000 0000 0000
00000180: 0000 0000 0000 0000 0000 0000 0000 0000
00000190: 0000 0000 0000 0000 0000 0000 0000 0000
000001a0: 0000 0000 0000 0000 0000 0000 0000 0000
000001b0: 0000 0000 0000 0000 0000 0000 0000 0000
000001c0: 0000 0000 0000 0000 0000 0000 0000 0000
000001d0: 0000 0000 0000 0000 0000 0000 0000 0000
000001e0: 69a6 af3b b3a0 7e3f 0000 0000 0000 0000
000001f0: 0000 0000 0000 0000 0000 0000 0000 0000
00000200: 0000 0000 0000 0000 0000 0000 0000 0000
00000210: 0000 0000 0000 0000 0000 0000 0000 0000
00000220: 0000 0000 0000 0000 0000 0000 0000 0000
00000230: 0000 0000 0000 0000 0000 0000 0000 0000
00000240: 0000 0000 0000 0000 0000 0000 0000 0000
00000250: 0000 0000 0000 0000 0000 0000 0000 0000
00000260: 0000 0000 0000 0000 0000 0000 0000 0000
00000270: 0000 0000 0000 0000 0000 0000 0000 0000
00000280: 0000 0000 7793 d63e 44b6 143f 0000 0000
00000290: 0000 0000 0000 0000 0000 0000 0000 0000
000002a0: 0000 0000 0000 0000 0000 0000 0000 0000
000002b0: 0000 0000 0000 0000 0000 0000 0000 0000
000002c0: 0000 0000 0000 0000 0000 0000 0000 0000
000002d0: 0000 0000 0000 0000 0000 0000 0000 0000
000002e0: 0000 0000 0000 0000 0000 0000 0000 0000
000002f0: 0000 0000 0000 0000 0000 0000 0000 0000
00000300: 0000 0000 0000 0000 0000 0000 0000 0000
00000310: 0000 0000 0000 0000 0000 0000 0000 0000
00000320: 0000 0000 0000 0000 45ca 583f eed6 1c3e
00000330: 0000 0000 0000 0000 0000 0000 0000 0000
00000340: 0000 0000 0000 0000 0000 0000 0000 0000
00000350: 0000 0000 0000 0000 0000 0000 0000 0000
00000360: 0000 0000 0000 0000 0000 0000 0000 0000
00000370: 0000 0000 0000 0000 0000 0000 0000 0000
00000380: 0000 0000 0000 0000 0000 0000 0000 0000
00000390: 0000 0000 0000 0000 0000 0000 0000 0000
000003a0: 0000 0000 0000 0000 0000 0000 0000 0000
000003b0: 0000 0000 0000 0000 0000 0000 0000 0000
000003c0: 0000 0000 0000 0000 2b0d 9e3e 6af9 303f
000003d0: 0000 0000 0000 0000 0000 0000 0000 0000
000003e0: 0000 0000 0000 0000 0000 0000 0000 0000
000003f0: 0000 0000 0000 0000 0000 0000 0000 0000

conv1.weight f4 [32, 1, 3, 3]
-0.16129233 -0.2971269 0.021821128 0.31481344 0.267633 -0.007405307 -0.08315098 -0.04764504
-0.023475822 0.049902253 0.12863821 -0.02636824 0.25859347 0.1362494 0.2245977 0.035763897
-0.24697135 -0.21438496 -0.30285558 -0.17326166 0.28246707 -0.023258314 0.32590017 -0.14484116
0.25919795 -0.29552588 -0.06995396 -0.16001639 -0.27419508 0.28678107 -0.28994402 -0.1910103
0.092082374 -0.036215283 -0.029849816 0.33562523 -0.2929801 -0.043128535 -0.306608 -0.12513009
-0.11244372 0.12734 0.12867832 0.13526845 0.22944942 0.084713385 0.13136145 -0.00855102
0.18431632 0.39171383 0.09314064 0.025063965 0.26640365 0.21724986 -0.15405908 0.22803555
-0.06230516 -0.11603205 0.10401096 0.13173579 -0.050656427 0.039057173 -0.04426991 0.36167774
0.11192176 0.055268705 -0.20823202 0.05691764 -0.21190582 -0.04194723 0.123777166 -0.31353247
-0.097431704 0.23051092 -0.04241803 -0.08319696 -0.359693 0.20465367 -0.17640562 -0.09323121
0.12645306 0.29772568 0.17427091 0.04786665 0.038607534 0.0839354 0.17544965 -0.19156796
-0.20807953 -0.0989013 0.100429304 -0.1610356 0.08145713 0.0007011825 0.0066340677 0.00976327
-0.34156936 0.18756409 0.21617985 -0.33682054 0.20600826 -0.29964367 -0.14023823 0.098696455
0.0017380186 0.24419594 0.27799213 0.21510802 -0.07347081 -0.00962866 0.22146644 -0.10590137
-0.23926967 -0.16827686 0.1884786 0.05970901 0.25014988 0.29252204 0.11609426 0.23543832
-0.30997416 -0.16506812 -0.015030686 -0.10486254 0.09077765 0.08578151 0.21853031 0.003832543
-0.25488412 -0.08203042 -0.10936733 0.2612093 0.26349783 -0.30094442 0.32667407 -0.23824695
-0.2809306 -0.20045519 0.15406568 0.054536868 0.25292528 -0.0493829 0.17375326 0.14224748
0.17477705 0.14323527 -0.011657105 0.24532093 -0.18298411 -0.14145193 0.20251723 0.1337056
-0.340911 0.14354125 0.29926696 0.057708807 0.052134987 -0.1854403 -0.11139211 -0.37933218
-0.32037896 -0.17955045 0.18996629 0.18892121 0.10740944 0.24456197 -0.12306639 0.09587483
0.036082268 -0.19785115 -0.2872425 -0.057764877 0.13498174 -0.13602313 0.15726215 0.29236716
0.3333851 -0.23052181 -0.23450023 -0.2314069 -0.031496234 -0.27267227 0.079867356 -0.16230695
-0.024095276 0.24610193 -0.0269924 -0.11173747 0.23132262 0.10963541 -0.1734436 -0.1577944
0.32328394 0.39369223 -0.1654936 -0.0025438897 -0.16824788 -0.32454473 -0.18084319 0.15311196
0.017645145 0.17104737 0.09602276 -0.2560625 0.048643645 -0.15640554 0.15429391 0.20214921
-0.120015405 0.08352513 -0.22176677 0.118120536 0.31880555 0.0056166784 0.13838905 0.47662494
-0.05073923 0.16514967 -0.3525353 0.029056927 -0.023083514 0.039995216 0.36862132 0.1901985
-0.23688547 0.056769494 -0.08546808 -0.18659419 -0.35044244 -0.23240021 -0.14931001 -0.07312637
-0.12066147 -0.1370711 0.36333442 -0.27869308 0.20232522 -0.2800572 0.15708819 -0.19084628
-0.006769914 0.16851938 0.12852417 0.29580057 0.08799451 0.011491731 0.018216573 0.04639382
0.07754121 -0.16925839 -0.1691 -0.13692935 0.3776887 -0.1930695 0.3153931 -0.03443797
00000000: d129 25be 0421 98be 39c2 b23c 3a2f a13e
00000010: 3107 893e 38a8 f2bb 104b aabd 7227 43bd
00000020: 5e50 c0bc 4e66 4c3d bcb9 033e 3502 d8bc
00000030: 5d66 843e f684 0b3e f1fc 653e 2a7d 123d
00000040: 0fe6 7cbe bb87 5bbe e30f 9bbe 816b 31be
00000050: 869f 903e 3888 bebc 63dc a63e 3e51 14be
00000060: 98b5 843e 2b4f 97be 0644 8fbd 56db 23be
00000070: 4c63 8cbe f8d4 923e 8b73 94be 3498 43be
00000080: af95 bc3d 7a56 14bd 9a87 f4bc 12d7 ab3e
00000090: 7d01 96be 8ca7 30bd b9fb 9cbe 1a22 00be
000000a0: e548 e6bd 6b65 023e 40c4 033e d083 0a3e
000000b0: caf4 6a3e 367e ad3d 9e83 063e 9419 0cbc
000000c0: 6bbd 3c3e b78e c83e 85c0 be3d f252 cd3c
000000d0: 0f66 883e bf76 5e3e aac1 1dbe 2782 693e
000000e0: b233 7fbd 36a2 edbd b303 d53d bfe5 063e
000000f0: 1d7d 4fbd 6afa 1f3d 5d54 35bd d32d b93e
00000100: 3c37 e53d 7061 623d c63a 55be 7922 693d
00000110: d7fd 58be dcd0 2bbd e27e fd3d 5487 a0be
00000120: 468a c7bd 0e0b 6c3e 87be 2dbd 2b63 aabd
00000130: ae29 b8be bb90 513e ada3 34be 01f0 bebd
00000140: e97c 013e 806f 983e 1374 323e d20f 443d
00000150: ef22 1e3d 53e6 ab3d 13a9 333e 642a 44be
00000160: cd12 55be c48c cabd e1ad cd3d 84e6 24be
00000170: ffd2 a63d 90cf 373a 9862 d93b 1ff6 1f3c
00000180: 2ee2 aebe cd10 403e 405e 5d3e be73 acbe
00000190: d4f3 523e e56a 99be 9c9a 0fbe 5e21 ca3d
000001a0: 3ace e33a 800e 7a3e fc54 8e3e 4745 5c3e
000001b0: dd77 96bd 87c1 1dbc 19c8 623e d1e2 d8bd
000001c0: 1c03 75be c550 2cbe 8900 413e 6f91 743d
000001d0: a513 803e 73c5 953e d4c2 ed3d be16 713e
000001e0: efb4 9ebe 9e07 29be 4443 76bc 2cc2 d6bd
000001f0: a2e9 b93d 37ae af3d 69c6 5f3e 672b 7b3b
00000200: 2c80 82be 91ff a7bd fbfb dfbd 3abd 853e
00000210: 30e9 863e 6315 9abe d341 a73e 02f7 73be
00000220: 23d6 8fbe 2044 4dbe 65c3 1d3e 0d62 5f3d
00000230: 6c7f 813e b945 4abd 60ec 313e 53a9 113e
00000240: c1f8 323e 44ac 123e 71fd 3ebc 6935 7b3e
00000250: 3060 3bbe c6d8 10be ad60 4f3e 1fea 083e
00000260: e38b aebe 7afc 123e 8539 993e 1260 6c3d
00000270: 7f8b 553d 10e4 3dbe 8c21 e4bd d437 c2be
00000280: b608 a4be 13dc 37be 8686 423e 9074 413e
00000290: 7bf9 db3d 746e 7a3e 3b0a fcbd 065a c43d
000002a0: 00cb 133d 7e99 4abe 7311 93be dd9a 6cbd
000002b0: a738 0a3e a649 0bbe 5409 213e 26b1 953e
000002c0: 74b1 aa3e e90d 6cbe d420 70be eef5 6cbe
000002d0: 3202 01bd b39b 8bbe 7f91 a33d cb33 26be
000002e0: 7563 c5bc 2502 7c3e 2a1f ddbc 9dd6 e4bd
000002f0: d6df 6c3e 8888 e03d 339b 31be db94 21be
00000300: 7985 a53e 0792 c93e 2777 29be 63b7 26bb
00000310: 2c49 2cbe ba2a a6be f52e 39be 62c9 1c3e
00000320: 8d8c 903c 0b27 2f3e 95a7 c43d a01a 83be
00000330: 8f3e 473d c628 20be 39ff 1d3e 3400 4f3e
00000340: a3ca f5bd 390f ab3d d416 63be 2ee9 f13d
00000350: 7b3a a33e 1d0c b83b dcb5 0d3e 2f08 f43e
00000360: f0d3 4fbd ff1c 293e 827f b4be cb08 ee3c
00000370: a319 bdbc 06d2 233d efbb bc3e 65c3 423e
00000380: 1b92 72be 2187 683d e409 afbd 8c12 3fbe
00000390: 316d b3be 52fa 6dbe b9e4 18be 47c3 95bd
000003a0: 5c1d f7bd 5e5c 0cbe f806 ba3e dcb0 8ebe
000003b0: 582e 4f3e a863 8fbe badb 203e 356d 43be
000003c0: 28d6 ddbb 5890 2c3e d79b 033e 2c73 973e
000003d0: 7736 b43d d047 3c3c ec3a 953c 7207 3e3d
000003e0: edcd 9e3d 1252 2dbe 8d28 2dbe 3537 0cbe
000003f0: 6a60 c13e 03b4 45be 347b a13e d40e 0dbd

conv1.bias f4 [32]
-0.069892965 -0.12160508 0.0039747 -0.120665416 0.13200782 0.037832987 0.30640697 0.059456673
0.30234274 0.2868898 -0.055359088 0.12912673 -0.09661057 -0.06632699 0.15190932 -0.10521713
-0.047259226 0.022255508 0.050263032 0.04341974 0.047141246 -0.33120543 -0.15468997 0.03820903
0.26401722 0.15497993 -0.11662802 0.020949664 -0.27447015 0.28996179 -0.03148594 0.20939672
00000000: 0b24 8fbd 160c f9bd 333e 823b 6e1f f7bd
00000010: 0f2d 073e c3f6 1a3d 60e1 9c3e d788 733d
00000020: abcc 9a3e 38e3 923e 36c0 62bd cc39 043e
00000030: c3db c5bd 72d6 87bd 1e8e 1b3e 147c d7bd
00000040: e492 41bd 2f51 b63c 9ce0 4d3d e6d8 313d
00000050: 2e17 413d c293 a9be 0c67 1ebe 1281 1c3d
00000060: 442d 873e 0fb3 1e3e acda eebd a19e ab3c
00000070: 5a87 8cbe df75 943e 67f7 00bd 186c 563e

bn1.weight f4 [32]
1.1718892 0.8370273 0.90963644 0.9665728 0.97966415 0.7849242 0.9049837 0.9170243
0.85005677 0.95268685 0.8818124 1.0144111 1.0883802 1.042379 0.8471546 1.2137007
1.0161941 0.9177196 0.9280912 1.1564595 0.90857047 0.96783286 1.0276847 0.7799455
1.1173673 0.8387796 0.84563106 0.997491 1.0298326 0.9756387 1.0301532 0.7030965
00000000: 7700 963f 6c47 563f efdd 683f 5171 773f
00000010: 45cb 7a3f cbf0 483f 03ad 673f 1bc2 6a3f
00000020: 529d 593f 49e3 733f 75be 613f 39d8 813f
00000030: 0b50 8b3f ad6c 853f 20df 583f 8b5a 9b3f
00000040: a612 823f acef 6a3f 6397 6d3f dd06 943f
00000050: 1398 683f e5c3 773f 2c8b 833f 82aa 473f
00000060: e405 8f3f 43ba 563f 477b 583f 925b 7f3f
00000070: 8ed1 833f 75c3 793f 0fdc 833f 22fe 333f

bn1.bias f4 [32]
0.17633146 -0.28133932 0.049079467 -0.19682138 -0.13604522 -0.19932981 -0.20550056 0.07060412
-0.06261285 -0.19953026 -0.24075738 -0.18891495 -0.24541889 -0.27304962 -0.24289311 0.39081427
-0.13787523 -0.24791782 -0.20150915 0.2304542 -0.076760136 -0.02158282 -0.082510866 -0.19287379
-0.11270363 -0.064893536 -0.2419937 -0.02280465 -0.17000699 0.03482038 -0.028749613 -0.061486132
00000000: 3c90 343e b50b 90be 8d07 493d 8b8b 49be
00000010: 704f 0bbe 1d1d 4cbe bd6e 52be e598 903d
00000020: 2a3b 80bd a951 4cbe 1a89 76be ec72 41be
00000030: 174f 7bbe 29cd 8bbe f9b8 78be cf18 c83e
00000040: 2a2f 0dbe 2bde 7dbe 6a58 4ebe 30fc 6b3e
00000050: 6b34 9dbd 74ce b0bc 75fb a8bd b580 45be
00000060: 29d1 e6bd e7e6 84bd 32cd 77be d1d0 babc
00000070: 5016 2ebe d19f 0e3d 4f84 ebbc e2d8 7bbd

bn1.running_mean f4 [32]
-0.0922281 -0.108545855 -0.006718995 -0.13259704 0.08890337 0.04105139 0.30984882 0.091469765
0.3110124 0.32158816 -0.056406155 0.09623921 -0.09787643 -0.033235546 0.14493756 -0.14706059
-0.031679235 0.061230328 0.079769224 0.0502902 0.03294676 -0.33571076 -0.15430562 0.038059935
0.2452754 0.14808135 -0.10675892 0.045769066 -0.24685058 0.28731817 -0.03433 0.20483361
00000000: 16e2 bcbd 4a4d debd 042b dcbb 85c7 07be
00000010: f812 b63d 8125 283d 81a4 9e3e 8054 bb3d
00000020: 043d 9f3e 34a7 a43e 240a 67bd 1019 c53d
00000030: 7073 c8bd ff21 08bd 836a 143e 0d97 16be
00000040: 16c2 01bd a7cc 7a3d 0c5e a33d 19fd 4d3d
00000050: 2ff3 063d 48e2 abbe 4b02 1ebe bce4 1b3d
00000060: 7929 7b3e a3a2 173e 6ca4 dabd 5878 3b3d
00000070: 66c6 7cbe 5e1b 933e 9d9d 0cbd e7bf 513e

bn1.running_var f4 [32]
0.038095 0.19186485 0.027468158 0.15194632 0.16461281 1.6499712 0.018767744 0.075404696
0.0955044 0.19007348 0.02512935 0.20975554 0.065665044 0.07183622 0.11477541 0.092526786
0.08272092 0.52182025 0.14531778 0.13404088 0.04008366 0.11065935 0.0072787935 0.8844511
0.07655759 1.4016565 0.06731548 0.07751101 0.08207504 0.055714704 0.027534688 1.0028367
00000000: 8109 1c3d 3878 443e e704 e13c d197 1b3e
00000010: 4390 283e 4232 d33f d0be 993c c76d 9a3d
00000020: d097 c33d 9fa2 423e 11dc cd3c 28ca 563e
00000030: 657b 863d de1e 933d 5f0f eb3d af7e bd3d
00000040: 9669 a93d 0396 053f 2fce 143e 0342 093e
00000050: c42e 243d 5fa1 e23d f282 ee3b 636b 623f
00000060: 3aca 9c3d 7b69 b33f b3dc 893d 18be 9e3d
00000070: f516 a83d 1a35 643d 6d90 e13c f45c 803f

conv2.weight f4 [64, 32, 3, 3]
0.07441095 0.006689975 0.008506003 -0.09421518 -0.17826879 -0.1810806 -0.0093092015 -0.008146783
0.009901281 0.06693303 -0.01737904 -0.0059404024 -0.0132868355 -0.058290243 -0.16834062 0.07654964
0.060608312 -0.017632507 -0.0068519 -0.021136934 -0.028655833 -0.10631552 -0.09658566 -0.08633633
-0.09457465 -0.055255182 -0.08202643 -0.118548304 -0.008511854 0.048210848 -0.06998678 -0.02216324
0.08216891 -0.054308344 -0.017915571 0.0070523187 0.11866895 0.07897745 0.11334805 -0.012052254
-0.043547668 -0.0024756505 -0.047319595 -0.03524273 -0.072462164 0.032216318 0.01558691 -0.032920126
0.061968163 -0.052623596 -0.05085749 0.16343224 0.12687498 0.13200203 -0.095649466 -0.03764697
-0.07349413 -0.009594367 -0.0911717 -0.15762354 0.11514873 0.10473913 0.06791426 -0.031077715
-0.022304429 -0.08481855 0.010634925 -0.056343827 -0.077914804 0.005447474 0.034282207 -0.024954299
-0.10721611 -0.099415116 -0.08098869 0.011085733 0.0025172606 0.03211835 -0.061634112 -0.03920716
0.039523203 0.11856389 0.052979965 0.04991567 -0.0981976 -0.078081585 -0.16177243 0.03401778
0.04268994 0.007489695 0.0053675715 -0.059770282 -0.010385617 0.044046868 -0.020447556 0.057375137
0.13277012 0.05655293 0.05154168 0.0007582629 -0.06348146 -0.06634356 0.1250152 0.06241755
0.023890499 0.067602225 0.15438002 0.124682665 -0.20279947 -0.2024681 -0.2095889 0.087966055
0.10023783 0.10267548 0.020679122 0.079605274 0.0771711 -0.1040692 -0.13293362 -0.100691296
-0.13087088 -0.16846338 -0.06700454 -0.01483166 -0.0028808075 0.023655212 -0.054526486 -0.0791802
-0.08886771 -0.050419386 0.013732073 0.009003248 0.048454277 0.034462005 0.04386861 0.03282669
0.06781685 0.021287687 -0.055646326 -0.056739256 -0.09946178 0.11819507 0.060661864 0.033810172
0.06209712 -0.03130386 0.03400792 -0.057534926 -0.0058567477 -0.07105963 0.108143955 0.13445897
0.10713897 -0.018282924 -0.030924609 0.017418439 0.026416609 0.08829385 0.017239396 -0.026167054
-0.013303868 0.06478772 0.08095065 0.055269554 0.0969635 -0.1123238 -0.07693276 -0.13590509
0.046535615 -0.04895514 0.008550329 0.079136804 -0.009149759 0.025576942 -0.031581305 0.01550578
-0.0031586748 0.032307617 -0.018656159 -0.09413139 0.065203436 0.11342941 0.13276835 -0.09692827
-0.048057564 0.021729805 0.0076369126 0.051244948 0.10626801 0.054536343 0.06813734 0.062637456
-0.013684611 -0.0048023174 0.0073099453 -0.021782814 -0.011712848 0.018752558 -0.0060568145 -0.047566935
-0.09764551 0.05151741 -0.010276183 -0.0034477406 -0.055528294 -0.031930834 -0.0720534 0.043895166
-0.027544254 -0.07349044 0.061690114 0.0018942673 0.033000942 0.11041136 0.09318764 0.13247383
0.02534967 0.04882128 -0.039128203 0.1286138 0.1535733 0.061505057 0.053052325 0.16129026
0.10960817 0.023872191 0.092462346 0.083027214 0.072076365 0.058500994 -0.0014272348 0.013221294
0.062391553 -0.012256693 -0.046990506 -0.14112762 -0.11515168 0.032247607 -0.05542082 -0.023284033
-0.028384615 -0.04786667 0.015299895 0.1418715 0.0486262 0.1554923 -0.012163995 -0.033064626
-0.091267645 0.06708114 -0.0033650757 -0.06605736 -0.014719315 0.07448357 0.06571931 -0.02869186
00000000: c564 983d 9437 db3b c35c 0b3c e3f3 c0bd
00000010: 188c 36be 316d 39be 9f85 18bc 167a 05bc
00000020: fc38 223c 2f14 893d 7d5e 8ebc b5a7 c2bb
00000030: 07b1 59bc c0c1 6ebd 7c61 2cbe 0fc6 9c3d
00000040: 6c40 783d 0c72 90bc e785 e0bb 5d27 adbc
00000050: a3bf eabc f4bb d9bd b4ce c5bd 1ad1 b0bd
00000060: 5bb0 c1bd 4253 62bd 79fd a7bd 74c9 f2bd
00000070: 4e75 0bbc bd78 453d 3b55 8fbd af8f b5bc
00000080: 2c48 a83d 6d72 5ebd adc3 92bc 2317 e73b
00000090: b508 f33d eebe a13d 0623 e83d d176 45bc
000000a0: 0a5f 32bd 863e 22bb 31d2 41bd ae5a 10bd
000000b0: 0b67 94bd 42f5 033d 3d60 7f3c 41d7 06bd
000000c0: 54d2 7d3d d78b 57bd f24f 50bd c85a 273e
000000d0: 84eb 013e 8a2b 073e dee3 c3bd b633 1abd
000000e0: 1784 96bd b131 1dbc 3ab8 babd 1168 21be
000000f0: 19d3 eb3d 7881 d63d a216 8b3d b196 febc
00000100: c7b7 b6bc 59b5 adbd 1c3e 2e3c c9c8 66bd
00000110: cc91 9fbd b980 b23b 806b 0c3d f56c ccbc
00000120: 1f94 dbbd 279a cbbd 66dd a5bd efa0 353c
00000130: a0f8 243b 888e 033d 0d74 7cbd b097 20bd
00000140: 15e3 213d a0d1 f23d 8501 593d 6074 4c3d
00000150: d31b c9bd 3de9 9fbd aca7 25be 3a56 0b3d
00000160: a6db 2e3d 1e6c f53b 74e2 af3b afd1 74bd
00000170: 6f28 2abc 7d6a 343d a281 a7bc 3102 6b3d
00000180: e4f4 073e 0ca4 673d 5e1d 533d 29c6 463a
00000190: 9102 82bd 22df 87bd fc03 003e 8ba9 7f3d
000001a0: 02b6 c33c 0973 8a3d cc15 1e3e a059 ff3d
000001b0: aaaa 4fbe cc53 4fbe 799e 56be 8c27 b43d
000001c0: 7e49 cd3d 8647 d23d 4367 a93c 1708 a33d
000001d0: e20b 9e3d 3c22 d5bd c01f 08be 3d37 cebd
000001e0: 0403 06be aa81 2cbe ad39 89bd 7e00 73bc
000001f0: eecb 3cbb 93c8 c13c 2a57 5fbd 3b29 a2bd
00000200: 4600 b6bd 8f84 4ebd 7dfc 603c 5c82 133c
00000210: fe77 463d 0828 0d3d 92af 333d 4775 063d
00000220: 90e3 8a3d 8463 ae3c 67ed 63bd 6c67 68bd
00000230: 9eb2 cbbd 4210 f23d 9378 783d 897c 0a3d
00000240: 8d59 7e3d 7a38 00bd e44b 0b3d bea9 6bbd
00000250: f6e9 bfbb b687 91bd 947a dd3d 9daf 093e
00000260: ad6b db3d 12c6 95bc 9b55 fdbc 1db1 8e3c
00000270: a567 d83c 68d3 b43d a239 8d3c 4a5c d6bc
00000280: 77f8 59bc 6daf 843d 74c9 a53d 5462 623d
00000290: cd94 c63d 050a e6bd ec8e 9dbd b42a 0bbe
000002a0: 219c 3e3d 2f85 48bd ae16 0c3c 7a12 a23d
000002b0: dfe8 15bc bc86 d13c 665b 01bd f40b 7e3c
000002c0: c501 4fbb fe54 043d cdd4 98bc f5c7 c0bd
000002d0: 6189 853d ae4d e83d 6df4 073e 5482 c6bd
000002e0: 02d8 44bd b402 b23c 113f fa3b 39e6 513d
000002f0: 0ba3 d93d 8061 5f3d 978b 8b3d 1148 803d
00000300: 6b35 60bc c25c 9dbb 4488 ef3b df71 b2bc
00000310: 3fe7 3fbc f79e 993c 3e78 c6bb 8cd5 42bd
00000320: 5ffa c7bd eb03 533d 6f5d 28bc 7df3 61bb
00000330: a371 63bd e8c9 02bd bc90 93bd 6bcb 333d
00000340: 7da4 e1bc 2882 96bd c6ae 7c3d 1049 f83a
00000350: ff2b 073d 5a1f e23d 29d9 be3d 38a7 073e
00000360: 1caa cf3c d3f8 473d e544 20bd 56b3 033e
00000370: 5242 1d3e baec 7b3d 654d 593d 4629 253e
00000380: 407a e03d 9d8f c33c e65c bd3d 2c0a aa3d
00000390: c69c 933d bd9e 6f3d 0e12 bbba 209e 583c
000003a0: 498e 7f3d 4cd0 48bc 1e79 40bd c283 10be
000003b0: a5d4 ebbd 1116 043d f100 63bd 28be bebc
000003c0: da86 e8bc d70f 44bd 69ac 7a3c c346 113e
000003d0: 442c 473d 6039 1f3e 7e4b 47bc c66e 07bd
000003e0: 88ea babd d661 893d 9a88 5cbb 1549 87bd
000003f0: 4829 71bc d88a 983d d897 863d 310b ebbc

conv2.bias f4 [64]
-0.024846522 0.04708476 -0.055254847 -0.027864126 0.037985228 0.048666846 0.036407575 0.008420069
0.02893587 -0.026867377 0.039187707 -0.024330089 0.052221216 0.04226113 -0.015423468 -0.004523
0.041740976 0.046730984 -0.033355564 0.023114765 -0.021334248 -0.023148743 0.026113905 -0.0059728604
0.015845062 0.060616367 0.041406624 -0.006942349 -0.037400957 -0.047548898 -0.03811622 0.0065928977
-0.021729114 0.06915681 0.030634724 0.00086565845 -0.0055755614 -0.014010498 0.040555384 -0.02103376
0.0245656 0.06327228 0.031656932 0.004256803 -0.024269061 0.03221311 0.06113135 0.006066601
-0.05720626 0.010672429 0.038678255 -0.053071383 0.04607379 0.02454834 0.05733495 -0.005382375
0.058960658 -0.028893052 0.034824874 -0.04324637 -0.030181479 -0.039233275 -0.005044852 -0.023490805
00000000: ef8a cbbc f3db 403d e852 62bd 4f43 e4bc
00000010: 6696 1b3d e356 473d 1c20 153d 54f4 093c
00000020: eb0a ed3c f918 dcbc 4a83 203d e54f c7bc
00000030: eae5 553d 021a 2d3d b7b2 7cbc ad35 94bb
00000040: 96f8 2a3d fd68 3f3d d89f 08bd 2d5b bd3c
00000050: 29c5 aebc 6fa2 bdbc d4ec d53c fcb7 c3bb
00000060: 81cd 813c de48 783d fe99 293d a57c e3bb
00000070: bf31 19bd a2c2 42bd c11f 1cbd 3c09 d83b
00000080: 4101 b2bc 16a2 8d3d acf5 fa3c 5bed 623a
00000090: 33b3 b6bb 4a8c 65bc 671d 263d fe4e acbc
000000a0: cc3d c93c e694 813d b3aa 013d a77c 8b3b
000000b0: e9cf c6bc e5f1 033d de64 7a3d 56ca c63b
000000c0: 1c51 6abd 69db 2e3c 176d 1e3d 6161 59bd
000000d0: dfb7 3c3d 9a19 c93c 0dd8 6a3d a25e b0bb
000000e0: bb80 713d 1fb1 ecbc 87a4 0e3d 1b23 31bd
000000f0: 263f f7bc 12b3 20bd 494f a5bb ca6f c0bc

bn2.weight f4 [64]
0.88491344 1.008509 0.8589117 0.97702396 0.8699647 1.029523 0.86988723 1.0113142
0.9154542 1.0252845 1.0722456 0.9335023 1.0559375 0.9254719 0.84803367 1.0421631
0.9446324 1.0333457 1.0276213 1.0295422 0.98272926 1.1200507 0.96467847 0.93151116
1.0886971 1.0179653 0.9063034 1.0412418 1.044624 0.91190356 0.83908284 0.8995699
0.8519772 1.207055 1.0427155 1.0264909 0.82093984 1.0916442 0.8836374 0.94560075
1.010406 0.8964328 0.9930266 0.87908727 0.8660238 0.8666662 0.9445312 0.9801168
1.0977035 1.0260832 1.0988641 0.9650095 1.0427698 0.9255591 0.9510981 0.843006
1.0446947 0.9780692 1.042861 1.0170887 1.1137931 1.0945733 0.95526755 0.8840227
00000000: b089 623f d316 813f a3e1 5b3f 3e1e 7a3f
00000010: 02b6 5e3f 69c7 833f eeb0 5e3f be72 813f
00000020: 355b 6a3f 863c 833f 583f 893f 02fa 6e3f
00000030: f628 873f baeb 6c3f bc18 593f 9a65 853f
00000040: 6ed3 713f ac44 843f 1889 833f 0ac8 833f
00000050: 2594 7b3f d25d 8f3f 2bf5 763f 8477 6e3f
00000060: 6d5a 8b3f b04c 823f 8003 683f 6947 853f
00000070: 3db6 853f 8372 693f 22ce 563f 374a 663f
00000080: 2e1b 5a3f c780 9a3f b477 853f 0e64 833f
00000090: 1d29 523f ffba 8b3f 1036 623f e412 723f
000000a0: fc54 813f 9f7c 653f fe36 7e3f dd0b 613f
000000b0: bcb3 5d3f d6dd 5d3f cccc 713f efe8 7a3f
000000c0: 8c81 8c3f b256 833f 94a7 8c3f dd0a 773f
000000d0: 7b79 853f 71f1 6c3f 2a7b 733f 3ecf 573f
000000e0: 8eb8 853f be62 7a3f 787c 853f f62f 823f
000000f0: c690 8e3f fa1a 8c3f 6a8c 743f 504f 623f

bn2.bias f4 [64]
-0.40901196 -0.21904644 -0.22905517 -0.33337033 -0.42859727 -0.18955053 -0.23593913 -0.19155556
-0.42222854 -0.17799243 -0.2588464 -0.4044462 -0.2245256 -0.62055486 -0.26328582 -0.30947015
-0.36316225 -0.17602049 -0.21926115 -0.3251236 -0.42412513 -0.1513489 -0.33547837 -0.32128233
-0.37174383 -0.1485265 -0.37490964 -0.30095682 0.05774669 -0.19765547 -0.3568946 -0.45907974
-0.33735323 -0.020110939 -0.3498139 -0.31511372 -0.3250747 -0.18096839 -0.35879532 -0.28101212
-0.10161863 -0.33003154 -0.14294954 -0.25381115 -0.33357215 -0.37781668 -0.12158517 -0.3514689
-0.23718385 -0.26603082 -0.27038077 -0.23352654 -0.19155489 -0.25120375 -0.3803982 -0.30331135
-0.27747786 -0.24260563 -0.09960582 -0.17869872 -0.06446268 -0.048933145 -0.17179182 -0.19540891
00000000: 046a d1be b64d 60be 708d 6abe 84af aabe
00000010: 1a71 dbbe 8919 42be 079a 71be 2427 44be
00000020: 572e d8be a643 36be 8487 84be 9313 cfbe
00000030: 0aea 65be afdc 1ebf 66cd 86be df72 9ebe
00000040: 67f0 b9be b73e 34be ff85 60be 9a76 a6be
00000050: ee26 d9be 35fb 1abe d2c3 abbe 1e7f a4be
00000060: 3555 bebe 5517 18be 28f4 bfbe 0317 9abe
00000070: cb87 6c3d 3266 4abe e4ba b6be 800c ebbe
00000080: 90b9 acbe b2bf a4bc cf1a b3be 9656 a1be
00000090: 3170 a6be c74f 39be 05b4 b7be d2e0 8fbe
000000a0: 6e1d d0bd e5f9 a8be 5d61 12be 89f3 81be
000000b0: f8c9 aabe 3071 c1be a501 f9bd bbf3 b3be
000000c0: 53e0 72be 3135 88be 596f 8abe 9521 6fbe
000000d0: f726 44be c79d 80be 8ec3 c2be a04b 9bbe
000000e0: 9411 8ebe 9c6d 78be 23fe cbbd ccfc 36be
000000f0: 0205 84bd 1f6e 48bd 32ea 2fbe 4619 48be

bn2.running_mean f4 [64]
-0.5537257 -1.4951707 1.3685607 -1.3520807 -2.3618119 -1.5089667 1.3944192 -1.9008375
-0.20523988 -1.4720012 -1.4377196 -1.1839793 -2.8281794 -0.9028319 -3.8549159 -2.2359848
-2.6636126 -2.1315372 -2.084816 -2.9348245 -2.3221903 -1.4552739 -2.041856 -2.4654844
-0.22236396 -1.6632856 -1.7463125 0.016484477 -1.7063404 -2.567077 0.23728447 -2.0667615
-2.8324683 -2.5457673 -0.8733264 -2.64645 0.54066265 -2.6204476 2.417214 -2.302924
-2.3624718 0.24726564 -2.7289703 -1.3651116 0.60815775 -1.7885265 -2.2678287 -1.226353
-2.245256 -3.5757399 -2.6162715 -3.2206583 -2.0039215 -1.6523049 -3.1312163 -3.4986942
-2.1149368 -1.7007828 -1.6895556 -1.1569397 -2.7838752 -1.364247 -3.2080905 -2.1206005
00000000: f8c0 0dbf c161 bfbf ff2c af3f fb10 adbf
00000010: ed27 17c0 d225 c1bf 547c b23f a54e f3bf
00000020: 672a 52be 896a bcbf 3207 b8bf a28c 97bf
00000030: e400 35c0 fe1f 67bf f1b6 76c0 601a 0fc0
00000040: a178 2ac0 1b6b 08c0 a06d 05c0 2ad4 3bc0
00000050: c49e 14c0 6a46 babf c5ad 02c0 7fca 1dc0
00000060: 61b3 63be 8be6 d4bf 2b87 dfbf 740a 873c
00000070: 5d69 dabf fd4a 24c0 b3fa 723e d245 04c0
00000080: 2947 35c0 daed 22c0 5292 5fbf 705f 29c0
00000090: de68 0a3f 6ab5 27c0 a2b3 1a40 1b63 13c0
000000a0: bd32 17c0 3433 7d3e 73a7 2ec0 fabb aebf
000000b0: 3ab0 1b3f 70ee e4bf 1b24 11c0 23f9 9cbf
000000c0: 46b2 0fc0 ecd8 64c0 fe70 27c0 441f 4ec0
000000d0: 4040 00c0 ba7e d3bf d965 48c0 9bea 5fc0
000000e0: 205b 07c0 40b3 d9bf 5c43 d8bf 9a16 94bf
000000f0: 032b 32c0 a59f aebf 5b51 4dc0 ebb7 07c0

bn2.running_var f4 [64]
1.8915598 3.1221447 3.2739894 4.27151 3.2194161 3.4022422 5.050289 3.9801333
2.7926772 2.779872 2.813953 1.4178377 10.268331 2.2985802 9.351984 5.7893424
3.0025935 3.4492352 4.39585 6.045556 3.3738852 4.6314383 3.674784 3.5898297
2.4177895 1.9125454 3.0584652 1.7518377 5.667732 9.771175 3.8149488 6.9173355
7.1771183 7.3244796 2.868307 6.532239 10.724849 4.7023077 3.210927 3.1816065
6.355592 2.1178415 4.576252 5.2382045 2.7728791 5.9815383 6.1035137 2.7527933
7.046835 5.8303328 10.715985 4.0724216 4.3301477 4.9281235 7.5531826 9.707694
7.3454576 4.1842337 3.838549 1.9143361 6.281097 2.8339367 4.8453774 7.181268
00000000: a21e f23f 38d1 4740 0b89 5140 36b0 8840
00000010: ea0a 4e40 56be 5940 f89b a140 81ba 7e40
00000020: 39bb 3240 6ce9 3140 ce17 3440 b57b b53f
00000030: 154b 2441 f01b 1340 baa1 1541 4b42 b940
00000040: 7e2a 4040 45c0 5c40 ceaa 8c40 3275 c140
00000050: bced 5740 be34 9440 a92f 6b40 c5bf 6540
00000060: 10bd 1a40 4ace f43f e5bd 4340 383c e03f
00000070: 0f5e b540 bc56 1c41 1f28 7440 d05a dd40
00000080: f4aa e540 2362 ea40 5892 3740 1a08 d140
00000090: fb98 2b41 4e79 9640 d47f 4d40 719f 4b40
000000a0: 0261 cb40 b78a 0740 a870 9240 5f9f a740
000000b0: da76 3140 c368 bf40 fc4f c340 c42d 3040
000000c0: ac7f e140 1692 ba40 ad74 2b41 4751 8240
000000d0: 9290 8a40 30b3 9d40 acb3 f140 b752 1b41
000000e0: fd0d eb40 3ee5 8540 c9aa 7540 f708 f53f
000000f0: bffe c840 385f 3540 550d 9b40 f3cc e540

conv3.weight f4 [128, 64, 3, 3]
0.05419449 0.051477887 -0.023220332 0.039209917 0.06564348 0.027947048 0.021932427 -0.0035720582
0.012263223 -0.054410983 -0.0058393525 0.0026053763 -0.058847018 -0.091563895 -0.041904688 0.04016412
0.052339762 0.080805 -0.011766013 0.022170115 0.0043835733 -0.05623755 -0.011309252 -0.027256979
-0.0938095 -0.11821365 -0.058371942 0.0009119208 0.041688062 0.059610095 -0.017787408 0.058711357
0.07514795 -0.012754292 0.055634286 0.012294205 0.015749184 -0.025817545 -0.00060374354 0.11047469
0.09845834 0.10066179 -0.058562074 -0.10312245 -0.13544302 0.026945133 0.031877577 0.05560454
-0.050202474 -0.04376115 -0.05728824 0.026617182 0.079153575 0.071054965 0.004787525 -0.0068440926
0.029645132 -0.00029504258 0.014762232 0.025939507 -0.006021726 -0.015288204 0.009447364 -0.13243937
-0.08383505 -0.09694008 -0.042760104 -0.026133794 -0.037163608 0.1408956 0.16381393 0.15429603
-0.028160926 0.022994194 0.010418417 -0.07314586 -0.1384011 -0.11711259 -0.004630983 -0.04376439
-0.0599682 0.030221859 0.093985796 0.07810067 0.038155958 -0.0013184476 -0.0031428775 -0.09836319
-0.11336106 -0.13148558 0.14054355 0.13135794 0.13742167 0.077289745 0.088056326 0.03161166
0.009054431 0.042192683 -0.015154972 -0.06435689 -0.08294785 -0.0674575 0.0053138463 -0.012183061
-0.037650466 0.038617373 0.04350525 -0.014777831 0.16041847 0.16324449 0.08598727 -0.10905165
-0.12746656 -0.14703272 0.010654937 -0.033676278 0.022269187 0.044877738 0.027510475 -0.01627295
0.01188529 0.036056258 0.036324088 0.048301276 0.06442094 0.083736904 -0.03554044 0.023970174
-0.0047280756 -0.05328028 -0.041494165 -0.008299048 -0.15236308 -0.109622955 -0.12100609 -0.022639833
-0.039252363 -0.105978705 -0.038636703 -0.05688175 -0.057418004 0.057725918 0.09986588 0.06010712
-0.061492138 0.0022430238 0.04996517 0.015213147 0.012787417 0.07618625 0.030551583 0.018647369
0.056112062 -0.00601816 -0.07171091 -0.08511463 -0.073852025 -0.14480461 -0.099274375 0.060658894
0.05280117 0.018608183 0.084707946 0.049083617 0.056787357 -0.026576506 -0.07362418 -0.078932986
0.0401756 0.013522745 0.02139765 -0.044528075 -0.042195957 -0.023371633 -0.03697895 -0.020181853
-0.002839679 0.01191358 -0.0055016433 -0.007058112 -0.07967201 -0.04803276 -0.09836912 -0.1210868
-0.09329882 -0.06991404 -0.035928473 -0.051851887 -0.018873248 0.020520538 -0.008391267 -0.025759917
0.025558643 0.018527657 -0.010211174 -0.08957057 -0.16433047 -0.124525584 0.01357251 0.032660928
-0.014382403 0.07900243 0.06720902 0.062484942 -0.10376416 -0.0859246 -0.060325302 0.059350483
0.10108338 0.037364498 -0.10198548 -0.110825434 -0.035870623 -0.009086862 0.021141252 0.014183921
0.01733591 0.09144319 0.08204178 0.0015298976 0.03805703 0.025579039 0.06463926 0.09956191
0.04827406 -0.08648619 -0.079383224 -0.06654039 -0.003626717 -0.0760662 -0.07889391 0.022008374
0.002628448 0.025949847 0.0006724755 -0.048827223 -0.11146758 -0.101214185 -0.06455387 -0.047216088
0.029060485 -0.033372253 -0.033956688 0.033534817 0.018502776 0.018652856 0.079702824 0.05082631
0.08465517 0.12687641 0.15381797 0.14732803 0.031196462 -0.022299116 0.012534129 -0.06818394
00000000: 0bfb 5d3d 7ada 523d 9138 bebc 949a 203d
00000010: 1770 863d 35f1 e43c a2ab b33c 3119 6abb
00000020: afeb 483c 0dde 5ebd 0a58 bfbb f6be 2a3b
00000030: 9209 71bd da85 bbbd 40a4 2bbd 2283 243d
00000040: 3862 563d 187d a53d 3cc6 40bc 1a9e b53c
00000050: 14a4 8f3b 5859 66bd 714a 39bc 074a dfbc
00000060: 321f c0bd 001a f2bd 6b17 6fbd f80d 6f3a
00000070: 1ac1 2a3d b729 743d e6b6 91bc 527b 703d
00000080: 2be7 993d 61f7 50bc c7e0 633d a26d 493c
00000090: 6f04 813c 517f d3bc 8b44 1eba 8e40 e23d
000000a0: 87a4 c93d c527 ce3d c9de 6fbd dd31 d3bd
000000b0: 93b1 0abe 0abc dc3c 1092 023d 96c1 633d
000000c0: 1ca1 4dbd e43e 33bd 13a7 6abd 470c da3c
000000d0: 451b a23d 4485 913d ace0 9c3b 6944 e0bb
000000e0: 59da f23c f2af 9ab9 4add 713c 177f d43c
000000f0: e651 c5bb 607b 7abc 1ec9 1a3c 309e 07be
00000100: b6b1 abbd 8588 c6bd 3825 2fbd 8a16 d6bc
00000110: de38 18bd f046 103e d7be 273e c7ff 1d3e
00000120: beb1 e6bc 525e bc3c 02b2 2a3c 7fcd 95bd
00000130: 05b9 0dbe bad8 efbd 80bf 97bb 4a42 33bd
00000140: 37a1 75bd d593 f73c a07b c03d 3ef3 9f3d
00000150: 6c49 1c3d c3cf acba bcf8 4dbb a472 c9bd
00000160: d829 e8bd 28a4 06be a6ea 0f3e b282 063e
00000170: 44b8 0c3e 164a 9e3d e056 b43d 3a7b 013d
00000180: 0959 143c 3cd2 2c3d 8f4c 78bc 8ccd 83bd
00000190: 90e0 a9bd 2827 8abd c61f ae3b 769b 47bc
000001a0: 6037 1abd 402d 1e3d 9032 323d b71e 72bc
000001b0: bd44 243e 9029 273e 181a b03d 7956 dfbd
000001c0: 9886 02be bf8f 16be 0b92 2e3c 23f0 09bd
000001d0: df6d b63c b8d1 373d a65d e13c da4e 85bc
000001e0: 85ba 423c baaf 133d 91c8 143d 8fd7 453d
000001f0: 20ef 833d 417e ab3d da92 11bd 195d c43c
00000200: f9ed 9abb 6c3c 5abd c9f5 29bd bbf8 07bc
00000210: 1105 1cbe 0082 e0bd 0ad2 f7bd 2c77 b9bc
00000220: 16c7 20bd 5d0b d9bd 8541 1ebd d6fc 68bd
00000230: 242f 6bbd 0372 6c3d 7c86 cc3d e232 763d
00000240: 2edf 7bbd b2ff 123b 47a8 4c3d 9040 793c
00000250: 5082 513c 8907 9c3d 5047 fa3c 5ec2 983c
00000260: c3d5 653d fc33 c5bb 2bdd 92bd 9450 aebd
00000270: bb3f 97bd a947 14be 5d50 cbbd 7675 783d
00000280: 0a46 583d 3070 983c 5c7b ad3d e70b 493d
00000290: dc99 683d f9b6 d9bc 46c8 96bd 9ea7 a1bd
000002a0: 2c8f 243d 818e 5d3c 204a af3c 1263 36bd
000002b0: abd5 2cbd de75 bfbc 3d77 17bd 6a54 a5bc
000002c0: e819 3abb 2d31 433c 2147 b4bb bc47 e7bb
000002d0: 142b a3bd 00be 44bd c075 c9bd 5bfc f7bd
000002e0: 7413 bfbd 182f 8fbd bc29 13bd a562 54bd
000002f0: 129c 9abc b01a a83c 867b 09bc 7606 d3bc
00000300: 5c60 d13c 50c7 973c c54c 27bc c670 b7bd
00000310: 3f46 28be 4507 ffbd 3c5f 5e3c 77c7 053d
00000320: 2ca4 6bbc 07cc a13d e2a4 893d 36f0 7f3d
00000330: 4e82 d4bd 3df9 afbd aa17 77bd 7e19 733d
00000340: ce04 cf3d 840b 193d c3dd d0bd 72f8 e2bd
00000350: 13ed 12bd 10e1 14bc 6b30 ad3c ad63 683c
00000360: 0a04 8e3c 9146 bb3d 8505 a83d d886 c83a
00000370: b0e1 1b3d 228b d13c 9761 843d 1de7 cb3d
00000380: 05bb 453d ac1f b1bd ac93 a2bd 5446 88bd
00000390: 37ae 6dbb 99c8 9bbd 2193 a1bd e84a b43c
000003a0: 0a42 2c3b c694 d43c 1149 303a 0eff 47bd
000003b0: 1d49 e4bd 6249 cfbd d234 84bd a865 41bd
000003c0: 4110 ee3c 58b1 08bd 2b16 0bbd ce5b 093d
000003d0: 2293 973c e0cd 983c 3c3b a33d 402f 503d
000003e0: b15f ad3d e4eb 013e 7582 1d3e 29dd 163e
000003f0: b98f ff3c a3ac b6bc f35b 4d3c 06a4 8bbd

conv3.bias f4 [128]
-0.005630569 0.0394589 0.06074587 -0.016054861 0.07235699 0.069227755 -0.014360412 0.026439464
0.018965837 0.03729797 -0.006520954 -0.026410261 0.00032248878 0.039321944 -0.01873338 0.012140701
-0.016675362 0.04693071 0.045483947 0.038126048 -0.06964594 0.030406544 0.056808062 -0.009789108
0.042405095 0.03767381 0.043397624 -0.018999211 -0.043276854 0.028803838 0.04335471 0.03927467
0.0026992424 0.037792534 0.042900927 -0.036797922 -0.0015772973 0.022958543 0.0017550216 0.030721957
0.012916989 0.059213065 -0.02648452 0.011129412 0.034663167 -0.00059666246 0.019735886 0.04024624
0.01673157 0.036368098 0.013503321 0.009369728 0.008082342 0.05253302 0.06403995 0.04963852
-0.029528378 0.03133758 0.0032362612 0.048273403 0.07016565 0.04631976 0.018864108 0.047576446
0.029565906 0.022628414 0.007832083 -0.024699215 -0.023122929 -0.031263474 0.052320495 0.008178599
0.053521715 0.012496429 -0.0009040323 0.016590422 -0.0026727405 0.005208408 0.04111828 -0.020170746
0.01622033 -0.009769147 -0.012573725 -0.02332676 0.027005589 0.011315371 -0.023497667 0.047318637
0.058029454 0.027336773 0.004466842 -0.009457711 0.011924316 0.028565772 -0.030472832 -0.011037989
-0.0014907984 0.0487555 -0.03289511 -0.0087750405 -0.031584565 0.002857482 0.0089963395 0.056401398
-0.0032594637 0.0008811548 -0.0011838011 0.018756898 0.053780943 -0.02897992 0.04122682 -0.022359962
-0.0066900575 -0.03871562 0.027824918 0.017275712 0.011485992 0.032159664 0.04832024 -0.01329696
0.042798396 0.012172033 0.018465172 0.0036452592 -0.020300258 0.06646076 0.0064539323 -0.012653437
00000000: a380 b8bb a89f 213d a9d0 783d 7c85 83bc
00000010: e72f 943d 48c7 8d3d ef47 6bbc 9397 d83c
00000020: 3e5e 9b3c c2c5 183d baad d5bb 555a d8bc
00000030: b613 a939 0c10 213d bf76 99bc cae9 463c
00000040: c59a 88bc 6b3a 403d 604d 3a3d 0f2a 1c3d
00000050: 88a2 8ebd 2517 f93c 92af 683d 7f62 20bc
00000060: f7b0 2d3d da4f 1a3d b5c1 313d 3ca4 9bbc
00000070: 1243 31bd 07f6 eb3c b594 313d 7ade 203d
00000080: c6e5 303b 58cc 1a3d e2b8 2f3d 6bb9 16bd
00000090: 51bd ceba 8e13 bc3c c108 e63a 9dac fb3c
000000a0: c7a1 533c 6689 723d 10f6 d8bc 2358 363c
000000b0: f7fa 0d3d 5769 1cba 27ad a13c 3ed9 243d
000000c0: a510 893c b7f6 143d 093d 5d3c 7d83 193c
000000d0: cd6b 043c dd2c 573d 6127 833d c351 4b3d
000000e0: 7fe5 f1bc d65b 003d 7417 543b 55ba 453d
000000f0: 02b3 8f3d cab9 3d3d e788 9a3c 85df 423d
00000100: 3334 f23c 395f b93c 2352 003c 0256 cabc
00000110: 4c6c bdbc 210e 00bd 044e 563d 88ff 053c
00000120: 9639 5b3d d2bd 4c3c 95fc 6cba a3e8 873c
00000130: 2529 2fbb 4bab aa3b a46b 283d 1f3d a5bc
00000140: 7fe0 843c c60e 20bc 0602 4ebc c317 bfbc
00000150: d33a dd3c 1b64 393c 2e7e c0bc 30d1 413d
00000160: 4bb0 6d3d 5ef1 df3c 965e 923b 84f4 1abc
00000170: 355e 433c c402 ea3c 29a2 f9bc aed8 34bc
00000180: e566 c3ba d9b3 473d 06bd 06bd 30c5 0fbc
00000190: d15e 01bd 9844 3b3b 6265 133c 2705 673d
000001a0: ba9c 55bb 4cfd 663a c629 9bba 11a8 993c
000001b0: 6849 5c3d 4c67 edbc 74dd 283d 3d2c b7bc
000001c0: 4538 dbbb 4594 1ebd 15f1 e33c cb85 8d3c
000001d0: be2f 3c3c dab9 033d 72eb 453d 7edb 59bc
000001e0: 5f4d 2f3d 356d 473c 4644 973c 4de5 6e3b
000001f0: ba4c a6bc 941c 883d 827b d33b 5d50 4fbc

bn3.weight f4 [128]
1.4320564 1.391325 1.3409798 1.4478126 1.4572817 1.3075173 1.2827704 1.3495071
1.3701998 1.2678587 1.2970612 1.2800832 1.3007035 1.3989819 1.3082706 1.3867273
1.417946 1.447018 1.3645883 1.3321931 1.4338557 1.3316653 1.3457983 1.346261
1.3640754 1.3947918 1.2881103 1.3157575 1.3092176 1.4232761 1.3715781 1.3405633
1.4045736 1.3457701 1.2819717 1.3217096 1.4401792 1.3452787 1.3010435 1.4294195
1.3470132 1.4026818 1.2653494 1.389566 1.3858566 1.4083098 1.4311023 1.3302544
1.3960239 1.3983268 1.4152584 1.30019 1.5076665 1.3654605 1.3560016 1.3494312
1.2581141 1.3154252 1.4832562 1.3342841 1.3915086 1.4019129 1.4089342 1.2787063
1.2969828 1.3578471 1.3320447 1.3381786 1.3902721 1.3000714 1.3902278 1.3544526
1.4451971 1.2896465 1.2785566 1.4741085 1.3303113 1.3522009 1.3591995 1.2951639
1.3756686 1.3789467 1.4142928 1.2705594 1.3155757 1.4284095 1.3763403 1.4245893
1.3625356 1.3760673 1.4780589 1.2776612 1.2881762 1.3476611 1.4065319 1.3243608
1.2795714 1.4066774 1.3211833 1.4491045 1.4429768 1.3166606 1.2950538 1.3477887
1.393608 1.39656 1.2962731 1.431023 1.3547517 1.2465962 1.3017937 1.3898493
1.4158063 1.3037452 1.2992976 1.3729577 1.3525972 1.365108 1.3066897 1.3837596
1.4014481 1.2573135 1.4521835 1.3761265 1.3689524 1.4257082 1.3457243 1.3863157
00000000: a04d b73f f016 b23f 3aa5 ab3f ec51 b93f
00000010: 3588 ba3f ba5c a73f d231 a43f a6bc ac3f
00000020: b562 af3f 3249 a23f 1a06 a63f c4d9 a33f
00000030: 747d a63f d711 b33f 6975 a73f 4880 b13f
00000040: 417f b53f e337 b93f d4aa ae3f 4e85 aa3f
00000050: 9588 b73f 0274 aa3f 1e43 ac3f 4852 ac3f
00000060: 069a ae3f 8a88 b23f cce0 a43f be6a a83f
00000070: 7194 a73f e92d b63f df8f af3f 9497 ab3f
00000080: 11c9 b33f 3242 ac3f a617 a43f c82d a93f
00000090: cb57 b83f 1832 ac3f 9888 a63f 38f7 b63f
000000a0: ee6a ac3f 148b b33f f8f6 a13f 4cdd b13f
000000b0: c063 b13f 7f43 b43f 5c2e b73f c745 aa3f
000000c0: e9b0 b23f 5ffc b23f 3027 b53f a06c a63f
000000d0: 37fb c03f 69c7 ae3f 7691 ad3f 29ba ac3f
000000e0: e209 a13f da5f a83f 57db bd3f d2c9 aa3f
000000f0: f41c b23f e271 b33f f557 b43f a6ac a33f
00000100: 8803 a63f efcd ad3f 7180 aa3f 7049 ab3f
00000110: 70f4 b13f bd68 a63f fcf2 b13f b45e ad3f
00000120: 38fc b83f 2313 a53f bea7 a33f 96af bc3f
00000130: a447 aa3f eb14 ad3f 40fa ad3f eec7 a53f
00000140: e915 b03f 5381 b03f 8c07 b53f b1a1 a23f
00000150: c964 a83f 1fd6 b63f eb2b b03f f158 b63f
00000160: 9167 ae3f f922 b03f 0931 bd3f 678a a33f
00000170: f5e2 a43f 2980 ac3f 3d09 b43f a884 a93f
00000180: ffc8 a33f 010e b43f 891c a93f 427c b93f
00000190: 77b3 b83f 5688 a83f 53c4 a53f 5784 ac3f
000001a0: bf61 b23f 7ac2 b23f 47ec a53f c32b b73f
000001b0: 8168 ad3f 7790 9f3f 2da1 a63f 95e6 b13f
000001c0: 2439 b53f 1fe1 a63f 624f a63f 14bd af3f
000001d0: e821 ad3f dcbb ae3f 9c41 a73f 091f b13f
000001e0: a762 b33f a6ef a03f 26e1 b93f ea24 b03f
000001f0: d539 af3f 9b7d b63f b240 ac3f cb72 b13f

bn3.bias f4 [128]
-0.010777048 0.0254781 -0.039811384 0.05262137 -0.0068501695 -0.058173582 0.06281622 -0.054072306
-0.0668145 -0.045193933 -0.009854976 -0.029337164 -0.06718842 0.006487867 0.07414126 0.106540434
-0.0188656 -0.061487317 0.052593175 -0.0775372 -0.008871256 -0.010721719 -0.058808535 0.0018015167
-0.02437951 -0.050260063 0.049045615 0.024346227 -0.023576036 -0.06100477 -0.0079124225 -0.06279762
-0.03715021 -0.016421176 0.004125675 -0.006186891 -0.04458259 -0.05567392 -0.049060076 -0.0347156
0.03680907 -0.006804606 -0.0059471065 -0.038391486 0.02172122 -0.12714635 -0.059170134 -0.0025611527
-0.03954694 0.010488079 0.0672716 -0.010141766 -0.054553173 -0.01458316 -0.0134756705 -0.023342429
-0.008487951 -0.0021550711 -0.11591831 -0.039898787 -0.006843131 -0.011458207 0.025446652 -0.010551999
0.006918917 -0.08258523 -0.010464569 -0.12543759 -0.05170136 -0.029715098 -0.012276971 -0.0027682225
-0.029332846 0.040632255 -0.06389322 -0.027610512 0.03145628 -0.04376688 -0.014843114 0.016219378
-0.0028071445 -0.014866212 0.054114707 -0.033712722 -0.020750688 -0.003151007 0.0046970528 0.0021867093
-0.080250636 -0.049097247 -0.07218618 -0.018106928 -0.06205869 -0.04030136 0.007620075 -0.07318693
-0.055994168 -0.04410097 -0.0176268 -0.023346981 0.0017327908 0.0030427123 -0.032892294 -4.704013e-05
-0.034488894 0.021858243 -0.03411093 -0.016205642 0.013853177 0.008643872 -0.027428046 -0.056394137
0.022979219 -0.020370847 -0.0083435895 -0.036962416 -0.05345978 -0.076984994 -0.0040749125 -0.05162031
-0.014770598 -0.031006807 0.01656795 -0.060425304 -0.066459745 -0.06959838 -0.060792573 0.022785636
00000000: 3792 30bc 73b7 d03c 4311 23bd 8189 573d
00000010: 6377 e0bb 6c47 6ebd caa5 803d ec7a 5dbd
00000020: 0ad6 88bd 461d 39bd c476 21bc 7e54 f0bc
00000030: 159a 89bd 2c98 d43b 5fd7 973d df31 da3d
00000040: 088c 9abc 20da 7bbd f16b 573d d3cb 9ebd
00000050: bf58 11bc 26aa 2fbc 38e1 70bd df20 ec3a
00000060: 8ab7 c7bc 7fdd 4dbd 0ee4 483d bd71 c73c
00000070: 8822 c1bc 23e0 79bd 1ba3 01bc 0a9c 80bd
00000080: d22a 18bd b485 86bc ac30 873b 67bb cabb
00000090: 3c9c 36bd 560a 64bd 38f3 48bd f231 0ebd
000000a0: 1bc5 163d 2cf9 debb f2df c2bb 6440 1dbd
000000b0: b3f0 b13c a732 02be 625c 72bd 03d9 27bb
000000c0: f9fb 21bd 31d6 2b3c b1c5 893d a629 26bc
000000d0: 2673 5fbd 35ee 6ebc 0fc9 5cbc 9f38 bfbc
000000e0: 0c11 0bbc 183c 0dbb 9466 edbd e96c 23bd
000000f0: 583c e0bb 34bb 3bbc 7f75 d03c 4be2 2cbc
00000100: 15b8 e23b 7222 a9bd 9573 2bbc b672 00be
00000110: cec4 53bd 146d f3bc 5925 49bc 116b 35bb
00000120: 704b f0bc 026e 263d 73da 82bd 712f e2bc
00000130: 4dd8 003d e644 33bd 8830 73bc 80de 843c
00000140: 12f8 37bb 6a91 73bc 62a7 5d3d 5a16 0abd
00000150: 59fd a9bc 2081 4ebb bce9 993b e54e 0f3b
00000160: 725a a4bd 321a 49bd 59d6 93bd fb54 94bc
00000170: 4131 7ebd 0a13 25bd d2b1 f93b 07e3 95bd
00000180: 245a 65bd 38a3 34bd 1466 90bc 2b42 bfbc
00000190: d01e e33a 3e68 473b 12ba 06bd f44c 45b8
000001a0: 3a44 0dbd 0f10 b33c e7b7 0bbd b2c1 84bc
000001b0: 70f8 623c 079f 0d3c c8b0 e0bc 8afd 66bd
000001c0: ea3e bc3c c3e0 a6bc 8db3 08bc e765 17bd
000001d0: a4f8 5abd 4faa 9dbd d886 85bb d16f 53bd
000001e0: 6100 72bc fd01 febc 82b9 873c 8680 77bd
000001f0: 0c1c 88bd 9889 8ebd a201 79bd f1a8 ba3c
