built_models/esc50_esc50cnn_model_fold1_20250430_202741.pth (torch, 654357 bytes, 24 tensors)

mel_transform.spectrogram.window f4 [1024]
0.0 9.417534e-06 3.7640333e-05 8.46982e-05 0.00015059114 0.00023528934 0.0003388226 0.00046113133
0.00060227513 0.0007622242 0.0009409487 0.0011384785 0.0013547838 0.0015898645 0.0018436909 0.0021162927
0.0024076402 0.0027177036 0.0030465126 0.0033940375 0.0037602484 0.0041451156 0.0045486987 0.004970908
0.005411744 0.0058712065 0.0063492954 0.006845951 0.0073611736 0.007894963 0.00844726 0.009018064
0.009607345 0.010215104 0.01084131 0.011485934 0.0121489465 0.012830317 0.013530016 0.014248043
0.014984369 0.015738964 0.016511768 0.017302781 0.018111974 0.018939286 0.019784749 0.02064827
0.021529824 0.022429407 0.02334699 0.024282485 0.025235921 0.026207209 0.027196348 0.028203279
0.029227972 0.030270398 0.031330496 0.032408237 0.033503592 0.03461653 0.03574696 0.036894888
0.038060248 0.039242983 0.040443063 0.041660458 0.04289514 0.044146985 0.045416027 0.046702147
0.048005342 0.049325585 0.050662756 0.052016884 0.05338785 0.054775625 0.05618021 0.057601452
0.059039384 0.060493886 0.06196496 0.06345251 0.064956516 0.06647688 0.06801358 0.06956655
0.0711357 0.072721004 0.0743224 0.075939834 0.07757321 0.07922253 0.080887645 0.082568586
0.0842652 0.085977495 0.087705374 0.08944875 0.09120759 0.092981845 0.094771415 0.096576214
0.09839624 0.10023138 0.10208154 0.103946716 0.105826795 0.10772169 0.10963139 0.111555785
0.11349478 0.115448326 0.11741638 0.11939883 0.12139559 0.12340662 0.1254318 0.12747112
0.12952444 0.13159174 0.1336729 0.13576782 0.13787645 0.13999876 0.1421346 0.14428389
0.14644662 0.14862263 0.15081188 0.15301427 0.15522975 0.15745819 0.1596995 0.16195366
0.16422054 0.16650003 0.16879213 0.17109665 0.1734136 0.1757428 0.17808422 0.1804378
0.18280336 0.1851809 0.18757027 0.18997142 0.19238421 0.1948086 0.1972445 0.19969177
0.20215034 0.20462015 0.20710108 0.20959303 0.21209592 0.21460965 0.21713409 0.21966922
0.2222149 0.22477102 0.22733751 0.22991425 0.23250118 0.23509818 0.23770517 0.24032202
0.24294865 0.24558496 0.24823079 0.25088614 0.2535509 0.25622493 0.25890815 0.2616004
0.26430166 0.26701176 0.26973063 0.2724582 0.27519435 0.27793896 0.28069192 0.2834531
0.28622246 0.28899986 0.29178524 0.29457843 0.29737937 0.30018795 0.30300403 0.30582747
0.3086583 0.31149632 0.31434143 0.3171935 0.3200525 0.3229183 0.32579064 0.32866964
0.33155507 0.33444685 0.33734488 0.340249 0.34315917 0.34607518 0.34899703 0.35192457
0.35485768 0.35779625 0.36074018 0.36368936 0.3666436 0.36960295 0.37256718 0.3755362
0.37850994 0.38148823 0.38447094 0.38745803 0.3904494 0.39344487 0.39644432 0.3994477
0.40245488 0.40546566 0.40848005 0.4114979 0.41451907 0.41754347 0.42057097 0.42360145
0.42663476 0.42967087 0.43270966 0.43575096 0.43879467 0.4418407 0.44488895 0.4479392
0.45099142 0.45404553 0.45710137 0.46015882 0.46321777 0.46627808 0.46933964 0.4724024
0.47546616 0.47853088 0.4815964 0.48466262 0.48772943 0.49079663 0.49386424 0.49693206
00000000: 0000 0000 0000 1e37 00e0 1d38 00a0 b138
00000010: 00e8 1d39 00b8 7639 00a4 b139 00c4 f139
00000020: 00e2 1d3a 00d0 473a 00aa 763a 0039 953a
00000030: 0093 b13a 0063 d03a 00a8 f13a 80b1 0a3b
00000040: 80c9 1d3b 801b 323b 00a8 473b 806e 5e3b
00000050: 806e 763b c0d3 873b 400d 953b 00e3 a23b
00000060: 0055 b13b 4063 c03b c00d d03b 0054 e03b
00000070: 0036 f13b e059 013c 6066 0a3c 80c0 133c
00000080: 2068 1d3c 405d 273c c09f 313c 802f 3c3c
00000090: 600c 473c 4036 523c 00ad 5d3c a070 693c
000000a0: 0081 753c 00ef 803c b043 873c 90be 8d3c
000000b0: 905f 943c 9026 9b3c a013 a23c 9026 a93c
000000c0: 505f b03c e0bd b73c 3042 bf3c 10ec c63c
000000d0: 90bb ce3c 80b0 d63c e0ca de3c 900a e73c
000000e0: 806f ef3c a0f9 f73c 6854 003d 80be 043d
000000f0: 103b 093d 10ca 0d3d 686b 123d 181f 173d
00000100: 10e5 1b3d 40bd 203d a0a7 253d 28a4 2a3d
00000110: d0b2 2f3d 78d3 343d 2806 3a3d c04a 3f3d
00000120: 40a1 443d a009 4a3d c083 4f3d a80f 553d
00000130: 38ad 5a3d 685c 603d 381d 663d 80ef 6b3d
00000140: 48d3 713d 70c8 773d f8ce 7d3d 64f3 813d
00000150: ec07 853d 0825 883d b44a 8b3d e878 8e3d
00000160: 98af 913d c0ee 943d 5836 983d 5886 9b3d
00000170: b4de 9e3d 6c3f a23d 6ca8 a53d b819 a93d
00000180: 3c93 ac3d f814 b03d e09e b33d e830 b73d
00000190: 0ccb ba3d 446d be3d 8417 c23d c0c9 c53d
000001a0: f883 c93d 1c46 cd3d 2010 d13d 04e2 d43d
000001b0: b8bb d83d 309d dc3d 6c86 e03d 5c77 e43d
000001c0: f46f e83d 2c70 ec3d 0078 f03d 6087 f43d
000001d0: 409e f83d 9cbc fc3d 3271 003e ca87 023e
000001e0: 0ea2 043e fcbf 063e 8ce1 083e b806 0b3e
000001f0: 7c2f 0d3e d65b 0f3e bc8b 113e 28bf 133e
00000200: 1af6 153e 8830 183e 6e6e 1a3e c6af 1c3e
00000210: 8cf4 1e3e b83c 213e 4488 233e 2ed7 253e
00000220: 6e29 283e fc7e 2a3e d8d7 2c3e f633 2f3e
00000230: 5693 313e ecf5 333e b65b 363e b0c4 383e
00000240: ce30 3b3e 10a0 3d3e 6c12 403e de87 423e
00000250: 5e00 453e e87b 473e 76fa 493e 007c 4c3e
00000260: 8000 4f3e f287 513e 4e12 543e 8e9f 563e
00000270: ac2f 593e a2c2 5b3e 6658 5e3e f8f0 603e
00000280: 4e8c 633e 602a 663e 2acb 683e a46e 6b3e
00000290: ca14 6e3e 94bd 703e fc68 733e fa16 763e
000002a0: 88c7 783e a07a 7b3e 3630 7e3e 2674 803e
000002b0: 6cd1 813e ea2f 833e 9c8f 843e 7df0 853e
000002c0: 8c52 873e c4b5 883e 221a 8a3e a47f 8b3e
000002d0: 46e6 8c3e 044e 8e3e dab6 8f3e c420 913e
000002e0: c08b 923e caf7 933e e064 953e fcd2 963e
000002f0: 1c42 983e 3cb2 993e 5823 9b3e 6b95 9c3e
00000300: 7608 9e3e 727c 9f3e 5cf1 a03e 3067 a23e
00000310: ecdd a33e 8c55 a53e 08ce a63e 6347 a83e
00000320: 96c1 a93e 9e3c ab3e 78b8 ac3e 1e35 ae3e
00000330: 8fb2 af3e c430 b13e bdaf b23e 752f b43e
00000340: e8af b53e 1231 b73e f0b2 b83e 7e35 ba3e
00000350: b6b8 bb3e 993c bd3e 20c1 be3e 4846 c03e
00000360: 0ecc c13e 6d52 c33e 60d9 c43e e660 c63e
00000370: fce8 c73e 9b71 c93e c0fa ca3e 6984 cc3e
00000380: 910e ce3e 3299 cf3e 4c24 d13e daaf d23e
00000390: d83b d43e 42c8 d53e 1455 d73e 4ae2 d83e
000003a0: df6f da3e d2fd db3e 1f8c dd3e c01a df3e
000003b0: b2a9 e03e f238 e23e 7cc8 e33e 4958 e53e
000003c0: 59e8 e63e a878 e83e 3109 ea3e f099 eb3e
000003d0: e12a ed3e 00bc ee3e 494d f03e bade f13e
000003e0: 4d70 f33e 0002 f53e ce93 f63e b325 f83e
000003f0: acb7 f93e b249 fb3e c6db fc3e e16d fe3e

mel_transform.mel_scale.fb f4 [513, 40]
-0.0 0.0 0.0 0.0 0.0 0.0 0.0 0.0
0.0 0.0 0.0 0.0 0.0 0.0 0.0 0.0
0.0 0.0 0.0 0.0 0.0 0.0 0.0 0.0
0.0 0.0 0.0 0.0 0.0 0.0 0.0 0.0
0.0 0.0 0.0 0.0 0.0 0.0 0.0 0.0
0.69426066 0.0 0.0 0.0 0.0 0.0 0.0 0.0
0.0 0.0 0.0 0.0 0.0 0.0 0.0 0.0
0.0 0.0 0.0 0.0 0.0 0.0 0.0 0.0
0.0 0.0 0.0 0.0 0.0 0.0 0.0 0.0
0.0 0.0 0.0 0.0 0.0 0.0 0.0 0.0
0.64310575 0.35689425 0.0 0.0 0.0 0.0 0.0 0.0
0.0 0.0 0.0 0.0 0.0 0.0 0.0 0.0
0.0 0.0 0.0 0.0 0.0 0.0 0.0 0.0
0.0 0.0 0.0 0.0 0.0 0.0 0.0 0.0
0.0 0.0 0.0 0.0 0.0 0.0 0.0 0.0
0.005360414 0.9946396 0.0 0.0 0.0 0.0 0.0 0.0
0.0 0.0 0.0 0.0 0.0 0.0 0.0 0.0
0.0 0.0 0.0 0.0 0.0 0.0 0.0 0.0
0.0 0.0 0.0 0.0 0.0 0.0 0.0 0.0
0.0 0.0 0.0 0.0 0.0 0.0 0.0 0.0
0.0 0.41909382 0.58090615 0.0 0.0 0.0 0.0 0.0
0.0 0.0 0.0 0.0 0.0 0.0 0.0 0.0
0.0 0.0 0.0 0.0 0.0 0.0 0.0 0.0
0.0 0.0 0.0 0.0 0.0 0.0 0.0 0.0
0.0 0.0 0.0 0.0 0.0 0.0 0.0 0.0
0.0 0.0 0.8468364 0.15316364 0.0 0.0 0.0 0.0
0.0 0.0 0.0 0.0 0.0 0.0 0.0 0.0
0.0 0.0 0.0 0.0 0.0 0.0 0.0 0.0
0.0 0.0 0.0 0.0 0.0 0.0 0.0 0.0
0.0 0.0 0.0 0.0 0.0 0.0 0.0 0.0
0.0 0.0 0.3086942 0.69130576 0.0 0.0 0.0 0.0
0.0 0.0 0.0 0.0 0.0 0.0 0.0 0.0
00000000: 0000 0080 0000 0000 0000 0000 0000 0000
00000010: 0000 0000 0000 0000 0000 0000 0000 0000
00000020: 0000 0000 0000 0000 0000 0000 0000 0000
00000030: 0000 0000 0000 0000 0000 0000 0000 0000
00000040: 0000 0000 0000 0000 0000 0000 0000 0000
00000050: 0000 0000 0000 0000 0000 0000 0000 0000
00000060: 0000 0000 0000 0000 0000 0000 0000 0000
00000070: 0000 0000 0000 0000 0000 0000 0000 0000
00000080: 0000 0000 0000 0000 0000 0000 0000 0000
00000090: 0000 0000 0000 0000 0000 0000 0000 0000
000000a0: 11bb 313f 0000 0000 0000 0000 0000 0000
000000b0: 0000 0000 0000 0000 0000 0000 0000 0000
000000c0: 0000 0000 0000 0000 0000 0000 0000 0000
000000d0: 0000 0000 0000 0000 0000 0000 0000 0000
000000e0: 0000 0000 0000 0000 0000 0000 0000 0000
000000f0: 0000 0000 0000 0000 0000 0000 0000 0000
00000100: 0000 0000 0000 0000 0000 0000 0000 0000
00000110: 0000 0000 0000 0000 0000 0000 0000 0000
00000120: 0000 0000 0000 0000 0000 0000 0000 0000
00000130: 0000 0000 0000 0000 0000 0000 0000 0000
00000140: 94a2 243f d8ba b63e 0000 0000 0000 0000
00000150: 0000 0000 0000 0000 0000 0000 0000 0000
00000160: 0000 0000 0000 0000 0000 0000 0000 0000
00000170: 0000 0000 0000 0000 0000 0000 0000 0000
00000180: 0000 0000 0000 0000 0000 0000 0000 0000
00000190: 0000 0000 0000 0000 0000 0000 0000 0000
000001a0: 0000 0000 0000 0000 0000 0000 0000 0000
000001b0: 0000 0000 0000 0000 0000 0000 0000 0000
000001c0: 0000 0000 0000 0000 0000 0000 0000 0000
000001d0: 0000 0000 0000 0000 0000 0000 0000 0000
000001e0: 69a6 af3b b3a0 7e3f 0000 0000 0000 0000
000001f0: 0000 0000 0000 0000 0000 0000 0000 0000
00000200: 0000 0000 0000 0000 0000 0000 0000 0000
00000210: 0000 0000 0000 0000 0000 0000 0000 0000
00000220: 0000 0000 0000 0000 0000 0000 0000 0000
00000230: 0000 0000 0000 0000 0000 0000 0000 0000
00000240: 0000 0000 0000 0000 0000 0000 0000 0000
00000250: 0000 0000 0000 0000 0000 0000 0000 0000
00000260: 0000 0000 0000 0000 0000 0000 0000 0000
00000270: 0000 0000 0000 0000 0000 0000 0000 0000
00000280: 0000 0000 7793 d63e 44b6 143f 0000 0000
00000290: 0000 0000 0000 0000 0000 0000 0000 0000
000002a0: 0000 0000 0000 0000 0000 0000 0000 0000
000002b0: 0000 0000 0000 0000 0000 0000 0000 0000
000002c0: 0000 0000 0000 0000 0000 0000 0000 0000
000002d0: 0000 0000 0000 0000 0000 0000 0000 0000
000002e0: 0000 0000 0000 0000 0000 0000 0000 0000
000002f0: 0000 0000 0000 0000 0000 0000 0000 0000
00000300: 0000 0000 0000 0000 0000 0000 0000 0000
00000310: 0000 0000 0000 0000 0000 0000 0000 0000
00000320: 0000 0000 0000 0000 45ca 583f eed6 1c3e
00000330: 0000 0000 0000 0000 0000 0000 0000 0000
00000340: 0000 0000 0000 0000 0000 0000 0000 0000
00000350: 0000 0000 0000 0000 0000 0000 0000 0000
00000360: 0000 0000 0000 0000 0000 0000 0000 0000
00000370: 0000 0000 0000 0000 0000 0000 0000 0000
00000380: 0000 0000 0000 0000 0000 0000 0000 0000
00000390: 0000 0000 0000 0000 0000 0000 0000 0000
000003a0: 0000 0000 0000 0000 0000 0000 0000 0000
000003b0: 0000 0000 0000 0000 0000 0000 0000 0000
000003c0: 0000 0000 0000 0000 2b0d 9e3e 6af9 303f
000003d0: 0000 0000 0000 0000 0000 0000 0000 0000
000003e0: 0000 0000 0000 0000 0000 0000 0000 0000
000003f0: 0000 0000 0000 0000 0000 0000 0000 0000

conv1.weight f4 [32, 1, 3, 3]
0.2944792 -0.16048585 0.2662738 0.28542945 -0.27425456 -0.22153749 -0.18702534 -0.012665434
-0.22218956 -0.22668917 0.13796483 -0.33405894 -0.24986851 -0.294016 -0.026234385 -0.17549357
-0.09964634 -0.26401323 0.21383734 0.33707836 0.1961947 -0.22021075 -0.26685545 0.2045402
-0.03151025 -0.1878784 0.14237007 -0.22199239 -0.16794315 -0.01586483 0.07126022 -0.04006609
-0.2204252 0.17122637 0.22654343 0.31818694 -0.12034556 0.04465579 -0.18779041 0.2529717
0.19517142 0.28247172 0.034082294 0.174231 0.047820944 0.34773818 -0.290539 -0.13068466
-0.11356121 0.016462674 -0.1425149 -0.016147187 -0.017114082 0.09167175 -0.23232481 -0.2144405
-0.19799003 -0.2352267 0.2775829 -0.01715519 -0.2724332 0.29473025 0.15886407 -0.107391015
-0.20231886 -0.25907362 -0.28368324 -0.046386555 0.17100048 -0.080459446 -0.008011631 0.12731396
-0.20906506 -0.016021065 -0.20501813 -0.16180617 -0.0009860073 0.047773324 -0.32521755 0.33165246
0.19970503 0.33659828 -0.10650649 0.17800537 0.20590359 -0.12532052 0.10603656 0.23296167
0.14658096 0.009685165 -0.31505537 0.18576957 -0.24457102 -0.17712808 -0.058834415 -0.3243799
0.25861397 -0.29523337 -0.13057218 0.31794375 0.16369404 0.06324378 0.33511433 -0.16675301
-0.31259984 -0.053651568 -0.032812316 -0.17253256 -0.23657966 -0.13735743 -0.025617281 -0.12464425
0.05797303 0.18524823 0.12504497 0.08306989 0.058357403 -0.0664765 -0.21119353 -0.0066203275
-0.06756502 0.04975291 0.0098997485 -0.06251202 0.08819687 -0.30710244 -0.24859808 0.13170724
-0.23589575 0.13680641 0.28470263 -0.26928693 -0.20760481 0.07375305 -0.028242065 -0.15937667
0.08661835 -0.18493876 -0.035360835 0.05838496 0.07878037 -0.267348 0.15133032 0.21289364
-0.193219 -0.27787155 -0.329625 0.17548785 -0.27616215 -0.12739526 -0.28049523 0.013322282
-0.26013952 -0.06924387 -0.31495136 -0.20338781 -0.14164467 -0.19098794 -0.17451853 -0.20237592
-0.2683389 -0.079679206 -0.23709475 -0.3080508 -0.27330917 -0.073986545 0.14539988 0.20353138
0.30297804 -0.049979143 0.25840482 0.19230162 -0.2160927 -0.24478745 -0.19143318 0.16714247
0.18390559 -0.1796365 0.15430948 -0.2708042 -0.20907776 -0.09150233 0.24128805 0.002170411
0.20984454 0.08090189 -0.038498253 0.010521857 0.13428517 -0.10312012 0.29846278 0.2596662
0.27846003 -0.24222179 -0.18688059 -0.109976776 -0.16212766 -0.2905915 -0.089938216 -0.10430375
-0.20296174 -0.24009486 0.28235775 -0.06750217 0.31476822 -0.05873841 0.013706584 -0.13470876
0.050844297 0.12152447 -0.2072175 0.27372468 -0.11473338 -0.30055553 -0.21039525 -0.07633829
-0.21207772 0.09533491 0.19301361 0.22335197 0.2995746 0.2215325 -0.32788658 -0.18998906
-0.07410797 0.02229172 0.28625473 -0.098111406 -0.23922504 0.31956595 -0.21441449 -0.27799505
0.29940116 -0.11480658 -0.0354518 -0.017882586 -0.07997905 -0.07219695 -0.043333154 0.20000346
-0.021860793 -0.26351 0.2662238 0.02908572 0.049786385 0.22854123 -0.16455302 -0.16699143
-0.08336212 0.21822469 -0.033813342 -0.25760186 0.036081098 0.032686017 -0.2209912 -0.14071126
00000000: fac5 963e 6756 24be 0a55 883e cf23 923e
00000010: 186b 8cbe b9da 62be 9283 3fbe ae82 4fbc
00000020: a985 63be 3521 68be a746 0d3e c609 abbe
00000030: 88dd 7fbe 4489 96be 7ee9 d6bc 96b4 33be
00000040: 6113 ccbd be2c 87be 2df8 5a3e 8995 ac3e
00000050: 43e7 483e ed7e 61be 47a1 88be fc72 513e
00000060: e410 01bd 3263 40be 76c9 113e f951 63be
00000070: 4af9 2bbe f6f6 81bc e1f0 913d 571c 24bd
00000080: 25b7 61be f755 2f3e 00fb 673e 66e9 a23e
00000090: bc77 f6bd fde8 363d 214c 40be 8285 813e
000000a0: 04db 473e 22a0 903e e099 0b3d 9c69 323e
000000b0: e5df 433d bd0a b23e 87c1 94be 33d2 05be
000000c0: c892 e8bd bbdc 863c 6def 11be 1b47 84bc
000000d0: d532 8cbc 66be bb3d 8ee6 6dbe 4a96 5bbe
000000e0: e6bd 4abe 45df 70be 591f 8e3e 0b89 8cbc
000000f0: 5d7c 8bbe e2e6 963e 43ad 223e d2ef dbbd
00000100: ad2c 4fbe 4ca5 84be ee3e 91be d4ff 3dbd
00000110: c01a 2f3e ecc7 a4bd 3743 03bc 975e 023e
00000120: 2715 56be 9c3e 83bc 46f0 51be 84b0 25be
00000130: ea3c 81ba f6ad 433d ea82 a6be 5ace a93e
00000140: 7a7f 4c3e 9c56 ac3e 1320 dabd 0a47 363e
00000150: 64d8 523e 0654 00be b229 d93d 818d 6e3e
00000160: 5219 163e 87ae 1e3c f04e a1be 613a 3e3e
00000170: d370 7abe 1061 35be 5bfc 70bd 1f15 a6be
00000180: 0d69 843e d428 97be b7b4 05be 86c9 a23e
00000190: 699f 273e f485 813d 1b94 ab3e 4dc1 2abe
000001a0: 160d a0be bfc1 5bbd 3566 06bd 60ac 30be
000001b0: f041 72be 6da7 0cbe 55db d1bc 7c45 ffbd
000001c0: 2175 6d3d b6b1 3d3e ca0b 003e 8c20 aa3d
000001d0: 2c08 6f3d d524 88bd 1e43 58be 55ef d8bb
000001e0: 875f 8abd b5c9 4b3d 8e32 223c 4d06 80bd
000001f0: 90a0 b43d 883c 9dbe 7f90 7ebe 43de 063e
00000200: a88e 71be fb16 0c3e 8bc4 913e fadf 89be
00000210: 5b96 54be d70b 973d e75b e7bc a333 23be
00000220: f664 b13d 9660 3dbe 86d6 10bd 1125 6f3d
00000230: 9a57 a13d d6e1 88be 56f6 1a3e ca00 5a3e
00000240: 34db 45be 2e45 8ebe 9cc4 a8be 16b3 333e
00000250: 2065 8dbe e773 02be 129d 8fbe b345 5a3c
00000260: 0231 85be bbcf 8dbd 4e41 a1be e544 50be
00000270: 4d0b 11be 5892 43be fcb4 32be a23b 4fbe
00000280: b763 89be da2e a3bd f7c8 72be d6b8 9dbe
00000290: 2eef 8bbe 4286 97bd b5e3 143e 886a 503e
000002a0: f01f 9b3e eeb6 4cbd a34d 843e b7ea 443e
000002b0: 6847 5dbe 90a9 7abe 0f07 44be 6527 2b3e
000002c0: bf51 3c3e a1f2 37be 4e03 1e3e d9a6 8abe
000002d0: 7b18 56be 9365 bbbd 3714 773e 743d 0e3b
000002e0: 7de1 563e e4af a53d 58b0 1dbd de63 2c3c
000002f0: 0d82 093e a430 d3bd 1dd0 983e f8f2 843e
00000300: 5092 8e3e fd08 78be a05d 3fbe 813b e1bd
00000310: cb04 26be 69c8 94be 8731 b8bd 349d d5bd
00000320: 34d5 4fbe 6ddb 75be 3291 903e 943e 8abd
00000330: 4d29 a13e b097 70bd 9591 603c 18f1 09be
00000340: 1c42 503d d2e1 f83d d330 54be a425 8c3e
00000350: 56f9 eabd 6ae2 99be da71 57be 4057 9cbd
00000360: e72a 59be f33e c33d 5ca5 453e 61b6 643e
00000370: d861 993e 6ad9 623e c0e0 a7be 7e8c 42be
00000380: ebc5 97bd 209d b63c fb8f 923e a2ee c8bd
00000390: 69f7 74be 269e a33e 798f 5bbe 5e55 8ebe
000003a0: 1c4b 993e b61f ebbd e835 11bd 807e 92bc
000003b0: 0ecc a3bd ffdb 93bd 1b7e 31bd b5cd 4c3e
000003c0: 6815 b3bc c8ea 86be 7c4e 883e 2d45 ee3c
000003d0: cfec 4b3d b606 6a3e 9680 28be cdff 2abe
000003e0: c2b9 aabd 4b76 5f3e dc7f 0abd 64e4 83be
000003f0: c6c9 133d c6e1 053d 844b 62be 9d16 10be

conv1.bias f4 [32]
-0.26472995 0.032074112 -0.2204222 0.036429968 -0.117584236 -0.1644259 0.18172172 -0.23433177
-0.019667901 -0.16099413 0.21847124 -0.21991843 0.050837025 -0.21372037 0.23767821 0.17110437
0.22502749 -0.19635598 -0.2643062 -0.079757065 -0.17084338 0.08742741 0.12633944 0.19687296
-0.017852623 -0.11214085 0.08168721 0.19741367 0.27502415 -0.31857178 -0.29263058 -0.1625277
00000000: af8a 87be 2560 033d 5bb6 61be 9737 153d
00000010: 01d0 f0bd 435f 28be 4215 3a3e abf4 6fbe
00000020: 941e a1bc a5db 24be edb6 5f3e 4c32 61be
00000030: 7c3a 503d 83d9 5abe eb61 733e fc35 2f3e
00000040: 9b6d 663e 8b11 49be 2453 87be ac57 a3bd
00000050: 91f1 2ebe 240d b33d 205f 013e 1199 493e
00000060: aa3f 92bc 1aaa e5bd a04b a73d cf26 4a3e
00000070: f7cf 8c3e d71b a3be add3 95be a96d 26be

bn1.weight f4 [32]
1.0003765 0.98820496 1.0040411 0.99799055 0.97800493 1.0051 0.9865032 0.97802085
0.9927417 1.0058199 0.96537656 1.0586041 1.0119824 0.99295294 0.9809769 0.9878881
0.98768806 0.9810655 1.0162288 0.9766273 0.9808273 1.0105002 0.99059296 0.9874035
1.0083829 1.0190977 0.9821017 0.9750776 1.0064949 1.0331699 0.9735642 0.98884946
00000000: 560c 803f 00fb 7c3f 6b84 803f 4f7c 7f3f
00000010: 885e 7a3f 1ea7 803f 798b 7c3f 935f 7a3f
00000020: 5224 7e3f b5be 803f eb22 773f 5780 873f
00000030: a488 813f 2a32 7e3f 4d21 7b3f 3ce6 7c3f
00000040: 20d9 7c3f 1c27 7b3f c913 823f 3f04 7a3f
00000050: 7f17 7b3f 1258 813f 8097 7d3f 7ac6 7c3f
00000060: b112 813f cb71 823f 046b 7b3f b09e 793f
00000070: d3d4 803f e93e 843f 813b 793f 3d25 7d3f

bn1.bias f4 [32]
0.015124217 0.03724401 -0.03400786 -0.04113373 -0.03994191 0.02667869 0.012285526 0.025604503
0.029854268 -0.030657353 0.005993802 -0.041709855 0.08698706 0.025268069 -0.006340842 0.02784479
0.03357547 -0.0012977598 -0.035935163 0.0062639792 -0.016652048 0.018484259 -0.019054366 0.009040508
-0.0067639756 0.010296538 0.023951717 0.009281337 0.027730567 0.019153474 -0.0016603231 -0.01680342
00000000: 90cb 773c 2d8d 183d d34b 0bbd d87b 28bd
00000010: 219a 23bd 458d da3c 3b49 493c 89c0 d13c
00000020: f090 f43c 2125 fbbc a867 c43b f4d7 2abd
00000030: 4626 b23d fbfe ce3c d7c6 cfbb c21a e43c
00000040: 6f86 093d 9819 aaba c030 13bd 1142 cd3b
00000050: e069 88bc 4d6c 973c e717 9cbc a41e 143c
00000060: 57a4 ddbb cfb2 283c 6436 c43c c010 183c
00000070: 372b e33c bfe7 9c3c 339f d9ba 53a7 89bc

bn1.running_mean f4 [32]
-0.23740514 0.017728424 -0.18016417 0.0052408003 -0.13428323 -0.16919667 0.14562522 -0.2645408
-0.044547994 -0.14395486 0.20173943 -0.1876423 0.027545495 -0.22391868 0.22155426 0.15434219
0.19159219 -0.2181974 -0.3152675 -0.09011668 -0.17527245 0.11988366 0.10195824 0.20669301
-0.005252088 -0.10108841 0.07465763 0.21279806 0.26359296 -0.28481427 -0.30479723 -0.15335803
00000000: 551a 73be 333b 913c f57c 38be 05bb ab3b
00000010: 8b81 09be e441 2dbe c71e 153e e471 87be
00000020: f577 36bd e768 13be c894 4e3e 4e25 40be
00000030: 17a7 e13c f04a 65be 1fdf 623e e10b 1e3e
00000040: be30 443e 246f 5fbe be6a a1be 188f b8bd
00000050: 9f7a 33be 9085 f53d 7bcf d03d 55a7 533e
00000060: b519 acbb 7107 cfbd 19e6 983d bce7 593e
00000070: a8f5 863e 2dd3 91be 620e 9cbe e309 1dbe

bn1.running_var f4 [32]
0.14227465 1.9238276 0.160359 0.14177732 0.53490764 0.08086163 0.20831673 0.4077695
0.13640217 0.76841 1.0234706 0.094006136 0.042844195 0.26949316 0.116114214 0.025270658
1.9117825 2.2286115 0.1443602 0.1383645 0.12880997 0.16992587 0.06155047 0.37975875
0.19056673 0.039625313 0.017432084 0.06848376 0.08395289 0.100806125 0.19024205 0.08401275
00000000: 72b0 113e fc3f f63f 2635 243e 132e 113e
00000010: b5ef 083f c89a a53d fb50 553e 2ac7 d03e
00000020: 03ad 0b3e 85b6 443f 1601 833f 4a86 c03d
00000030: 657d 2f3d 02fb 893e 4acd ed3d 6904 cf3c
00000040: 4ab5 f43f 92a1 0e40 29d3 133e 6caf 0d3e
00000050: c3e6 033e 0c01 2e3e 581c 7c3d bd6f c23e
00000060: ed23 433e 274e 223d bbcd 8e3c 3741 8c3d
00000070: 7eef ab3d 7173 ce3d d0ce 423e e00e ac3d

conv2.weight f4 [64, 32, 3, 3]
-0.006897505 -0.0126363635 0.007157968 0.026181938 0.03552568 -0.06141949 0.05240899 0.050369244
-0.03475579 0.006202425 0.056555767 -0.05010131 -0.047769666 0.021143174 0.03702412 -0.062003456
-0.05941771 0.007606771 -0.046464756 -0.062162098 -0.051403664 0.05214314 -0.040801868 0.0098562
0.066827446 0.05288214 -0.040834755 -0.046540953 0.018337833 -0.055395316 -0.020302653 -0.019592604
0.04635406 0.022450613 -0.050765287 -0.015005034 -0.067527406 -0.03164833 -0.052537184 -0.05045412
-0.0026092448 0.058066647 0.0110405525 0.030992614 -0.0597594 -0.04577563 0.034134448 -0.026328593
-0.060307406 -0.03143731 -0.003789835 -0.07981101 -0.048389286 -0.030016644 -0.017701795 0.021055797
0.023495648 -0.02946615 0.03308536 0.033649605 0.007036802 -0.002261004 -0.026860196 0.043756805
0.012141216 -8.502209e-05 0.046288434 0.036147475 -0.010318526 -0.009306448 0.03266516 -0.04202888
0.043375768 -0.033493757 -0.017326992 0.026652139 0.014434553 -0.02335936 -0.07065197 0.04189721
0.041965853 0.05433982 0.024941077 -0.04254438 0.048025876 0.045392953 0.045002438 -0.021689782
0.038414113 0.007625999 0.039810568 -0.004211825 0.01394506 0.004226246 0.008012783 -0.06497726
0.0012606191 0.039152935 -0.01026321 -0.056985866 0.020236189 0.0050612595 0.044408426 0.039028622
0.0024003724 0.037641507 -0.011962145 0.010993229 -0.0069501554 -0.045558635 0.045483317 -0.027224753
0.044866472 -0.019472212 -0.011414908 -0.049480185 0.051315263 0.05980232 -0.026229443 -0.037408475
-0.032245573 -0.010210988 0.018881567 -0.031440903 -0.048572704 0.037157018 -0.005672843 0.049647596
0.022076434 -0.019475123 -0.02315642 -0.019544777 0.036975406 0.051474918 -0.049012784 -0.01308421
0.04291136 0.023940254 -0.007573046 0.051396437 0.029669214 0.028316798 0.0028127728 -0.03124522
-0.027001562 0.015524921 0.051652532 0.035820667 0.026569933 -0.030268522 0.017580412 -0.026557857
0.0077462345 0.0191666 -0.020655021 -0.003550674 0.045236606 -0.057192992 0.0014459261 -0.056596026
-0.026573027 -0.019858193 -0.06797317 0.008607379 -0.037350863 -0.0053861532 -0.044226147 0.02899708
-0.012052546 -0.048734535 -0.05185 0.0244383 0.044719152 0.016177883 0.008453919 -0.03917549
-0.04821573 -0.058131937 0.040719304 -0.016826961 0.0012093356 -0.03319471 -0.03839363 -0.0050473334
0.054840952 0.028542304 -0.03648844 -0.06551038 0.00881036 0.017221753 -0.045171537 -0.077711426
-0.008920059 0.033403136 -0.0012183234 0.052330367 -0.03283821 0.011449308 0.023964748 0.009693393
0.019882785 -0.0009974669 -0.049062002 -0.050288998 -0.021389605 -0.02864622 -0.017297713 -0.02910401
0.050149195 0.001014209 -0.055190504 0.0070109335 -0.00088179106 0.045127653 -0.016712291 -0.05887558
-0.023900216 -0.07345142 -0.034572426 -0.01723504 -0.056085005 -0.055020574 0.01644034 -0.019077756
-0.033100117 -0.073264204 -0.049932353 0.040307462 -0.011325436 0.05365008 0.014398673 0.02578168
0.03799272 0.014704958 -0.018337127 -0.063874714 0.026104722 0.0036406086 0.018140007 0.041352842
-0.00893785 0.02087147 -0.00923044 0.013922934 -0.0016661207 -0.017254489 0.02244893 -0.00065778394
-0.02010839 -0.062177543 -0.046711992 -0.06403935 -0.00084182527 -0.021336965 0.06577569 -0.067967884
00000000: 7704 e2bb c008 4fbc 638d ea3b 817b d63c
00000010: 6083 113d 0193 7bbd cfaa 563d fb4f 4e3d
00000020: 165c 0ebd b63d cb3b 05a7 673d 0837 4dbd
00000030: 20aa 43bd 7334 ad3c 9ba6 173d 56f7 7dbd
00000040: fc5f 73bd 3842 f93b d451 3ebd af9d 7ebd
00000050: a68c 52bd 0c94 553d dc1f 27bd e67b 213c
00000060: d4dc 883d f19a 583d 5842 27bd baa1 3ebd
00000070: 3939 963c 33e6 62bd c051 a6bc ab80 a0bc
00000080: c1dd 3d3d 59ea b73c 43ef 4fbd add7 75bc
00000090: cf4b 8abd aea1 01bd 3b31 57bd fba8 4ebd
000000a0: ddff 2abb 4bd7 6d3d 6fe3 343c 39e4 fd3c
000000b0: 46c6 74bd 3a7f 3bbd 90d0 0b3d 10af d7bc
000000c0: e604 77bd 69c4 00bd e15e 78bb f473 a3bd
000000d0: d833 46bd 77e5 f5bc 5b03 91bc 357d ac3c
000000e0: f279 c03c ff62 f1bc 8484 073d 2bd4 093d
000000f0: f994 e63b 5a2d 14bb ea09 dcbc 563a 333d
00000100: f3eb 463c e34d b2b8 f198 3d3d 600f 143d
00000110: 090f 29bc 127a 18bc e7cb 053d 7a26 2cbd
00000120: caaa 313d c030 09bd 56f1 8dbc 9655 da3c
00000130: e77e 6c3c 215c bfbc fbb1 90bd 699c 2b3d
00000140: 63e4 2b3d 6e93 5e3d 3b51 cc3c 0443 2ebd
00000150: c8b6 443d f6ed 393d 7a54 383d c5ae b1bc
00000160: 1e58 1d3d 84e3 f93b 6810 233d 5903 8abb
00000170: d279 643c 527c 8a3b 0c48 033c cc12 85bd
00000180: 5c3b a53a d45e 203d 0627 28bc 036a 69bd
00000190: 5dc6 a53c ecd8 a53b 9ce5 353d 7adc 1f3d
000001a0: 914f 1d3b fb2d 1a3d dffc 43bc f21c 343c
000001b0: 21be e3bb b19b 3abd b74c 3a3d 7206 dfbc
000001c0: e8c5 373d 3084 9fbc 9805 3bbc bcab 4abd
000001d0: f42f 523d 47f3 743d 21df d6bc a139 19bd
000001e0: ef13 04bd fd4b 27bc 84ad 9a3c 2dc8 00bd
000001f0: 2cf4 46bd f531 183d 42e3 b9bb 475b 4b3d
00000200: a3d9 b43c 4b8a 9fbc 88b2 bdbc 5e1c a0bc
00000210: 8673 173d 5dd7 523d a1c1 48bd 285f 56bc
00000220: d2c3 2f3d 5a1e c43c 5027 f8bb 1285 523d
00000230: da0c f33c a1f8 e73c 7f56 383b faf5 ffbc
00000240: 6132 ddbc 3d5c 7e3c 9b91 533d b1b8 123d
00000250: 30a9 d93c b1f5 f7bc cc04 903c dd8f d9bc
00000260: 20d4 fd3b 4603 9d3c b834 a9bc 6db2 68bb
00000270: 054a 393d 3343 6abd 3b85 bd3a 3cd1 67bd
00000280: adaf d9bc a6ad a2bc 8435 8bbd f705 0d3c
00000290: 38fd 18bd 547e b0bb 7a26 35bd 498b ed3c
000002a0: 0b78 45bc dd9d 47bd aa60 54bd d432 c83c
000002b0: 6e2b 373d 7b87 843c 4e82 0a3c 7b76 20bd
000002c0: db7d 45bd c11b 6ebd 49c9 263d b2d8 89bc
000002d0: 9282 9e3a 2df7 07bd a442 1dbd 1a64 a5bb
000002e0: e8a0 603d 8dd1 e93c e774 15bd 4e2a 86bd
000002f0: 5459 103c a214 8d3c ca05 39bd 2b27 9fbd
00000300: 7025 12bc bad1 083d 26b0 9fba 5e58 563d
00000310: 5c81 06bd e195 3b3c b851 c43c 09d1 1e3c
00000320: 39e1 a23c 6fbd 82ba 3df5 48bd d6fb 4dbd
00000330: 4139 afbc 7aab eabc efb3 8dbc 886b eebc
00000340: 3e69 4d3d 35ef 843a 700f 62bd f9bb e53b
00000350: ff27 67ba c6d7 383d 37e8 88bc 8527 71bd
00000360: 63ca c3bc b36d 96bd d19b 0dbd 8030 8dbc
00000370: 64b9 65bd 415d 61bd e4ad 863c f448 9cbc
00000380: fd93 07bd 8b0b 96bd de85 4cbd 7019 253d
00000390: 528e 39bc 30c0 5b3d 69e8 6b3c 1a34 d33c
000003a0: 419e 1b3d 10ed 703c be37 96bc bfd0 82bd
000003b0: 92d9 d53c 4797 6e3b 5a9a 943c 9961 293d
000003c0: 0f70 12bc a5fa aa3c 453b 17bc 051d 643c
000003d0: bc61 daba 4959 8dbc d2e6 b73c 226f 2cba
000003e0: 5aba a4bc e1ad 7ebd 1355 3fbd 1027 83bd
000003f0: f0ad 5cba dcca aebc 68b5 863d bf32 8bbd

conv2.bias f4 [64]
-0.0231975 0.029783105 -0.03779191 -0.046882503 -0.044190537 0.003977698 -0.054043982 -0.05068289
0.035743784 -0.015753921 -0.011896596 -0.00984022 -0.057260398 0.038178593 0.029182432 0.019540887
-0.006646049 0.030177891 0.0014404552 -0.036766224 0.015817592 0.058920637 0.009419036 -0.019900614
-0.04928551 0.047130052 0.0214976 -0.050311387 -0.02643671 -0.04319854 -0.05507871 -0.028923213
-0.030539334 -0.007817691 0.03954611 -0.017735744 0.048970234 -0.027805552 -0.016955415 -0.05300346
0.039569896 0.013050179 0.021572342 -0.0007010927 -0.05262233 0.011869762 -0.054937914 -0.0552152
-0.05538533 -0.058257733 0.057219118 0.010463112 0.053139012 0.05262417 -0.054935962 -0.039475072
0.015036378 0.057579108 0.020277228 -0.038860466 0.04882057 0.044130396 -0.0133338235 -0.022373449
00000000: af08 bebc b3fb f33c b1cb 1abd de07 40bd
00000010: 2301 35bd 5957 823b 395d 5dbd dd98 4fbd
00000020: 1368 123d 5e0e 81bc f1e9 42bc e038 21bc
00000030: e189 6abd 2861 1c3d ff0f ef3c 3614 a03c
00000040: 1ac7 d9bb a037 f73c a8cd bc3a 2e98 16bd
00000050: e593 813c c456 713d 4d52 1a3c 9d06 a3bc
00000060: 9adf 49bd 710b 413d bc1b b03c 5013 4ebd
00000070: cd91 d8bc f4f0 30bd 379a 61bd 60f0 ecbc
00000080: a02d fabc c615 00bc 1afb 213d 8d4a 91bc
00000090: 0395 483d 78c8 e3bc 15e6 8abc 281a 59bd
000000a0: 0b14 223d 6bd0 553c 7bb8 b03c 89c9 37ba
000000b0: 838a 57bd 6479 423c 9406 61bd 5529 62bd
000000c0: badb 62bd a99f 6ebd 985e 6a3d 796d 2b3c
000000d0: 4ba8 593d 718c 573d 8804 61bd 9db0 21bd
000000e0: 245b 763c 12d8 6b3d 6e1c a63c 272c 1fbd
000000f0: 14f8 473d 13c2 343d 1c76 5abc 8648 b7bc

bn2.weight f4 [64]
1.0005534 0.97942257 1.0333772 1.0252243 0.9793826 0.9954718 0.9752806 0.98192316
0.97895783 0.95015293 1.0692118 0.98124254 0.9819892 1.0185965 0.985113 0.9994445
1.030156 0.9995287 0.97638816 0.98247874 0.9629958 1.0083679 1.0015138 1.0287371
0.97871375 1.0001711 1.023183 0.9831629 1.0129889 0.9715594 0.99539983 0.9617863
1.0071071 1.0085561 0.99656826 0.99315315 0.99432987 0.9937349 1.0164732 0.9786821
0.9597975 0.97131145 1.0275221 1.0182899 1.0065058 1.018674 0.9981989 0.99404705
0.9901981 1.0309898 1.0109273 1.0177547 0.9982077 1.0068907 0.9770186 1.0686352
0.99074125 0.97025335 1.0044285 1.0406935 1.0291648 1.0414407 0.9899984 0.990962
00000000: 2212 803f 70bb 7a3f b445 843f 8d3a 833f
00000010: d1b8 7a3f 3dd7 7e3f fdab 793f 515f 7b3f
00000020: fb9c 7a3f 393d 733f efdb 883f b632 7b3f
00000030: a563 7b3f 5f61 823f 5e30 7c3f 98db 7f3f
00000040: 27dc 833f 1de1 7f3f 93f4 793f ba83 7b3f
00000050: e586 763f 3312 813f 9b31 803f a8ad 833f
00000060: fc8c 7a3f 9b05 803f a9f7 823f 90b0 7b3f
00000070: 9fa9 813f 1eb8 783f 86d2 7e3f a137 763f
00000080: e3e8 803f 5e18 813f 191f 7f3f 493f 7e3f
00000090: 678c 7e3f 6965 7e3f cb1b 823f e98a 7a3f
000000a0: 4ab5 753f dea7 783f d885 833f 5357 823f
000000b0: 2fd5 803f e963 823f f789 7f3f de79 7e3f
000000c0: 9f7d 7d3f 79f7 833f 1166 813f c945 823f
000000d0: 8a8a 7f3f cbe1 803f e41d 7a3f 0ac9 883f
000000e0: 38a1 7d3f 8662 783f 1d91 803f 7235 853f
000000f0: acbb 833f ee4d 853f 8970 7d3f b0af 7d3f

bn2.bias f4 [64]
0.006018748 -0.053495124 -0.013830763 0.00553047 -0.033249512 -0.06353603 -0.034143798 -0.019447152
-0.017430382 -0.042876 0.014918286 0.02599607 -0.04455651 0.007662473 -0.06596948 -0.038049404
0.00043769676 -0.024296092 -0.04646431 -0.006948464 -0.04732581 -0.023617627 0.011809224 0.007672414
-0.010478728 -0.033881724 -0.02666608 -0.03109934 -0.020699305 -0.051708054 -0.022385282 -0.030849475
0.02368168 -0.01164318 0.0077859694 -0.014745524 -0.0038941603 0.004118318 0.022516517 -0.03811647
-0.05438466 -0.03851008 -0.020318864 0.002753905 -0.00026820163 -0.0048786243 -0.027778966 -0.019322354
-0.020361288 -0.041997496 -0.023685617 -0.002232284 -0.03034386 -0.044658627 -0.037650082 -0.0040939115
-0.054364704 -0.04236668 -0.000108601635 0.025580758 0.005616199 -0.008570939 -0.03004961 -0.024726551
00000000: eb38 c53b b41d 5bbd 6d9a 62bc f238 b53b
00000010: a430 08bd 2e1f 82bd 5eda 0bbd a24f 9fbc
00000020: 29ca 8ebc bf9e 2fbd d46b 743c b6f5 d43c
00000030: e380 36bd 7b15 fb3b 021b 87bd b1d9 1bbd
00000040: aa7a e539 9908 c7bc 5c51 3ebd f1af e3bb
00000050: b5d8 41bd c179 c1bc 7a7b 413c e068 fb3b
00000060: f9ae 2bbc 90c7 0abd d372 dabc 0bc4 febc
00000070: 9791 a9bc d3cb 53bd 5761 b7bc 0ab8 fcbc
00000080: 1500 c23c 09c3 3ebc 7221 ff3b 3697 71bc
00000090: 2b35 7fbb f5f2 863b 8f74 b83c 0420 1cbd
000000a0: 73c2 5ebd bfbc 1dbd bf73 a6bc dc7a 343b
000000b0: 6a9d 8cb9 dedc 9fbb b790 e3bc ea49 9ebc
000000c0: b7cc a6bc 9105 2cbd 5708 c2bc 834b 12bb
000000d0: b093 f8bc f7eb 36bd f936 1abd 3826 86bb
000000e0: 86ad 5ebd af88 2dbd 0fc1 e3b8 bd8e d13c
000000f0: 1808 b83b 206d 0cbc 9a2a f6bc 568f cabc

bn2.running_mean f4 [64]
-0.7920572 -0.6224085 0.26670438 -0.72619265 0.07816073 0.22681037 -0.573112 0.59651756
-0.3844772 -0.027507454 -0.3306714 -0.45890126 -0.3996687 -0.8252816 1.1298366 0.10095814
-0.64455193 -0.4149646 0.50926125 0.46138903 0.19366229 -1.3488035 -0.52382934 -0.90748626
-0.37737978 0.70714206 -0.49881527 -0.4493123 -1.4945308 0.4044902 -0.23667552 1.2377228
-1.5850772 -1.6850909 -1.2090943 -0.42402786 -0.72876585 -1.0447743 -1.4057816 0.872985
-0.4866158 0.4897199 -0.5640936 -0.5971125 -0.5250278 -0.890769 -1.0226219 -1.2778065
-0.21146853 -0.6058655 -0.8193001 -1.3287772 -0.70044655 0.16753805 -0.7761887 -0.69001484
-0.4270408 0.6796595 -0.07177489 -0.65191805 -0.10063408 -0.6018529 -0.65178835 -1.2497357
00000000: 43c4 4abf 2a56 1fbf 7a8d 883e c3e7 39bf
00000010: bc12 a03d fa40 683e 78b7 12bf 60b5 183f
00000020: 32da c4be 5057 e1bc c34d a9be 1bf5 eabe
00000030: 60a1 ccbe a845 53bf 7c9e 903f 24c3 ce3d
00000040: 5b01 25bf 3d76 d4be f25e 023f 2f3b ec3e
00000050: 684f 463e 98a5 acbf ae19 06bf 0551 68bf
00000060: ec37 c1be 4307 353f b764 ffbe 430c e6be
00000070: c94c bfbf 5719 cf3e 115b 72be b36d 9e3f
00000080: cfe3 cabf 0fb1 d7bf 9ac3 9abf 2e1a d9be
00000090: 6690 3abf 2abb 85bf a7f0 b3bf f27b 5f3f
000000a0: b525 f9be 91bc fa3e 7068 10bf 5ddc 18bf
000000b0: 3968 06bf 7009 64bf 46e5 82bf 2a8f a3bf
000000c0: 358b 58be 001a 1bbf a7bd 51bf 5f15 aabf
000000d0: 7750 33bf 188f 2b3e 4db4 46bf d0a4 30bf
000000e0: 17a5 dabe 2afe 2d3f b7fe 92bd 1ae4 26bf
000000f0: 3e19 cebd 0813 1abf 9adb 26bf 57f7 9fbf

bn2.running_var f4 [64]
0.4169775 0.43870363 0.36778405 0.49893788 0.8609009 0.30214444 0.6429579 1.0861765
0.43616626 0.40951097 0.2175188 0.42324945 0.6325737 0.3824458 0.80452883 0.31806913
0.46369112 0.16539183 0.7188159 0.36261413 1.3452233 1.3427582 0.2911406 0.573283
0.29911467 0.43018022 0.28631076 0.2867439 1.4515097 0.8075467 0.27185994 0.78670645
1.05037 1.9723338 0.70093805 0.3633804 0.8968679 0.7876682 0.9021029 1.5490026
0.48478872 1.1117424 0.26997626 0.40744337 0.19529712 0.59479827 1.371502 0.9270763
0.41807693 0.38751173 0.69668454 0.9061976 0.8461791 0.2778872 1.0806252 0.495213
0.35493395 1.118859 0.34605506 0.34319207 0.41905844 0.3618313 0.5891007 0.85242814
00000000: 137e d53e c39d e03e 314e bc3e c974 ff3e
00000010: 0064 5c3f adb2 9a3e e498 243f d507 8b3f
00000020: 2f51 df3e 6cab d13e 40bd 5e3e 27b4 d83e
00000030: 5af0 213f f0cf c33e 9af5 4d3f f5d9 a23e
00000040: ec68 ed3e 7a5c 293e 5204 383f 8fa8 b93e
00000050: 4730 ac3f 80df ab3f 6110 953e adc2 123f
00000060: 8f25 993e 9540 dc3e 5397 923e 19d0 923e
00000070: 12cb b93f 61bb 4e3f 3a31 8b3e 9865 493f
00000080: 8672 863f 6f75 fc3f ad70 333f ff0c ba3e
00000090: 2299 653f a0a4 493f 37f0 663f b845 c63f
000000a0: 3a36 f83e 934d 8e3f 543a 8a3e 6b9c d03e
000000b0: f8fb 473e b344 183f 618d af3f df54 6d3f
000000c0: 2e0e d63e f067 c63e eb59 323f 91fc 673f
000000d0: 329f 583f 3b47 8e3e ed51 8a3f 8f8c fd3e
000000e0: e7b9 b53e c636 8f3f 212e b13e dfb6 af3e
000000f0: d48e d63e f441 b93e 4ecf 163f bb38 5a3f

conv3.weight f4 [128, 64, 3, 3]
0.033730894 -0.02003436 -0.020046229 0.013391128 0.013901149 0.040135525 0.049350914 -0.022878066
0.031392626 0.0002507866 -0.04618168 -0.0038641107 0.035701036 -0.0039005848 -0.03721588 -0.014506819
0.0072645936 0.013693355 0.013066644 0.025540015 0.0057864175 -0.03413811 0.0063042426 0.009708146
-0.038448647 0.019553654 -0.03094827 -0.014873926 -0.0024456629 -0.0077953604 -0.050413024 -0.0039054041
-0.013843978 -0.03056861 -0.031330984 0.026407667 -0.025371624 -0.04264401 -0.019974388 0.05831945
-0.017930571 0.047808107 0.033510964 -0.011501832 -0.025216242 0.019634735 -0.054088805 -0.054177593
0.036355045 -0.023616714 0.029767593 0.037139114 0.030093096 0.0201523 -0.012041307 -0.00049129245
-0.009847744 0.05529937 -0.01809719 0.04970837 -0.02287748 -0.04194504 0.00010994124 -0.02469427
-0.0130111575 0.03934295 0.0023469608 0.023053594 0.045814678 -0.035069663 0.01803583 0.03480439
0.0044900985 0.0147827035 0.044246227 0.04206731 0.026650654 -0.012287744 0.011326749 0.04238471
-0.0028342518 0.055859808 -0.0023295344 0.0031771136 0.04858222 0.009721124 0.044388253 0.025223538
0.0019166291 0.0028616737 -0.008679204 -0.018428603 -0.042525887 0.0051882276 0.0057959286 -0.0031308953
0.021819156 0.011556531 -0.0027154393 0.03574478 0.021085978 0.015006281 0.01589454 -0.0036435677
0.0021586246 0.02491282 0.031478893 0.05994601 0.00637547 -0.010956502 0.002617391 0.0061769485
-0.0037724553 -0.02562822 0.034639027 -0.039291147 0.039047774 0.00089702796 -0.059937898 -0.014647218
-0.048699133 -0.0656865 -0.025922671 0.009827823 7.411356e-05 0.003232427 -0.036402505 -0.00068022916
-0.029754035 0.008923867 -0.042858075 -0.022637598 -0.03257177 -0.01582492 -0.019973097 -0.00086656533
-0.025871722 -0.02756578 -0.038589668 -0.05851028 0.009430643 0.0152303735 -0.018763464 -0.008918065
-0.0023302126 -0.0065401546 0.013118092 0.04142704 0.036282588 0.025281003 -0.06590625 -0.023091897
-0.025068391 -0.040234756 0.007939974 0.013427524 0.03595092 0.01442153 0.00995381 0.009907333
-0.03875128 0.034632828 0.013090719 0.02059464 -0.008237007 -0.027172768 0.016124558 -0.04707841
-0.027110616 -0.018310998 0.00095485034 0.02944953 -0.0037659043 -0.028270068 0.012040359 0.014183865
0.011857535 -0.02422025 -0.017837621 -0.023752863 0.039034672 -0.026841624 0.014232986 -0.0070157507
-0.030826757 -0.0045964546 -0.0151667325 0.009152669 -0.02653087 0.032924723 0.022856198 -0.010220347
0.006245767 -0.014128951 -0.052550323 0.01199554 0.0140492525 -0.036302317 -0.012810393 -0.021312473
-0.05775599 -0.0034510554 -0.019428985 -0.04809858 0.02319881 0.0082746055 -0.043570913 0.0172929
0.04014801 0.03745656 0.006890021 -0.010178033 0.039192587 0.029428696 0.032635212 0.047438283
-0.020665841 0.00043568405 -0.028126132 0.020904701 -0.04153599 0.014867843 -0.02126584 -0.028260708
-0.04611179 -0.024015028 -0.015254999 -0.006544772 0.020457607 -0.03264793 0.0061406796 -0.022839887
-0.017986776 -0.047577906 0.060599454 0.032502472 0.0032731562 0.04360623 0.03737362 0.0071975053
0.04838464 0.015926423 0.034116562 0.023264056 0.0109400265 -0.038109634 0.00015797593 0.056111924
0.024738844 -0.019320214 0.02608222 0.0060159797 -0.008767733 0.02097203 0.02796113 -0.028239926
00000000: 6829 0a3d 191f a4bc fd37 a4bc 7666 5b3c
00000010: a5c1 633c 2665 243d 2f24 4a3d c86a bbbc
00000020: 8e95 003d 027c 8339 0029 3dbd 053d 7dbb
00000030: 403b 123d f4a0 7fbb ae6f 18bd 02ae 6dbc
00000040: d40b ee3b 185a 603c 7a15 563c 4b39 d13c
00000050: fd9b bd3b 67d4 0bbd d293 ce3b ea0e 1f3c
00000060: 547c 1dbd fc2e a03c 3a87 fdbc c4b1 73bc
00000070: 6a47 20bb 3970 ffbb e37d 4ebd cff1 7fbb
00000080: dad1 62bc 066b fabc eb54 00bd e454 d83c
00000090: 27d8 cfbc 7cab 2ebd 54a1 a3bc 60e0 6e3d
000000a0: 22e3 92bc 6fd2 433d cb42 093d 2e72 3cbc
000000b0: 4b92 cebc 06d9 a03c 398c 5dbd 53e9 5dbd
000000c0: 07e9 143d d777 c1bc 2bdb f33c 2f1f 183d
000000d0: cc85 f63c 7016 a53c e748 45bc 14ca 00ba
000000e0: 6f58 21bc 9881 623d 8f40 94bc 019b 4b3d
000000f0: 8e69 bbbc 90ce 2bbd 4190 e638 a34b cabc
00000100: c02c 55bc 1326 213d 78cf 193b e4da bc3c
00000110: 2ca8 3b3d 35a5 0fbd e1bf 933c 0c8f 0e3d
00000120: ad21 933b 2733 723c 883b 353d c64e 2c3d
00000130: 7952 da3c 8952 49bc d493 393c 979b 2d3d
00000140: dbbe 39bb 41cd 643d 1aab 18bb 1f37 503b
00000150: 26fe 463d 5945 1f3c 75d0 353d 98a1 ce3c
00000160: 6737 fb3a eb8a 3b3b 3833 0ebc 95f7 96bc
00000170: a02f 2ebd 0202 aa3b c6eb bd3b b52f 4dbb
00000180: 16be b23c 9b57 3d3c 83f5 31bb 1e69 123d
00000190: 80bc ac3c e8dc 753c 4435 823c ecc8 6ebb
000001a0: b677 0d3b f815 cc3c 03f0 003d f389 753d
000001b0: 52e9 d03b e682 33bc 8988 2b3b 0068 ca3b
000001c0: 4c3b 77bb 46f2 d1bc a7e1 0d3d c1ef 20bd
000001d0: 8ff0 1f3d 8726 6b3a 7181 75bd e3fa 6fbc
000001e0: be78 47bd a586 86bd c85b d4bc e104 213c
000001f0: 6a6d 9b38 20d7 533b cb1a 15bd 6851 32ba
00000200: bcbe f3bc 6935 123c f38b 2fbd 7c72 b9bc
00000210: fa69 05bd 43a3 81bc 9f9e a3bc 372a 63ba
00000220: eff0 d3bc a1d1 e1bc 3310 1ebd 7aa8 6fbd
00000230: fc82 1a3c d188 793c d6b5 99bc 131d 12bc
00000240: 7bb6 18bb cb4e d6bb 44ed 563c 66af 293d
00000250: 0d9d 143d 1b1a cf3c dbf9 86bd 382b bdbc
00000260: 3a5c cdbc 33cd 24bd aa16 023c 1eff 5b3c
00000270: 4641 133d 4848 6c3c 4e15 233c 5e52 223c
00000280: aab9 1ebd 27db 0d3d 747a 563c 17b6 a83c
00000290: 83f4 06bc 6d99 debc a617 843c 4ad5 40bd
000002a0: 1517 debc f200 96bc ec4e 7a3a 2440 f13c
000002b0: 64cd 76bb a196 e7bc ed44 453c 7163 683c
000002c0: 1b46 423c 8c69 c6bc 3420 92bc 5d95 c2bc
000002d0: d2e2 1f3d f7e2 dbbc 7831 693c 62e4 e5bb
000002e0: 6588 fcbc db9d 96bb e37d 78bc 14f5 153c
000002f0: 4457 d9bc 13dc 063d ec3c bb3c 3e73 27bc
00000300: 4ba9 cc3b 1e7d 67bc 023f 57bd f188 443c
00000310: d62e 663c bdb1 14bd afe2 51bc 7f97 aebc
00000320: 8c91 6cbd 1a2b 62bb 8929 9fbc 0403 45bd
00000330: 6e0b be3c 3692 073c 6a77 32bd d7a9 8d3c
00000340: 3d72 243d 0d6c 193d afc5 e13b c4c1 26bc
00000350: 6888 203d 7314 f13c 80ac 053d a54e 423d
00000360: 694b a9bc 866c e439 c668 e6bc 5640 ab3c
00000370: a421 2abd 4198 733c b335 aebc 0083 e7bc
00000380: b7df 3cbd 2abb c4bc 1af0 79bc 8775 d6bb
00000390: b696 a73c d6b9 05bd c137 c93b b71a bbbc
000003a0: 0159 93bc 0de1 42bd 2237 783d 5021 053d
000003b0: 7382 563b 729c 323d 1515 193d 0dd9 eb3b
000003c0: f92e 463d 2178 823c cfbd 0b3d 4394 be3c
000003d0: cc3d 333c d918 1cbd 57a6 2539 9ed5 653d
000003e0: 1ea9 ca3c 6d45 9ebc 61aa d53c b221 c53b
000003f0: 8aa6 0fbc 89cd ab3c bd0e e53c 6b57 e7bc

conv3.bias f4 [128]
-0.018831218 0.033730924 0.020261427 -0.018829556 -0.026891047 -0.0026313048 -0.036497384 0.021934038
0.032577913 -0.03262765 -0.03212383 -0.011909213 -0.032785177 -0.008305313 0.014264842 0.0035079683
-0.041211497 -0.009997941 -0.03254042 0.030991288 0.02200632 -0.03895122 -0.02643382 -0.013195598
0.0023121962 -0.009442173 0.01092402 0.02711868 -0.04069943 -0.007420122 0.033194933 0.038120214
-0.029496599 0.002576575 -0.017848417 -0.04085398 0.0018922564 0.031579293 0.00037651585 0.017672522
0.030553613 0.011200589 -0.023636982 0.027594049 -0.02178789 -0.012208614 0.017408112 0.0099911345
-0.0062556905 -0.01653642 0.013645252 -0.0020778028 0.023037575 -0.006663411 -0.026574811 0.01546949
-0.0010313821 0.035595544 0.0020974118 -0.036455065 -0.028071018 -0.0026281034 -0.031952053 -0.034672245
-0.037089854 0.003015889 0.03770039 -0.010181299 0.039228916 -0.00759202 -0.0410403 -0.032268617
-0.012112088 0.004183081 -0.015757777 0.017194103 0.03528131 0.01141537 0.033588562 -0.02299416
-0.008833848 0.011040232 -0.021438997 0.014153815 -0.025276821 0.007399525 -0.009667574 -0.024492279
-0.021718713 -0.012668487 -0.019779501 -0.0075574913 0.029199786 0.019540973 0.0077838297 -0.03872168
-0.005522742 0.0130506605 -0.0073999204 0.038378138 0.0067043644 -0.030360883 0.028122665 0.0026712993
0.019953204 -0.038322754 -0.020134753 -0.0040810043 0.039551865 -0.016848799 -0.020467276 -0.036260247
-0.040858578 0.026214603 -0.020644944 -0.009331945 -0.01627745 0.022885108 -0.016083673 -0.028098764
0.0338859 0.01953875 -0.028474856 -0.030884176 -0.017856518 0.0117096575 0.010956416 -0.018682316
00000000: ed43 9abc 7029 0a3d 4bfb a53c 7140 9abc
00000010: 9d4a dcbc f871 2cbb 487e 15bd 03af b33c
00000020: 6b70 053d 92a4 05bd 4794 03bd dc1e 43bc
00000030: c049 06bd 0213 08bc 15b7 693c f1e5 653b
00000040: 63cd 28bd 67ce 23bc 1a49 05bd 71e1 fd3c
00000050: 9946 b43c 518b 1fbd bd8b d8bc 5932 58bc
00000060: 3788 173b 58b3 1abc a9fa 323c fe27 de3c
00000070: 72b4 26bd 7f24 f3bb 69f7 073d f123 1c3d
00000080: daa2 f1bc c1db 283b d836 92bc 8156 27bd
00000090: 9705 f83a 4a59 013d 1a67 c539 f7c5 903c
000000a0: 924b fa3c ad82 373c 58a2 c1bc ea0c e23c
000000b0: 847c b2bc a306 48bc 759b 8e3c dbb1 233c
000000c0: 89fc ccbb 6377 87bc 5690 5f3c bf2b 08bb
000000d0: 4cb9 bc3c be58 dabb 6bb3 d9bc be73 7d3c
000000e0: 712f 87ba a2cc 113d bb74 093b e851 15bd
000000f0: 31f5 e5bc 423c 2cbb 28e0 02bd 7c04 0ebd
00000100: 88eb 17bd 39a6 453b b96b 1a3d 77cf 26bc
00000110: 80ae 203d 7bc6 f8bb e019 28bd 192c 04bd
00000120: c771 46bc 3a12 893b 7416 81bc a6da 8c3c
00000130: 2383 103d 8807 3b3c 2994 093d 405e bcbc
00000140: d8bb 10bc 17e2 343c d6a0 afbc 67e5 673c
00000150: 5611 cfbc b777 f23b bf64 1ebc 08a4 c8bc
00000160: 71eb b1bc 7c8f 4fbc 9f08 a2bc d5a4 f7bb
00000170: 6434 ef3c 6414 a03c 7f0f ff3b a09a 1ebd
00000180: 1ef8 b4bb 70d2 553c 087b f2bb 6532 1d3d
00000190: 49b0 db3b 63b7 f8bc 8161 e63c f710 2f3b
000001a0: e774 a33c 52f8 1cbd a3f1 a4bc f2b9 85bb
000001b0: 2301 223d 7e06 8abc fdaa a7bc a085 14bd
000001c0: 535b 27bd 02c0 d63c 961f a9bc 04e5 18bc
000001d0: 4958 85bc 8d79 bb3c e8c1 83bc 612f e6bc
000001e0: f1cb 0a3d bb0f a03c 1a44 e9bc d000 fdbc
000001f0: d547 92bc ddd9 3f3c 8a82 333c a80b 99bc

bn3.weight f4 [128]
1.034813 1.0257059 1.0478408 1.0545243 1.0524291 1.0347464 1.0254922 1.0495137
1.0342124 1.0715864 1.0201 1.051055 1.050914 1.0258099 1.0350561 1.0616268
1.0362405 1.0435886 1.0437258 1.0169681 1.0373096 1.0472479 1.0279853 1.0307481
1.0413572 1.0251021 1.0269761 1.0387806 1.0575496 1.0507765 1.007576 1.0728614
1.0492108 1.0238714 1.0518663 1.0302471 1.0256159 1.0176322 1.0539159 1.0275936
1.0447108 1.0011342 1.0557301 1.0315797 1.0478328 1.0453161 1.0327214 1.0336151
1.0518992 1.0242617 1.03568 1.012693 1.0353594 1.036456 1.0306314 1.0304419
1.0397724 1.0280043 1.063972 1.0164421 1.0332279 0.9913342 1.0518234 1.06187
1.039166 1.0261942 1.0417686 1.063072 1.007646 0.99686396 1.0484864 1.038961
1.0287663 1.0375153 1.0568318 1.0463965 1.0238837 1.0408452 1.0128627 1.0430201
1.0472566 1.0304964 1.0279127 1.045922 1.0424818 1.0047313 1.044074 1.0203997
1.0392348 1.0528526 1.0446709 1.0424144 1.0424513 1.0493698 1.0525614 1.0533264
1.0234026 1.0497956 1.0404303 1.0355014 1.0463606 1.0245711 1.044665 1.032739
1.033464 1.0277996 1.0508468 1.040716 1.0526586 1.0429499 1.0470973 1.0428345
1.0404464 1.019483 1.0230014 1.053854 1.0358205 1.0233243 1.0802548 1.0501728
1.0269914 1.0300198 1.0668509 1.0220156 1.0224092 1.0310897 1.0564555 1.0283365
00000000: c174 843f 554a 833f a61f 863f a7fa 863f
00000010: ffb5 863f 9272 843f 5443 833f 7756 863f
00000020: 1261 843f be29 893f a392 823f f888 863f
00000030: 5a84 863f bd4d 833f b87c 843f 63e3 873f
00000040: 87a3 843f 5094 853f cf98 853f 032c 823f
00000050: 90c6 843f 380c 863f 0695 833f 8eef 833f
00000060: 314b 853f 8c36 833f f473 833f c3f6 843f
00000070: c95d 873f d87f 863f 40f8 803f 8653 893f
00000080: 8a4c 863f 380e 833f 8ea3 863f 23df 833f
00000090: 6247 833f c641 823f b7e6 863f 3088 833f
000000a0: 15b9 853f 2a25 803f 2a22 873f ce0a 843f
000000b0: 631f 863f ebcc 853f 3730 843f 804d 843f
000000c0: a2a4 863f 021b 833f 2a91 843f ed9f 813f
000000d0: a886 843f 97aa 843f bbeb 833f 85e5 833f
000000e0: 4317 853f a595 833f 3c30 883f c61a 823f
000000f0: d040 843f 14c8 7d3f 26a2 863f 5beb 873f
00000100: 6403 853f 555a 833f ac58 853f be12 883f
00000110: 8bfa 803f 7a32 7f3f cd34 863f adfc 843f
00000120: 9dae 833f 4dcd 843f 4446 873f 52f0 853f
00000130: 9f0e 833f 6a3a 853f 7ca5 813f af81 853f
00000140: 810c 863f 4ee7 833f a592 833f c6e0 853f
00000150: 0b70 853f 099b 803f 38a4 853f 759c 823f
00000160: a505 853f e0c3 863f c7b7 853f d66d 853f
00000170: 0b6f 853f c051 863f 55ba 863f 66d3 863f
00000180: dbfe 823f b45f 863f d22c 853f 4f8b 843f
00000190: 25ef 853f 2525 833f 95b7 853f cb30 843f
000001a0: 8c48 843f f08e 833f 2682 863f 2f36 853f
000001b0: 84bd 863f 627f 853f 4907 863f 9a7b 853f
000001c0: 592d 853f 6b7e 823f b6f1 823f b0e4 863f
000001d0: c495 843f 4afc 823f ca45 8a3f 106c 863f
000001e0: 7474 833f b0d7 833f 928e 883f 68d1 823f
000001f0: 4ede 823f bffa 833f ef39 873f 88a0 833f

bn3.bias f4 [128]
0.017196858 0.0018596869 0.022495518 0.021229533 0.00705405 0.01013106 0.0067894193 0.022441287
0.0031298487 0.02438513 0.008560329 0.014958918 0.026133522 0.0021334144 0.017241532 0.017657576
0.014563031 0.020493934 0.031523526 0.01178557 0.01907322 0.027826581 0.012422004 0.005183199
0.018956544 0.004689818 -0.0016710229 0.009678713 0.04487841 0.018950151 -0.0017414829 0.038167313
0.03355881 0.0061267633 0.029368358 0.016003367 0.005093604 -0.00080779084 0.012311482 -0.00074187684
0.020542473 -0.0083503695 0.0064931656 0.0020868864 0.024458883 0.027755465 0.009993757 0.026073888
0.021838736 0.016946469 0.02489317 -0.0017035519 0.009951951 0.0003234475 -0.0016118916 0.011690222
0.009900609 0.0069786008 0.016155155 0.01002027 0.006790461 -0.014601375 0.034376852 0.019412052
0.004871202 0.011481849 0.016072968 0.03437096 -0.008512919 -0.027213452 0.02249653 0.018999575
0.0033660724 0.019070843 0.010375495 0.026790474 0.008871597 0.012960662 -0.005311258 0.03149446
0.016647238 0.012394062 0.01952059 -0.0106270695 0.015801374 -0.0005323615 0.00060178764 0.0074383463
0.027815616 0.029854313 0.010745379 0.013996617 0.032439593 -0.0022904626 0.018037654 0.022468064
0.0031438328 0.020154567 0.014521026 0.021788552 0.026802164 0.016510602 0.029057886 0.0006595273
0.0053280587 0.015949167 0.033858392 0.007583945 0.029881475 0.015283098 0.0344521 0.015545449
0.02476983 0.011130238 0.011220102 0.027033454 0.014533539 0.014072742 0.045713004 0.012903845
0.021331038 -0.01023409 0.035919715 0.017826566 0.007713421 0.026047908 0.034254774 0.01600904
00000000: 6de0 8c3c bdc0 f33a 8548 b83c 8fe9 ad3c
00000010: a925 e73b bffc 253c c779 de3b cad6 b73c
00000020: 261e 4d3b 53c3 c73c 9f40 0c3c 4016 753c
00000030: f815 d63c c1d0 0b3b 1d3e 8d3c 9fa6 903c
00000040: c799 6e3c e5e2 a73c d01e 013d 4318 413c
00000050: 713f 9c3c 92f4 e33c a985 4b3c d3d7 a93b
00000060: c14a 9b3c 0bad 993b 3906 dbba 7793 1e3c
00000070: 6cd2 373d 593d 9b3c 7842 e4ba 5455 1c3d
00000080: f674 093d 04c3 c83b e995 f03c 7e19 833c
00000090: 3fe8 a63b edc1 53ba 19b6 493c 837a 42ba
000000a0: b048 a83c fdcf 08bc 9fc4 d43b 25c4 083b
000000b0: ff5d c83c 6e5f e33c dbbc 233c e898 d53c
000000c0: 26e7 b23c 52d3 8a3c c3ec cb3c b749 dfba
000000d0: 820d 233c 6394 a939 1b46 d3ba 5888 3f3c
000000e0: 2a36 223c bfac e43b d157 843c 0f2c 243c
000000f0: 8482 de3b 9b3a 6fbc bece 0c3d 0606 9f3c
00000100: 9b9e 9f3b 5d1e 3c3c 75ab 833c 90c8 0c3d
00000110: c579 0bbc bfee debc a54a b83c ffa4 9b3c
00000120: 5399 5c3b 753a 9c3c fbfd 293c b277 db3c
00000130: 2d5a 113c f558 543c 100a aebb 5600 013d
00000140: ca5f 883c 7710 4b3c a5e9 9f3c 291d 2ebc
00000150: e271 813c 2d8e 0bba 49c1 1d3a 5fbd f33b
00000160: 93dd e33c 0891 f43c 630d 303c 1152 653c
00000170: 61df 043d 961b 16bb b4c3 933c f20e b83c
00000180: c308 4e3b 311b a53c 99e9 6d3c e87d b23c
00000190: 3690 db3c 3e41 873c ce0a ee3c 21e4 2c3a
000001a0: ff96 ae3b d4a7 823c 19af 0a3d be82 f83b
000001b0: ffc9 f43c f665 7a3c a51d 0d3d 57b2 7e3c
000001c0: 19ea ca3c 9a5b 363c 85d4 373c 4375 dd3c
000001d0: 151e 6e3c 5c91 663c 8f3d 3b3d a66a 533c
000001e0: 6ebe ae3c e2ac 27bc 8d20 133d 0509 923c
000001f0: ddc0 fc3b 6c62 d53c bc4e 0c3d 6425 833c
