built_models/esc50_esc50cnn_model_fold1_20250430_202925.pth (torch, 654357 bytes, 24 tensors)

mel_transform.spectrogram.window f4 [1024]
0	0x00000000	0.0
1	0x371e0000	9.417534e-06
2	0x381de000	3.7640333e-05
3	0x38b1a000	8.46982e-05
4	0x391de800	0.00015059114
5	0x3976b800	0.00023528934
6	0x39b1a400	0.0003388226
7	0x39f1c400	0.00046113133
8	0x3a1de200	0.00060227513
9	0x3a47d000	0.0007622242
10	0x3a76aa00	0.0009409487
11	0x3a953900	0.0011384785
12	0x3ab19300	0.0013547838
13	0x3ad06300	0.0015898645
14	0x3af1a800	0.0018436909
15	0x3b0ab180	0.0021162927
16	0x3b1dc980	0.0024076402
17	0x3b321b80	0.0027177036
18	0x3b47a800	0.0030465126
19	0x3b5e6e80	0.0033940375
20	0x3b766e80	0.0037602484
21	0x3b87d3c0	0.0041451156
22	0x3b950d40	0.0045486987
23	0x3ba2e300	0.004970908
24	0x3bb15500	0.005411744
25	0x3bc06340	0.0058712065
26	0x3bd00dc0	0.0063492954
27	0x3be05400	0.006845951
28	0x3bf13600	0.0073611736
29	0x3c0159e0	0.007894963
30	0x3c0a6660	0.00844726
31	0x3c13c080	0.009018064
32	0x3c1d6820	0.009607345
33	0x3c275d40	0.010215104
34	0x3c319fc0	0.01084131
35	0x3c3c2f80	0.011485934
36	0x3c470c60	0.0121489465
37	0x3c523640	0.012830317
38	0x3c5dad00	0.013530016
39	0x3c6970a0	0.014248043
40	0x3c758100	0.014984369
41	0x3c80ef00	0.015738964
42	0x3c8743b0	0.016511768
43	0x3c8dbe90	0.017302781
44	0x3c945f90	0.018111974
45	0x3c9b2690	0.018939286
46	0x3ca213a0	0.019784749
47	0x3ca92690	0.02064827
48	0x3cb05f50	0.021529824
49	0x3cb7bde0	0.022429407
50	0x3cbf4230	0.02334699
51	0x3cc6ec10	0.024282485
52	0x3ccebb90	0.025235921
53	0x3cd6b080	0.026207209
54	0x3cdecae0	0.027196348
55	0x3ce70a90	0.028203279
56	0x3cef6f80	0.029227972
57	0x3cf7f9a0	0.030270398
58	0x3d005468	0.031330496
59	0x3d04be80	0.032408237
60	0x3d093b10	0.033503592
61	0x3d0dca10	0.03461653
62	0x3d126b68	0.03574696
63	0x3d171f18	0.036894888
64	0x3d1be510	0.038060248
65	0x3d20bd40	0.039242983
66	0x3d25a7a0	0.040443063
67	0x3d2aa428	0.041660458
68	0x3d2fb2d0	0.04289514
69	0x3d34d378	0.044146985
70	0x3d3a0628	0.045416027
71	0x3d3f4ac0	0.046702147
72	0x3d44a140	0.048005342
73	0x3d4a09a0	0.049325585
74	0x3d4f83c0	0.050662756
75	0x3d550fa8	0.052016884
76	0x3d5aad38	0.05338785
77	0x3d605c68	0.054775625
78	0x3d661d38	0.05618021
79	0x3d6bef80	0.057601452
80	0x3d71d348	0.059039384
81	0x3d77c870	0.060493886
82	0x3d7dcef8	0.06196496
83	0x3d81f364	0.06345251
84	0x3d8507ec	0.064956516
85	0x3d882508	0.06647688
86	0x3d8b4ab4	0.06801358
87	0x3d8e78e8	0.06956655
88	0x3d91af98	0.0711357
89	0x3d94eec0	0.072721004
90	0x3d983658	0.0743224
91	0x3d9b8658	0.075939834
92	0x3d9edeb4	0.07757321
93	0x3da23f6c	0.07922253
94	0x3da5a86c	0.080887645
95	0x3da919b8	0.082568586
96	0x3dac933c	0.0842652
97	0x3db014f8	0.085977495
98	0x3db39ee0	0.087705374
99	0x3db730e8	0.08944875
100	0x3dbacb0c	0.09120759
101	0x3dbe6d44	0.092981845
102	0x3dc21784	0.094771415
103	0x3dc5c9c0	0.096576214
104	0x3dc983f8	0.09839624
105	0x3dcd461c	0.10023138
106	0x3dd11020	0.10208154
107	0x3dd4e204	0.103946716
108	0x3dd8bbb8	0.105826795
109	0x3ddc9d30	0.10772169
110	0x3de0866c	0.10963139
111	0x3de4775c	0.111555785
112	0x3de86ff4	0.11349478
113	0x3dec702c	0.115448326
114	0x3df07800	0.11741638
115	0x3df48760	0.11939883
116	0x3df89e40	0.12139559
117	0x3dfcbc9c	0.12340662
118	0x3e007132	0.1254318
119	0x3e0287ca	0.12747112
120	0x3e04a20e	0.12952444
121	0x3e06bffc	0.13159174
122	0x3e08e18c	0.1336729
123	0x3e0b06b8	0.13576782
124	0x3e0d2f7c	0.13787645
125	0x3e0f5bd6	0.13999876
126	0x3e118bbc	0.1421346
127	0x3e13bf28	0.14428389
128	0x3e15f61a	0.14644662
129	0x3e183088	0.14862263
130	0x3e1a6e6e	0.15081188
131	0x3e1cafc6	0.15301427
132	0x3e1ef48c	0.15522975
133	0x3e213cb8	0.15745819
134	0x3e238844	0.1596995
135	0x3e25d72e	0.16195366
136	0x3e28296e	0.16422054
137	0x3e2a7efc	0.16650003
138	0x3e2cd7d8	0.16879213
139	0x3e2f33f6	0.17109665
140	0x3e319356	0.1734136
141	0x3e33f5ec	0.1757428
142	0x3e365bb6	0.17808422
143	0x3e38c4b0	0.1804378
144	0x3e3b30ce	0.18280336
145	0x3e3da010	0.1851809
146	0x3e40126c	0.18757027
147	0x3e4287de	0.18997142
148	0x3e45005e	0.19238421
149	0x3e477be8	0.1948086
150	0x3e49fa76	0.1972445
151	0x3e4c7c00	0.19969177
152	0x3e4f0080	0.20215034
153	0x3e5187f2	0.20462015
154	0x3e54124e	0.20710108
155	0x3e569f8e	0.20959303
156	0x3e592fac	0.21209592
157	0x3e5bc2a2	0.21460965
158	0x3e5e5866	0.21713409
159	0x3e60f0f8	0.21966922
160	0x3e638c4e	0.2222149
161	0x3e662a60	0.22477102
162	0x3e68cb2a	0.22733751
163	0x3e6b6ea4	0.22991425
164	0x3e6e14ca	0.23250118
165	0x3e70bd94	0.23509818
166	0x3e7368fc	0.23770517
167	0x3e7616fa	0.24032202
168	0x3e78c788	0.24294865
169	0x3e7b7aa0	0.24558496
170	0x3e7e3036	0.24823079
171	0x3e807426	0.25088614
172	0x3e81d16c	0.2535509
173	0x3e832fea	0.25622493
174	0x3e848f9c	0.25890815
175	0x3e85f07d	0.2616004
176	0x3e87528c	0.26430166
177	0x3e88b5c4	0.26701176
178	0x3e8a1a22	0.26973063
179	0x3e8b7fa4	0.2724582
180	0x3e8ce646	0.27519435
181	0x3e8e4e04	0.27793896
182	0x3e8fb6da	0.28069192
183	0x3e9120c4	0.2834531
184	0x3e928bc0	0.28622246
185	0x3e93f7ca	0.28899986
186	0x3e9564e0	0.29178524
187	0x3e96d2fc	0.29457843
188	0x3e98421c	0.29737937
189	0x3e99b23c	0.30018795
190	0x3e9b2358	0.30300403
191	0x3e9c956b	0.30582747
192	0x3e9e0876	0.3086583
193	0x3e9f7c72	0.31149632
194	0x3ea0f15c	0.31434143
195	0x3ea26730	0.3171935
196	0x3ea3ddec	0.3200525
197	0x3ea5558c	0.3229183
198	0x3ea6ce08	0.32579064
199	0x3ea84763	0.32866964
200	0x3ea9c196	0.33155507
201	0x3eab3c9e	0.33444685
202	0x3eacb878	0.33734488
203	0x3eae351e	0.340249
204	0x3eafb28f	0.34315917
205	0x3eb130c4	0.34607518
206	0x3eb2afbd	0.34899703
207	0x3eb42f75	0.35192457
208	0x3eb5afe8	0.35485768
209	0x3eb73112	0.35779625
210	0x3eb8b2f0	0.36074018
211	0x3eba357e	0.36368936
212	0x3ebbb8b6	0.3666436
213	0x3ebd3c99	0.36960295
214	0x3ebec120	0.37256718
215	0x3ec04648	0.3755362
216	0x3ec1cc0e	0.37850994
217	0x3ec3526d	0.38148823
218	0x3ec4d960	0.38447094
219	0x3ec660e6	0.38745803
220	0x3ec7e8fc	0.3904494
221	0x3ec9719b	0.39344487
222	0x3ecafac0	0.39644432
223	0x3ecc8469	0.3994477
224	0x3ece0e91	0.40245488
225	0x3ecf9932	0.40546566
226	0x3ed1244c	0.40848005
227	0x3ed2afda	0.4114979
228	0x3ed43bd8	0.41451907
229	0x3ed5c842	0.41754347
230	0x3ed75514	0.42057097
231	0x3ed8e24a	0.42360145
232	0x3eda6fdf	0.42663476
233	0x3edbfdd2	0.42967087
234	0x3edd8c1f	0.43270966
235	0x3edf1ac0	0.43575096
236	0x3ee0a9b2	0.43879467
237	0x3ee238f2	0.4418407
238	0x3ee3c87c	0.44488895
239	0x3ee55849	0.4479392
240	0x3ee6e859	0.45099142
241	0x3ee878a8	0.45404553
242	0x3eea0931	0.45710137
243	0x3eeb99f0	0.46015882
244	0x3eed2ae1	0.46321777
245	0x3eeebc00	0.46627808
246	0x3ef04d49	0.46933964
247	0x3ef1deba	0.4724024
248	0x3ef3704d	0.47546616
249	0x3ef50200	0.47853088
250	0x3ef693ce	0.4815964
251	0x3ef825b3	0.48466262
252	0x3ef9b7ac	0.48772943
253	0x3efb49b2	0.49079663
254	0x3efcdbc6	0.49386424
255	0x3efe6de1	0.49693206

mel_transform.mel_scale.fb f4 [513, 40]
0	0x80000000	-0.0
1	0x00000000	0.0
2	0x00000000	0.0
3	0x00000000	0.0
4	0x00000000	0.0
5	0x00000000	0.0
6	0x00000000	0.0
7	0x00000000	0.0
8	0x00000000	0.0
9	0x00000000	0.0
10	0x00000000	0.0
11	0x00000000	0.0
12	0x00000000	0.0
13	0x00000000	0.0
14	0x00000000	0.0
15	0x00000000	0.0
16	0x00000000	0.0
17	0x00000000	0.0
18	0x00000000	0.0
19	0x00000000	0.0
20	0x00000000	0.0
21	0x00000000	0.0
22	0x00000000	0.0
23	0x00000000	0.0
24	0x00000000	0.0
25	0x00000000	0.0
26	0x00000000	0.0
27	0x00000000	0.0
28	0x00000000	0.0
29	0x00000000	0.0
30	0x00000000	0.0
31	0x00000000	0.0
32	0x00000000	0.0
33	0x00000000	0.0
34	0x00000000	0.0
35	0x00000000	0.0
36	0x00000000	0.0
37	0x00000000	0.0
38	0x00000000	0.0
39	0x00000000	0.0
40	0x3f31bb11	0.69426066
41	0x00000000	0.0
42	0x00000000	0.0
43	0x00000000	0.0
44	0x00000000	0.0
45	0x00000000	0.0
46	0x00000000	0.0
47	0x00000000	0.0
48	0x00000000	0.0
49	0x00000000	0.0
50	0x00000000	0.0
51	0x00000000	0.0
52	0x00000000	0.0
53	0x00000000	0.0
54	0x00000000	0.0
55	0x00000000	0.0
56	0x00000000	0.0
57	0x00000000	0.0
58	0x00000000	0.0
59	0x00000000	0.0
60	0x00000000	0.0
61	0x00000000	0.0
62	0x00000000	0.0
63	0x00000000	0.0
64	0x00000000	0.0
65	0x00000000	0.0
66	0x00000000	0.0
67	0x00000000	0.0
68	0x00000000	0.0
69	0x00000000	0.0
70	0x00000000	0.0
71	0x00000000	0.0
72	0x00000000	0.0
73	0x00000000	0.0
74	0x00000000	0.0
75	0x00000000	0.0
76	0x00000000	0.0
77	0x00000000	0.0
78	0x00000000	0.0
79	0x00000000	0.0
80	0x3f24a294	0.64310575
81	0x3eb6bad8	0.35689425
82	0x00000000	0.0
83	0x00000000	0.0
84	0x00000000	0.0
85	0x00000000	0.0
86	0x00000000	0.0
87	0x00000000	0.0
88	0x00000000	0.0
89	0x00000000	0.0
90	0x00000000	0.0
91	0x00000000	0.0
92	0x00000000	0.0
93	0x00000000	0.0
94	0x00000000	0.0
95	0x00000000	0.0
96	0x00000000	0.0
97	0x00000000	0.0
98	0x00000000	0.0
99	0x00000000	0.0
100	0x00000000	0.0
101	0x00000000	0.0
102	0x00000000	0.0
103	0x00000000	0.0
104	0x00000000	0.0
105	0x00000000	0.0
106	0x00000000	0.0
107	0x00000000	0.0
108	0x00000000	0.0
109	0x00000000	0.0
110	0x00000000	0.0
111	0x00000000	0.0
112	0x00000000	0.0
113	0x00000000	0.0
114	0x00000000	0.0
115	0x00000000	0.0
116	0x00000000	0.0
117	0x00000000	0.0
118	0x00000000	0.0
119	0x00000000	0.0
120	0x3bafa669	0.005360414
121	0x3f7ea0b3	0.9946396
122	0x00000000	0.0
123	0x00000000	0.0
124	0x00000000	0.0
125	0x00000000	0.0
126	0x00000000	0.0
127	0x00000000	0.0
128	0x00000000	0.0
129	0x00000000	0.0
130	0x00000000	0.0
131	0x00000000	0.0
132	0x00000000	0.0
133	0x00000000	0.0
134	0x00000000	0.0
135	0x00000000	0.0
136	0x00000000	0.0
137	0x00000000	0.0
138	0x00000000	0.0
139	0x00000000	0.0
140	0x00000000	0.0
141	0x00000000	0.0
142	0x00000000	0.0
143	0x00000000	0.0
144	0x00000000	0.0
145	0x00000000	0.0
146	0x00000000	0.0
147	0x00000000	0.0
148	0x00000000	0.0
149	0x00000000	0.0
150	0x00000000	0.0
151	0x00000000	0.0
152	0x00000000	0.0
153	0x00000000	0.0
154	0x00000000	0.0
155	0x00000000	0.0
156	0x00000000	0.0
157	0x00000000	0.0
158	0x00000000	0.0
159	0x00000000	0.0
160	0x00000000	0.0
161	0x3ed69377	0.41909382
162	0x3f14b644	0.58090615
163	0x00000000	0.0
164	0x00000000	0.0
165	0x00000000	0.0
166	0x00000000	0.0
167	0x00000000	0.0
168	0x00000000	0.0
169	0x00000000	0.0
170	0x00000000	0.0
171	0x00000000	0.0
172	0x00000000	0.0
173	0x00000000	0.0
174	0x00000000	0.0
175	0x00000000	0.0
176	0x00000000	0.0
177	0x00000000	0.0
178	0x00000000	0.0
179	0x00000000	0.0
180	0x00000000	0.0
181	0x00000000	0.0
182	0x00000000	0.0
183	0x00000000	0.0
184	0x00000000	0.0
185	0x00000000	0.0
186	0x00000000	0.0
187	0x00000000	0.0
188	0x00000000	0.0
189	0x00000000	0.0
190	0x00000000	0.0
191	0x00000000	0.0
192	0x00000000	0.0
193	0x00000000	0.0
194	0x00000000	0.0
195	0x00000000	0.0
196	0x00000000	0.0
197	0x00000000	0.0
198	0x00000000	0.0
199	0x00000000	0.0
200	0x00000000	0.0
201	0x00000000	0.0
202	0x3f58ca45	0.8468364
203	0x3e1cd6ee	0.15316364
204	0x00000000	0.0
205	0x00000000	0.0
206	0x00000000	0.0
207	0x00000000	0.0
208	0x00000000	0.0
209	0x00000000	0.0
210	0x00000000	0.0
211	0x00000000	0.0
212	0x00000000	0.0
213	0x00000000	0.0
214	0x00000000	0.0
215	0x00000000	0.0
216	0x00000000	0.0
217	0x00000000	0.0
218	0x00000000	0.0
219	0x00000000	0.0
220	0x00000000	0.0
221	0x00000000	0.0
222	0x00000000	0.0
223	0x00000000	0.0
224	0x00000000	0.0
225	0x00000000	0.0
226	0x00000000	0.0
227	0x00000000	0.0
228	0x00000000	0.0
229	0x00000000	0.0
230	0x00000000	0.0
231	0x00000000	0.0
232	0x00000000	0.0
233	0x00000000	0.0
234	0x00000000	0.0
235	0x00000000	0.0
236	0x00000000	0.0
237	0x00000000	0.0
238	0x00000000	0.0
239	0x00000000	0.0
240	0x00000000	0.0
241	0x00000000	0.0
242	0x3e9e0d2b	0.3086942
243	0x3f30f96a	0.69130576
244	0x00000000	0.0
245	0x00000000	0.0
246	0x00000000	0.0
247	0x00000000	0.0
248	0x00000000	0.0
249	0x00000000	0.0
250	0x00000000	0.0
251	0x00000000	0.0
252	0x00000000	0.0
253	0x00000000	0.0
254	0x00000000	0.0
255	0x00000000	0.0

conv1.weight f4 [32, 1, 3, 3]
0	0x3e869666	0.2628662
1	0xbda65fdf	-0.08123755
2	0xbe8abc78	-0.27096915
3	0xbe7a3067	-0.24432527
4	0xbda37b23	-0.07982471
5	0xbdba9137	-0.09109729
6	0xbe528679	-0.2055911
7	0x3eab63da	0.33474618
8	0xbdc65fca	-0.09686239
9	0x3e877ac6	0.26460856
10	0xbe835a25	-0.25654712
11	0x3cbd7f01	0.02313185
12	0x3dabcba3	0.0838845
13	0x3dc7e93d	0.097612835
14	0x3e6f7277	0.23383509
15	0x3e6087fd	0.21926875
16	0x3e72e7b7	0.23721205
17	0x3d914314	0.07092872
18	0xbd42fd2f	-0.047604736
19	0xbe0fd570	-0.14046264
20	0xbe9af6f4	-0.30266535
21	0x3d2ef4fb	0.0427141
22	0x3d99dd17	0.07512873
23	0x3e3caabf	0.1842451
24	0x3e793d25	0.24339731
25	0x3e41fc34	0.18943864
26	0x3e18478b	0.14871041
27	0xbe81adf3	-0.25328025
28	0x3e9d8b27	0.30770227
29	0x3d7539fc	0.05986975
30	0x3e8e77eb	0.27825865
31	0x3e1a3749	0.15060152
32	0xbe3c212c	-0.18372029
33	0xbe492777	-0.19643961
34	0x3c99e748	0.018787041
35	0x3c048eb5	0.008090665
36	0xbda64dfe	-0.081203446
37	0xbe2ab20e	-0.16669485
38	0x3e4536fd	0.19259258
39	0xbc8eb9c5	-0.017422566
40	0x3d628ef0	0.055312097
41	0xbdcf834d	-0.101324655
42	0xbe88820c	-0.26661718
43	0x3da25641	0.07926608
44	0x3e92c577	0.2866628
45	0x3ea181d3	0.3154436
46	0x3e9497d1	0.29022077
47	0x3dbbd709	0.09171874
48	0xbe22895f	-0.15872715
49	0xbd8af09e	-0.06784175
50	0x3dfe91b2	0.12430133
51	0xbe05c2db	-0.13062613
52	0x3e66d2ba	0.22541323
53	0xbdf34b10	-0.118795514
54	0xbbb760a8	-0.005596239
55	0xbd92247b	-0.07135864
56	0xbe571f86	-0.21008119
57	0xbe5b3a44	-0.21408945
58	0xbd951a32	-0.07280387
59	0x3d01ca83	0.03168727
60	0xbda95add	-0.08269284
61	0x3e4a7048	0.19769394
62	0x3ddc6090	0.10760605
63	0xbc8c2446	-0.01710714
64	0xbe42d2cd	-0.19025727
65	0x3e179375	0.14802344
66	0xbe1969a4	-0.14981705
67	0x3e4c4000	0.19946289
68	0x3e6b285d	0.22964616
69	0x3d9641d8	0.073367774
70	0xbc6befa3	-0.014400396
71	0xbe93ccd8	-0.2886722
72	0x3e73735b	0.23774473
73	0x3dce1770	0.10063064
74	0xbe1deef4	-0.15423185
75	0x3e6ddd29	0.23228897
76	0x3dd637c8	0.10459858
77	0xbe85b766	-0.26116484
78	0x3d72118d	0.05909877
79	0x3dabb860	0.08384776
80	0x3e09efc1	0.13470365
81	0x3e3c33dd	0.1837916
82	0xbd8e6e3f	-0.069546215
83	0x3e11d289	0.14240469
84	0x3eacc1a4	0.33741486
85	0x3e5b7204	0.21430212
86	0x3c1b35ef	0.009473308
87	0x3ea4b6f6	0.32170838
88	0xbe2834cd	-0.16426392
89	0xbda6523f	-0.08121156
90	0xbdb34f7f	-0.08755397
91	0x3de03034	0.10946694
92	0x3e8736d5	0.2640902
93	0x3e2ab2a0	0.16669703
94	0xbc81ec61	-0.015859785
95	0xbdcbb76c	-0.09947094
96	0xbe39a3db	-0.18128912
97	0x3e55a4db	0.20863669
98	0x3e7a9ced	0.24473925
99	0xbcdbfd0f	-0.026854066
100	0xbe62a7cd	-0.22134323
101	0xbda09509	-0.07840926
102	0xbe0f72ab	-0.14008586
103	0xbd9b8694	-0.07594028
104	0x3db2e491	0.08735002
105	0x3e107636	0.14107594
106	0x3e93fd10	0.2890401
107	0x3e4a5608	0.19759381
108	0x3c890ebb	0.016730657
109	0x3ea50bc2	0.32235533
110	0x3e2944d8	0.16530168
111	0xbe46ea45	-0.19425304
112	0x3e4215e5	0.18953665
113	0xbe8ada4f	-0.2711968
114	0xbe7f8a7b	-0.2495517
115	0xbe9ea302	-0.3098374
116	0x3ea70e02	0.32627875
117	0x3df37403	0.11887362
118	0x3ea80087	0.32812902
119	0x3d6854fa	0.056721665
120	0x3e96eb69	0.2947648
121	0x3e79c7a6	0.24392566
122	0x3e3bb00a	0.18328872
123	0x3e899553	0.26871738
124	0xbcc96c86	-0.02458788
125	0xbd1b7959	-0.037957523
126	0x3e450594	0.19240409
127	0xbdc7b053	-0.09750428
128	0x3e843272	0.25819737
129	0x3c19efe0	0.00939557
130	0xbe4afcfd	-0.1982307
131	0x3dec611a	0.11541958
132	0xbe746660	-0.23867178
133	0x3e68d067	0.22735749
134	0x3d92c4df	0.071664564
135	0xbe8fadf2	-0.28062397
136	0x3e97a2fa	0.2961653
137	0xbd36e164	-0.044648543
138	0x3eac16c4	0.3361112
139	0x3e9c96e8	0.30583882
140	0xbe0b0d4f	-0.13579296
141	0xbe2695ae	-0.16268036
142	0xbe1c0b81	-0.15238763
143	0x3e88be26	0.26707572
144	0xbe886bcb	-0.2664474
145	0xbe4b903e	-0.19879243
146	0x3e241adb	0.1602587
147	0x3eab7ea4	0.33495057
148	0xbde18150	-0.110109925
149	0xbd85ee45	-0.06539587
150	0xbb836685	-0.004010024
151	0x3e6f9e74	0.23400289
152	0xbe99eedd	-0.3006505
153	0xbc8be06e	-0.01707479
154	0xbe87db15	-0.26534334
155	0x3d32a1ec	0.043611452
156	0xbda11ac2	-0.07866432
157	0xbdf22306	-0.118230864
158	0x3d8c3d40	0.0684762
159	0x3e00296b	0.125158
160	0x3d5f7478	0.054554433
161	0xbe90ba03	-0.28266916
162	0x3deec48a	0.116585806
163	0x3e629e63	0.22130732
164	0xbe1ca708	-0.15298092
165	0xbd490fe8	-0.049087435
166	0xbe9b6aee	-0.30355018
167	0x3e77731a	0.24165002
168	0xbe27d586	-0.16390046
169	0xbc81dc56	-0.015852135
170	0xbe5a1533	-0.2129715
171	0x3d7e8039	0.062134
172	0x3e98c52d	0.29837933
173	0x3e38aba0	0.1803422
174	0xbde93598	-0.11387175
175	0x3e9a6ace	0.3015961
176	0xbe1cc48e	-0.15309355
177	0xbe0239ba	-0.12717333
178	0xbe98844b	-0.29788432
179	0xbe6637e4	-0.22482258
180	0xbc2c9645	-0.010533874
181	0x3d8a9cc2	0.067681804
182	0x3da822b2	0.082097426
183	0xbdd0cfcf	-0.10195886
184	0xbe217f55	-0.1577123
185	0x3e8e2313	0.27761135
186	0xbe5a1edf	-0.21300839
187	0x3d56c988	0.05243829
188	0x3d6e4888	0.05817464
189	0x3eb2be1d	0.3491067
190	0x3d50644e	0.050876908
191	0xbe75b975	-0.23996527
192	0x3e69dfd3	0.22839288
193	0x3d7603a2	0.06006206
194	0xbdf9fb3d	-0.12206123
195	0xbddb1ad9	-0.1069848
196	0xbe9308a2	-0.28717524
197	0xbbf3540b	-0.00742579
198	0xbe89d7e0	-0.26922512
199	0xbced3d18	-0.028959796
200	0x3d7fba57	0.062433567
201	0x3e253417	0.16133152
202	0x3da86ef1	0.082242854
203	0x3e48c463	0.19606166
204	0xbe853ef1	-0.26024583
205	0x3e9c7542	0.3055821
206	0x3d9e8c1c	0.077415675
207	0x3e25c8ba	0.16189852
208	0x3d705d9e	0.05868303
209	0x3ea40372	0.3203388
210	0xbcd4fdcc	-0.025999926
211	0x3e11c1fc	0.14234155
212	0x3e110982	0.14163783
213	0x3c846ef0	0.01616618
214	0xbc20deae	-0.009818716
215	0xbe58ae27	-0.21160184
216	0xbde9147f	-0.113808624
217	0x3e705eee	0.23473713
218	0xbe949975	-0.29023328
219	0xbdf881d8	-0.12134141
220	0x3d3a9098	0.04554805
221	0xbdd77417	-0.10520189
222	0xbe960c16	-0.29306096
223	0x3d8073a7	0.06272059
224	0x3e7e33c7	0.24824439
225	0x3db4bed8	0.08825463
226	0x3e76bf26	0.24096355
227	0x3cd382d0	0.025819212
228	0x3e59ca34	0.2126854
229	0xbd8b3f32	-0.06799163
230	0xbd3935ac	-0.0452172
231	0xbe3ae317	-0.1825069
232	0xbe642844	-0.22280985
233	0xbd7cca09	-0.061716113
234	0xbe8aec59	-0.27133444
235	0xbd8d6281	-0.06903554
236	0xbe8f109f	-0.27942368
237	0x3e922e1d	0.28550807
238	0xbc990a8f	-0.018681793
239	0xbe768a9a	-0.2407631
240	0x3e4b200a	0.1983644
241	0x3e59836b	0.21241538
242	0x3e69b313	0.22822218
243	0xbe236735	-0.15957339
244	0x3dea68aa	0.11445744
245	0x3e741d74	0.2383936
246	0x3ea28978	0.31745505
247	0x3da2380a	0.07920845
248	0x3d2bbc84	0.04192783
249	0x3df90114	0.12158409
250	0x3e2d1ce6	0.16905555
251	0xbc0931b8	-0.00837367
252	0x3e196326	0.14979228
253	0x3e06fc92	0.13182285
254	0x3e8e3423	0.27774152
255	0x3e5e323e	0.21698853

conv1.bias f4 [32]
0	0xbc2dac32	-0.010600137
1	0x3e5387b2	0.20657232
2	0x3e5eb38f	0.21748184
3	0x3dc88487	0.097909026
4	0x3d96afd9	0.07357759
5	0xbe27905a	-0.1636366
6	0xbe16ca65	-0.14725645
7	0x3d563649	0.052297864
8	0xbdacd3af	-0.08438813
9	0x3ea62207	0.32447836
10	0x3d8038a7	0.062608056
11	0x3e9311d5	0.28724542
12	0x3da4ddda	0.08050127
13	0xbdedad6b	-0.116053425
14	0x3e21cbc4	0.15800387
15	0xbe87178e	-0.26385158
16	0x3e2c90d4	0.16852123
17	0x3e9a2467	0.30105898
18	0x3e5cab5e	0.21549746
19	0x3e6226b8	0.22085083
20	0x3e8aa635	0.2707993
21	0xbea07b2c	-0.31343973
22	0xbe384191	-0.17993762
23	0x3e93412e	0.28760666
24	0x3e04d64c	0.12972373
25	0x3c700822	0.0146503765
26	0x3e8af365	0.2713882
27	0x3e3842db	0.17994253
28	0x3dbafc51	0.09130157
29	0x3e44c2f6	0.19214997
30	0x3d9a253f	0.075266354
31	0xbca25ba9	-0.019819098

bn1.weight f4 [32]
0	0x3f800b32	1.0003417
1	0x3f79d892	0.97596085
2	0x3f80e708	1.0070505
3	0x3f80d619	1.0065337
4	0x3f7ed43f	0.9954261
5	0x3f7c4e80	0.9855728
6	0x3f80d882	1.0066073
7	0x3f804ccb	1.0023435
8	0x3f7f1abd	0.99650174
9	0x3f8038d1	1.0017339
10	0x3f7ac60a	0.97958434
11	0x3f812daa	1.009206
12	0x3f806931	1.0032102
13	0x3f7ca572	0.9868995
14	0x3f7c7dc9	0.9862943
15	0x3f7d3094	0.9890225
16	0x3f81a24d	1.0127655
17	0x3f811c9f	1.008686
18	0x3f7f4592	0.9971553
19	0x3f8069a5	1.003224
20	0x3f81a470	1.0128307
21	0x3f820f90	1.0160999
22	0x3f76438e	0.9619683
23	0x3f815d44	1.0106587
24	0x3f7825e7	0.96932834
25	0x3f8332c6	1.024987
26	0x3f82f8ab	1.0232137
27	0x3f7b5091	0.9816981
28	0x3f7a6b2b	0.97819775
29	0x3f7c2be9	0.985045
30	0x3f81d939	1.0144416
31	0x3f80e4d8	1.0069838

bn1.bias f4 [32]
0	0x3c5c5974	0.013449062
1	0x3c7690de	0.0150491875
2	0xbcbba84d	-0.0229074
3	0x3bffb8eb	0.0078040264
4	0x3c082b57	0.008311114
5	0xbd1fac23	-0.03898252
6	0x3cb2ff11	0.02185014
7	0x3ce7d4f9	0.028299795
8	0xbc3edd29	-0.011649408
9	0xbba10eab	-0.0049150786
10	0xbcce100f	-0.025154142
11	0xbd24f123	-0.04026903
12	0x3cce02fb	0.025147906
13	0xbc0d4cb9	-0.008624249
14	0x3ae21000	0.00172472
15	0x3b1d61e5	0.0024014649
16	0x3cba87ba	0.022769798
17	0x3c761495	0.015019556
18	0xbc355b14	-0.011069078
19	0xbc40b017	-0.011760733
20	0xbc98cdb0	-0.018652767
21	0x3cd81843	0.026378756
22	0xbc066c7b	-0.008204575
23	0xbc838b84	-0.016057737
24	0x3a883678	0.001039221
25	0x3d7fe6cb	0.06247596
26	0xbcf7f30d	-0.030267263
27	0xbbb6c6ba	-0.0055778893
28	0xbc2c90ad	-0.01053254
29	0xbb83a60a	-0.004017596
30	0x3d598bdc	0.053111896
31	0xbc26b976	-0.010176053

bn1.running_mean f4 [32]
0	0xbc7dfaa8	-0.015501656
1	0x3e4e042c	0.20118779
2	0x3e3c9083	0.18414502
3	0x3dd824a4	0.10553864
4	0x3d8dc571	0.069224246
5	0xbe02d41d	-0.12776227
6	0xbe29cca5	-0.16581972
7	0x3d513fe9	0.05108634
8	0xbda04f3b	-0.07827612
9	0x3eacc488	0.3374369
10	0x3d955466	0.07291488
11	0x3e856072	0.26050144
12	0x3de01656	0.1094176
13	0xbdbd3e3f	-0.09240388
14	0x3e334ca9	0.17509712
15	0xbe86cc96	-0.26327962
16	0x3e1f632e	0.15565178
17	0x3e951043	0.2911397
18	0x3e6c8cce	0.23100588
19	0x3e8498d2	0.25897843
20	0x3e8fd87e	0.28094858
21	0xbe992849	-0.29913548
22	0xbe46799f	-0.19382332
23	0x3ea371f8	0.3192289
24	0x3df74a45	0.12074713
25	0x3d2fbbf4	0.042903855
26	0x3e6add01	0.22935869
27	0x3e3e886e	0.18606731
28	0x3de16f10	0.110075116
29	0x3e3cbefb	0.18432228
30	0x3d98b334	0.07456055
31	0xbc73fb66	-0.014891481

bn1.running_var f4 [32]
0	0x3e5ab632	0.21358564
1	0x3f53822b	0.82620496
2	0x3e89c42b	0.26907477
3	0x3d66feef	0.056395467
4	0x3caf121d	0.021370942
5	0x3e84d8fc	0.25946796
6	0x3df3831a	0.1189024
7	0x3ca1819e	0.019715127
8	0x3e807326	0.2508785
9	0x3f3a15c9	0.7268949
10	0x3e98edd9	0.29868963
11	0x3e008f5b	0.12554686
12	0x3d898265	0.06714324
13	0x3fdd3c91	1.7284108
14	0x3dd8a210	0.10577786
15	0x3e519a06	0.20468912
16	0x3d5e05dc	0.054204807
17	0x3e38c6b9	0.18044557
18	0x3e118524	0.14210945
19	0x3e18bec6	0.14916524
20	0x3cc6fd90	0.02429083
21	0x3d9407ca	0.07228048
22	0x3e180b4c	0.1484806
23	0x3ea35445	0.3190023
24	0x3dd596e9	0.104291745
25	0x3d91687f	0.07100009
26	0x3e211cfd	0.15733714
27	0x3f33ea10	0.70279026
28	0x4010c469	2.261988
29	0x3fb93d7a	1.4471886
30	0x3cde183c	0.027111165
31	0x3da95f42	0.08270122

conv2.weight f4 [64, 32, 3, 3]
0	0x3b420514	0.0029605078
1	0x3d31b66f	0.043386873
2	0x3bd0e2dc	0.0063747
3	0xbd41b98d	-0.047296096
4	0x3ca58f13	0.020209825
5	0xbc24e987	-0.010065443
6	0xbd1e114e	-0.03859072
7	0xbd6480b0	-0.05578679
8	0x3ca6f7b8	0.020381793
9	0xbd1bbd98	-0.038022608
10	0xbd38d4b1	-0.045124713
11	0x3d68ed76	0.056867085
12	0xbce95a69	-0.028485494
13	0x3c0e77d9	0.008695566
14	0xbd3040bc	-0.043030486
15	0x3b3ca8bc	0.0028787097
16	0x3c762a2a	0.015024701
17	0x3d19fe3e	0.03759598
18	0x3d1f6f84	0.03892471
19	0x3cfc4cef	0.030798404
20	0x3d42336f	0.047412332
21	0xbcb052f4	-0.02152393
22	0x3c561312	0.01306607
23	0x3cd86665	0.026416013
24	0xbaf11441	-0.0018392877
25	0xbc3ccc5f	-0.011523335
26	0x3bb690c0	0.0055714548
27	0xbd0e652c	-0.034764454
28	0x3bd0733e	0.006361394
29	0xbcb68b3f	-0.022283195
30	0xbc3d3f1c	-0.011550691
31	0x3bb106e5	0.005402433
32	0x3da6d7e6	0.08146648
33	0xbd2c153f	-0.04201245
34	0x3aadc187	0.0013256528
35	0x3d50c96a	0.050973333
36	0x3cb6bcee	0.022306886
37	0x3d1bd63c	0.038046107
38	0xbcae35ea	-0.021265943
39	0x3cf3c0f9	0.029755102
40	0x3ccfcd0b	0.025366327
41	0xbb3c356e	-0.002871837
42	0x3be55364	0.0069984663
43	0xbc900d0c	-0.017584346
44	0x3cc26f33	0.023734665
45	0x3c77e97f	0.015131353
46	0x3bc24655	0.0059287944
47	0xbcf0ab4f	-0.029378561
48	0x3d49a2b7	0.049227443
49	0xbd733eb4	-0.05938597
50	0xbd38396f	-0.044976648
51	0xbd4e677c	-0.05039166
52	0xbd004c99	-0.03132305
53	0x3d68eef7	0.05686852
54	0xbd7db7c9	-0.06194285
55	0xbd39b93e	-0.045342676
56	0x3d182e0a	0.03715328
57	0xbd28237d	-0.04104947
58	0xbcdafcdb	-0.026731899
59	0xbc87ca0c	-0.016575836
60	0x3c981c40	0.018568158
61	0xbc26df97	-0.010185144
62	0xbd1b8039	-0.03796408
63	0x3bc6bbe5	0.0060648792
64	0x3c86a05f	0.016433893
65	0x3c8d0b2c	0.017217241
66	0x3cff3ed3	0.031157887
67	0xbd5ff4ec	-0.054676935
68	0xbca25018	-0.019813582
69	0xbd71398e	-0.05889278
70	0xbd67aff3	-0.056564283
71	0xbd0680ea	-0.032837786
72	0x3d235d70	0.03988403
73	0xbd722e95	-0.059126455
74	0x3d0edc53	0.034878086
75	0x3d57aa1c	0.052652463
76	0x3c4237c8	0.01185412
77	0xbcec15a7	-0.028818918
78	0xbc0806ea	-0.00830243
79	0xbcfba1fc	-0.030716889
80	0x3d8fc12d	0.07019267
81	0x3d4462cf	0.047945794
82	0xbc34ba2f	-0.011030718
83	0xbd5cbb67	-0.05388966
84	0x3d181aab	0.037134808
85	0xbd663f9a	-0.056213
86	0x3d6a1476	0.05714842
87	0xbbcdbe1e	-0.0062787673
88	0xbd1c86d8	-0.038214535
89	0xbcc91ad3	-0.024548924
90	0x3d20215e	0.03909432
91	0x3d4580a3	0.04821838
92	0x3c08e6ab	0.008355777
93	0x3c358b2c	0.011080544
94	0xbcd520f2	-0.026016686
95	0x3d4b95c6	0.049703382
96	0xbc2e0c7f	-0.0106230965
97	0x3d5036c4	0.05083348
98	0x3d5974eb	0.053090017
99	0x3a3d525d	0.0007222051
100	0xbd2bc8eb	-0.041939657
101	0x3ce6692f	0.028126327
102	0xbd5c6e7f	-0.053816315
103	0xbd4aa394	-0.049472407
104	0xbc0195d3	-0.007909256
105	0xbd786374	-0.06064172
106	0x3ba85859	0.005137485
107	0x3ca8f293	0.02062348
108	0xbce54a45	-0.027989516
109	0x3d495970	0.04915756
110	0x3cf9d5ed	0.030497516
111	0x3d093eb3	0.03350706
112	0xbcf6da62	-0.03013343
113	0x3b8aafb6	0.004232372
114	0xbd01db15	-0.031703074
115	0x3d214b60	0.039378524
116	0x3d58e9bb	0.052957278
117	0x3c3191e8	0.010838009
118	0xbd375b9a	-0.044765092
119	0x3bac6372	0.0052608782
120	0xbd1fbce9	-0.03899852
121	0xbd4105d4	-0.0471247
122	0x3b274ee3	0.0025529198
123	0xbcfb90af	-0.030708639
124	0xbd653da7	-0.055967
125	0x3cb05f51	0.021529825
126	0x3d35422c	0.04425256
127	0xbb451d8c	-0.0030077426
128	0x3ce2ac22	0.02766997
129	0x3d0de9f4	0.034646943
130	0xbcc4a982	-0.024006609
131	0x3cd13d4b	0.025541922
132	0x3c669a47	0.0140748685
133	0xbca80b66	-0.020513248
134	0xbcd3a837	-0.025837047
135	0xbd48ae51	-0.048994366
136	0xbc71dbfc	-0.014761921
137	0xbd012c9a	-0.031536676
138	0xbd28912b	-0.041154068
139	0x3d28acc0	0.041180372
140	0xbd0ee490	-0.034885943
141	0xbd1fc8bf	-0.039009806
142	0x3cd81d3d	0.02638113
143	0x3d875c99	0.066094585
144	0x3c947028	0.018119887
145	0xbc835f3a	-0.016036619
146	0x3c8308e7	0.015995456
147	0xbd873642	-0.06602146
148	0xbcccb85c	-0.024990253
149	0xbd1fee98	-0.0390459
150	0x3c955ce2	0.018232767
151	0xbd15f358	-0.036609024
152	0xbc225c90	-0.009909764
153	0xbcd88519	-0.026430653
154	0x3c8f83a8	0.017518833
155	0x3c772b73	0.015086043
156	0x3c485961	0.012228341
157	0xbc96bb1b	-0.018399766
158	0xbc07f418	-0.008297943
159	0xbd67d36a	-0.056598105
160	0x3d0c127c	0.034197316
161	0xbca61618	-0.020274207
162	0x3c6a64a1	0.014306218
163	0x3ca5ead6	0.02025358
164	0xbd43bd47	-0.04778793
165	0xbd00df44	-0.031462923
166	0xbd5525f7	-0.05203816
167	0xbd6d2048	-0.057892114
168	0xbcafc90e	-0.021458175
169	0xbd908cc5	-0.070581
170	0xbc8394fd	-0.016062254
171	0x3d06df53	0.032927822
172	0x3b9f6e85	0.00486547
173	0xbbce0b0c	-0.006287938
174	0xbd857d9c	-0.06518099
175	0x3c2c09b3	0.010500359
176	0xbd9a3ef2	-0.07531537
177	0x3c9d8ed8	0.019233152
178	0xbd9c0465	-0.07618026
179	0xbbd2e2ee	-0.0064357435
180	0xbd34d7b2	-0.044151016
181	0x3d062c6e	0.032757215
182	0x3d919476	0.07108395
183	0xbd82e591	-0.063914426
184	0x3cbf8212	0.023377452
185	0x3d5276a4	0.051382676
186	0x3d12033f	0.035647627
187	0x3d68e348	0.056857377
188	0x39c401ff	0.0003738552
189	0xbc6f803e	-0.014617978
190	0x3cc2e11b	0.02378898
191	0x3c5b8c6a	0.013400177
192	0x3b086a44	0.0020815292
193	0x3c967f97	0.018371386
194	0x3d319c1c	0.043361768
195	0xbd41eb6b	-0.047343653
196	0x3cb060a8	0.021530464
197	0xbb819b80	-0.0039553046
198	0xbb7b1f0b	-0.0038318064
199	0xbc889f8b	-0.016677639
200	0x3c9dbd39	0.019255267
201	0xbcaec1a7	-0.021332575
202	0xbd25ce2e	-0.04047983
203	0xbceb51bf	-0.028725503
204	0x3aa42af8	0.0012525013
205	0x3d3d1027	0.046157982
206	0x3d283f65	0.041076083
207	0x3d0347f4	0.03205104
208	0x3cd072c3	0.025445348
209	0xbc01399c	-0.00788727
210	0xbd7ceeec	-0.06175129
211	0xbcd86693	-0.026416099
212	0xbcbe8987	-0.023258938
213	0xbbbeca65	-0.005822467
214	0x3cd9fea8	0.026610687
215	0x3cbc01dc	0.022950105
216	0x3d5784c7	0.05261686
217	0xbcad35c6	-0.021143805
218	0xbcd3ce3b	-0.025855174
219	0x3cb83301	0.022485258
220	0xbc689e53	-0.014197904
221	0x3cb30f7a	0.021857966
222	0x3d20eed7	0.039290275
223	0xbc3f3200	-0.011669636
224	0x3be891f1	0.0070974757
225	0xbc46a91f	-0.012125283
226	0x399e2009	0.00030159976
227	0xbd96829d	-0.07349131
228	0xbd87c920	-0.066301584
229	0xbcd2df56	-0.02574126
230	0xbd694276	-0.056948148
231	0x3c555d0f	0.013022675
232	0xbd7bf67f	-0.061514374
233	0xbd56a41b	-0.052402597
234	0xbd2a4c59	-0.041576717
235	0x3d0ce0a5	0.034393925
236	0xbc23d278	-0.00999891
237	0xbd7f9ffc	-0.062408432
238	0x3cc88db9	0.024481641
239	0xbcd618b5	-0.026134828
240	0xbd44809f	-0.047974225
241	0xbc0b8551	-0.008515672
242	0x3c543d44	0.01295406
243	0x3d43b313	0.0477782
244	0xbc9e2981	-0.0193069
245	0xbd19d830	-0.037559688
246	0xbc064778	-0.00819575
247	0xbc99503c	-0.018715017
248	0x3d0a0cc3	0.033703577
249	0x3c1096b8	0.008824997
250	0xbcf3f866	-0.029781532
251	0xbab86ff9	-0.0014071456
252	0x3d2793e5	0.040912528
253	0xbc416063	-0.011802766
254	0x3d1e0606	0.038579963
255	0x3c402ed0	0.011729911

conv2.bias f4 [64]
0	0x3ce6f73d	0.028194064
1	0xbd57ffd0	-0.052734196
2	0xbc911c3e	-0.017713662
3	0x3c659311	0.014012114
4	0xbc632b72	-0.013865339
5	0xbd2a3801	-0.041557316
6	0x3d158e22	0.0365125
7	0xbcd44f6e	-0.025916781
8	0x3a3b323f	0.0007140971
9	0xbd38fa5a	-0.04516063
10	0x3cc6e3be	0.024278518
11	0xbd604feb	-0.054763716
12	0x3d3fe1da	0.04684625
13	0xbd24c0b8	-0.040222853
14	0xbd06c6fa	-0.032904603
15	0x3d20ef85	0.039290924
16	0x3d0d086c	0.03443186
17	0xbcbd063b	-0.02307426
18	0x3ab46260	0.0013762228
19	0xbcd80928	-0.026371554
20	0x3d2263b1	0.039645854
21	0xbd1043fa	-0.035221078
22	0xbca6f931	-0.020382496
23	0xbca3b00f	-0.019981412
24	0x3cb150af	0.021644918
25	0x3d70a721	0.058753137
26	0x3a3fe20b	0.0007319755
27	0xbca6f381	-0.020379784
28	0xbd62e6ff	-0.055396076
29	0x3cfe1d04	0.031019695
30	0x3d6405a6	0.05566945
31	0x3d6b8147	0.057496335
32	0xbb751c25	-0.0037400809
33	0xbcc8b6e6	-0.024501275
34	0xbc7b4986	-0.015337354
35	0x3d2432ec	0.040087625
36	0xbd59b4c6	-0.053150915
37	0xba631baa	-0.0008663485
38	0x3aaea12b	0.0013323178
39	0xbcc3dc6b	-0.023908814
40	0x3d07cb31	0.033152763
41	0x3c6b3d33	0.014357853
42	0x3c29c7fd	0.010362622
43	0x3aef42a5	0.0018254115
44	0x3d005f0b	0.03134064
45	0x3d38ac57	0.04508623
46	0x3d043b0e	0.03228288
47	0xbd5bfbaf	-0.05370682
48	0x3ce229e4	0.027607866
49	0xbd4c30cb	-0.04985122
50	0xbd385fbd	-0.04501318
51	0x3c1adb0b	0.009451638
52	0xbc82188e	-0.01588085
53	0x3d400dd3	0.046888184
54	0x3d039387	0.032123115
55	0xbd1d8bfe	-0.038463585
56	0xbd134035	-0.035949904
57	0xbc76a8ca	-0.015054891
58	0xbce11ea8	-0.027480438
59	0xbcbff1d0	-0.023430735
60	0x3c93f50a	0.01806118
61	0x3d05b336	0.032641612
62	0x39c8260e	0.00038175326
63	0xbb8e2a08	-0.0043385066

bn2.weight f4 [64]
0	0x3f803907	1.0017403
1	0x3f83a410	1.0284443
2	0x3f82a092	1.0205252
3	0x3f842e6c	1.0326667
4	0x3f7c53f3	0.98565596
5	0x3f7aa1f2	0.9790336
6	0x3f74e07f	0.95655054
7	0x3f795667	0.97397465
8	0x3f891152	1.0708411
9	0x3f837a9d	1.0271794
10	0x3f81b54e	1.0133455
11	0x3f76e808	0.964478
12	0x3f76a5dd	0.9634684
13	0x3f7fcf4c	0.99925685
14	0x3f804f2d	1.0024163
15	0x3f7a027e	0.9766005
16	0x3f7c8a7d	0.98648816
17	0x3f7892fe	0.9709929
18	0x3f88871e	1.0666234
19	0x3f7c63a4	0.9858954
20	0x3f776433	0.96637267
21	0x3f7e2d69	0.9928804
22	0x3f85f032	1.0463927
23	0x3f72a74b	0.9478652
24	0x3f797f57	0.9745993
25	0x3f83c225	1.0293623
26	0x3f830717	1.0236539
27	0x3f79ef1b	0.9763047
28	0x3f7ee6e0	0.9957104
29	0x3f79b60f	0.97543424
30	0x3f747f62	0.9550687
31	0x3f80fe3d	1.0077587
32	0x3f79c9eb	0.9757373
33	0x3f79b9cb	0.9754912
34	0x3f7d307c	0.98902106
35	0x3f7d92fd	0.9905241
36	0x3f7c0b34	0.98454595
37	0x3f7e3e6b	0.9931399
38	0x3f816d8c	1.0111556
39	0x3f87e5fd	1.0617062
40	0x3f735e18	0.9506545
41	0x3f7cf968	0.98818064
42	0x3f84a6ce	1.0363405
43	0x3f7cbcdc	0.98725677
44	0x3f86a25c	1.0518298
45	0x3f7e0463	0.99225444
46	0x3f786420	0.9702778
47	0x3f806e7a	1.0033715
48	0x3f829c65	1.0203978
49	0x3f83a3e4	1.028439
50	0x3f76ce0f	0.9640817
51	0x3f7dd072	0.9914619
52	0x3f79e226	0.976107
53	0x3f814af6	1.0101001
54	0x3f80e6dd	1.0070454
55	0x3f807ab3	1.0037445
56	0x3f84936e	1.0357492
57	0x3f7d3c5f	0.98920244
58	0x3f767530	0.96272564
59	0x3f8008af	1.000265
60	0x3f7f8d5f	0.9982509
61	0x3f82ba5f	1.0213126
62	0x3f846273	1.0342544
63	0x3f75284d	0.9576462

bn2.bias f4 [64]
0	0xbbd06753	-0.0063599735
1	0xbd3562e1	-0.04428375
2	0x3c082046	0.008308476
3	0xbd11d1cf	-0.03560048
4	0xbce6aab2	-0.028157566
5	0xbd8aa9b4	-0.067706496
6	0xbd420a28	-0.047372967
7	0xbcc3deea	-0.023910005
8	0x3cfdf25c	0.030999355
9	0xbba0e57f	-0.0049101706
10	0x3bb0a84d	0.0053911568
11	0xbd1b29d5	-0.03788169
12	0xbd4ed4b2	-0.05049581
13	0x3bce6186	0.006298247
14	0x3b44ea3f	0.0030046848
15	0xbd168732	-0.036750026
16	0xbc6d8053	-0.014495927
17	0xbcdfafb4	-0.027305461
18	0x3ce1f18e	0.027581003
19	0xbd87b564	-0.066263944
20	0xbd355706	-0.044272445
21	0xbd46d8bf	-0.04854655
22	0xbb79b543	-0.0038102425
23	0xbd23305c	-0.03984104
24	0xbcf49b99	-0.029859351
25	0x3c2fcebd	0.010730443
26	0xbc8d820b	-0.017273923
27	0xbd5eafdd	-0.054366935
28	0xbd6b3cc7	-0.05743101
29	0xbd3aff8e	-0.045653872
30	0xbd227c39	-0.03966925
31	0xbc81ff92	-0.015868936
32	0xbd16cdd5	-0.03681739
33	0xbd12d660	-0.035848975
34	0xbd1f7dd5	-0.038938362
35	0xbcc3c9b5	-0.023899892
36	0xbc3daa5c	-0.011576261
37	0xbcb6fc46	-0.02233709
38	0xbcd0eeac	-0.025504433
39	0xbc880309	-0.01660301
40	0xbd0d4460	-0.034489036
41	0xbce5e190	-0.028061658
42	0xbc7b3d97	-0.015334508
43	0xb94fc512	-0.00019814473
44	0x3ce1e78e	0.027576234
45	0xbd84849c	-0.06470606
46	0xbced5808	-0.02897264
47	0xbc51f766	-0.012815332
48	0x3c862502	0.016375069
49	0xbc2f0d26	-0.010684287
50	0xbd322987	-0.043496635
51	0xbc85d715	-0.01633791
52	0xbcad7ae0	-0.021176755
53	0xba65ea6d	-0.0008770589
54	0x3c49b97f	0.012312292
55	0xbc31d3c7	-0.010853714
56	0x3b494af5	0.0030714844
57	0xbcf915c9	-0.030405896
58	0xbd2e4b53	-0.042552304
59	0xbbc21802	-0.005923272
60	0x3c7fbeea	0.015609482
61	0x3b81b5a8	0.0039584227
62	0xbd0b8960	-0.034066558
63	0xbd714ea5	-0.058912892

bn2.running_mean f4 [64]
0	0xbf03d22c	-0.5149257
1	0x3dbe7b25	0.09300832
2	0xbf9c1a41	-1.2195512
3	0x3c806f62	0.015678111
4	0xbd734d24	-0.05939974
5	0x3f587937	0.8455996
6	0x3ed9f2b2	0.42567974
7	0xbfd1d7da	-1.6393998
8	0xbe1bc2c6	-0.15211019
9	0xbf427d59	-0.75972515
10	0xbe8f02f4	-0.2793194
11	0xbe3ff390	-0.18745255
12	0x3fa6bff1	1.3027326
13	0xbf2d5344	-0.6770518
14	0xbee022ca	-0.43776542
15	0xbf1165a7	-0.56795734
16	0xbfa4f2fd	-1.2886654
17	0x3e17eed5	0.14837201
18	0xbfcbb5ee	-1.5914896
19	0x3fa4d7cb	1.2878355
20	0xbda582dd	-0.08081601
21	0x3fbe0ff9	1.4848624
22	0xbf26b946	-0.65126455
23	0xbf876fd0	-1.0580997
24	0xbeeee7a0	-0.4666109
25	0xbf808562	-1.0040705
26	0xbf920a2c	-1.1409354
27	0x3f91e610	1.1398335
28	0x3f38df05	0.722153
29	0x3e6e177e	0.23251149
30	0xbef0179f	-0.4689302
31	0xbf5aefdf	-0.85522264
32	0x3f11ba2d	0.56924707
33	0xbf703cd9	-0.93842846
34	0x3f989987	1.1921853
35	0xbea41cd4	-0.32053244
36	0xbeafd053	-0.34338626
37	0xbf0e844b	-0.55670613
38	0xbf1867f2	-0.5953361
39	0xbfbdae5a	-1.4818833
40	0x3e30f9e4	0.17282826
41	0xbf7e3de3	-0.9931318
42	0xbf8507f7	-1.0393056
43	0x3f028816	0.509889
44	0xbf07cba4	-0.53045106
45	0x3ed6349c	0.41837013
46	0xbe2253c4	-0.15852267
47	0xbf311941	-0.6917916
48	0xbfd217cd	-1.6413513
49	0xbf1bb265	-0.60819083
50	0x3f438624	0.7637656
51	0xbfcecdb7	-1.6156529
52	0x3ed6b274	0.41933024
53	0xbf17180e	-0.5902108
54	0xbe4153af	-0.18879579
55	0xbfac0074	-1.3437638
56	0xbfa3e6d0	-1.2804813
57	0x3f05402e	0.52051055
58	0xbbbb322f	-0.0057127695
59	0xbf12ded7	-0.57371277
60	0x3c97953c	0.018503778
61	0x3e85afd6	0.26110715
62	0xbe836e39	-0.2567003
63	0x3e79a65c	0.24379867

bn2.running_var f4 [64]
0	0x3ee44660	0.44584942
1	0x3ebbd7a3	0.36687955
2	0x3f8b944b	1.090463
3	0x3e93f26b	0.28895888
4	0x3f01ed9c	0.5075319
5	0x3f8ee776	1.1164386
6	0x3f28b769	0.6590486
7	0x402d11ed	2.704219
8	0x3e491338	0.19636238
9	0x3f098ddc	0.53732085
10	0x3f09cb61	0.53825957
11	0x3eeab153	0.45838413
12	0x3fb1c845	1.3889242
13	0x3f381744	0.719105
14	0x3e87ccdb	0.2652348
15	0x3f4228ff	0.75843805
16	0x3f7a63d9	0.97808605
17	0x3f1bf3bf	0.609188
18	0x3f6aa699	0.9166046
19	0x3fb30afe	1.398773
20	0x3e8da35f	0.27663705
21	0x3f332fac	0.69994617
22	0x3ed97883	0.42474756
23	0x3feec29a	1.8653138
24	0x3eb34263	0.35011587
25	0x3f2a5c63	0.6654722
26	0x3f5debf3	0.86688155
27	0x400cac25	2.1980069
28	0x3ee23747	0.44182798
29	0x3f0d2177	0.5512919
30	0x3f8cad89	1.0990459
31	0x3f2363af	0.6382398
32	0x3fa23d48	1.2674952
33	0x3f9d93af	1.2310694
34	0x3f1119db	0.5668008
35	0x3e9fe672	0.31230503
36	0x3e801d6e	0.25022453
37	0x3ea73634	0.3265854
38	0x3ec13d90	0.3774228
39	0x3fa41765	1.281964
40	0x3fa1450a	1.2599194
41	0x3f24c5ec	0.64364505
42	0x3f5f6daf	0.8727674
43	0x3e90ac06	0.28256243
44	0x3eb9f269	0.36317757
45	0x3f2a3285	0.66483337
46	0x3f044cab	0.51679486
47	0x3eb26fc1	0.34850886
48	0x3feaa9d1	1.8333074
49	0x3ebd61eb	0.36988768
50	0x3ff1e5ce	1.8898256
51	0x3f68c70c	0.9092872
52	0x3ea1e076	0.31616563
53	0x3ebaebd6	0.36508054
54	0x3eadacc4	0.33920872
55	0x3fc48bde	1.5355184
56	0x3f5e953a	0.8694645
57	0x3ea71529	0.3263333
58	0x3e8b6a43	0.2722951
59	0x3ed95a52	0.4245172
60	0x3e87ee80	0.2654915
61	0x3e6d374c	0.23165625
62	0x3e9155b0	0.28385687
63	0x3f9127ed	1.1340309

conv3.weight f4 [128, 64, 3, 3]
0	0x3d25eebc	0.040510878
1	0xbd0b43f7	-0.034000363
2	0xbc01acf7	-0.007914773
3	0xbb8fd01a	-0.0043888213
4	0x3cbb8fdd	0.022895748
5	0x39c469a6	0.00037462747
6	0x3bbf0d61	0.0058304523
7	0xbcf5e484	-0.030016191
8	0xbd31b547	-0.04338577
9	0xbc67dfe5	-0.014152502
10	0xbca55558	-0.020182297
11	0xbb0086c8	-0.0019611586
12	0xbccf5778	-0.025310263
13	0x3be30365	0.006927895
14	0x3cfe90e5	0.03107495
15	0xbc40076e	-0.011720521
16	0x3a3fd4e9	0.0007317798
17	0xbccbb801	-0.024868013
18	0xbcf45f15	-0.029830495
19	0xbd0ba9cc	-0.034097478
20	0xbc8d95f7	-0.017283423
21	0xbd69bd6d	-0.057065416
22	0xbc16cbb6	-0.009203842
23	0xbd14c37b	-0.036319237
24	0x3c4b0f20	0.012393743
25	0xbb50d55c	-0.0031865453
26	0xbd0a1783	-0.03371383
27	0xbd2479b9	-0.040155146
28	0xbd052bea	-0.032512583
29	0xbd40c303	-0.047060978
30	0xbd3ae13c	-0.045624956
31	0xbc88f8a2	-0.01672012
32	0xbd32501c	-0.04353343
33	0x3c8ab845	0.01693357
34	0x3cb4f161	0.022087755
35	0xbd2c40e2	-0.042054065
36	0x3c31f43c	0.010861453
37	0x3cb453da	0.02201264
38	0xbce2d28e	-0.02768829
39	0x3d511e7e	0.05105447
40	0xbba48c2d	-0.005021593
41	0xbb0ea160	-0.0021763667
42	0xbd488876	-0.048958264
43	0xbd42414d	-0.047425557
44	0xbcd61eeb	-0.02613779
45	0xbcc36aaa	-0.023854572
46	0x3c51de09	0.012809285
47	0xbd26f28c	-0.040758654
48	0xbccc753c	-0.024958245
49	0xbd08d1cd	-0.033403207
50	0x3a01be0a	0.00049492775
51	0xbd0cf52c	-0.0344135
52	0xbd365ed7	-0.04452404
53	0xbc06a64d	-0.00821836
54	0x3d243d91	0.040097777
55	0x3d2ce686	0.04221203
56	0xbad8b08d	-0.0016532108
57	0x3b94e294	0.004543612
58	0x3c923058	0.017845318
59	0x3d126831	0.035743896
60	0x3d536e03	0.051618587
61	0xbc518b29	-0.012789526
62	0x3d73627c	0.059420094
63	0x3c04064a	0.00805814
64	0x3b226c48	0.002478378
65	0x3bcd8448	0.0062718727
66	0x3afe7b84	0.0019415473
67	0xbbee3002	-0.0072689066
68	0xbc66af7a	-0.014079923
69	0x3c6e82e6	0.014557576
70	0xbb8d5f79	-0.0043143597
71	0xbd06dd72	-0.03292603
72	0x3be0971d	0.0068539516
73	0x3cd10639	0.025515663
74	0x3ccd6ab6	0.025075298
75	0x3d1a1840	0.037620783
76	0x3db75074	0.08950892
77	0x3da06f84	0.0783377
78	0x3d2e5c1d	0.042568315
79	0x3d1dc535	0.03851815
80	0x3dbb7270	0.091526866
81	0x3c09c504	0.008408789
82	0x3cfdd0cc	0.030983351
83	0x3c46563a	0.012105519
84	0xbcce202f	-0.02516183
85	0xbd149158	-0.036271423
86	0xba25b2c4	-0.00063208886
87	0x3d1a00ee	0.037598543
88	0x3ce2432a	0.027619917
89	0x3d3a8cdc	0.04554449
90	0xbce48dc7	-0.027899636
91	0xbd4aa7cb	-0.049476426
92	0x3cd7f8f6	0.026363831
93	0xbc6d1082	-0.014469268
94	0xbcc3919e	-0.023873147
95	0x3d16d3ca	0.03682307
96	0xbc3cb2bf	-0.011517226
97	0xbd2fc781	-0.04291487
98	0x3bd8504e	0.00660137
99	0x3c19236f	0.009346827
100	0x3d27d8f3	0.040978383
101	0xbc402b82	-0.011729123
102	0x3c563720	0.013074666
103	0xbb58f825	-0.003310689
104	0x3c2920f4	0.010322798
105	0x3c693b9f	0.014235406
106	0x3d4b9862	0.04970587
107	0x3d166a5a	0.03672252
108	0x3d077d3a	0.03307841
109	0x3d1b7f58	0.03796324
110	0x3c7dd203	0.015491965
111	0xbcf7a69b	-0.03023081
112	0xbcd5518a	-0.026039857
113	0x3c905d69	0.017622666
114	0x3c597612	0.013272779
115	0xbc957deb	-0.018248519
116	0x3b4d59a2	0.0031333943
117	0x3caa29ce	0.020771887
118	0xbc14b3fb	-0.009076114
119	0x3ca24d76	0.019812327
120	0xbb1d93a0	-0.002404429
121	0xbd3d31db	-0.046190124
122	0xbd10ada3	-0.035321843
123	0xbcf3a310	-0.02974084
124	0xbca489c7	-0.020085229
125	0x3d039547	0.032124784
126	0x3bd5e873	0.0065279542
127	0x3d1dfd60	0.038571715
128	0xbb82f05c	-0.003995938
129	0xbd38b514	-0.045094565
130	0x3cb4c4ac	0.022066437
131	0x3c84ba27	0.016202046
132	0xbd3ee32d	-0.04660337
133	0xbc226c2a	-0.009913484
134	0xbae08e5d	-0.0017132271
135	0xbc1a7ab3	-0.009428668
136	0xbb54609c	-0.0032406216
137	0xbc664c3d	-0.014056263
138	0xbca731d8	-0.02040951
139	0x3d5e8ff6	0.05433651
140	0x3d1179c3	0.03551651
141	0xbbb78439	-0.005600479
142	0xbd525c26	-0.05135741
143	0x3b595664	0.0033163065
144	0xbcacc749	-0.02109112
145	0xbacbb859	-0.0015542611
146	0xbcf6d8bc	-0.030132644
147	0x3d2f59c7	0.042810228
148	0xbb068c89	-0.0020530543
149	0xbcc82e3d	-0.02443611
150	0xbbfa3cbb	-0.007636634
151	0x3ca32f56	0.019920032
152	0xbd0b0b9c	-0.03394662
153	0xbb10259b	-0.002199507
154	0x3c5c183a	0.01343351
155	0x3c130e6c	0.008975606
156	0xbc948bbc	-0.018133037
157	0x3d00013d	0.03125118
158	0x39f63a94	0.0004696442
159	0x3d0075b7	0.03136226
160	0xbb54fc62	-0.0032499065
161	0x3d301008	0.04298404
162	0x3badeea4	0.005307989
163	0xba25a282	-0.0006318466
164	0x3cee4f8d	0.029090667
165	0x3bd70feb	0.006563177
166	0xbd535f5b	-0.05160461
167	0x3bfe3bf6	0.0077586127
168	0xbbe422f7	-0.006962176
169	0xbd3cc117	-0.046082582
170	0xbd12b295	-0.03581484
171	0x3ae7597a	0.0017650567
172	0xbcb40c42	-0.021978501
173	0x3cb33bf1	0.021879168
174	0xbd0397f6	-0.032127343
175	0x3cea8eb4	0.0286325
176	0x3cd48eba	0.025946964
177	0xbc5129da	-0.012766326
178	0xbcc0dca5	-0.023542712
179	0x3ce7f6ef	0.02831599
180	0xbcfde5e3	-0.030993408
181	0xbd0d3e6d	-0.034483362
182	0xbd387bcd	-0.04503994
183	0xbbeac0ea	-0.0071641104
184	0xbd1a8b71	-0.037730638
185	0xbc2300ce	-0.009948922
186	0x3ce4a6c4	0.027911551
187	0x3c379f97	0.011207483
188	0x3b62ffc9	0.0034637323
189	0xbc7f0cab	-0.015566985
190	0x3ccb0aef	0.024785487
191	0xbd1408c7	-0.036141183
192	0xbcd59c99	-0.026075648
193	0x3a6f8a09	0.00091376953
194	0xbd1b19b3	-0.037866306
195	0xbc537545	-0.012906377
196	0x3c34d465	0.011036967
197	0xbc9dd46e	-0.019266333
198	0xbc873929	-0.016506748
199	0xbd5a92bf	-0.053362604
200	0x3bece0cc	0.0072289463
201	0x3d4c31b5	0.04985209
202	0x3d0ce5c8	0.034398824
203	0xba0d82e1	-0.00053982256
204	0xbcab9fe1	-0.02095026
205	0xbd6b8a03	-0.057504665
206	0x3b34ab3d	0.0027567886
207	0x3c59abec	0.013285618
208	0x3b475140	0.003041342
209	0x3ca17f27	0.019713951
210	0x3c48e94f	0.012262656
211	0xb975bd3c	-0.00023435516
212	0xbd148006	-0.036254905
213	0xbcd3bc1b	-0.025846532
214	0xbb272757	-0.0025505626
215	0xbd138ec0	-0.03602481
216	0xbc488025	-0.012237583
217	0xbd161def	-0.03664964
218	0xb87c45a7	-6.014635e-05
219	0x3d0ebad4	0.034846142
220	0x3cf0a9b0	0.029377788
221	0x3bc09d54	0.00587813
222	0x3c9c7f13	0.019103562
223	0x3d2fda97	0.042933073
224	0x3d1d9288	0.03846982
225	0xbcf302fc	-0.029664509
226	0x3a99ba72	0.0011728539
227	0x3cc1951a	0.023630667
228	0x3cc04293	0.023469245
229	0x3c1d05d6	0.009583911
230	0x3c701616	0.014653703
231	0xbcc57c44	-0.024107106
232	0xbb8b9ce4	-0.004260646
233	0xbd2a730c	-0.041613623
234	0xbc2c1b31	-0.01050453
235	0xbcbfb31d	-0.023400838
236	0x3d2b0ec9	0.041762147
237	0xbd2977a7	-0.041373875
238	0xbd6065cd	-0.054784585
239	0xbd2b1f02	-0.04177762
240	0x3cb16261	0.021653356
241	0x3b230e8b	0.0024880494
242	0x3b52a796	0.0032143346
243	0x3c359a79	0.011084192
244	0x3c161d2e	0.00916223
245	0x3d166449	0.036716733
246	0xbd308ad9	-0.043101165
247	0x3c238842	0.009981217
248	0x3b98e267	0.004665661
249	0xbcd3fa08	-0.02587606
250	0x3c932681	0.017962696
251	0x3cbf50b7	0.023353918
252	0xbbaa1e63	-0.0051916107
253	0x3d312888	0.043251544
254	0x3cdc1e73	0.026869988
255	0xbbeef0ea	-0.007291903

conv3.bias f4 [128]
0	0xbd293f1c	-0.04131995
1	0xba80ab0c	-0.0009816601
2	0x3bf192e3	0.0073722466
3	0xbce6c967	-0.028172208
4	0x3d0a5e32	0.033781238
5	0xbcfb09c3	-0.030644303
6	0x3cb6728c	0.022271417
7	0xbd15480f	-0.036445674
8	0xbd037206	-0.032091163
9	0xbca8d2bd	-0.0206083
10	0xbbf09148	-0.0073415376
11	0x3d0b0722	0.03394235
12	0x39c82640	0.0003817547
13	0x3b97097c	0.004609285
14	0xbc6d9d48	-0.014502831
15	0xbc9289a5	-0.0178879
16	0x3cd41344	0.025888093
17	0x3ceea204	0.02912999
18	0x3c97bf6a	0.01852389
19	0xbc9b95f0	-0.018992394
20	0xbc03f64d	-0.008054328
21	0xbce6e251	-0.028184088
22	0xbcef03cc	-0.029176615
23	0xbc42983e	-0.011877118
24	0x3bf71994	0.007540891
25	0x3b9dbdde	0.0048138937
26	0x3d0797a2	0.033103593
27	0x3c6c80cc	0.014435004
28	0x3c85d82b	0.016338428
29	0xbc002e3c	-0.007823523
30	0x3b9d8105	0.00480664
31	0xbd11b74d	-0.0355752
32	0x3c5c0a41	0.013430179
33	0xbcb773a7	-0.022394015
34	0xbbbc2be7	-0.0057425383
35	0xbccf0d83	-0.025274998
36	0x3cc2f7dd	0.023799831
37	0xbd0b3fb5	-0.033996303
38	0xbc594054	-0.013259966
39	0x3bba761d	0.0056903497
40	0x3c9b2bab	0.018941721
41	0x3c277d16	0.010222694
42	0xbca58080	-0.020202875
43	0xbc448640	-0.011994898
44	0xbca49793	-0.020091807
45	0x3c64bfce	0.013961745
46	0xbb230f48	-0.0024880935
47	0x3d0e2cd9	0.03471074
48	0x3ca11869	0.01966496
49	0xbd0e1b0f	-0.034693774
50	0xbd031420	-0.032001615
51	0x3d1c465a	0.03815303
52	0xbd083406	-0.03325274
53	0x3c2839a9	0.0102676535
54	0xbd1748fa	-0.03693483
55	0x3cffca5d	0.031224424
56	0xbd043711	-0.032279078
57	0x3cada8df	0.021198688
58	0xbccad7fb	-0.02476119
59	0x3d1d57ad	0.038413692
60	0x3d1eff37	0.03881761
61	0x3d20991c	0.039208516
62	0x3aeb3d6a	0.001794738
63	0x3b8aaef6	0.0042322828
64	0x3c7ae6f7	0.015313855
65	0xbc718c84	-0.014742974
66	0x3d2a39d0	0.04155904
67	0x3cefd954	0.029278435
68	0xbb8c3a7f	-0.004279434
69	0x3d16b3b6	0.03679248
70	0x3beaa300	0.0071605444
71	0x3bb4a44d	0.0055127502
72	0x3c83e02f	0.01609811
73	0xbbc5c8e2	-0.00603591
74	0x3d099486	0.03358891
75	0x3cfa3951	0.030544909
76	0xbcf27d03	-0.029600626
77	0x3d21b3cb	0.039478105
78	0x3c9f0c6d	0.019415105
79	0x3caaead6	0.020863932
80	0xbd05aee5	-0.032637496
81	0xbcf724d1	-0.030168923
82	0x3c2752a8	0.010212578
83	0xbd017722	-0.031607755
84	0xbcd989b7	-0.026554925
85	0xbcb7cdd6	-0.022437017
86	0xbc82facb	-0.015988728
87	0xbd044294	-0.032290056
88	0xbb906cd9	-0.004407507
89	0x3d184274	0.03717275
90	0x3d05c4ee	0.03265851
91	0x3d292500	0.04129505
92	0xbc8e7910	-0.017391711
93	0x3ca75b24	0.020429201
94	0x3c8f1d6b	0.017470082
95	0xbbbf8344	-0.0058445055
96	0xbc8ea4e2	-0.017412607
97	0xbcd47ae8	-0.025937513
98	0x3c4d2dca	0.012523124
99	0x3caa9253	0.020821726
100	0x3d0180fc	0.03161715
101	0x3c638869	0.013887503
102	0xbc9d9722	-0.019237105
103	0x3d2a75a3	0.041616093
104	0x3cb79e9b	0.022414496
105	0x3c900c57	0.01758401
106	0x3d07d9df	0.033166762
107	0xbd1b08c9	-0.037850175
108	0x3b085912	0.0020805043
109	0xbc1ced07	-0.009577996
110	0x3c41f852	0.011838989
111	0xbceafe5b	-0.02868574
112	0x3b8892b1	0.0041678776
113	0x3cadc7bb	0.021213403
114	0x3d09d69a	0.033651926
115	0x3ca2112f	0.019783584
116	0xbc7c79b6	-0.0154098775
117	0x3d024ebd	0.031813372
118	0xbb19c6cf	-0.0023464446
119	0x3d0ec2c6	0.03485372
120	0x3cdf01e1	0.027222576
121	0xbc9acfd5	-0.01889793
122	0xbbf4a5c6	-0.007466051
123	0xbd252d23	-0.04032625
124	0x3bcc0c25	0.0062270337
125	0x3d1087f8	0.03528592
126	0xbcdafcd0	-0.026731879
127	0x3d27599c	0.040856943
