built_models/esc50_esc50cnn_model_fold2_20250430_202741.pth (torch, 654357 bytes, 24 tensors)

mel_transform.spectrogram.window f4 [1024]
0.0 9.417534e-06 3.7640333e-05 8.46982e-05 0.00015059114 0.00023528934 0.0003388226 0.00046113133
0.00060227513 0.0007622242 0.0009409487 0.0011384785 0.0013547838 0.0015898645 0.0018436909 0.0021162927
0.0024076402 0.0027177036 0.0030465126 0.0033940375 0.0037602484 0.0041451156 0.0045486987 0.004970908
0.005411744 0.0058712065 0.0063492954 0.006845951 0.0073611736 0.007894963 0.00844726 0.009018064
0.009607345 0.010215104 0.01084131 0.011485934 0.0121489465 0.012830317 0.013530016 0.014248043
0.014984369 0.015738964 0.016511768 0.017302781 0.018111974 0.018939286 0.019784749 0.02064827
0.021529824 0.022429407 0.02334699 0.024282485 0.025235921 0.026207209 0.027196348 0.028203279
0.029227972 0.030270398 0.031330496 0.032408237 0.033503592 0.03461653 0.03574696 0.036894888
0.038060248 0.039242983 0.040443063 0.041660458 0.04289514 0.044146985 0.045416027 0.046702147
0.048005342 0.049325585 0.050662756 0.052016884 0.05338785 0.054775625 0.05618021 0.057601452
0.059039384 0.060493886 0.06196496 0.06345251 0.064956516 0.06647688 0.06801358 0.06956655
0.0711357 0.072721004 0.0743224 0.075939834 0.07757321 0.07922253 0.080887645 0.082568586
0.0842652 0.085977495 0.087705374 0.08944875 0.09120759 0.092981845 0.094771415 0.096576214
0.09839624 0.10023138 0.10208154 0.103946716 0.105826795 0.10772169 0.10963139 0.111555785
0.11349478 0.115448326 0.11741638 0.11939883 0.12139559 0.12340662 0.1254318 0.12747112
0.12952444 0.13159174 0.1336729 0.13576782 0.13787645 0.13999876 0.1421346 0.14428389
0.14644662 0.14862263 0.15081188 0.15301427 0.15522975 0.15745819 0.1596995 0.16195366
0.16422054 0.16650003 0.16879213 0.17109665 0.1734136 0.1757428 0.17808422 0.1804378
0.18280336 0.1851809 0.18757027 0.18997142 0.19238421 0.1948086 0.1972445 0.19969177
0.20215034 0.20462015 0.20710108 0.20959303 0.21209592 0.21460965 0.21713409 0.21966922
0.2222149 0.22477102 0.22733751 0.22991425 0.23250118 0.23509818 0.23770517 0.24032202
0.24294865 0.24558496 0.24823079 0.25088614 0.2535509 0.25622493 0.25890815 0.2616004
0.26430166 0.26701176 0.26973063 0.2724582 0.27519435 0.27793896 0.28069192 0.2834531
0.28622246 0.28899986 0.29178524 0.29457843 0.29737937 0.30018795 0.30300403 0.30582747
0.3086583 0.31149632 0.31434143 0.3171935 0.3200525 0.3229183 0.32579064 0.32866964
0.33155507 0.33444685 0.33734488 0.340249 0.34315917 0.34607518 0.34899703 0.35192457
0.35485768 0.35779625 0.36074018 0.36368936 0.3666436 0.36960295 0.37256718 0.3755362
0.37850994 0.38148823 0.38447094 0.38745803 0.3904494 0.39344487 0.39644432 0.3994477
0.40245488 0.40546566 0.40848005 0.4114979 0.41451907 0.41754347 0.42057097 0.42360145
0.42663476 0.42967087 0.43270966 0.43575096 0.43879467 0.4418407 0.44488895 0.4479392
0.45099142 0.45404553 0.45710137 0.46015882 0.46321777 0.46627808 0.46933964 0.4724024
0.47546616 0.47853088 0.4815964 0.48466262 0.48772943 0.49079663 0.49386424 0.49693206
00000000: 0000 0000 0000 1e37 00e0 1d38 00a0 b138
00000010: 00e8 1d39 00b8 7639 00a4 b139 00c4 f139
00000020: 00e2 1d3a 00d0 473a 00aa 763a 0039 953a
00000030: 0093 b13a 0063 d03a 00a8 f13a 80b1 0a3b
00000040: 80c9 1d3b 801b 323b 00a8 473b 806e 5e3b
00000050: 806e 763b c0d3 873b 400d 953b 00e3 a23b
00000060: 0055 b13b 4063 c03b c00d d03b 0054 e03b
00000070: 0036 f13b e059 013c 6066 0a3c 80c0 133c
00000080: 2068 1d3c 405d 273c c09f 313c 802f 3c3c
00000090: 600c 473c 4036 523c 00ad 5d3c a070 693c
000000a0: 0081 753c 00ef 803c b043 873c 90be 8d3c
000000b0: 905f 943c 9026 9b3c a013 a23c 9026 a93c
000000c0: 505f b03c e0bd b73c 3042 bf3c 10ec c63c
000000d0: 90bb ce3c 80b0 d63c e0ca de3c 900a e73c
000000e0: 806f ef3c a0f9 f73c 6854 003d 80be 043d
000000f0: 103b 093d 10ca 0d3d 686b 123d 181f 173d
00000100: 10e5 1b3d 40bd 203d a0a7 253d 28a4 2a3d
00000110: d0b2 2f3d 78d3 343d 2806 3a3d c04a 3f3d
00000120: 40a1 443d a009 4a3d c083 4f3d a80f 553d
00000130: 38ad 5a3d 685c 603d 381d 663d 80ef 6b3d
00000140: 48d3 713d 70c8 773d f8ce 7d3d 64f3 813d
00000150: ec07 853d 0825 883d b44a 8b3d e878 8e3d
00000160: 98af 913d c0ee 943d 5836 983d 5886 9b3d
00000170: b4de 9e3d 6c3f a23d 6ca8 a53d b819 a93d
00000180: 3c93 ac3d f814 b03d e09e b33d e830 b73d
00000190: 0ccb ba3d 446d be3d 8417 c23d c0c9 c53d
000001a0: f883 c93d 1c46 cd3d 2010 d13d 04e2 d43d
000001b0: b8bb d83d 309d dc3d 6c86 e03d 5c77 e43d
000001c0: f46f e83d 2c70 ec3d 0078 f03d 6087 f43d
000001d0: 409e f83d 9cbc fc3d 3271 003e ca87 023e
000001e0: 0ea2 043e fcbf 063e 8ce1 083e b806 0b3e
000001f0: 7c2f 0d3e d65b 0f3e bc8b 113e 28bf 133e
00000200: 1af6 153e 8830 183e 6e6e 1a3e c6af 1c3e
00000210: 8cf4 1e3e b83c 213e 4488 233e 2ed7 253e
00000220: 6e29 283e fc7e 2a3e d8d7 2c3e f633 2f3e
00000230: 5693 313e ecf5 333e b65b 363e b0c4 383e
00000240: ce30 3b3e 10a0 3d3e 6c12 403e de87 423e
00000250: 5e00 453e e87b 473e 76fa 493e 007c 4c3e
00000260: 8000 4f3e f287 513e 4e12 543e 8e9f 563e
00000270: ac2f 593e a2c2 5b3e 6658 5e3e f8f0 603e
00000280: 4e8c 633e 602a 663e 2acb 683e a46e 6b3e
00000290: ca14 6e3e 94bd 703e fc68 733e fa16 763e
000002a0: 88c7 783e a07a 7b3e 3630 7e3e 2674 803e
000002b0: 6cd1 813e ea2f 833e 9c8f 843e 7df0 853e
000002c0: 8c52 873e c4b5 883e 221a 8a3e a47f 8b3e
000002d0: 46e6 8c3e 044e 8e3e dab6 8f3e c420 913e
000002e0: c08b 923e caf7 933e e064 953e fcd2 963e
000002f0: 1c42 983e 3cb2 993e 5823 9b3e 6b95 9c3e
00000300: 7608 9e3e 727c 9f3e 5cf1 a03e 3067 a23e
00000310: ecdd a33e 8c55 a53e 08ce a63e 6347 a83e
00000320: 96c1 a93e 9e3c ab3e 78b8 ac3e 1e35 ae3e
00000330: 8fb2 af3e c430 b13e bdaf b23e 752f b43e
00000340: e8af b53e 1231 b73e f0b2 b83e 7e35 ba3e
00000350: b6b8 bb3e 993c bd3e 20c1 be3e 4846 c03e
00000360: 0ecc c13e 6d52 c33e 60d9 c43e e660 c63e
00000370: fce8 c73e 9b71 c93e c0fa ca3e 6984 cc3e
00000380: 910e ce3e 3299 cf3e 4c24 d13e daaf d23e
00000390: d83b d43e 42c8 d53e 1455 d73e 4ae2 d83e
000003a0: df6f da3e d2fd db3e 1f8c dd3e c01a df3e
000003b0: b2a9 e03e f238 e23e 7cc8 e33e 4958 e53e
000003c0: 59e8 e63e a878 e83e 3109 ea3e f099 eb3e
000003d0: e12a ed3e 00bc ee3e 494d f03e bade f13e
000003e0: 4d70 f33e 0002 f53e ce93 f63e b325 f83e
000003f0: acb7 f93e b249 fb3e c6db fc3e e16d fe3e

mel_transform.mel_scale.fb f4 [513, 40]
-0.0 0.0 0.0 0.0 0.0 0.0 0.0 0.0
0.0 0.0 0.0 0.0 0.0 0.0 0.0 0.0
0.0 0.0 0.0 0.0 0.0 0.0 0.0 0.0
0.0 0.0 0.0 0.0 0.0 0.0 0.0 0.0
0.0 0.0 0.0 0.0 0.0 0.0 0.0 0.0
0.69426066 0.0 0.0 0.0 0.0 0.0 0.0 0.0
0.0 0.0 0.0 0.0 0.0 0.0 0.0 0.0
0.0 0.0 0.0 0.0 0.0 0.0 0.0 0.0
0.0 0.0 0.0 0.0 0.0 0.0 0.0 0.0
0.0 0.0 0.0 0.0 0.0 0.0 0.0 0.0
0.64310575 0.35689425 0.0 0.0 0.0 0.0 0.0 0.0
0.0 0.0 0.0 0.0 0.0 0.0 0.0 0.0
0.0 0.0 0.0 0.0 0.0 0.0 0.0 0.0
0.0 0.0 0.0 0.0 0.0 0.0 0.0 0.0
0.0 0.0 0.0 0.0 0.0 0.0 0.0 0.0
0.005360414 0.9946396 0.0 0.0 0.0 0.0 0.0 0.0
0.0 0.0 0.0 0.0 0.0 0.0 0.0 0.0
0.0 0.0 0.0 0.0 0.0 0.0 0.0 0.0
0.0 0.0 0.0 0.0 0.0 0.0 0.0 0.0
0.0 0.0 0.0 0.0 0.0 0.0 0.0 0.0
0.0 0.41909382 0.58090615 0.0 0.0 0.0 0.0 0.0
0.0 0.0 0.0 0.0 0.0 0.0 0.0 0.0
0.0 0.0 0.0 0.0 0.0 0.0 0.0 0.0
0.0 0.0 0.0 0.0 0.0 0.0 0.0 0.0
0.0 0.0 0.0 0.0 0.0 0.0 0.0 0.0
0.0 0.0 0.8468364 0.15316364 0.0 0.0 0.0 0.0
0.0 0.0 0.0 0.0 0.0 0.0 0.0 0.0
0.0 0.0 0.0 0.0 0.0 0.0 0.0 0.0
0.0 0.0 0.0 0.0 0.0 0.0 0.0 0.0
0.0 0.0 0.0 0.0 0.0 0.0 0.0 0.0
0.0 0.0 0.3086942 0.69130576 0.0 0.0 0.0 0.0
0.0 0.0 0.0 0.0 0.0 0.0 0.0 0.0
00000000: 0000 0080 0000 0000 0000 0000 0000 0000
00000010: 0000 0000 0000 0000 0000 0000 0000 0000
00000020: 0000 0000 0000 0000 0000 0000 0000 0000
00000030: 0000 0000 0000 0000 0000 0000 0000 0000
00000040: 0000 0000 0000 0000 0000 0000 0000 0000
00000050: 0000 0000 0000 0000 0000 0000 0000 0000
00000060: 0000 0000 0000 0000 0000 0000 0000 0000
00000070: 0000 0000 0000 0000 0000 0000 0000 0000
00000080: 0000 0000 0000 0000 0000 0000 0000 0000
00000090: 0000 0000 0000 0000 0000 0000 0000 0000
000000a0: 11bb 313f 0000 0000 0000 0000 0000 0000
000000b0: 0000 0000 0000 0000 0000 0000 0000 0000
000000c0: 0000 0000 0000 0000 0000 0000 0000 0000
000000d0: 0000 0000 0000 0000 0000 0000 0000 0000
000000e0: 0000 0000 0000 0000 0000 0000 0000 0000
000000f0: 0000 0000 0000 0000 0000 0000 0000 0000
00000100: 0000 0000 0000 0000 0000 0000 0000 0000
00000110: 0000 0000 0000 0000 0000 0000 0000 0000
00000120: 0000 0000 0000 0000 0000 0000 0000 0000
00000130: 0000 0000 0000 0000 0000 0000 0000 0000
00000140: 94a2 243f d8ba b63e 0000 0000 0000 0000
00000150: 0000 0000 0000 0000 0000 0000 0000 0000
00000160: 0000 0000 0000 0000 0000 0000 0000 0000
00000170: 0000 0000 0000 0000 0000 0000 0000 0000
00000180: 0000 0000 0000 0000 0000 0000 0000 0000
00000190: 0000 0000 0000 0000 0000 0000 0000 0000
000001a0: 0000 0000 0000 0000 0000 0000 0000 0000
000001b0: 0000 0000 0000 0000 0000 0000 0000 0000
000001c0: 0000 0000 0000 0000 0000 0000 0000 0000
000001d0: 0000 0000 0000 0000 0000 0000 0000 0000
000001e0: 69a6 af3b b3a0 7e3f 0000 0000 0000 0000
000001f0: 0000 0000 0000 0000 0000 0000 0000 0000
00000200: 0000 0000 0000 0000 0000 0000 0000 0000
00000210: 0000 0000 0000 0000 0000 0000 0000 0000
00000220: 0000 0000 0000 0000 0000 0000 0000 0000
00000230: 0000 0000 0000 0000 0000 0000 0000 0000
00000240: 0000 0000 0000 0000 0000 0000 0000 0000
00000250: 0000 0000 0000 0000 0000 0000 0000 0000
00000260: 0000 0000 0000 0000 0000 0000 0000 0000
00000270: 0000 0000 0000 0000 0000 0000 0000 0000
00000280: 0000 0000 7793 d63e 44b6 143f 0000 0000
00000290: 0000 0000 0000 0000 0000 0000 0000 0000
000002a0: 0000 0000 0000 0000 0000 0000 0000 0000
000002b0: 0000 0000 0000 0000 0000 0000 0000 0000
000002c0: 0000 0000 0000 0000 0000 0000 0000 0000
000002d0: 0000 0000 0000 0000 0000 0000 0000 0000
000002e0: 0000 0000 0000 0000 0000 0000 0000 0000
000002f0: 0000 0000 0000 0000 0000 0000 0000 0000
00000300: 0000 0000 0000 0000 0000 0000 0000 0000
00000310: 0000 0000 0000 0000 0000 0000 0000 0000
00000320: 0000 0000 0000 0000 45ca 583f eed6 1c3e
00000330: 0000 0000 0000 0000 0000 0000 0000 0000
00000340: 0000 0000 0000 0000 0000 0000 0000 0000
00000350: 0000 0000 0000 0000 0000 0000 0000 0000
00000360: 0000 0000 0000 0000 0000 0000 0000 0000
00000370: 0000 0000 0000 0000 0000 0000 0000 0000
00000380: 0000 0000 0000 0000 0000 0000 0000 0000
00000390: 0000 0000 0000 0000 0000 0000 0000 0000
000003a0: 0000 0000 0000 0000 0000 0000 0000 0000
000003b0: 0000 0000 0000 0000 0000 0000 0000 0000
000003c0: 0000 0000 0000 0000 2b0d 9e3e 6af9 303f
000003d0: 0000 0000 0000 0000 0000 0000 0000 0000
000003e0: 0000 0000 0000 0000 0000 0000 0000 0000
000003f0: 0000 0000 0000 0000 0000 0000 0000 0000

conv1.weight f4 [32, 1, 3, 3]
0.2651429 0.20368378 -0.23205091 0.034844104 0.008290008 0.036610544 -0.03369139 -0.019023865
-0.29631305 0.28489754 -0.018353917 0.02243618 0.04005893 -0.02110396 0.123951435 0.06934543
0.1934061 -0.29946998 -0.031761944 0.13906422 -0.20339008 -0.0914879 0.2942112 0.08821974
-0.04912959 0.16981097 0.19756244 0.23632179 0.05892953 -0.22133282 -0.012713009 -0.021810094
0.046276856 0.25343072 0.09668942 0.06997039 0.20699055 0.014626924 0.2561677 -0.02056596
-0.22143348 0.021810306 -0.11695641 -0.11440547 0.16071239 -0.059586935 -0.03794237 -0.16485405
0.20704198 0.024294509 0.18981865 -0.051844567 -0.26538205 -0.13530208 -0.2676174 -0.25342846
0.07534078 0.12567341 0.27677575 -0.31433892 0.13354628 0.11920507 0.23769122 -0.31136674
0.2814315 -0.05584206 -0.09407757 -0.13765562 0.046809074 0.08354898 0.14305288 0.30017284
-0.13047525 -0.29502797 0.004959442 0.13340889 0.0078166425 0.060208715 0.14592715 0.22298038
0.18174158 0.11886319 0.20423199 0.018529445 0.03858497 -0.25143337 -0.11629921 0.19293058
0.27755517 0.10373439 -0.014090491 -0.08862037 -0.0791672 -0.21815592 -0.23119223 0.0665613
-0.05925163 0.27037895 -0.26975092 -0.1944853 -0.037642647 0.30257347 0.23117067 0.26083836
0.32011 0.105224095 -0.19698338 0.28397885 -0.12385334 -0.20077978 -0.3246249 0.009451529
0.112342045 0.12715037 0.123067774 -0.16574813 0.1917864 0.15995188 0.15446834 0.0352283
0.17700171 -0.26367208 -0.019673713 0.24864574 0.3188289 0.17695184 0.048129324 -0.17017207
-0.13946985 0.000661234 0.0065872655 -0.17622572 -0.06259085 0.3236824 0.07288922 0.27439576
0.06740981 -0.2573811 0.06587325 -0.01895905 -0.2541865 0.15646805 0.30152237 -0.30910277
0.028302133 -0.15121818 0.112534426 -0.32161236 -0.16312072 -0.044644766 -0.2533803 0.24498469
0.16121252 -0.31495088 0.107038416 -0.12914638 -0.0729465 0.2427399 0.28422016 -0.06274077
-0.24971668 -0.1457925 0.32818717 -0.22255415 -0.018366432 0.12833938 0.31835136 -0.22395235
0.07182636 -0.16111107 -0.16819218 0.15228032 -0.12880073 -0.33741823 -0.3131585 -0.17532253
0.05749696 -0.16052905 -0.18961875 0.23305333 -0.04214344 -0.16714706 0.07148237 0.017171865
0.27371415 -0.24813035 -0.033564445 0.04039911 -0.024120286 0.06898608 0.07796451 -0.30464387
-0.13777389 -0.053014196 -0.24236627 -0.055461757 -0.24936953 -0.0828286 0.24520813 -0.2893444
0.040788624 -0.3337286 -0.2754342 0.30053738 -0.029969908 0.2580168 0.23989044 0.2569529
0.32931498 -0.016651541 -0.30644387 0.20077585 0.16558683 0.20199887 -0.20456654 -0.26555374
-0.19117114 0.09457658 0.014087654 0.23091471 0.27605578 0.26540795 0.19743985 0.14493757
0.20104198 0.3007208 -0.015264704 -0.04343148 -0.20539056 -0.07528419 0.18917881 0.22479597
0.33026516 0.29417545 0.15736671 -0.0646735 -0.14438242 0.091191895 0.32367107 -0.29647553
0.31296045 -0.17194046 -0.1481379 -0.24318413 0.2281647 -0.22930051 0.05619454 0.30934656
-0.278164 0.09895771 0.24215868 0.03142986 -0.093791336 -0.0040641516 0.27983892 -0.26337582
00000000: cfc0 873e 7b92 503e c19e 6dbe b1b8 0e3d
00000010: d0d2 073c f0f4 153d fcff 09bd f0d7 9bbc
00000020: 58b6 97be 17de 913e f45a 96bc 14cc b73c
00000030: d514 243d 36e2 acbc 40da fd3d fa04 8e3d
00000040: 400c 463e 2154 99be d018 02bd da66 0e3e
00000050: 7d45 50be 025e bbbd daa2 963e 8dac b43d
00000060: 1c3c 49bd ede2 2d3e cf4d 4a3e 57fe 713e
00000070: 1760 713d 12a5 62be 394a 50bc 15ab b2bc
00000080: cd8c 3d3d acc1 813e 1a05 c63d a34c 8f3d
00000090: 55f5 533e c4a5 6f3c 6a28 833e f279 a8bc
000000a0: 75bf 62be 87ab b23c d886 efbd 6a4d eabd
000000b0: ca91 243e 6e11 74bd 7569 1bbd 80cf 28be
000000c0: d002 543e 4705 c73c d25f 423e f85a 54bd
000000d0: 28e0 87be a18c 0abe 2605 89be 60c1 81be
000000e0: 444c 9a3d 88b0 003e 8db5 8d3e 08f1 a0be
000000f0: 5bc0 083e ca21 f43d 5465 733e 766b 9fbe
00000100: ca17 903e a5ba 64bd beab c0bd 98f5 0cbe
00000110: dfba 3f3d ba1b ab3d 747c 123e 41b0 993e
00000120: 4e9b 05be e80d 97be d182 a23b 579c 083e
00000130: 6011 003c 6a9d 763d ed6d 153e f854 643e
00000140: 771a 3a3e 8b6e f33d 3122 513e 10cb 973c
00000150: 460b 1e3d e0bb 80be 482e eebd 988f 453e
00000160: b61b 8e3e b272 d43d cedb 66bc 997e b5bd
00000170: 6a22 a2bd 4464 5fbe a8bd 6cbe 4a51 883d
00000180: d6b1 72bd 1c6f 8a3e cb1c 8abe 2827 47be
00000190: 2d2f 1abd e9ea 9a3e 01b8 6c3e 9b8c 853e
000001a0: 75e5 a33e bb7f d73d 03b6 49be ad65 913e
000001b0: d2a6 fdbd 3799 4dbe 3c35 a6be 96da 1a3c
000001c0: 9613 e63d b533 023e f50a fc3d e1b9 29be
000001d0: a763 443e 6dca 233e f32c 1e3e 8d4b 103d
000001e0: f03f 353e 0700 87be c42a a1bc fd9c 7e3e
000001f0: 8b3d a33e dd32 353e 4123 453d 9641 2ebe
00000200: 2fd1 0ebe aa56 2d3a fdd9 d73b 8474 34be
00000210: a22f 80bd b3b9 a53e f246 953d 9a7d 8c3e
00000220: 280e 8a3d 75c7 83be 8ee8 863d 0250 9bbc
00000230: bc24 82be 2939 203e 2461 9a3e b842 9ebe
00000240: e0d9 e73c f0d8 1abe 7378 e63d 60aa a4be
00000250: 1e09 27be 6edd 36bd 10bb 81be 44dd 7a3e
00000260: e514 253e 3e41 a1be f536 db3d f33e 04be
00000270: f964 95bd cf90 783e 4e85 913e 3c7e 80bd
00000280: bbb5 7fbe a14a 15be 2608 a83e 3ce5 63be
00000290: 3375 96bc 666b 033e f3fe a23e c453 65be
000002a0: b319 933d 4dfa 24be 923a 2cbe 5fef 1b3e
000002b0: 57e4 03be 15c2 acbe 5056 a0be c087 33be
000002c0: ef81 6b3d ba61 24be 6b2b 42be 88a5 6e3e
000002d0: 9a9e 2cbd 9928 2bbe 5965 923d 03ac 8c3c
000002e0: 4324 8c3e e215 7ebe df7a 09bd 8a79 253d
000002f0: e897 c5bc 9348 8d3d dbab 9f3d 48fa 9bbe
00000300: 9914 0dbe 6a25 59bd dd2e 78be de2b 63bd
00000310: ba5a 7fbe 0ba2 a9bd d717 7b3e f324 94be
00000320: f911 273d 7ade aabe b605 8dbe 09e0 993e
00000330: 7483 f5bc c71a 843e d7a5 753e 558f 833e
00000340: f99b a83e d068 88bc 36e6 9cbe 2f98 4d3e
00000350: 988f 293e cbd8 4e3e e479 51be a9f6 87be
00000360: 5ec2 43be 5eb1 c13d e7cf 663c e874 6c3e
00000370: 2f57 8d3e 8de3 873e ac2d 4a3e 846a 143e
00000380: f3dd 4d3e 14f8 993e cf18 7abc 35e5 31bd
00000390: e751 52be 992e 9abd 17b8 413e ea30 663e
000003a0: 8418 a93e 2a9e 963e bd24 213e 8a73 84bd
000003b0: fcd8 13be d1c2 ba3d 37b8 a53e a4cb 97be
000003c0: 5a3c a03e 2911 30be 76b1 17be 4305 79be
000003d0: 02a4 693e c1cd 6abe 3f2c 663d ac62 9e3e
000003e0: 836b 8ebe 57aa ca3d 72f8 773e 99bc 003d
000003f0: ac15 c0bd 932c 85bb 0c47 8f3e 32d9 86be

conv1.bias f4 [32]
-0.057231866 -0.055349275 -0.20538676 0.15634154 -0.049799483 0.12928009 -0.098973386 -0.26364112
0.059853304 0.3090513 -0.22661136 -0.26564935 0.06297009 0.059374906 -0.07926703 0.3124736
-0.20091353 0.20568997 -0.20879908 0.20834987 0.069761224 -0.28331092 -0.27067205 -0.22564234
0.22501111 -0.31094328 -0.14781164 0.30270356 -0.1881713 0.2665474 0.06080135 -0.02505273
00000000: f66b 6abd ecb5 62bd e850 52be ff17 203e
00000010: 8bfa 4bbd 0062 043e 8fb2 cabd f8fb 86be
00000020: bd28 753d f93b 9e3e cf0c 68be 3103 88be
00000030: 76f6 803d 1a33 733d c156 a2bd 8afc 9f3e
00000040: 47bc 4dbe 64a0 523e 6dcf 55be ab59 553e
00000050: f9de 8e3d 210e 91be 8795 8abe c90e 67be
00000060: 5069 663e f533 9fbe ef5b 17be f6fb 9a3e
00000070: faaf 40be e778 883e d60a 793d 623b cdbc

bn1.weight f4 [32]
0.98292243 0.99912876 0.9972305 1.0016245 1.0424633 1.0054129 1.0288965 0.9992426
1.017155 0.9962825 0.97362953 1.0003151 0.98780656 1.0021322 0.9825188 1.0071946
0.99414444 0.98067784 0.9774431 0.97863066 0.9993088 0.96740013 1.0180539 1.0127803
0.9917792 0.9884076 1.0149454 1.0140082 1.0028133 0.9935631 0.99258435 1.0055945
00000000: cea0 7b3f e7c6 7f3f 804a 7f3f 3b35 803f
00000010: 706f 853f 5fb1 803f e1b2 833f 5dce 7f3f
00000020: 2332 823f 5f0c 7f3f c93f 793f 530a 803f
00000030: e4e0 7c3f de45 803f 5a86 7b3f c1eb 803f
00000040: 4080 7e3f b40d 7b3f b639 7a3f 8a87 7a3f
00000050: b4d2 7f3f 89a7 773f 974f 823f c9a2 813f
00000060: 3ee5 7d3f 4808 7d3f bbe9 813f 05cb 813f
00000070: 305c 803f 275a 7e3f 021a 7e3f 52b7 803f

bn1.bias f4 [32]
0.019876136 -0.016650349 -0.00804741 -0.004451998 0.010232231 0.005852895 0.01705421 -0.05449357
0.0038694611 -0.04690925 0.009033752 -0.022016175 0.021930408 -0.02504633 0.02801908 0.03472209
0.032392383 -0.005318485 -0.0020282478 0.022794036 -0.0055207163 -0.021620486 0.01373497 0.009447895
-0.020671373 -0.025601652 0.011547108 -0.024789445 0.009342116 0.026805317 -0.0040549156 0.032044854
00000000: 47d3 a23c 5066 88bc 49d9 03bc 11e2 91bb
00000010: 16a5 273c a4c9 bf3b 45b5 8b3c a634 5fbd
00000020: c996 7d3b ea23 40bd 4d02 143c 445b b4bc
00000030: 66a7 b33c f62d cdbc 4588 e53c c038 0e3d
00000040: e0ad 043d b046 aebb 5aec 04bb 8fba ba3c
00000050: 20e7 b4bb 721d b1bc a408 613c 58cb 1a3c
00000060: 0357 a9bc 8eba d1bc 1530 3d3c 3c13 cbbc
00000070: ad0f 193c d396 db3c 19df 84bb 7741 033d

bn1.running_mean f4 [32]
-0.040099986 -0.039260093 -0.2151233 0.1544342 -0.025077565 0.12198966 -0.12804244 -0.27569798
0.029950514 0.3190952 -0.23513709 -0.26477236 0.028243694 0.0670663 -0.09417564 0.31697842
-0.20359446 0.19559968 -0.1990349 0.19368659 0.063012496 -0.28564245 -0.2769854 -0.19287589
0.2133135 -0.31092718 -0.14937249 0.28405166 -0.17284755 0.26076612 0.059130922 -0.019723658
00000000: e23f 24bd 31cf 20bd 4849 5cbe 0024 1e3e
00000010: 776f cdbc b7d5 f93d 8f1d 03be 4928 8dbe
00000020: c85a f53c 7260 a33e c7c7 70be 3e90 87be
00000030: 525f e73c 0e5a 893d 28df c0bd ff4a a23e
00000040: 117b 50be 484b 483e cecf 4bbe c755 463e
00000050: b20c 813d ba3f 92be 08d1 8dbe 4281 45be
00000060: db6e 5a3e d931 9fbe 1af5 18be 386f 913e
00000070: f3fe 30be 2383 853e 4433 723d 8293 a1bc

bn1.running_var f4 [32]
0.05248969 0.16381998 0.25472546 0.23882549 0.049176693 0.09286448 0.101584174 0.11076116
0.18983681 0.2875136 0.32539853 1.030279 0.08452769 0.79666394 0.046030063 0.05979396
0.18682818 0.11986755 0.049370024 0.6499277 0.011466697 0.82729506 0.08311158 0.15597494
1.3611637 0.79703367 0.04732189 0.110554636 0.021115333 1.8351604 0.069846176 0.077566415
00000000: 6eff 563d 6dc0 273e 606b 823e ab8e 743e
00000010: 806d 493d bc2f be3d 5d0b d03d bfd6 e23d
00000020: 9564 423e fc34 933e a39a a63e 2fe0 833f
00000030: db1c ad3d 2bf2 4b3f 058a 3c3d 83ea 743d
00000040: e34f 3f3e 1e7d f53d 3938 4a3d a961 263f
00000050: d0de 3b3c 9cc9 533f 6736 aa3d e5b7 1f3e
00000060: 9d3a ae3f 660a 4c3f 99d4 413d 786a e23d
00000070: 10fa ac3c 89e6 ea3f 830b 8f3d 24db 9e3d

conv2.weight f4 [64, 32, 3, 3]
-0.052143883 0.028305478 -0.06976775 -0.042848006 -0.029197998 -0.031307217 -0.001315977 -0.03679326
0.022458702 0.049287885 0.020160675 0.025965879 0.059948273 -0.04659044 -0.0029485845 0.002156901
0.042813003 0.053854927 -0.0106188785 0.04791436 0.029041652 -0.014552794 -0.012538607 0.00048993627
-0.002195114 0.06271517 0.059581377 0.05208868 0.030082876 -0.04541597 -0.024088083 0.033339918
-0.0069445884 0.02544541 -0.008092709 -0.021898907 -0.035560478 -0.036366154 0.051439065 -0.011853835
-0.02693022 0.046353936 -0.03413867 -0.03624965 0.0037054843 -0.050807953 -0.014359064 0.0016817745
-0.023764474 0.02654668 -0.03464678 -0.044148296 0.023254538 -0.06829578 -0.058590982 -0.041530147
-0.019810084 0.0007445781 0.018482506 -0.061609168 0.012091647 -0.025124822 0.0024997934 -0.0019252353
0.0125187095 0.0315745 0.010111143 0.04195558 -0.0327089 -0.040375583 0.021053776 0.016159588
-0.05670255 -0.060619745 0.03929126 -0.05889949 0.014210846 -0.0026968697 -0.053422038 -0.034778308
-0.04186833 0.013659176 -0.031724945 0.04537941 -0.014463904 0.01432395 0.028039314 -0.047898583
-0.049414054 -0.02855304 -0.005091657 -0.0038239926 0.0057228333 -0.026081618 0.021157091 -0.040857177
-0.014845177 -0.051640704 0.015232376 0.03940987 0.0178149 0.012224704 -0.038940858 -0.051901218
0.03924511 -0.04914542 -0.049211767 -0.012564321 0.04596835 0.030866906 -0.00084339915 0.010726463
-0.03314498 0.0011546405 -0.0044521405 -0.03108936 0.028968696 0.05947415 0.049696904 0.0123431925
-0.026775151 -0.024159228 0.062399592 -0.022759292 0.027066043 -0.028206732 -0.059099026 0.02129075
-0.02760813 -0.017205019 -0.049262308 -0.03513324 0.025129888 0.036099613 -0.059176423 0.040969424
0.0064553428 0.0129883615 0.03868119 0.0177192 -0.040781125 -0.0018652556 0.010946911 -0.00543926
0.030555112 -0.049321845 -0.006902761 -0.051976867 0.025524925 -0.016359737 -0.06274524 -0.050796438
0.021049375 -0.015209934 -0.045643315 -0.04025857 -0.035396993 0.026495622 -0.051769212 -0.06354877
-0.06308268 -0.044867806 -0.0140036745 0.054466356 -0.02619777 -0.04260053 0.040025633 -0.058287997
0.009795844 -0.051864535 -0.027303707 0.052240524 0.043352094 0.026306998 0.03071125 -0.00979109
-0.053582825 -0.010558682 -0.04507134 0.028123656 -0.039367005 0.04834723 0.021648547 -0.028450882
-0.027189711 0.046637036 -0.014468268 0.016066935 0.062245756 0.012368404 0.050997257 0.040891062
-0.043353133 0.042319592 -0.003054555 -0.04842165 0.0005014705 0.007022147 0.04781467 0.02298919
-0.013480548 0.022237524 -0.021436676 -0.015176035 -0.006443222 0.04605971 0.023176882 0.041152958
-0.0064649745 0.020394593 0.0054709986 -0.013477792 0.031517375 -0.026894448 0.051219888 0.011729347
-0.00089103804 0.019660804 -0.01085683 -0.048916873 -0.030631296 -0.030090297 0.017557181 -0.04878396
0.02314558 0.018001577 -0.013488018 0.011050383 0.024675267 -0.039518483 -0.0074568246 -0.010552268
0.026845202 0.059168015 0.07223785 0.07112779 -0.042750996 0.00733409 0.012973076 0.031358343
-0.023071919 0.076303974 0.023988701 -0.006317903 0.05737412 -0.044278726 0.01906826 0.030438991
0.012352431 0.014241167 0.030435711 0.053063873 0.03023492 0.014600149 -0.011563653 0.013688425
00000000: d394 55bd e4e0 e73c 65e2 8ebd 6481 2fbd
00000010: a430 efbc ff3b 00bd dc7c acba 88b4 16bd
00000020: 50fb b73c 18e2 493d 0028 a53c 65b6 d43c
00000030: 528c 753d 9ed5 3ebd 0a3d 41bb cb5a 0d3b
00000040: b05c 2f3d fc96 5c3d cefa 2dbc d941 443d
00000050: c2e8 ed3c d86e 6ebc bb6e 4dbc 116f 003a
00000060: e7db 0fbb d070 803d 9a0b 743d f15a 553d
00000070: 5d70 f63c 1906 3abd 5f54 c5bc 708f 083d
00000080: 6e8f e3bb e472 d03c 4897 04bc 5665 b3bc
00000090: dda7 11bd adf4 14bd c5b1 523d 9636 42bc
000000a0: c49c dcbc a0dd 3d3d fdd4 0bbd 837a 14bd
000000b0: b6d7 723b 001c 50bd 4842 6bbc fd6e dc3a
000000c0: b7ad c2bc 6c78 d93c c8e9 0dbd d8d4 34bd
000000d0: 4d80 be3c a8de 8bbd 19fd 6fbd 841b 2abd
000000e0: c248 a2bc ca2f 433a a068 973c e559 7cbd
000000f0: 0b1c 463c 92d2 cdbc 93d3 233b 2d58 fcba
00000100: 461b 4d3c 4354 013d 35a9 253c 9dd9 2b3d
00000110: c4f9 05bd de60 25bd f878 ac3c 1d61 843c
00000120: ef40 68bd 694c 78bd dfef 203d 9740 71bd
00000130: 9cd4 683c f7bd 30bb 11d1 5abd b373 0ebd
00000140: 207e 2bbd bdca 5f3c 04f2 01bd c3df 393d
00000150: 03fa 6cbc 00af 6a3c b4b2 e53c 4e31 44bd
00000160: 6466 4abd 11e8 e9bc ead7 a6bb f39b 7abb
00000170: 9b86 bb3b 1ea9 d5bc a351 ad3c db59 27bd
00000180: 2f39 73bc 3485 53bd 3791 793c 3e6c 213d
00000190: 8ef0 913c 204a 483c 7380 1fbd 5f96 54bd
000001a0: 7bbf 203d b54c 49bd 4792 49bd 95da 4dbc
000001b0: 4f49 3c3d 98dc fc3c 8f17 5dba 0cbe 2f3c
000001c0: 08c3 07bd 4e57 973a 43e3 91bb 1daf febc
000001d0: c24f ed3c 2b9b 733d fb8e 4b3d 1a3b 4a3c
000001e0: 9057 dbbc 93e9 c5bc b796 7f3d b271 babc
000001f0: 9bb9 dd3c ce11 e7bc d211 72bd f069 ae3c
00000200: 722a e2bc 8af1 8cbc 46c7 49bd dfe7 0fbd
00000210: 32dd cd3c 30dd 133d fa62 72bd 8ecf 273d
00000220: 5787 d33b 23cd 543c 2b70 1e3d db27 913c
00000230: 1c0a 27bd 987b f4ba ac5a 333c d23b b2bb
00000240: b74e fa3c b405 4abd 8e30 e2bb b2e5 54bd
00000250: a619 d13c db04 86bc 9480 80bd ed0f 50bd
00000260: bd6f ac3c 1633 79bc 7cf4 3abd 2ce6 24bd
00000270: 70fc 10bd 590d d93c f40b 54bd dc25 82bd
00000280: 7e31 81bd 4ec7 37bd ab6f 65bc 1d18 5f3d
00000290: b59c d6bc e57d 2ebd ebf1 233d 65bf 6ebd
000002a0: bf7e 203c e86f 54bd 06ac dfbc 29fa 553d
000002b0: f791 313d c681 d73c 2996 fb3c cf6a 20bc
000002c0: aa79 5bbd 52fe 2cbc ba9c 38bd 9563 e63c
000002d0: 4c3f 21bd bf07 463d 4b58 b13c d311 e9bc
000002e0: f5bc debc 7a06 3f3d 500c 6dbc ce9e 833c
000002f0: 68f5 7e3d d9a4 4a3c 80e2 503d 637d 273d
00000300: 0e93 31bd 4f57 2d3d ee2e 48bb c855 46bd
00000310: 1e75 033a 0a1a e63b 51d9 433d d353 bc3c
00000320: 84dd 5cbc 782b b63c f89b afbc e8a4 78bc
00000330: aa21 d3bb 1ba9 3c3d 72dd bd3c 0190 283d
00000340: 23d8 d3bb 9012 a73c 1046 b33b f5d1 5cbc
00000350: 5d18 013d bf51 dcbc f2cb 513d 722c 403c
00000360: 8d94 69ba b20f a13c d8e0 31bc 0f5d 48bd
00000370: 7cee fabc ed7f f6bc 14d4 8f3c b1d1 47bd
00000380: cd9b bd3c 0b78 933c d9fc 5cbc aa0c 353c
00000390: c923 ca3c 22de 21bd 6158 f4bb 6be3 2cbc
000003a0: 78ea db3c 295a 723d 70f1 933d 72ab 913d
000003b0: ab1b 2fbd ce52 f03b 068d 543c 9b71 003d
000003c0: 5201 bdbc 4245 9c3d f483 c43c 6906 cfbb
000003d0: 2001 6b3d 9c5d 35bd 0a35 9c3c 315b f93c
000003e0: da61 4a3c c953 693c 5054 f93c 8159 593d
000003f0: 39af f73c 7735 6f3c 7a75 3dbc 6a45 603c

conv2.bias f4 [64]
-0.055832487 0.016993297 -0.012201308 0.025864456 -0.017487433 -0.039600845 0.008100686 0.049600802
-0.0046698814 -0.006106191 -0.015012925 -0.0470692 -0.04416596 0.032679357 0.05367416 -0.041714422
0.00972302 0.057063445 0.0013703491 -0.011617361 -0.04746188 -0.040506247 -0.009531653 0.02780799
0.002388395 -0.011676774 -0.005151686 0.036322888 0.018017588 0.025380049 0.0108517865 -0.0035230268
0.034099277 -0.031847272 -0.0033354335 0.0559695 0.051767364 0.057577822 0.05344881 0.048242576
-0.03898985 0.02016861 0.011428317 0.058054376 -0.047031485 -0.028547859 -0.00315512 0.055770554
0.013283859 -0.01425321 -0.0010826286 0.046322178 0.06117967 -0.039221097 0.04906757 -0.03702069
-0.03096109 0.03779888 -0.003156617 0.047175106 -0.03581965 0.008459707 0.023911623 -0.015323038
00000000: 9bb0 64bd 8735 8b3c ffe7 47bc b2e1 d33c
00000010: ce41 8fbc 7f34 22bd bdb8 043c 362a 4b3d
00000020: ce05 99bb 7116 c8bb c5f8 75bc a2cb 40bd
00000030: 5ee7 34bd cada 053d 70d9 5b3d bedc 2abd
00000040: 4d4d 1f3c 5cbb 693d 499d b33a be56 3ebc
00000050: 6367 42bd e1e9 25bd a62a 1cbc 95cd e33c
00000060: 9e86 1c3b f14f 3fbc 79cf a8bb 4fc7 143d
00000070: 9f99 933c d2e9 cf3c b1cb 313c 95e2 66bb
00000080: afab 0b3d 4972 02bd 4a97 5abb 4640 653d
00000090: 040a 543d b9d6 6b3d 24ed 5a3d 029a 453d
000000a0: d2b3 1fbd a438 a53c d63d 3b3c 6dca 6d3d
000000b0: 16a4 40bd 33dd e9bc 21c6 4ebb aa6f 643d
000000c0: 8ba4 593c 4c86 69bc fde6 8dba 53bc 3d3d
000000d0: 8997 7a3d 4da6 20bd 14fb 483d 02a3 17bd
000000e0: 1da2 fdbc 00d3 1a3d 3fdf 4ebb af3a 413d
000000f0: a0b7 12bd 959a 0a3c 4fe2 c33c 7b0d 7bbc

bn2.weight f4 [64]
0.9936566 1.0051895 1.0127308 1.0043622 1.0046372 1.0138785 1.0224986 1.0255226
0.9835554 1.0365179 0.98449457 1.0008062 1.0448983 0.9902497 0.9821801 1.0157585
0.9856876 1.0037882 1.0589627 1.0151173 1.0120565 1.0142677 0.9927287 0.9827903
1.0621227 0.97622883 1.009047 0.9992499 0.9737647 0.99788517 0.9714276 1.0086708
0.9615898 0.96320635 1.0145577 0.9697814 1.0092213 1.0165851 1.0086982 1.0320839
1.057574 0.99788135 0.9708586 0.983263 0.97386175 0.97838795 1.0011957 1.0314975
0.9763952 0.98697376 1.0195904 0.9857814 0.9936102 0.96642774 0.9723556 0.99362016
0.98608834 0.9642562 1.0118959 1.0197525 0.9880083 1.0165774 0.97004396 0.9792586
00000000: 4760 7e3f 0daa 803f 2aa1 813f f18e 803f
00000010: f497 803f c5c6 813f 3ce1 823f 5344 833f
00000020: 49ca 7b3f 9eac 843f d607 7c3f 6b1a 803f
00000030: 3abf 853f 0181 7d3f 2870 7b3f 6004 823f
00000040: 0656 7c3f 227c 803f 178c 873f 5def 813f
00000050: 118b 813f 86d3 813f 7823 7e3f 2598 7b3f
00000060: a3f3 873f 22ea 793f 7428 813f d7ce 7f3f
00000070: a548 793f 6775 7f3f 7baf 783f 201c 813f
00000080: c02a 763f b194 763f 07dd 813f 9843 783f
00000090: 2a2e 813f 761f 823f 061d 813f 531b 843f
000000a0: 965e 873f 2775 7f3f 308a 783f 20b7 7b3f
000000b0: 014f 793f a277 7a3f 2e27 803f 1c08 843f
000000c0: 09f5 793f 50aa 7c3f f081 823f 2b5c 7c3f
000000d0: 3d5d 7e3f cf67 773f 4cec 783f e45d 7e3f
000000e0: 4970 7c3f 7fd9 763f ce85 813f 4087 823f
000000f0: 1dee 7c3f 351f 823f cd54 783f b1b0 7a3f

bn2.bias f4 [64]
-0.026920246 -0.04428125 -0.056965 -0.04687979 -0.012498691 0.018453373 -0.0018906542 0.0235919
-0.03905873 -0.0008338332 -0.037639074 -0.04113322 0.012407739 -0.03130395 -0.042529386 -0.014124567
-0.028876727 -0.0413399 -0.015268162 -0.007379562 -0.024303563 -0.011364299 -0.027929787 -0.032258864
-0.034769412 -0.036834907 -0.007253221 -0.029892987 -0.034860253 -0.005564643 -0.062208325 -0.0013404432
-0.05556809 -0.036412176 -0.01579467 -0.02239235 -0.009425714 -0.021190384 -0.0022657695 -0.010721055
-0.03730209 -0.04948096 -0.0323735 -0.04176714 -0.04589007 -0.032024126 -0.00021177733 0.024811298
-0.054127865 -0.07333234 -0.00864513 -0.04436534 -0.002529972 -0.051627837 -0.08468577 -0.075499706
-0.031249585 -0.04629296 -0.03435875 -0.008345294 -0.041643426 -0.066253245 -0.057012696 -0.04360571
00000000: d987 dcbc 4260 35bd 2254 69bd 0605 40bd
00000010: 4fc7 4cbc 872b 973c d4cf f7ba cd43 c13c
00000020: 0cfc 1fbd 9995 5aba 6e2b 1abd 4f7b 28bd
00000030: d449 4b3c 9238 00bd 4b33 2ebd ba6a 67bc
00000040: e38e ecbc 0754 29bd 5027 7abc 41d0 f1bb
00000050: 4418 c7bc 5331 3abc 02cd e4bc df21 04bd
00000060: 5f6a 0ebd 33e0 16bd 6dac edbb 23e2 f4bc
00000070: a0c9 0ebd 9c57 b6bb 28ce 7ebd cfb1 afba
00000080: 5e9b 63bd ef24 15bd d363 81bc 2970 b7bc
00000090: 4f6e 1abc 7597 adbc 4e7d 14bb 5da7 2fbc
000000a0: 14ca 18bd 8cac 4abd 139a 04bd 0514 2bbd
000000b0: 3af7 3bbd bb2b 03bd 8b10 5eb9 1041 cb3c
000000c0: 2eb5 5dbd 442f 96bd 4ea4 0dbc 6eb8 35bd
000000d0: e3cd 25bb b677 53bd bc6f adbd 979f 9abd
000000e0: 21ff ffbc b09d 3dbd c3bb 0cbd b3ba 08bc
000000f0: 4c92 2abd c8af 87bd 2586 69bd e79b 32bd

bn2.running_mean f4 [64]
-0.31774914 -0.14993823 0.53629386 0.7514767 -0.8336086 -0.661302 -0.9097722 -1.0458648
-0.56983376 -0.63444537 0.07741871 -0.4453175 -1.4442781 -0.1412156 -0.81360435 -1.4639891
-0.15985703 -0.4664657 -0.306505 -0.6918803 -1.7010963 -1.8659598 0.15299498 0.33409038
-0.3140403 0.041407555 -1.1840242 -0.8687498 -0.5519156 -0.9913484 0.8790498 -0.2860552
-0.26611128 -0.94324064 -0.75362885 0.94880754 -1.822588 -0.18456918 -0.6796376 -0.59954983
-0.8126981 -0.01776881 0.6766569 0.748041 -0.31560504 0.3191006 0.04604451 -0.99088526
-0.2382523 0.41454008 -0.22959083 0.27007616 -0.18388642 -0.027184434 0.684776 1.3531342
-0.82448053 -0.46144047 -0.45937857 -0.3228016 -0.13263671 -0.07362829 -0.05609882 -0.4546177
00000000: 04b0 a2be 6889 19be 8e4a 093f c760 403f
00000010: 6067 55bf 164b 29bf d5e6 68bf e6de 85bf
00000020: a0e0 11bf 036b 22bf b38d 9e3d a800 e4be
00000030: 1bde b8bf d29a 10be 6048 50bf ff63 bbbf
00000040: 90b1 23be 98d4 eebe 39ee 9cbe 111f 31bf
00000050: 86bd d9bf c5d7 eebf b7aa 1c3e e50d ab3e
00000060: e4c9 a0be f89a 293d 1b8e 97bf 6366 5ebf
00000070: 574a 0dbf 02c9 7dbf 6809 613f d475 92be
00000080: bd3f 88be 3878 71bf d2ed 40bf 0de5 723f
00000090: 904a e9bf b4ff 3cbe bbfc 2dbf 197c 19bf
000000a0: fc0c 50bf e58f 91bc 6339 2d3f 9d7f 3f3f
000000b0: fc96 a1be 2761 a33e 2b99 3c3d a8aa 7dbf
000000c0: 69f8 73be 993e d43e dc19 6bbe 6c47 8a3e
000000d0: b94c 3cbe e4b1 debc 7b4d 2f3f 8033 ad3f
000000e0: 2811 53bf ed41 ecbe ab33 ebbe 4046 a5be
000000f0: ebd1 07be 6eca 96bd e0c7 65bd a7c3 e8be

bn2.running_var f4 [64]
0.35235193 0.347064 0.29154462 0.44178572 0.4226132 0.40110856 0.5044296 0.57975227
0.97107875 0.4283245 0.25804698 0.41833603 0.9978072 0.29579446 0.7429612 0.81877893
0.45926884 0.38167027 0.3578047 0.5003136 2.075448 1.2731932 0.33183557 0.34119278
0.30290118 0.35575005 0.66290975 0.51482505 0.47709674 0.60380644 1.1053654 0.34888783
1.6908525 2.361478 0.5812272 0.48445877 1.5370857 0.43159235 0.5185767 0.29417908
0.71724683 0.38572836 0.49351987 0.6896363 1.0761375 0.3106356 0.29186434 0.5670066
0.6005016 0.38576663 0.4194261 0.61109865 0.39850384 0.86970365 0.5085859 1.5251322
0.5999117 1.662373 0.26792285 0.28780264 0.44129556 0.34546992 0.6795969 0.24786331
00000000: 7967 b43e 5fb2 b13e 5645 953e bd31 e23e
00000010: c260 d83e 1a5e cd3e 4c22 013f a56a 143f
00000020: 9e98 783f 594d db3e bc1e 843e 2430 d63e
00000030: 4b70 7f3f 5f72 973e b532 3e3f 7f9b 513f
00000040: 4925 eb3e 496a c33e 2d32 b73e 8d14 003f
00000050: 24d4 0440 fff7 a23f 5ae6 a93e d2b0 ae3e
00000060: dd15 9b3e df24 b63e 74b4 293f 93cb 033f
00000070: 0646 f43e 0f93 1a3f 9d7c 8d3f 6da1 b23e
00000080: db6d d83f 7522 1740 4ecb 143f fb0a f83e
00000090: 39bf c43f acf9 dc3e 71c1 043f a49e 963e
000000a0: 7d9d 373f 307e c53e a3ae fc3e 018c 303f
000000b0: e0be 893f a10b 9f3e 3e6f 953e 5827 113f
000000c0: 79ba 193f 3483 c53e 05bf d63e f670 1c3f
000000d0: b208 cc3e e6a4 5e3f af32 023f 8837 c33f
000000e0: d093 193f a3c8 d43f 2f2d 893e de5a 933e
000000f0: 7ef1 e13e 6fe1 b03e 10fa 2d3f e1cf 7d3e

conv3.weight f4 [128, 64, 3, 3]
-0.0127503695 0.054248795 0.0009064082 0.0034581758 0.049635958 0.022032565 -0.022606574 -0.0028439807
0.028431958 -0.026654799 -0.014743392 -0.004393862 -0.00011063234 -0.026091753 0.007405193 0.034789614
-0.014405852 0.028057469 0.026025495 0.01997951 -0.0066137845 0.031045433 0.005795551 -0.011322169
0.033057895 0.052765064 0.0056783953 -0.022430602 0.03247595 0.0042885677 0.027000772 0.012485801
0.002026607 0.026217334 -0.0011752342 -0.0023186 -0.0123108 0.05074638 -0.020973135 -0.034717146
0.023803068 -0.03353368 -0.0077077346 0.036486957 -0.037445933 -0.038250253 -0.018361438 0.02415753
0.014310402 -0.020302773 0.005296087 -0.026757795 -0.03252999 0.021834854 0.018377546 -0.024631755
0.038553435 0.01646239 -0.013507755 0.0037578004 0.028532194 0.013274098 -0.022519188 0.012880968
0.01030826 -0.026399985 -0.020196022 -0.00037466647 -0.014619348 0.017966712 0.028492313 0.025829175
-0.0009783017 0.023489747 -0.012946049 -0.018196613 0.014209792 -0.03794416 0.029246127 0.042134497
-0.040075123 5.4359825e-05 -0.015840048 0.033542097 0.032232963 0.004232153 0.017406 -0.021048814
0.025736667 0.060755897 -0.0067411843 0.070616476 0.016141463 -0.02938092 0.021457404 0.03141221
-0.011319014 -0.0066890833 -0.025991898 -0.01582437 -0.0152174365 -0.0046676467 0.038944755 0.016400117
0.046531465 -0.0032332372 -0.021521155 -0.009346796 -0.00339994 -0.02324711 0.019915704 -0.014871611
0.011903868 -0.017678063 -0.019681716 0.011450463 0.026495464 0.012838157 -0.012810602 -0.030216187
0.0024482352 0.03355485 0.018859103 0.010660708 0.040948004 0.0074583525 0.048195202 0.050940126
-0.0030394557 -0.02927441 0.03272809 -0.015214551 0.016419558 0.03322967 -0.009663689 -0.02939237
0.034740742 0.026133472 0.0067777326 -0.021405458 0.04562505 0.023251716 -0.022416541 0.027728511
0.059612904 0.04114021 -0.016102295 -0.0024733145 0.025648167 -0.017412202 0.021143107 0.0109717315
0.032275964 -0.028475475 -0.011468958 -0.032948367 0.021803126 -0.009728918 0.026557498 0.00970111
0.002758629 -0.017318416 -0.022655547 -0.004580278 0.0045467797 -0.008586881 -0.01732799 0.02765943
-0.0042037745 -0.0054875934 -0.043468837 -0.009112432 0.003755368 -0.01980371 -0.03248932 0.03720104
-0.02163505 0.039298676 -0.023798993 -0.03269554 -0.03603183 0.025553716 -0.0077105924 0.008278928
0.028136473 0.04220242 -0.03255838 -0.04999732 0.00651126 -0.0025603934 -0.021470765 -0.021012558
0.01084947 -0.02420268 0.038738675 -0.045879994 0.0033292347 0.0114026815 -0.030834697 -0.028116226
-0.0029041518 0.006790949 0.026900547 -0.017535007 -0.009286231 -0.02211981 -0.01632319 0.013342365
0.019349013 -0.0001468036 0.005652886 0.02579915 0.005675632 0.017316818 0.0052562635 0.012299162
-0.039731845 -0.017340131 0.008570482 0.03521162 -0.007833198 0.0017503869 -0.002063256 0.02427536
0.052577272 0.00077026815 0.049299 0.0073746964 0.006351032 0.042999677 0.03028665 0.020835904
0.040909804 0.042750575 0.043478694 -0.0012283651 0.04080621 -0.0074171405 0.021718275 0.0026233108
0.016828975 -0.025257865 -0.012025115 0.01663534 -0.0499717 0.015317056 -0.027479576 0.02094844
0.0020649694 0.017927568 -0.03669191 -0.040649757 -0.003967407 0.02111868 0.021249972 0.03289397
00000000: ede6 50bc fc33 5e3d 069c 6d3a 90a2 623b
00000010: 134f 4b3d a37d b43c 6c31 b9bc 1462 3abb
00000020: 23ea e83c 2a5b dabc 458e 71bc 63fa 8fbb
00000030: 4903 e8b8 5fbe d5bc 43a7 f23b 8e7f 0e3d
00000040: 8606 6cbc c7d8 e53c 6b33 d53c 12ac a33c
00000050: 72b8 d8bb fe52 fe3c 9be8 bd3b 9e80 39bc
00000060: b767 073d 2e20 583d d511 ba3b 62c0 b7bc
00000070: 8005 053d 1d87 8c3b b930 dd3c 3f91 4c3c
00000080: d3d0 043b bcc5 d63c 510a 9aba a7f3 17bb
00000090: 3db3 49bc 70db 4f3d dacf abbc 9133 0ebd
000000a0: a7fe c23c 9d5a 09bd 2a91 fcbb 5973 153d
000000b0: e860 19bd 4cac 1cbd ba6a 96bc 03e6 c53c
000000c0: 2d76 6a3c 0052 a6bc cc8a ad3b 2a33 dbbc
000000d0: 2b3e 05bd 02df b23c 828c 963c 89c8 c9bc
000000e0: 35ea 1d3d 22dc 863c a14f 5dbc 6e45 763b
000000f0: 59bc e93c 9a7b 593c 297a b8bc b20a 533c
00000100: fae3 283c c844 d8bc 2172 a5bc e26e c4b9
00000110: fd85 6fbc ed2e 933c b668 e93c b597 d33c
00000120: 5c3a 80ba 926d c03c aa1b 54bc 1011 95bc
00000130: 30d0 683c 566b 1bbd 9395 ef3c 3995 2c3d
00000140: d025 24bd 6b00 6438 fdc2 81bc 7063 093d
00000150: b606 043d dfad 8a3b 0797 8e3c 906e acbc
00000160: b4d5 d23c 2ddb 783d 27e5 dcbb 5f9f 903d
00000170: 1a3b 843c 41b0 f0bc 70c7 af3c 17aa 003d
00000180: 6373 39bc 1930 dbbb f6ec d4bc 1ca2 81bc
00000190: 8e52 79bc 0ff3 98bb 8984 1f3d 8a59 863c
000001a0: c797 3e3d b8e4 53bb 224d b0bc 4e23 19bc
000001b0: 87d1 5ebb b970 bebc 4226 a33c 0fa8 73bc
000001c0: 7108 433c 96d1 90bc 8d3b a1bc b99a 3b3c
000001d0: 040d d93c 2257 523c 8fe3 51bc f087 f7bc
000001e0: 9272 203b cf70 093d 687e 9a3c 40aa 2e3c
000001f0: 18b9 273d 3265 f43b 5568 453d 98a6 503d
00000200: 9b31 47bb e3d0 efbc e40d 063d 7446 79bc
00000210: 4f82 863c d61b 083d 7354 1ebc 44c8 f0bc
00000220: 4f4c 0e3d dd15 d63c be17 de3b 805a afbc
00000230: 55e1 3a3d 627a be3c e5a2 b7bc e726 e33c
00000240: a92c 743d a382 283d f6e8 83bc 5517 22bb
00000250: 1b1c d23c 09a4 8ebc 4f34 ad3c c7c2 333c
00000260: cd33 043d 6645 e9bc 4ce8 3bbc def4 06bd
00000270: 789c b23c 0a66 1fbc 1c8f d93c 68f1 1e3c
00000280: 1dca 343b 5adf 8dbc 2098 b9bc 2816 96bb
00000290: 27fd 943b fdaf 0cbc 6ef3 8dbc 0796 e23c
000002a0: d1bf 89bb 45d1 b3bb 610c 32bd 4f4c 15bc
000002b0: 9f1c 763b 643b a2bc 8513 05bd 1e60 183d
000002c0: fd3b b1bc a6f7 203d 1bf6 c2bc c2eb 05bd
000002d0: 1d96 13bd 0756 d13c 23a9 fcbb 57a4 073c
000002e0: 767e e63c 72dc 2c3d f05b 05bd fdc9 4cbd
000002f0: 685c d53b 46cc 27bb 75e3 afbc 8722 acbc
00000300: fac1 313c b344 c6bc 72ac 1e3d a9ec 3bbd
00000310: 4a2f 5a3b 50d2 3a3c 0c99 fcbc 0054 e6bc
00000320: 9553 3ebb 9c86 de3b 895e dc3c 93a5 8fbc
00000330: 4725 18bc 9b34 b5bc 36b8 85bc ef99 5a3c
00000340: d281 9e3c 4bef 19b9 d83b b93b bd58 d33c
00000350: a7fa b93b 00dc 8d3c bc3c ac3b 6d82 493c
00000360: dcbd 22bd e40c 8ebc 356b 0c3c 0f3a 103d
00000370: d056 00bc 3d6d e53a b137 07bb 1fdd c63c
00000380: 445b 573d d2eb 493a c0ed 493d 70a7 f13b
00000390: 511c d03b 6e20 303d b51b f83c 0fb0 aa3c
000003a0: 0a91 273d 3a1b 2f3d b716 323d 1801 a1ba
000003b0: 6a24 273d 7c0b f3bb 86ea b13c daeb 2b3b
000003c0: ebdc 893c 95e9 cebc fd04 45bc d646 883c
000003d0: 20af 4cbd 64f4 7a3c d91c e1bc 109c ab3c
000003e0: 7054 073b d6dc 923c 424a 16bd 5c80 26bd
000003f0: 0601 82bb 1501 ad3c 6c14 ae3c d4bb 063d

conv3.bias f4 [128]
-0.035043333 0.028568741 -0.019027611 0.0005622591 -0.02883452 0.0038353114 -0.0016336032 -0.015819788
-0.0054983627 0.022643536 0.022297133 -0.035488904 -0.02135316 0.032563135 -0.014639403 0.019228125
-0.01835587 -0.02259916 0.011837987 -0.019527443 0.022771055 -0.004090732 0.024820177 -0.0047222655
-0.027014956 0.004765871 -0.020307932 0.0011513283 0.03660187 -0.017104272 -0.019277614 -0.010294452
0.033285696 0.008166803 0.03168831 -0.017828995 0.03570894 -0.028155264 0.030741138 0.02675281
0.0042108647 0.030225366 -0.032171126 -0.011311322 -0.00075275794 0.035055175 0.022509208 0.008578616
0.013047639 -0.038429752 -0.026978826 0.018312208 -0.025461677 0.032933827 0.00816525 0.038317293
-0.016657842 0.0028928951 -0.03898646 0.017273404 0.010644737 0.029327743 0.013981222 0.036775503
-0.025383567 -0.03500147 -0.03920401 -0.02972623 0.02450899 0.008016449 0.039693817 0.018938333
-0.03774646 0.022859836 0.034520656 0.029575458 -0.04003255 0.024004692 -0.018173518 -0.012705558
0.013911127 0.014939556 0.005653131 -0.02847678 0.040468555 -0.0069925063 -0.041328236 -0.028171232
0.029326184 -0.021388356 -0.033095133 0.016002111 0.003794582 0.008985538 0.008007496 -0.010965143
-0.0052063027 -0.011025257 -0.03066796 0.03757919 0.0008827872 0.026660368 0.017408958 0.04003068
-0.02593389 0.031877264 0.03738544 0.025471417 -0.026756424 0.026125947 0.030552683 -0.010480314
0.027506344 0.042213425 0.038393855 -0.020725278 -0.027628228 0.015611405 0.011061522 -0.0018061473
-0.033549402 0.016968071 -0.017124142 0.010210704 0.0059884265 -0.020228641 -0.0341465 0.025813652
00000000: 9989 0fbd fe08 ea3c cbdf 9bbc 9264 133a
00000010: 5f36 ecbc d959 7b3b a11e d6ba 8098 81bc
00000020: 9c2b b4bb f07e b93c 7aa8 b63c d05c 11bd
00000030: d2ec aebc ec60 053d 1bda 6fbc 4d84 9d3c
00000040: 0d5f 96bc e021 b9bc 1ef4 413c 04f8 9fbc
00000050: 5d8a ba3c 8c0b 86bb af53 cb3c 3cbd 9abb
00000060: 784e ddbc 062b 9c3b d25c a6bc 2be8 963a
00000070: d8eb 153d 421e 8cbc 16ec 9dbc 10aa 28bc
00000080: 9556 083d 0ece 053c 9acb 013d 1d0e 92bc
00000090: 8a43 123d dea5 e6bc d7d4 fb3c b628 db3c
000000a0: 4bfb 893b 309b f73c dfc5 03bd 2053 39bc
000000b0: bb54 45ba 0496 0f3d 3b65 b83c 538d 0c3c
000000c0: c4c5 553c 8468 1dbd b302 ddbc 7c03 963c
000000d0: 0295 d0bc 9fe5 063d 8ac7 053c 98f2 1c3d
000000e0: 0776 88bc ba96 3d3b 44b0 1fbd f480 8d3c
000000f0: 4367 2e3c bc40 f03c 7f11 653c e9a1 163d
00000100: 33f1 cfbc b45d 0fbd 6294 20bd 6c84 f3bc
00000110: 14c7 c83c 6d57 033c fc95 223d 9024 9b3c
00000120: 089c 1abd 8d44 bb3c 8865 0d3d 3b48 f23c
00000130: 2cf9 23bd 7da5 c43c a1e0 94bc f92a 50bc
00000140: 7feb 633c 0ac5 743c e63d b93b 2348 e9bc
00000150: 5bc2 253d 6521 e5bb cc47 29bd 5bc7 e6bc
00000160: 773d f03c a236 afbc c38e 07bd dc16 833c
00000170: 86ae 783b 1438 133c df31 033c 25a7 33bc
00000180: a299 aabb 48a3 34bc 603b fbbc a3ec 193d
00000190: d96a 673a d866 da3c 3b9d 8e3c 36f7 233d
000001a0: 4f73 d4bc bc91 023d 7a21 193d 6fa9 d03c
000001b0: 4a30 dbbc 1506 d63c 9f49 fa3c 9fb5 2bbc
000001c0: fc54 e13c fce7 2c3d e042 1d3d 0fc8 a9bc
000001d0: 9854 e2bc fac6 7f3c 633b 353c 3fbc ecba
000001e0: 196b 09bd a000 8b3c ee47 8cbc cc4a 273c
000001f0: 903a c43b 89b6 a5bc 33dd 0bbd 2777 d33c

bn3.weight f4 [128]
1.0136504 1.0520778 1.02839 1.0459837 1.0318149 1.0256479 1.0283172 1.0581944
1.0131564 1.0295662 1.0350797 1.0361098 0.99556637 1.062823 1.0308669 1.0757402
1.0260835 1.0448714 1.0341716 1.0414699 1.045974 1.0255257 1.0354041 1.0409628
1.0064204 1.0691284 1.0418681 1.0286756 1.0185982 1.037118 1.0104829 1.046625
1.0311544 1.0243589 1.0574971 1.0407356 1.0379127 1.063017 1.040921 1.022262
1.0571824 1.0574101 1.0277358 1.0128385 1.0122987 1.0441296 1.0212072 1.0486839
1.027756 1.0243995 1.0370625 1.0566944 1.039781 1.0695795 1.0417349 1.0204426
1.0347221 1.0423007 1.025883 1.0104802 1.0303813 1.0096362 1.040186 1.042404
1.0360173 0.9944067 1.0286924 1.0307974 1.0642054 1.0203884 1.0357502 1.014607
1.039058 1.0568904 1.041436 1.0460547 1.04956 1.029612 1.0415844 1.040484
1.0531826 1.010494 1.04593 1.0398991 1.0456667 1.0395623 1.019457 1.0439241
1.0678997 1.0526589 1.0553974 1.010285 1.0317816 1.023344 1.0268855 1.0442353
1.0243987 1.0337745 1.026264 1.0470958 1.0481669 1.0197003 1.0616577 1.0152905
1.0256857 1.0178508 1.0488839 1.0259404 1.0372747 1.0726053 1.0485064 1.0259584
1.0203946 1.0547439 1.0519029 1.0530834 1.0712082 1.0371788 1.0538965 1.0219561
1.0256975 1.0320106 1.0694641 1.0044379 1.0374204 1.0503474 1.060319 1.0496256
00000000: 4cbf 813f 7caa 863f 49a2 833f cbe2 853f
00000010: 8312 843f 6e48 833f e69f 833f ea72 873f
00000020: 1caf 813f d3c8 833f 7e7d 843f 3f9f 843f
00000030: 70dd 7e3f 960a 883f 72f3 833f dbb1 893f
00000040: b456 833f 59be 853f bc5f 843f e34e 853f
00000050: 7ae2 853f 6d44 833f 1f88 843f 453e 853f
00000060: 62d2 803f 33d9 883f ef5b 853f a4ab 833f
00000070: 6d61 823f 48c0 843f 8157 813f cff7 853f
00000080: defc 833f 311e 833f 115c 873f d336 853f
00000090: 53da 843f f110 883f e63c 853f 7bd9 823f
000000a0: c151 873f 3759 873f d98c 833f b1a4 813f
000000b0: 0193 813f 0aa6 853f ebb6 823f 463b 863f
000000c0: 828d 833f 861f 833f 77be 843f c341 873f
000000d0: 8b17 853f fbe7 883f 9257 853f dd9d 823f
000000e0: c671 843f 1c6a 853f 2250 833f 6a57 813f
000000f0: 89e3 833f c23b 813f d124 853f 7f6d 853f
00000100: 379c 843f 7091 7e3f 31ac 833f 2bf1 833f
00000110: e237 883f 169c 823f 7693 843f a4de 813f
00000120: daff 843f 2f48 873f c64d 853f 1fe5 853f
00000130: fb57 863f 53ca 833f a352 853f 942e 853f
00000140: b0ce 863f de57 813f 09e1 853f 6a1b 853f
00000150: 68d8 853f 6110 853f 917d 823f 4e9f 853f
00000160: f0b0 883f 87bd 863f 4317 873f 0551 813f
00000170: 6b11 843f f0fc 823f fc70 833f 81a9 853f
00000180: 7f1f 833f b952 843f 9e5c 833f 3c07 863f
00000190: 552a 863f 8a85 823f 66e4 873f 0af5 813f
000001a0: ab49 833f ef48 823f d441 863f 0452 833f
000001b0: 6bc5 843f 214b 893f 7535 863f 9b52 833f
000001c0: 4a9c 823f d901 873f c1a4 863f 70cb 863f
000001d0: 5a1d 893f 46c2 843f 15e6 863f 75cf 823f
000001e0: 0e4a 833f ec18 843f 33e4 883f 6c91 803f
000001f0: 31ca 843f c971 863f 88b8 873f 225a 863f

bn3.bias f4 [128]
-0.0062071723 0.03207264 0.0060401424 0.019378878 0.012531434 0.010044488 0.0024997457 0.038745265
0.009722193 -0.0009057662 0.0066599245 -0.010581072 -0.02412457 0.042536136 0.0018323002 0.054133043
0.002295142 0.017029043 -0.012384614 0.00013913382 -0.0076262853 0.0034644187 0.012639384 0.034281135
-0.02327847 0.047566175 0.027360354 0.02695211 -0.001226822 0.016386045 0.009040603 0.008139901
0.0018059486 0.006481341 0.017908392 0.022641448 0.019658292 0.029012462 0.00595502 -0.006996647
0.030177336 0.028340407 0.013112026 -0.011967157 0.0026400413 0.031712044 -0.0054364973 0.032870155
0.010283969 0.017594265 0.017870465 0.0268634 0.00022674065 0.012845598 0.01639962 0.0056242975
0.014520432 0.008732368 0.005342461 0.0051197237 0.0011878636 -0.010219428 0.0037339362 0.019408027
0.004478186 -0.0041743014 0.017630802 0.01560148 0.022503423 0.0047219507 0.035083544 0.013421295
0.028873248 0.014473843 0.015753424 0.023699887 0.0058082347 0.014825888 0.0031147625 0.0017914966
0.02297039 -0.00067385915 0.03401849 0.017019551 0.023946142 0.011909323 0.0023748598 0.00023103728
0.04202785 0.022245718 0.007908728 -0.015652202 0.00080481643 -0.01131489 -0.004622625 0.01246207
0.009379785 0.023925133 0.005754521 0.014565854 0.016179608 0.011357306 0.03596442 0.009048624
0.011692467 0.0026083842 0.010807182 0.0048940647 0.015312626 0.043139625 0.0267055 0.014400745
0.0046477076 0.009890523 0.015791496 0.035363413 0.032723065 0.02013284 0.030112835 0.014144741
0.0022848789 0.0045586117 0.019794863 -0.007948892 0.009013895 0.015291557 0.04192761 0.019182382
00000000: 8965 cbbb 9a5e 033d 63ec c53b 74c0 9e3c
00000010: a550 4d3c a391 243c c6d2 233b 5bb3 1e3d
00000020: d549 1f3c f170 6dba 7f3b da3b 3c5c 2dbc
00000030: e4a0 c5bc 5f3a 2e3d cb29 f03a 9cba 5d3d
00000040: 186a 163b 7e80 8b3c d6e8 4abc 73e4 1139
00000050: ebe5 f9bb 4d0b 633b 6b15 4f3c 606a 0c3d
00000060: 7db2 bebc c0d4 423d d222 e03c acca dc3c
00000070: 51cd a0ba 073c 863c 0a1f 143c 385d 053c
00000080: 94b5 ec3a 6e61 d43b 9fb4 923c 8f7a b93c
00000090: 6d0a a13c 8bab ed3c 5422 c33b 2144 e5bb
000000a0: 7636 f73c 242a e83c d3d3 563c e511 44bc
000000b0: 8b04 2d3b 7de4 013d a524 b2bb dba2 063d
000000c0: 187e 283c d921 903c 1565 923c a210 dc3c
000000d0: 3bc1 6d39 5876 523c 7f58 863c 074c b83b
000000e0: 1be7 6d3c 3512 0f3c d00f af3b 5bc3 a73b
000000f0: 17b2 9b3a 636f 27bc 0eb5 743b 95fd 9e3c
00000100: bfbd 923b 94c8 88bb 796e 903c 5a9d 7f3c
00000110: 1959 b83c 98ba 9a3b c3b3 0f3d fee4 5b3c
00000120: 9787 ec3c b323 6d3c 530d 813c 4426 c23c
00000130: 0153 be3b 48e8 723c 0b21 4c3b a7d0 ea3a
00000140: 662c bc3c eca5 30ba f956 0b3d 966c 8b3c
00000150: b32a c43c 521f 433c 89a3 1b3b 9942 7239
00000160: 6525 2c3d a73c b63c 9c93 013c 0c39 80bc
00000170: 51fa 523a 1762 39bc 6479 97bb b62d 4c3c
00000180: abad 193c a4fe c33c 6c90 bc3b 9fa5 6e3c
00000190: 198b 843c fe13 3a3c 6d4f 133d ae40 143c
000001a0: c391 3f3c 6df1 2a3b 9b10 313c 645e a03b
000001b0: cfe1 7a3c 2db3 303d 7ec5 da3c 1af1 6b3c
000001c0: cc4b 983b dc0b 223c 2b5d 813c 3ad9 103d
000001d0: 9f08 063d a0ed a43c 31af f63c 58bf 673c
000001e0: e8bd 153b 6860 953b d628 a23c 123c 02bc
000001f0: 04af 133c 7089 7a3c 49bc 2b3d 5f24 9d3c
