built_models/esc50_esc50cnn_model_fold1_20250430_210127.pth (torch, 654357 bytes, 24 tensors)

mel_transform.spectrogram.window f4 [1024]
000000 00 00 00 00 00 00 1e 37 00 e0 1d 38 00 a0 b1 38
       0.0 9.417534e-06 3.7640333e-05 8.46982e-05
000010 00 e8 1d 39 00 b8 76 39 00 a4 b1 39 00 c4 f1 39
       0.00015059114 0.00023528934 0.0003388226 0.00046113133
000020 00 e2 1d 3a 00 d0 47 3a 00 aa 76 3a 00 39 95 3a
       0.00060227513 0.0007622242 0.0009409487 0.0011384785
000030 00 93 b1 3a 00 63 d0 3a 00 a8 f1 3a 80 b1 0a 3b
       0.0013547838 0.0015898645 0.0018436909 0.0021162927
000040 80 c9 1d 3b 80 1b 32 3b 00 a8 47 3b 80 6e 5e 3b
       0.0024076402 0.0027177036 0.0030465126 0.0033940375
000050 80 6e 76 3b c0 d3 87 3b 40 0d 95 3b 00 e3 a2 3b
       0.0037602484 0.0041451156 0.0045486987 0.004970908
000060 00 55 b1 3b 40 63 c0 3b c0 0d d0 3b 00 54 e0 3b
       0.005411744 0.0058712065 0.0063492954 0.006845951
000070 00 36 f1 3b e0 59 01 3c 60 66 0a 3c 80 c0 13 3c
       0.0073611736 0.007894963 0.00844726 0.009018064
000080 20 68 1d 3c 40 5d 27 3c c0 9f 31 3c 80 2f 3c 3c
       0.009607345 0.010215104 0.01084131 0.011485934
000090 60 0c 47 3c 40 36 52 3c 00 ad 5d 3c a0 70 69 3c
       0.0121489465 0.012830317 0.013530016 0.014248043
0000a0 00 81 75 3c 00 ef 80 3c b0 43 87 3c 90 be 8d 3c
       0.014984369 0.015738964 0.016511768 0.017302781
0000b0 90 5f 94 3c 90 26 9b 3c a0 13 a2 3c 90 26 a9 3c
       0.018111974 0.018939286 0.019784749 0.02064827
0000c0 50 5f b0 3c e0 bd b7 3c 30 42 bf 3c 10 ec c6 3c
       0.021529824 0.022429407 0.02334699 0.024282485
0000d0 90 bb ce 3c 80 b0 d6 3c e0 ca de 3c 90 0a e7 3c
       0.025235921 0.026207209 0.027196348 0.028203279
0000e0 80 6f ef 3c a0 f9 f7 3c 68 54 00 3d 80 be 04 3d
       0.029227972 0.030270398 0.031330496 0.032408237
0000f0 10 3b 09 3d 10 ca 0d 3d 68 6b 12 3d 18 1f 17 3d
       0.033503592 0.03461653 0.03574696 0.036894888
000100 10 e5 1b 3d 40 bd 20 3d a0 a7 25 3d 28 a4 2a 3d
       0.038060248 0.039242983 0.040443063 0.041660458
000110 d0 b2 2f 3d 78 d3 34 3d 28 06 3a 3d c0 4a 3f 3d
       0.04289514 0.044146985 0.045416027 0.046702147
000120 40 a1 44 3d a0 09 4a 3d c0 83 4f 3d a8 0f 55 3d
       0.048005342 0.049325585 0.050662756 0.052016884
000130 38 ad 5a 3d 68 5c 60 3d 38 1d 66 3d 80 ef 6b 3d
       0.05338785 0.054775625 0.05618021 0.057601452
000140 48 d3 71 3d 70 c8 77 3d f8 ce 7d 3d 64 f3 81 3d
       0.059039384 0.060493886 0.06196496 0.06345251
000150 ec 07 85 3d 08 25 88 3d b4 4a 8b 3d e8 78 8e 3d
       0.064956516 0.06647688 0.06801358 0.06956655
000160 98 af 91 3d c0 ee 94 3d 58 36 98 3d 58 86 9b 3d
       0.0711357 0.072721004 0.0743224 0.075939834
000170 b4 de 9e 3d 6c 3f a2 3d 6c a8 a5 3d b8 19 a9 3d
       0.07757321 0.07922253 0.080887645 0.082568586
000180 3c 93 ac 3d f8 14 b0 3d e0 9e b3 3d e8 30 b7 3d
       0.0842652 0.085977495 0.087705374 0.08944875
000190 0c cb ba 3d 44 6d be 3d 84 17 c2 3d c0 c9 c5 3d
       0.09120759 0.092981845 0.094771415 0.096576214
0001a0 f8 83 c9 3d 1c 46 cd 3d 20 10 d1 3d 04 e2 d4 3d
       0.09839624 0.10023138 0.10208154 0.103946716
0001b0 b8 bb d8 3d 30 9d dc 3d 6c 86 e0 3d 5c 77 e4 3d
       0.105826795 0.10772169 0.10963139 0.111555785
0001c0 f4 6f e8 3d 2c 70 ec 3d 00 78 f0 3d 60 87 f4 3d
       0.11349478 0.115448326 0.11741638 0.11939883
0001d0 40 9e f8 3d 9c bc fc 3d 32 71 00 3e ca 87 02 3e
       0.12139559 0.12340662 0.1254318 0.12747112
0001e0 0e a2 04 3e fc bf 06 3e 8c e1 08 3e b8 06 0b 3e
       0.12952444 0.13159174 0.1336729 0.13576782
0001f0 7c 2f 0d 3e d6 5b 0f 3e bc 8b 11 3e 28 bf 13 3e
       0.13787645 0.13999876 0.1421346 0.14428389
000200 1a f6 15 3e 88 30 18 3e 6e 6e 1a 3e c6 af 1c 3e
       0.14644662 0.14862263 0.15081188 0.15301427
000210 8c f4 1e 3e b8 3c 21 3e 44 88 23 3e 2e d7 25 3e
       0.15522975 0.15745819 0.1596995 0.16195366
000220 6e 29 28 3e fc 7e 2a 3e d8 d7 2c 3e f6 33 2f 3e
       0.16422054 0.16650003 0.16879213 0.17109665
000230 56 93 31 3e ec f5 33 3e b6 5b 36 3e b0 c4 38 3e
       0.1734136 0.1757428 0.17808422 0.1804378
000240 ce 30 3b 3e 10 a0 3d 3e 6c 12 40 3e de 87 42 3e
       0.18280336 0.1851809 0.18757027 0.18997142
000250 5e 00 45 3e e8 7b 47 3e 76 fa 49 3e 00 7c 4c 3e
       0.19238421 0.1948086 0.1972445 0.19969177
000260 80 00 4f 3e f2 87 51 3e 4e 12 54 3e 8e 9f 56 3e
       0.20215034 0.20462015 0.20710108 0.20959303
000270 ac 2f 59 3e a2 c2 5b 3e 66 58 5e 3e f8 f0 60 3e
       0.21209592 0.21460965 0.21713409 0.21966922
000280 4e 8c 63 3e 60 2a 66 3e 2a cb 68 3e a4 6e 6b 3e
       0.2222149 0.22477102 0.22733751 0.22991425
000290 ca 14 6e 3e 94 bd 70 3e fc 68 73 3e fa 16 76 3e
       0.23250118 0.23509818 0.23770517 0.24032202
0002a0 88 c7 78 3e a0 7a 7b 3e 36 30 7e 3e 26 74 80 3e
       0.24294865 0.24558496 0.24823079 0.25088614
0002b0 6c d1 81 3e ea 2f 83 3e 9c 8f 84 3e 7d f0 85 3e
       0.2535509 0.25622493 0.25890815 0.2616004
0002c0 8c 52 87 3e c4 b5 88 3e 22 1a 8a 3e a4 7f 8b 3e
       0.26430166 0.26701176 0.26973063 0.2724582
0002d0 46 e6 8c 3e 04 4e 8e 3e da b6 8f 3e c4 20 91 3e
       0.27519435 0.27793896 0.28069192 0.2834531
0002e0 c0 8b 92 3e ca f7 93 3e e0 64 95 3e fc d2 96 3e
       0.28622246 0.28899986 0.29178524 0.29457843
0002f0 1c 42 98 3e 3c b2 99 3e 58 23 9b 3e 6b 95 9c 3e
       0.29737937 0.30018795 0.30300403 0.30582747
000300 76 08 9e 3e 72 7c 9f 3e 5c f1 a0 3e 30 67 a2 3e
       0.3086583 0.31149632 0.31434143 0.3171935
000310 ec dd a3 3e 8c 55 a5 3e 08 ce a6 3e 63 47 a8 3e
       0.3200525 0.3229183 0.32579064 0.32866964
000320 96 c1 a9 3e 9e 3c ab 3e 78 b8 ac 3e 1e 35 ae 3e
       0.33155507 0.33444685 0.33734488 0.340249
000330 8f b2 af 3e c4 30 b1 3e bd af b2 3e 75 2f b4 3e
       0.34315917 0.34607518 0.34899703 0.35192457
000340 e8 af b5 3e 12 31 b7 3e f0 b2 b8 3e 7e 35 ba 3e
       0.35485768 0.35779625 0.36074018 0.36368936
000350 b6 b8 bb 3e 99 3c bd 3e 20 c1 be 3e 48 46 c0 3e
       0.3666436 0.36960295 0.37256718 0.3755362
000360 0e cc c1 3e 6d 52 c3 3e 60 d9 c4 3e e6 60 c6 3e
       0.37850994 0.38148823 0.38447094 0.38745803
000370 fc e8 c7 3e 9b 71 c9 3e c0 fa ca 3e 69 84 cc 3e
       0.3904494 0.39344487 0.39644432 0.3994477
000380 91 0e ce 3e 32 99 cf 3e 4c 24 d1 3e da af d2 3e
       0.40245488 0.40546566 0.40848005 0.4114979
000390 d8 3b d4 3e 42 c8 d5 3e 14 55 d7 3e 4a e2 d8 3e
       0.41451907 0.41754347 0.42057097 0.42360145
0003a0 df 6f da 3e d2 fd db 3e 1f 8c dd 3e c0 1a df 3e
       0.42663476 0.42967087 0.43270966 0.43575096
0003b0 b2 a9 e0 3e f2 38 e2 3e 7c c8 e3 3e 49 58 e5 3e
       0.43879467 0.4418407 0.44488895 0.4479392
0003c0 59 e8 e6 3e a8 78 e8 3e 31 09 ea 3e f0 99 eb 3e
       0.45099142 0.45404553 0.45710137 0.46015882
0003d0 e1 2a ed 3e 00 bc ee 3e 49 4d f0 3e ba de f1 3e
       0.46321777 0.46627808 0.46933964 0.4724024
0003e0 4d 70 f3 3e 00 02 f5 3e ce 93 f6 3e b3 25 f8 3e
       0.47546616 0.47853088 0.4815964 0.48466262
0003f0 ac b7 f9 3e b2 49 fb 3e c6 db fc 3e e1 6d fe 3e
       0.48772943 0.49079663 0.49386424 0.49693206

mel_transform.mel_scale.fb f4 [513, 40]
000000 00 00 00 80 00 00 00 00 00 00 00 00 00 00 00 00
       -0.0 0.0 0.0 0.0
000010 00 00 00 00 00 00 00 00 00 00 00 00 00 00 00 00
       0.0 0.0 0.0 0.0
000020 00 00 00 00 00 00 00 00 00 00 00 00 00 00 00 00
       0.0 0.0 0.0 0.0
000030 00 00 00 00 00 00 00 00 00 00 00 00 00 00 00 00
       0.0 0.0 0.0 0.0
000040 00 00 00 00 00 00 00 00 00 00 00 00 00 00 00 00
       0.0 0.0 0.0 0.0
000050 00 00 00 00 00 00 00 00 00 00 00 00 00 00 00 00
       0.0 0.0 0.0 0.0
000060 00 00 00 00 00 00 00 00 00 00 00 00 00 00 00 00
       0.0 0.0 0.0 0.0
000070 00 00 00 00 00 00 00 00 00 00 00 00 00 00 00 00
       0.0 0.0 0.0 0.0
000080 00 00 00 00 00 00 00 00 00 00 00 00 00 00 00 00
       0.0 0.0 0.0 0.0
000090 00 00 00 00 00 00 00 00 00 00 00 00 00 00 00 00
       0.0 0.0 0.0 0.0
0000a0 11 bb 31 3f 00 00 00 00 00 00 00 00 00 00 00 00
       0.69426066 0.0 0.0 0.0
0000b0 00 00 00 00 00 00 00 00 00 00 00 00 00 00 00 00
       0.0 0.0 0.0 0.0
0000c0 00 00 00 00 00 00 00 00 00 00 00 00 00 00 00 00
       0.0 0.0 0.0 0.0
0000d0 00 00 00 00 00 00 00 00 00 00 00 00 00 00 00 00
       0.0 0.0 0.0 0.0
0000e0 00 00 00 00 00 00 00 00 00 00 00 00 00 00 00 00
       0.0 0.0 0.0 0.0
0000f0 00 00 00 00 00 00 00 00 00 00 00 00 00 00 00 00
       0.0 0.0 0.0 0.0
000100 00 00 00 00 00 00 00 00 00 00 00 00 00 00 00 00
       0.0 0.0 0.0 0.0
000110 00 00 00 00 00 00 00 00 00 00 00 00 00 00 00 00
       0.0 0.0 0.0 0.0
000120 00 00 00 00 00 00 00 00 00 00 00 00 00 00 00 00
       0.0 0.0 0.0 0.0
000130 00 00 00 00 00 00 00 00 00 00 00 00 00 00 00 00
       0.0 0.0 0.0 0.0
000140 94 a2 24 3f d8 ba b6 3e 00 00 00 00 00 00 00 00
       0.64310575 0.35689425 0.0 0.0
000150 00 00 00 00 00 00 00 00 00 00 00 00 00 00 00 00
       0.0 0.0 0.0 0.0
000160 00 00 00 00 00 00 00 00 00 00 00 00 00 00 00 00
       0.0 0.0 0.0 0.0
000170 00 00 00 00 00 00 00 00 00 00 00 00 00 00 00 00
       0.0 0.0 0.0 0.0
000180 00 00 00 00 00 00 00 00 00 00 00 00 00 00 00 00
       0.0 0.0 0.0 0.0
000190 00 00 00 00 00 00 00 00 00 00 00 00 00 00 00 00
       0.0 0.0 0.0 0.0
0001a0 00 00 00 00 00 00 00 00 00 00 00 00 00 00 00 00
       0.0 0.0 0.0 0.0
0001b0 00 00 00 00 00 00 00 00 00 00 00 00 00 00 00 00
       0.0 0.0 0.0 0.0
0001c0 00 00 00 00 00 00 00 00 00 00 00 00 00 00 00 00
       0.0 0.0 0.0 0.0
0001d0 00 00 00 00 00 00 00 00 00 00 00 00 00 00 00 00
       0.0 0.0 0.0 0.0
0001e0 69 a6 af 3b b3 a0 7e 3f 00 00 00 00 00 00 00 00
       0.005360414 0.9946396 0.0 0.0
0001f0 00 00 00 00 00 00 00 00 00 00 00 00 00 00 00 00
       0.0 0.0 0.0 0.0
000200 00 00 00 00 00 00 00 00 00 00 00 00 00 00 00 00
       0.0 0.0 0.0 0.0
000210 00 00 00 00 00 00 00 00 00 00 00 00 00 00 00 00
       0.0 0.0 0.0 0.0
000220 00 00 00 00 00 00 00 00 00 00 00 00 00 00 00 00
       0.0 0.0 0.0 0.0
000230 00 00 00 00 00 00 00 00 00 00 00 00 00 00 00 00
       0.0 0.0 0.0 0.0
000240 00 00 00 00 00 00 00 00 00 00 00 00 00 00 00 00
       0.0 0.0 0.0 0.0
000250 00 00 00 00 00 00 00 00 00 00 00 00 00 00 00 00
       0.0 0.0 0.0 0.0
000260 00 00 00 00 00 00 00 00 00 00 00 00 00 00 00 00
       0.0 0.0 0.0 0.0
000270 00 00 00 00 00 00 00 00 00 00 00 00 00 00 00 00
       0.0 0.0 0.0 0.0
000280 00 00 00 00 77 93 d6 3e 44 b6 14 3f 00 00 00 00
       0.0 0.41909382 0.58090615 0.0
000290 00 00 00 00 00 00 00 00 00 00 00 00 00 00 00 00
       0.0 0.0 0.0 0.0
0002a0 00 00 00 00 00 00 00 00 00 00 00 00 00 00 00 00
       0.0 0.0 0.0 0.0
0002b0 00 00 00 00 00 00 00 00 00 00 00 00 00 00 00 00
       0.0 0.0 0.0 0.0
0002c0 00 00 00 00 00 00 00 00 00 00 00 00 00 00 00 00
       0.0 0.0 0.0 0.0
0002d0 00 00 00 00 00 00 00 00 00 00 00 00 00 00 00 00
       0.0 0.0 0.0 0.0
0002e0 00 00 00 00 00 00 00 00 00 00 00 00 00 00 00 00
       0.0 0.0 0.0 0.0
0002f0 00 00 00 00 00 00 00 00 00 00 00 00 00 00 00 00
       0.0 0.0 0.0 0.0
000300 00 00 00 00 00 00 00 00 00 00 00 00 00 00 00 00
       0.0 0.0 0.0 0.0
000310 00 00 00 00 00 00 00 00 00 00 00 00 00 00 00 00
       0.0 0.0 0.0 0.0
000320 00 00 00 00 00 00 00 00 45 ca 58 3f ee d6 1c 3e
       0.0 0.0 0.8468364 0.15316364
000330 00 00 00 00 00 00 00 00 00 00 00 00 00 00 00 00
       0.0 0.0 0.0 0.0
000340 00 00 00 00 00 00 00 00 00 00 00 00 00 00 00 00
       0.0 0.0 0.0 0.0
000350 00 00 00 00 00 00 00 00 00 00 00 00 00 00 00 00
       0.0 0.0 0.0 0.0
000360 00 00 00 00 00 00 00 00 00 00 00 00 00 00 00 00
       0.0 0.0 0.0 0.0
000370 00 00 00 00 00 00 00 00 00 00 00 00 00 00 00 00
       0.0 0.0 0.0 0.0
000380 00 00 00 00 00 00 00 00 00 00 00 00 00 00 00 00
       0.0 0.0 0.0 0.0
000390 00 00 00 00 00 00 00 00 00 00 00 00 00 00 00 00
       0.0 0.0 0.0 0.0
0003a0 00 00 00 00 00 00 00 00 00 00 00 00 00 00 00 00
       0.0 0.0 0.0 0.0
0003b0 00 00 00 00 00 00 00 00 00 00 00 00 00 00 00 00
       0.0 0.0 0.0 0.0
0003c0 00 00 00 00 00 00 00 00 2b 0d 9e 3e 6a f9 30 3f
       0.0 0.0 0.3086942 0.69130576
0003d0 00 00 00 00 00 00 00 00 00 00 00 00 00 00 00 00
       0.0 0.0 0.0 0.0
0003e0 00 00 00 00 00 00 00 00 00 00 00 00 00 00 00 00
       0.0 0.0 0.0 0.0
0003f0 00 00 00 00 00 00 00 00 00 00 00 00 00 00 00 00
       0.0 0.0 0.0 0.0

conv1.weight f4 [32, 1, 3, 3]
000000 2c db 64 3e 63 7c 2d be 17 45 90 3d f8 fd 3b be
       0.22349232 -0.16941981 0.07044428 -0.183586
000010 04 39 a5 be 52 64 e1 3d d5 5d a3 3e 46 3d 87 bd
       -0.32270062 0.11005463 0.31907526 -0.06603484
000020 c7 fa 63 be 5d 36 e5 3d 6e 20 50 3e b9 19 95 3d
       -0.22263633 0.111920096 0.20324871 0.07280297
000030 93 a1 8c bd 1e 3a b3 bd dc f3 82 3e 07 1d 89 be
       -0.06866755 -0.08751319 0.25576675 -0.2677996
000040 e3 bc 2f 3e 78 b2 83 be 5e 01 f7 bb 93 28 dc 3d
       0.17161898 -0.25722098 -0.007538005 0.107499264
000050 7a 4f 1f 3e 94 36 01 be cc ea fd 3d d9 c7 ba bd
       0.15557662 -0.12618476 0.123982996 -0.09120149
000060 d6 72 e3 3d 4b 69 12 be b8 1f 33 be 6c 46 8e be
       0.111058876 -0.14297979 -0.17492568 -0.27788103
000070 ed 0e 4f bd 29 00 53 3e 2e d1 c3 bd 9c 34 be bd
       -0.050551344 0.2060553 -0.09561382 -0.09287378
000080 15 7f a3 3e 20 73 c0 3d 37 8e 29 bd 29 1f ca 3d
       0.31932893 0.09396958 -0.041395392 0.098692246
000090 28 42 e2 3d 66 58 4d 3d 1d 90 c8 bc 4b 26 65 3e
       0.110477746 0.05013313 -0.024482781 0.22377889
0000a0 50 db 5e 3e 86 63 40 be f1 9f 86 be 34 4a 21 be
       0.21763349 -0.18787965 -0.262939 -0.15750962
0000b0 ac da d8 3d b4 14 55 3e 66 31 8b 3e c0 dc ec bd
       0.10588583 0.20808679 0.27186126 -0.11565542
0000c0 26 8c 82 bc 63 89 24 bc 76 ed 42 3e 69 2b ae bd
       -0.015935969 -0.010042521 0.19035897 -0.085043736
0000d0 37 b6 2a 3c f6 26 55 3e ed 7e 89 be 19 d3 45 be
       0.01041942 0.20815644 -0.2685465 -0.19318809
0000e0 07 41 87 3e 58 35 36 3e 6e 73 c6 bd 43 72 90 3e
       0.264168 0.17793787 -0.09689985 0.28212175
0000f0 45 12 1c 3d f3 a8 5f be 39 60 26 3e 52 16 41 be
       0.03810336 -0.21841793 0.16247644 -0.18856171
000100 1c d7 35 be f3 dd 6c 3c 05 74 e8 3d 3d 72 bd 3e
       -0.17757839 0.014457214 0.11350254 0.3700122
000110 d2 d8 59 be e5 41 a3 3e 92 78 9b be 3d 4b 04 be
       -0.21274117 0.3188621 -0.30365425 -0.12919326
000120 16 fe f8 bd 6d 0d 57 be d0 5a 31 3e 39 73 ec bd
       -0.12157838 -0.21001215 0.17319798 -0.115454145
000130 a7 d9 b1 be ab 49 87 be 22 bb 96 3e 35 12 fa bd
       -0.34736368 -0.26423392 0.29439646 -0.12210504
000140 0d a5 95 3e 8d af 30 be 21 c4 7e 3e 9c ad 82 be
       0.29227486 -0.17254467 0.24879505 -0.25523078
000150 a8 54 f0 bd ae 8b 03 be 01 25 06 3e e1 1f b6 be
       -0.11734897 -0.12846252 0.13100053 -0.35571197
000160 64 af aa be 18 af 70 be d9 01 26 bd 80 e2 43 be
       -0.33336937 -0.23504293 -0.040529106 -0.19129372
000170 66 bf 2f 3e 9b 68 93 3c ee 2f 5a 3d 96 5a 4f be
       0.17162856 0.017994216 0.053268366 -0.202494
000180 48 7f 04 bd cc b8 60 3e cd 6c ef bd 44 65 49 be
       -0.032347947 0.21945494 -0.11690674 -0.19667536
000190 bc 79 95 be 93 53 8c 3e 43 a4 6d be ae 08 bf be
       -0.29194438 0.27407512 -0.23207192 -0.3731131
0001a0 98 72 3c 3d a1 7c 3a 3e 93 6e 44 bd 35 da af be
       0.046007723 0.18211605 -0.047957014 -0.34346166
0001b0 39 5e 6c 3e 2b 2d 1a 3e e7 b9 2b be df 33 80 3d
       0.23082818 0.15056293 -0.16770135 0.062598936
0001c0 74 78 36 3d 37 4b 22 be 08 d7 8f be 41 5a 7b bd
       0.044548467 -0.15849005 -0.28093743 -0.06136537
0001d0 c8 81 8c bc 16 66 2f be 4e 82 26 3e 13 85 35 be
       -0.017151728 -0.17128786 0.16260645 -0.17726545
0001e0 e8 16 42 3e 78 6e 00 3e dd de 9b 3e ad 79 5e bd
       0.1895405 0.1254214 0.3044347 -0.054315258
0001f0 4b 5e 10 3d 0a e6 08 bd a7 ad b7 bc b8 46 b1 3e
       0.035246175 -0.033422507 -0.022421671 0.34624267
000200 70 a8 94 3d 4e 4a aa 3e 9b b2 75 3e ca 97 96 bd
       0.072586894 0.33259815 0.23993914 -0.0735317
000210 0d 7a 94 be fb 02 e0 3a 42 b9 97 3e 98 27 21 3e
       -0.28999367 0.0017090732 0.29633528 0.1573776
000220 20 ce 2f be 15 5e 05 3c aa b7 a3 be 5b 7d 90 3e
       -0.17168474 0.008140107 -0.31976062 0.2822064
000230 d2 76 91 3e a9 43 cb bc de 0d 67 bd 13 2f fc bc
       0.28410965 -0.024812536 -0.05640971 -0.030784165
000240 e2 18 1c be 6b c5 4b 3e 24 76 c7 3d c7 c3 54 3c
       -0.15243867 0.19899528 0.097393304 0.01298613
000250 57 27 f7 bd 0c da 4f bd 72 df 5b be d2 ff 0c 3c
       -0.1206805 -0.050745055 -0.21471956 0.008605914
000260 9b 67 98 3e 36 b3 b3 bb 42 bc 2f 3c d5 e0 83 be
       0.29766545 -0.00548401 0.0107260365 -0.2575747
000270 f5 72 09 be 68 0e 81 3c 33 01 38 bd b1 c0 0b 3e
       -0.13422759 0.01575394 -0.04492302 0.13647725
000280 20 e5 9c 3d d5 e7 2a be 95 3d 8a 3e a2 7e 8f 3e
       0.076608896 -0.1669 0.27000108 0.280263
000290 4a 3b 85 bd e4 0e b7 bd 35 98 93 be d1 64 99 3e
       -0.06505449 -0.08938387 -0.28827062 0.2995973
0002a0 89 52 9f 3e 68 f2 90 3e ed 7b 6b 3e 23 cd ae 3e
       0.31117657 0.2830994 0.22996493 0.34140882
0002b0 e1 44 9f be 38 c0 94 bc de 07 3e 3e 99 20 1a be
       -0.31107238 -0.018158063 0.18557689 -0.15051498
0002c0 fd b2 8b bb 21 3b 7e bd 5d 33 75 bb 45 3c 2d 3e
       -0.0042632804 -0.06206811 -0.0037414648 0.16917522
0002d0 a4 20 83 3e 66 33 43 3d 18 5a c1 3d 47 d2 17 be
       0.2561084 0.04765644 0.09441012 -0.14826308
0002e0 40 ac 96 3e 7a 65 87 3e 15 e3 14 3d bc b8 5c 3e
       0.2942829 0.26444608 0.036349375 0.21554846
0002f0 7d b1 18 3e 4a eb 15 bd 7d ba 82 bc 2f 30 6e be
       0.14911456 -0.036601342 -0.015958065 -0.23260568
000300 a8 ab 99 3e 77 24 3b be f9 21 e5 3d 61 52 94 3e
       0.30013776 -0.18275629 0.111881204 0.289691
000310 a4 bd 3d 3d 0b 9e d3 bd 14 65 b3 3b 79 f4 0c 3d
       0.046323434 -0.10332879 0.005474696 0.034412835
000320 79 16 97 3e ae d3 a0 be 36 6b 25 be b4 42 8d 3d
       0.29509333 -0.314115 -0.16154179 0.06897488
000330 31 e7 87 be b5 de 8c 3e 09 0c 76 3e f7 7d 11 3e
       -0.26543573 0.27513662 0.24028029 0.14208208
000340 1a a7 1b 3e f9 33 b2 bd 7a 2c a8 3e b5 eb 53 3d
       0.15200463 -0.08701319 0.32846433 0.05173846
000350 a2 da 9f be 55 2f 1d 3e b0 47 b7 bd 0b c7 80 be
       -0.3122149 0.15350087 -0.0894922 -0.25151858
000360 7b 0c b0 bd 94 39 97 be 39 07 96 bd 65 78 45 3d
       -0.085961305 -0.29536116 -0.07325596 0.04821052
000370 fa a8 3e 3e 2c f8 fd bd a8 eb 2d bd 36 49 01 be
       0.18619147 -0.12400851 -0.042461067 -0.12625584
000380 92 a7 a3 be 6f 08 92 bd 42 e9 86 be 39 13 9a be
       -0.31963784 -0.07130515 -0.26349837 -0.3009279
000390 a7 84 a1 3d 40 7b 3c bb b9 53 3a bd a9 80 59 3e
       0.078866296 -0.0028759986 -0.04549 0.21240486
0003a0 58 73 78 be bc 46 44 be 5b e3 9f bd 2a c8 a0 3e
       -0.2426275 -0.19167608 -0.078070365 0.31402713
0003b0 4d 4c a7 3d 7d f1 2d be ed 38 c9 3d 30 5c 15 3d
       0.0816885 -0.16986652 0.09825311 0.03646487
0003c0 f6 e5 5f be 0c ef b1 bd 03 e3 64 bd b4 02 a2 3c
       -0.21865067 -0.08688173 -0.055880558 0.01977668
0003d0 8d c3 25 be 83 6a 44 3d f2 ad 8b 3e b8 e3 a9 3e
       -0.16187878 0.04795314 0.27281147 0.33181548
0003e0 ad 86 00 be 4a b7 94 3e c4 f1 00 be af 73 4e 3e
       -0.12551375 0.29046088 -0.12592226 0.20161317
0003f0 2e 34 2b 3e 3d 79 97 be 71 1d 8f bd 27 5b 2c be
       0.16719124 -0.29584685 -0.069880374 -0.16831647

conv1.bias f4 [32]
000000 3a 04 60 be ca af 76 3d dd 57 70 3e e4 da d2 bd
       -0.21876612 0.06022624 0.23471017 -0.10295656
000010 ce 86 61 bd e5 2e 10 be 95 f1 71 be ec c4 79 3b
       -0.0550602 -0.14080389 -0.23627312 0.003811176
000020 ec 0d b9 3d e3 16 fd bc d7 5b 54 be 9a 83 8c 3e
       0.090358585 -0.030894702 -0.20738159 0.27444154
000030 8b 7d 39 3d 12 3a ca 3d 10 5a 4e be 7d 69 e4 3d
       0.045285743 0.09874357 -0.20151544 0.11152933
000040 52 ae 01 3d 69 fa 0e 3e e7 82 41 be 60 cd 46 3e
       0.031660385 0.13962711 -0.18897592 0.19414282
000050 06 ef 63 3e c8 e5 0d 3d 18 f0 6d 3e 8c cd 4d 3d
       0.22259149 0.034642965 0.2323612 0.050244853
000060 a4 37 5b 3d b4 f0 03 be e0 b0 88 bc 8c 7b f7 3d
       0.05351986 -0.1288479 -0.016685903 0.120841116
000070 a3 35 88 be 83 53 e6 3c 99 92 40 3c b2 8e 6a be
       -0.26603422 0.028115993 0.011753702 -0.22905996

bn1.weight f4 [32]
000000 14 34 79 3f 53 4f 89 3f d2 09 86 3f 2a d8 7e 3f
       0.9734509 1.0727333 1.0471747 0.9954859
000010 2e c4 81 3f 40 d1 79 3f 94 d2 7b 3f 0a 7e 7e 3f
       1.0137994 0.97584915 0.9836819 0.9941107
000020 58 b7 78 3f 52 52 79 3f fd 1c 7c 3f e3 9e 75 3f
       0.9715476 0.97391236 0.9848173 0.95945567
000030 f5 59 7d 3f 0c 91 7c 3f 9e 88 71 3f 11 7f 79 3f
       0.9896539 0.98658824 0.94349086 0.9745951
000040 6e ad 82 3f 4d 20 75 3f 18 5c 77 3f 49 5f 7a 3f
       1.0209177 0.9575241 0.966249 0.97801644
000050 fd f9 7c 3f 89 b9 81 3f 6c 9e 82 3f ec 4f 85 3f
       0.9881895 1.0134746 1.0204597 1.0415015
000060 43 d0 7b 3f f0 bf 75 3f 55 ce 80 3f 3b 6f 7a 3f
       0.9836466 0.95996 1.0062968 0.97825974
000070 cf d8 80 3f c5 a4 78 3f 8d 69 83 3f da 08 83 3f
       1.0066165 0.9712642 1.0266587 1.0237076

bn1.bias f4 [32]
000000 e1 9a 04 bd 99 74 7b bd 13 59 5f 3d 34 2e 8f bd
       -0.032374267 -0.061390493 0.054528307 -0.069912344
000010 a3 3f a6 bc 7b 66 3a bd 0d b9 30 bd 48 eb 94 3c
       -0.020294016 -0.04550789 -0.04314523 0.018178597
000020 fb ea 3e 3a 14 76 3c bc 1c 91 9a 3c bf 59 e6 bc
       0.00072829396 -0.011502761 0.018868022 -0.028118966
000030 8d da 58 3c 44 ed d0 bc b9 07 4e bd 75 a2 0a bc
       0.0132357 -0.025503762 -0.050300334 -0.008461584
000040 ab b4 7e 3c cb a8 d0 3c c0 f3 af bb 68 dd ff bc
       0.015546004 0.025471112 -0.0053696334 -0.031233504
000050 8f 65 3f bd 18 5b bb bc d7 59 bd bc 08 e9 25 bd
       -0.046727713 -0.022870585 -0.023114128 -0.04050544
000060 4b 9f 0f 3d 93 13 c4 bc ce d4 c1 3c ce 42 43 bd
       0.035064023 -0.023935115 0.023661043 -0.04767113
000070 f3 f6 28 3d e4 d7 39 bd 68 71 25 bd 33 9a 9f 3d
       0.041251134 -0.045371905 -0.040391356 0.07793083

bn1.running_mean f4 [32]
000000 de 07 5c be b2 51 a3 3d cd 08 80 3e eb 1a e0 bd
       -0.21487376 0.079745665 0.25006714 -0.10942634
000010 cf ba 40 bd 4f ac 02 be 78 5e 78 be 8d 78 0e bc
       -0.047053155 -0.12761043 -0.24254787 -0.008695734
000020 9a e0 a1 3d fd 0b f6 bc 5d 27 57 be b9 2d 89 3e
       0.079041675 -0.030035013 -0.2101111 0.26792696
000030 b8 52 63 3d 21 53 ba 3d 53 73 3d be 05 6d df 3d
       0.05549881 0.09097887 -0.18501024 0.10909466
000040 1a 62 0f 3d 10 1f 04 3e 72 6b 35 be be 9c 49 3e
       0.035005666 0.12902474 -0.17716768 0.19688699
000050 4c ee 70 3e 42 51 a0 3c 40 01 7a 3e ae df 6e 3d
       0.23528403 0.019569997 0.2441454 0.058318786
000060 02 58 25 3d 37 8c 1b be 1b 3c 83 3a 48 be e8 3d
       0.040367134 -0.15190206 0.001001242 0.11364418
000070 e2 3f 8e be 5c 8a 41 3d bd 20 26 bc ca 77 81 be
       -0.27783114 0.04725109 -0.010139641 -0.25286704

bn1.running_var f4 [32]
000000 85 d2 ba 3d e1 e7 7f 3d aa 19 95 3c ea 5f 4e 3d
       0.09122185 0.062476996 0.018200714 0.05038444
000010 42 27 0d 3d 8a 9c b8 3e aa a9 36 3d b8 63 35 3d
       0.034461267 0.3605693 0.044595398 0.044284552
000020 d4 17 88 3e 01 c1 a3 3f 47 b7 8f 3c f8 1c 5c 3f
       0.2658068 1.2793275 0.017543448 0.859817
000030 01 a4 91 3d 34 a3 23 3e 1a fc 36 3f f5 10 db 3c
       0.071113594 0.15980226 0.71478426 0.026741484
000040 df 86 8b 3c b5 97 1b 3e 13 b7 9c 3f 4e 4b d3 3c
       0.017032085 0.1519459 1.224337 0.025792744
000050 40 de 9b 3f 21 6e 8d 3d d7 ef 8f 3d 83 44 66 3d
       1.21772 0.06905771 0.07028168 0.05621768
000060 56 8c 0e 3f fc d4 13 3f 05 28 43 3d 9e 7c 03 3f
       0.55682886 0.57746863 0.047645587 0.51362026
000070 df e1 03 3d b7 f0 c8 3e 06 81 ba 3d e7 60 08 3e
       0.03219783 0.3924615 0.091066405 0.13318215

conv2.weight f4 [64, 32, 3, 3]
000000 d0 be c6 bc 6b 0e 0c bd 09 71 8d 3d 5b f9 c3 ba
       -0.024260908 -0.034193438 0.06906325 -0.0014951633
000010 31 3a 24 3c ad ef 4c 3d 3f 92 31 3d e0 18 7b bd
       0.01002364 0.05003326 0.04335236 -0.06130302
000020 7e c6 3f 3d 3e 12 8d 3d 2d 3a b5 bc 7b 45 90 3d
       0.046820156 0.06888245 -0.022122467 0.07044502
000030 77 95 c3 3c aa b9 ad 3b 12 1b d0 bb 21 df a7 3c
       0.023874981 0.005301674 -0.0063508833 0.020492138
000040 c0 d0 8c ba b9 4b 61 bd 84 c0 b6 3d 64 db 09 bc
       -0.0010743365 -0.055003855 0.08923438 -0.008414123
000050 f6 26 c2 bb 16 60 2a 3d 8d ea 2e bd 43 b3 13 bb
       -0.0059250547 0.04159554 -0.042704154 -0.0022537268
000060 68 35 30 bd d2 8b 70 bd d8 c6 18 bd d2 56 c9 3b
       -0.043019682 -0.058727093 -0.037299007 0.006144383
000070 4d 7e 26 3d 5d 6a ad 3a 7d 4b d2 3c e7 9b eb 3c
       0.040647794 0.0013230551 0.025670761 0.028760863
000080 de 08 78 bd ba c2 b8 bc 35 9e e9 bc d8 a9 84 bb
       -0.06055533 -0.02255379 -0.028517822 -0.0040485673
000090 af 21 02 bc 47 b8 30 3d 84 da 91 3c 51 8a 42 3d
       -0.007942601 0.04314449 0.017804392 0.04749519
0000a0 02 e8 22 bd 94 e1 2f 3d 98 5c 50 3d 30 9d 73 3d
       -0.03977204 0.042939737 0.050869554 0.059476078
0000b0 8d e1 f4 bc 5f 02 aa bc de 1e fa 3c aa c5 1f 3d
       -0.029892707 -0.020753084 0.030532297 0.039006867
0000c0 82 c3 2a 3d a0 4a f9 3c 9e 9c d4 bc 48 21 8d 3c
       0.041690357 0.030431092 -0.025953587 0.017227784
0000d0 3a 83 12 bd 19 fa ff bc 23 5d 29 bd df eb 02 bb
       -0.03576968 -0.031247186 -0.041348588 -0.0019977016
0000e0 77 62 3d bd 0a a5 a5 bc 7b 31 83 3a cf 0a 45 bd
       -0.04623648 -0.020220298 0.0010009253 -0.04810601
0000f0 4e 22 8f bd c5 5b a1 bd 37 3e 4a bd 15 4d c5 3c
       -0.06988965 -0.07878832 -0.04937574 0.024084607
000100 8a 7c 48 3d 14 bc bf 3c 2b a1 05 bd 89 f2 e9 3c
       0.048946895 0.023405112 -0.032624405 0.028558033
000110 ad 83 b1 3c aa 96 13 bd b6 0c 3f bc 41 ac b3 bc
       0.021669233 -0.036032356 -0.011660745 -0.021932723
000120 d1 7f c6 bc 31 6e c0 bc a3 25 ab bc de 8e f1 3c
       -0.02423087 -0.023490043 -0.02089197 0.02948707
000130 45 0f 90 bd 6c df ce bc 33 fc 81 bd c0 43 c8 3c
       -0.070341624 -0.02525302 -0.06346931 0.024446368
000140 75 3c 4d bd 97 f9 d8 bc 01 3c 87 3d 36 32 fc 3c
       -0.050106484 -0.026486201 0.06603242 0.030785661
000150 b4 b2 16 bc 99 53 dd 3c 4b 99 d4 bc 82 5f 59 3d
       -0.00919788 0.027017402 -0.025952002 0.0530696
000160 48 aa 19 bd e5 13 6c 3d 84 4c 14 bd 1d 14 34 3b
       -0.03751591 0.05763616 -0.036205783 0.0027477809
000170 08 da 06 3c ea 0d 2e 3c e4 c5 bd bc ba 39 19 bd
       0.008230694 0.010623435 -0.02316565 -0.037408568
000180 26 8a 3b bd b2 85 70 3c 7a 06 c1 3c 67 d8 28 bc
       -0.045786045 0.014680313 0.023562659 -0.010305501
000190 2a 4b 49 bb 1e 9a 86 3d 0d 90 2c 3d 6e 17 29 3d
       -0.0030714967 0.06572364 0.042129565 0.04128211
0001a0 9f 1f cd 3c 0c 5f 48 3c a9 36 05 3d c2 7b d7 bb
       0.025039492 0.012229692 0.03252283 -0.0065760324
0001b0 38 1c 97 3d 2d a9 51 3d 97 28 14 3a c0 5d ec bc
       0.07378429 0.05118673 0.00056518003 -0.028853297
0001c0 13 33 34 3c 16 03 d9 3c 04 84 01 3d df 46 5f 3c
       0.010998505 0.02649073 0.03162004 0.013627737
0001d0 96 2b c6 3c dd 53 c3 3d ca ae 71 3c 26 98 9e 3c
       0.024190705 0.0953748 0.014751146 0.01935966
0001e0 1a fb e0 3b 78 e9 5d 3b 3e 47 46 bc 43 d2 0e bd
       0.006865871 0.0033861082 -0.012101946 -0.03486849
0001f0 3b 68 1a 3d f1 ee af bd fb 76 4f 3d f9 90 14 3d
       0.03769706 -0.08590496 0.050650578 0.03627107
000200 ae 59 cf 3c 7a 16 96 3d c1 38 05 bd d2 0c bd bc
       0.025311317 0.07328506 -0.032524828 -0.023077402
000210 4f dd 47 bd 8b 4c 85 3c 65 a9 86 bd bd 18 3b 3d
       -0.04879504 0.01627185 -0.06575278 0.04567789
000220 e6 03 5f 3b bc 1f 80 bd ce c7 91 bc 00 e1 8d bc
       0.0034029423 -0.06256053 -0.01779547 -0.017319202
000230 1f 42 64 bd 49 cd 30 bd 51 ad ca bd 3e 18 ab bd
       -0.05572712 -0.043164525 -0.09896339 -0.08354233
000240 ab 5b 79 3c d5 9e 8c 3c cd 84 90 bd 92 84 8d bd
       0.015219609 0.01716558 -0.0705658 -0.069100514
000250 c5 05 83 bd b4 4e 1d bb 51 f9 8d 3c ed 4f cb bc
       -0.06397585 -0.002400321 0.017330797 -0.024818385
000260 14 5d 07 bd 41 1e 00 bc 2f 79 4f bc bd 75 de 3c
       -0.03304775 -0.007819713 -0.01266317 0.027155751
000270 6b 2a 07 bd 74 7f 87 3c cd 9f 99 3c 11 b0 32 3a
       -0.032999437 0.016540267 0.018752957 0.0006816397
000280 4b 7e 0a bd 70 27 79 3b ce 3f 64 bc 6c 52 4f 3d
       -0.03381185 0.0038017891 -0.013931228 0.050615713
000290 65 13 fb 3c 7b e2 3d 3d dd 48 f2 3c 27 02 a8 bc
       0.030648896 0.046358567 0.02957576 -0.020508839
0002a0 99 c1 e9 bc 5e 8b b2 3b b7 1b 85 bd 40 55 68 3d
       -0.028534697 0.005448743 -0.06499427 0.056721926
0002b0 68 f5 43 bd dd 2b c2 3b fc 70 6b 3b 28 6b 2e bb
       -0.04784146 0.005925639 0.0035925498 -0.0026614163
0002c0 a9 ab 2e bd 89 c6 19 3d 9e fb 26 3b 27 c6 0b bd
       -0.042644177 0.037542854 0.0025479565 -0.03412452
0002d0 fd 33 97 3d 6c e2 38 3d 1d 98 70 3d e9 d0 e0 39
       0.07382963 0.045137808 0.058738817 0.0004288026
0002e0 11 85 3f 3d 84 c8 0c bd 66 a4 8a 3a d4 47 5b bc
       0.04675776 -0.034370914 0.0010577559 -0.013383824
0002f0 cd 72 3a bd fa 41 5e 3d f8 94 77 3d 4c 1a 1f 3d
       -0.04551964 0.05426214 0.060444802 0.038843438
000300 07 cb 57 3c a4 b6 20 bb 04 3f 2f 3b 03 8e ad 3d
       0.013170964 -0.0024522925 0.002674044 0.08474352
000310 df 09 b5 3b 51 51 9a 3c 71 0e a0 3c 3c fc 96 bc
       0.0055248584 0.018837603 0.019538136 -0.018430822
000320 04 b3 d6 bc dc 4b c5 3c 13 a7 78 bd 58 5d a7 bd
       -0.026208408 0.024084024 -0.06070621 -0.08172101
000330 c7 c6 96 bd 8a 83 c6 3c cd 15 94 bc 50 f0 a0 3d
       -0.073621325 0.024232645 -0.018076802 0.07858336
000340 c6 6b 1b bc 75 fb a0 3a 51 ad 20 3d 6a 97 88 3d
       -0.009486144 0.0012281971 0.039227787 0.06669505
000350 c5 cb 82 3d ff 83 53 3d 01 c2 87 bb c1 ba a9 3d
       0.06386522 0.051639553 -0.004143 0.082875736
000360 20 dd 87 3d 24 e2 75 3b cd c0 48 3d 5f c2 85 3c
       0.06633973 0.0037518824 0.049011994 0.016328035
000370 c7 84 23 3d ab 3f 5c 3d 6d a6 ff bb 97 fe d8 3c
       0.03992155 0.053771656 -0.007801822 0.026488585
000380 39 9b 81 3d 58 91 06 bd 3b 16 b9 3c a4 3b 2c 3d
       0.063284345 -0.032853454 0.022593608 0.042049065
000390 a2 0a df 3c e6 c4 34 bd 9e 28 9f bc 50 fc cb 3b
       0.02722675 -0.04413309 -0.019428547 0.0062251464
0003a0 f9 7d 43 3d 49 47 59 3d b2 32 23 3c e1 dd 99 3c
       0.04772756 0.0530465 0.009960817 0.018782558
0003b0 c6 1b c2 3c 6b 64 83 ba 72 bc 6f bc 7f 2e 1a 3d
       0.023694884 -0.0010024434 -0.014632331 0.037642
0003c0 4b 3c 0c bd 8f b7 f9 bc ce 20 4e bd 59 26 28 3d
       -0.034237187 -0.030483035 -0.050324254 0.041052196
0003d0 66 3c d8 bc ea 18 c1 3c 8f 2f d4 3b a0 a1 b8 bc
       -0.026395988 0.02357145 0.006475396 -0.022538006
0003e0 51 18 c2 bc 65 6c 82 3c 00 1a 05 3c 45 56 69 3c
       -0.023693236 0.015920827 0.008123875 0.01424176
0003f0 75 85 a7 ba 0e a0 87 bd c1 9f 0e bd 22 ae a2 bd
       -0.0012780862 -0.06622325 -0.034820322 -0.079433694

conv2.bias f4 [64]
000000 7b 1b 8c 3c a0 26 12 3c 36 37 38 38 92 33 41 bd
       0.017102947 0.008920342 4.3920438e-05 -0.047168322
000010 6f b1 e0 bc ce 56 6f 3d 58 39 39 3c 17 52 29 3d
       -0.027428357 0.058432393 0.011305176 0.041338053
000020 7b 6b d4 bc b9 10 4e 3d 72 ef 0a bc da 30 d2 3c
       -0.025930157 0.050308917 -0.00847994 0.02565806
000030 bb 34 1a 3d 3f c9 a5 bc a4 f2 23 bd 85 12 1d bd
       0.037647944 -0.020237563 -0.040026322 -0.03834774
000040 31 ff 6d 3d 48 3b df ba 4c ab 05 bc d2 80 e3 3c
       0.058104698 -0.0017031217 -0.008158516 0.027771387
000050 89 a1 6c bc 9c 36 5f bd 98 d8 40 bd 8d 5e 37 3d
       -0.01444281 -0.05449544 -0.04708156 0.044767905
000060 1a ed 74 3c aa e7 76 3c fa 77 a3 bb da 0d 39 3c
       0.014949108 0.015069881 -0.0049886676 0.011294806
000070 ac de 6e 3c 37 0b 79 3c bb 45 ee 3c 12 e9 d3 bb
       0.014579456 0.015200428 0.029085984 -0.006466993
000080 7f c8 e1 bb 62 3a 94 bb 5a be e1 3a 74 45 2b bd
       -0.006890356 -0.0045235613 0.0017222867 -0.041814283
000090 12 12 61 bb fb 37 36 bd f3 6d 19 bd 53 21 0c bd
       -0.0034343046 -0.04448698 -0.03745837 -0.034211468
0000a0 9c d7 5b bc 2a f4 83 bc e5 22 33 bd 5d 0d 69 3d
       -0.0134181045 -0.016107637 -0.04373445 0.05689751
0000b0 c2 58 4a bc 9b 63 24 bd 97 92 c7 bc e4 ac 83 39
       -0.012350263 -0.040134054 -0.024361892 0.0002511508
0000c0 f7 56 af bc c5 4d 0f 3d 5e c1 03 3d bd 6c 50 3c
       -0.021403773 0.034986276 0.03216683 0.012721238
0000d0 4a 5f 26 3c d6 b1 11 bd 29 24 46 3d b7 47 1d bb
       0.010154555 -0.03556999 0.04837433 -0.0023999044
0000e0 8e 26 55 bc 33 9f 88 39 c2 d9 80 3c d3 7c 57 bd
       -0.01300968 0.00026058554 0.015728835 -0.052609276
0000f0 cc e8 63 3d 3a 68 64 bd 9a 29 2c bd f1 54 24 bd
       0.055641934 -0.05576346 -0.04203186 -0.04012007

bn2.weight f4 [64]
000000 b5 9d 81 3f 02 c1 89 3f f6 93 78 3f 45 d8 7a 3f
       1.0126253 1.0762026 0.9710077 0.9798625
000010 2b 26 7d 3f d4 84 70 3f 01 a0 85 3f 5a 37 75 3f
       0.98886365 0.9395268 1.0439454 0.95787585
000020 35 49 83 3f bd 2f 84 3f df d1 6e 3f 56 80 76 3f
       1.0256716 1.0327069 0.9328899 0.96289575
000030 02 52 7e 3f ab 58 7a 3f 63 7b 83 3f b9 a6 88 3f
       0.99343884 0.97791547 1.027203 1.067588
000040 8d a9 71 3f cd 6d 81 3f f5 a4 84 3f 0b 94 83 3f
       0.9439934 1.0111634 1.0362841 1.0279554
000050 bc 20 78 3f dd ac 84 3f 18 a2 72 3f 03 4f 81 3f
       0.9692495 1.0365254 0.94778585 1.0102237
000060 ac 3e 7e 3f 17 e6 82 3f 99 a0 74 3f 14 12 75 3f
       0.9931438 1.0226468 0.9555755 0.9573071
000070 8b 52 7f 3f d6 f2 86 3f 9b 8c 78 3f 6c d2 7e 3f
       0.99735326 1.0542858 0.97089547 0.9953983
000080 0d 09 81 3f 69 bc 72 3f a8 52 83 3f 3e 3b 7a 3f
       1.0080887 0.9481874 1.02596 0.97746646
000090 2c 19 74 3f 78 19 72 3f c4 01 82 3f ea de 81 3f
       0.9535091 0.9457011 1.0156789 1.0146153
0000a0 02 54 83 3f 56 06 82 3f c5 4f 7b 3f 26 0a 72 3f
       1.0260012 1.0158184 0.98168594 0.94546735
0000b0 a3 99 81 3f ae 01 85 3f 4b 64 82 3f 1e 99 81 3f
       1.0125011 1.0391138 1.0186857 1.0124853
0000c0 78 68 70 3f 55 e9 7d 3f 65 0a 7b 3f 95 6d 7d 3f
       0.93909407 0.9918416 0.98062736 0.98995334
0000d0 a9 b9 80 3f 27 e8 86 3f 27 51 75 3f 5c 59 7f 3f
       1.0056659 1.0539597 0.95826954 0.99745727
0000e0 9d 3d 79 3f 0f 86 85 3f 17 ec 81 3f 5f 73 7e 3f
       0.9735964 1.0431536 1.0150174 0.9939479
0000f0 40 db 7f 3f be 81 74 3f 5b 49 82 3f 79 e3 80 3f
       0.99943924 0.9551047 1.0178636 1.0069419

bn2.bias f4 [64]
000000 e7 8c 7a bd ce 21 11 be 72 e8 59 bd be 04 84 bd
       -0.06116953 -0.14173052 -0.053200193 -0.06446217
000010 26 75 83 bd 08 91 c7 bd 13 6c a1 bd ce e8 6a bd
       -0.06418829 -0.097444594 -0.07881942 -0.057350926
000020 ee 97 51 bd 04 26 d0 bc d2 1a 8c bd e2 0a 34 bd
       -0.051170282 -0.025408752 -0.06841053 -0.04395569
000030 eb cf 5b bd 1c 5b 92 bd 7a dd ce bb ca 94 e5 3c
       -0.053665083 -0.07146284 -0.006313023 0.02802505
000040 3a 58 e8 bd 94 48 21 bd 5d 19 0c bb 2c 6b df bc
       -0.11344953 -0.039375857 -0.0021377422 -0.027272783
000050 aa 86 32 bd 76 b5 ec 3c b9 f4 d1 bd b1 0b ad ba
       -0.043585457 0.028895121 -0.10251755 -0.0013202337
000060 9d e5 3c 39 a6 66 ce bc 65 b1 87 bd 0e 6b e8 bd
       0.00018014615 -0.025195431 -0.06625632 -0.11348544
000070 40 61 1d bd b9 3d 65 3c 5d 75 c6 bd 7b 9d 4b bc
       -0.038422823 0.013991767 -0.09690354 -0.012427683
000080 e1 be 89 3b e4 fd be bc 98 7c 45 bc 1f 54 e5 bd
       0.0042036627 -0.023314424 -0.012053631 -0.111976855
000090 0f 46 a2 bd 94 ef ee bd 0a 9a c6 3b e5 2a 2a bc
       -0.07923519 -0.1166679 0.0060608434 -0.010386203
0000a0 45 bd b5 bb 77 71 d4 bd d0 3c 49 bd c9 8f 3c bc
       -0.0055462443 -0.10373204 -0.04913026 -0.01150889
0000b0 6f b2 b7 3b 7f e6 9c 3c 57 ea 25 bd b0 10 8b bb
       0.0056059877 0.019152878 -0.040506687 -0.0042439327
0000c0 b0 95 03 be e3 fb c8 bd dd f8 32 ba 1d 8b b6 bd
       -0.1285007 -0.098136686 -0.00068272447 -0.089132525
0000d0 f9 86 ac bc a2 64 26 bd 4c 8d c7 bc 5e 38 01 bd
       -0.021060454 -0.040623315 -0.024359368 -0.031547897
0000e0 65 93 b0 bd e2 22 95 3c 6b d0 1d bc 6b 0e 03 3b
       -0.08621863 0.01820511 -0.00963221 0.0019997607
0000f0 fd 20 b1 bd 75 b1 de bd 14 8d 36 bd ab 20 a3 bd
       -0.0864887 -0.10873691 -0.044568136 -0.07965215

bn2.running_mean f4 [64]
000000 f4 82 ae 3d f9 78 2e be 27 ca f0 bf 19 8e 67 be
       0.08521071 -0.17038335 -1.8811692 -0.226128
000010 df 8d 92 bf 29 f0 81 bd 41 be 0d be 16 5c 10 bf
       -1.1449546 -0.06344635 -0.13842107 -0.5639051
000020 c5 83 09 3e 0e b5 64 bd 9a 3d 03 bf f8 6b a9 bf
       0.13429172 -0.05583673 -0.5126587 -1.3236074
000030 4d 2e 86 bf 1d 5f 22 be 0e a2 f5 bf fa d3 fb be
       -1.048288 -0.15856595 -1.919008 -0.49185163
000040 91 22 bb 3f cb b2 21 bf fc 88 16 bf 6b 77 36 bf
       1.4619924 -0.6316344 -0.5880277 -0.7127597
000050 bf c8 cc bf 38 81 0c c0 82 2e 64 bf 35 6f 6b bf
       -1.5998763 -2.195387 -0.89133465 -0.91966563
000060 ae be 3c be 14 72 20 bf 73 e8 30 bf 82 c7 1d 3f
       -0.18432114 -0.6267407 -0.6910469 0.6163255
000070 17 f2 e6 bf 21 52 e7 bf 60 47 66 3f 6b 4e 09 bf
       -1.804263 -1.8071939 0.8995266 -0.5363528
000080 99 7d ec be ef d0 09 3e 93 c7 81 bf b0 ea ca 3f
       -0.46189573 0.13458608 -1.013903 1.5852871
000090 f3 3e 58 be d2 2a d3 3f 37 e2 04 c0 f2 0c b1 bf
       -0.21117763 1.6497443 -2.076307 -1.3832076
0000a0 f7 44 bf bf 73 9c 60 be fa 74 01 3f a1 06 1d bf
       -1.4942921 -0.2193468 0.5056912 -0.6133824
0000b0 d2 66 02 c0 a0 68 ea be 10 1b 82 3f be 35 e9 be
       -2.0375257 -0.45782948 1.0164509 -0.45548815
0000c0 00 6c 2d 3f 39 43 80 be de ec ac bf 19 93 c2 3f
       0.6774292 -0.25051287 -1.3509786 1.5201141
0000d0 2f 0e af bf 67 a5 93 be 62 b0 5c 3d 0c f2 1c bf
       -1.3676203 -0.2883713 0.05387915 -0.61306834
0000e0 0d 22 69 3f 9b 4c 0c c0 20 88 9a bf d6 31 76 bf
       0.9106758 -2.1921756 -1.2072792 -0.96169794
0000f0 ab 9e a7 be a2 02 1d 3e 27 a7 81 bf bb 5f d3 3f
       -0.32738242 0.15333036 -1.0129136 1.651359

bn2.running_var f4 [64]
000000 da 8f 38 3f c5 00 14 3f 36 2c 1a 40 f9 35 ed 3e
       0.720945 0.57813674 2.4089484 0.4633024
000010 bc 17 87 3f f0 7a ab 3f 69 22 14 3f 78 e6 45 3f
       1.0554118 1.3396893 0.57865006 0.7730479
000020 7d 20 fc 3e 86 0e 16 3f 2a 8b bc 3f 94 42 71 3f
       0.49243537 0.5861591 1.472997 0.94242215
000030 d5 7f c8 3f 05 5a 03 3f dc ff d9 3f 4d ce 3b 3f
       1.5664011 0.51309234 1.7031207 0.73361665
000040 11 2d 9b 40 40 ff 0f 3f d5 ff 69 3f 16 e3 29 3f
       4.8492513 0.56248856 0.91405994 0.6636213
000050 e5 d0 9f 3f 6a 01 3d 40 73 78 5f 3f 22 ca 7b 3f
       1.2485625 2.9532113 0.87293166 0.98355305
000060 ba e8 ba 3e e9 1c 33 3f c1 15 db 3f ff aa 8a 3f
       0.3650568 0.6996599 1.7116014 1.0833434
000070 b9 cf 0d 40 dd 21 30 40 d2 6f b6 3f f3 ad 36 3f
       2.2158034 2.7520669 1.4252875 0.71359175
000080 c4 02 0c 3f 06 59 e5 3e 95 fd 9c 3f 9b 6c 2b 40
       0.5469172 0.44794482 1.2264887 2.6785038
000090 d8 21 0b 40 ae 05 b9 3f a5 99 52 40 b3 af 9a 3f
       2.1739407 1.4454858 3.2906277 1.2084869
0000a0 9f b3 b2 3f 33 fb 11 3f eb a2 04 3f 84 51 51 3f
       1.3961066 0.57023925 0.51811093 0.8176501
0000b0 e7 2b 82 40 9a 43 e2 3e 48 18 b1 3f 40 a4 45 3f
       4.067859 0.441922 1.3835535 0.7720375
0000c0 47 26 67 40 d6 13 2e 3f d6 2f 87 3f 48 6f 51 40
       3.6117113 0.6799902 1.0561473 3.272417
0000d0 89 74 cb 3f fa 4d 42 3f 07 c6 da 3f e7 89 62 3f
       1.5894939 0.7590023 1.7091683 0.8849167
0000e0 2f d7 85 3f 16 90 f3 3f 1a 3a 05 40 85 7b f7 3f
       1.0456294 1.9028347 2.0816712 1.933457
0000f0 ad 02 52 3f a7 51 5e 3f 67 98 5e 3f aa b5 d3 3f
       0.8203533 0.8684334 0.869513 1.6539814

conv3.weight f4 [128, 64, 3, 3]
000000 89 eb e0 3c 68 05 83 bc 48 55 4d bd db c6 7a bc
       0.027456062 -0.015993789 -0.05013016 -0.0153062
000010 f9 10 54 3c 12 91 95 bc 72 06 42 bc 02 e1 18 bd
       0.0129435 -0.018257651 -0.011842357 -0.03732396
000020 30 bf ee 3c 83 01 15 bc 9d 4d e4 3b f1 19 ec bc
       0.0291439 -0.009094599 0.00696726 -0.028820964
000030 36 7c ae bc be 91 0b bc df f8 73 bb 5d 9d 1a bd
       -0.021299463 -0.008518634 -0.0037227196 -0.03774773
000040 dc e1 20 bd 7f d5 fc bc ec 37 da 3b 7a 7d a1 bc
       -0.039277896 -0.030863522 0.0066594984 -0.019713152
000050 77 e7 24 bc e0 e0 5b 3c 46 5f 4e 3c 97 bb d2 bc
       -0.010064951 0.013420314 0.012595957 -0.025724215
000060 62 62 db bc 8d f7 3a bd a1 69 e7 3c 61 47 e0 3c
       -0.026780311 -0.04564624 0.02824861 0.027377786
000070 de e6 af bc 84 cb 90 3c 8b d5 a4 3c ac 54 07 3c
       -0.02147239 0.017675169 0.020121356 0.008259933
000080 4c e9 84 3c ea 59 6e 3d 64 38 5e 3d 33 36 48 3d
       0.016224526 0.058191217 0.054252997 0.048879813
000090 98 73 17 bc b3 3e 7b bd f6 86 4f bd 83 c4 b3 bb
       -0.009243868 -0.06133909 -0.05066582 -0.0054860725
0000a0 81 03 c3 3c e0 6d 4a bc ca 0a 9f 3c 58 c5 28 3c
       0.023805382 -0.012355298 0.019414324 0.010300957
0000b0 a2 bc 80 bc e5 f3 55 bc d9 7c 41 bc cc a5 9a bb
       -0.015714947 -0.013058637 -0.011809551 -0.0047194716
0000c0 d5 c7 d3 bc ec f5 be 3c 63 68 6b 3b 68 9d 72 bc
       -0.025852123 0.023310624 0.0035920374 -0.014808036
0000d0 3b ed a3 3c 27 d0 71 3c 9d a3 cd 3b 34 44 0f bd
       0.020010581 0.0147591 0.0062756077 -0.034977153
0000e0 25 74 22 3d c0 00 21 bd cb dd 05 3d 9d 07 49 3c
       0.039661545 -0.039307356 0.03268222 0.012269882
0000f0 cb f2 48 bc fb f7 5f 3c 7e 81 de bb 3f 15 c1 3c
       -0.012264918 0.013669963 -0.006790339 0.023569701
000100 fc cf 1f bd 98 d1 30 3c e1 59 0b 3d 18 0b 58 bc
       -0.03901671 0.010792159 0.034021262 -0.013186239
000110 b7 c8 15 3d d1 3e 9c bb d2 64 35 bc 75 5c 06 3d
       0.03656837 -0.0047682305 -0.011071401 0.032803018
000120 5f 97 e6 bc b2 cc 1c bd 72 67 db 3b 62 23 96 bc
       -0.028148351 -0.03828115 0.0066956813 -0.018327419
000130 6d 8f 0e 3c 7a 1c 06 bc e6 52 2e 3d c7 0a 22 3c
       0.008701188 -0.0081855 0.042559527 0.009890265
000140 72 ff e8 bb 5e a5 25 bc b8 14 bc 3c e2 17 eb bc
       -0.0071105296 -0.010110227 0.022959098 -0.028697912
000150 62 2e 80 3d 19 bf 84 39 a7 d6 85 3c c3 e3 d5 3c
       0.06258847 0.0002531938 0.016337706 0.026109582
000160 61 a1 23 3d 15 14 ec 3c ec ad 25 3d eb c6 ba 3b
       0.039948825 0.02881817 0.040449068 0.0056999824
000170 5a 2c d8 3b 90 94 33 3d 0f 31 b9 bc 8c 1e 1f 3d
       0.006597084 0.043842852 -0.0226064 0.03884749
000180 03 aa 95 bc 13 f0 8d 3b 60 25 d2 bb f0 6f a9 3b
       -0.018269544 0.0043315976 -0.006413147 0.0051708147
000190 95 23 9d 3c 92 64 1d bd 99 40 20 3d c5 e6 38 bc
       0.019182006 -0.03842599 0.039124105 -0.0112854885
0001a0 aa 15 3c bd 6d 15 f6 3b 6e 94 ac bc a9 7d 1c 3d
       -0.045919098 0.0075098784 -0.02106687 0.038205776
0001b0 fc 1f 21 bc d9 13 82 3d ba 57 09 3d a3 a4 ea bc
       -0.009834286 0.06351442 0.03353093 -0.028642958
0001c0 3d 83 00 3c f8 dc 53 bc d6 cb 03 3d 18 0d 09 bc
       0.00784379 -0.012931101 0.032176815 -0.008364938
0001d0 13 32 55 3b da 58 35 3c bc c7 e7 b9 e9 fa 94 bc
       0.0032531067 0.011068547 -0.00044208567 -0.01818605
0001e0 98 69 96 3c 85 f1 98 bc 6f d7 e8 bc bc 4b ba 3c
       0.018360898 -0.018669853 -0.02842304 0.022741191
0001f0 69 09 06 3c 7e 21 5d 3d 38 81 3e 3d 9e 50 94 ba
       0.0081809545 0.05398702 0.04650995 -0.001131553
000200 f0 f0 08 3d 1c 02 af 3c 6b 6e a0 3c 5c 5a 3a 3d
       0.0334329 0.02136331 0.019583901 0.04549633
000210 32 a0 8a bb 1f 19 dc 3a 8a 2d 6e bd 4b c9 b7 bc
       -0.0042305226 0.0016792155 -0.0581489 -0.022434851
000220 d2 35 90 3c ff e2 b3 3c 03 4e 57 bc f7 c4 9e bc
       0.017603789 0.021958826 -0.013141158 -0.01938103
000230 49 71 f4 bb 39 28 eb bc 18 59 32 bc 8a aa 95 3c
       -0.0074597937 -0.028705703 -0.010885499 0.018269796
000240 06 72 a2 3c 7b 93 03 3c 0c 7c af 3c a3 d6 2a bd
       0.019829761 0.008030768 0.021421455 -0.0417086
000250 51 de ec 3a 99 48 e6 bc 53 5c 83 bb 94 e4 f7 bb
       0.0018071627 -0.02811079 -0.0040088086 -0.0075650904
000260 00 98 a5 3c a3 04 db bb 09 17 08 3d 16 7f df bc
       0.02021408 -0.0066839023 0.033225093 -0.027282279
000270 49 4b f2 3c d8 83 3c 3c d9 4c 30 bd 1a bc 03 bd
       0.029576914 0.011506043 -0.043042038 -0.03216181
000280 cf ba 18 3d 8a f8 90 3c b5 91 85 bc 9c f9 95 bc
       0.03728753 0.017696638 -0.01630483 -0.0183075
000290 85 c5 00 3d 4b 4c 02 3d fd c8 14 bd 00 cd 0d bd
       0.03143837 0.03181104 -0.03632449 -0.03461933
0002a0 0b e5 8e bc 16 5f 0e 3b 2c 3d 3e bd a5 d5 46 3d
       -0.0174432 0.0021724156 -0.046445057 0.04854359
0002b0 3f 61 31 3d 72 e9 d9 bb b4 54 2e 3d 3a 62 39 3d
       0.04330563 -0.0066501433 0.042561248 0.04525969
0002c0 21 18 61 bc 1c 29 82 3d 82 0c 88 3d b3 7e 46 3d
       -0.013738663 0.06355497 0.06643011 0.048460674
0002d0 60 22 a5 3a 68 2f 89 bc 6a f6 89 3c 47 7e 0f 3d
       0.0012598746 -0.016746238 0.016841132 0.035032537
0002e0 18 91 fe bc 86 6f c4 bc dc a9 c3 b7 65 79 31 bd
       -0.031075045 -0.02397896 -2.3324908e-05 -0.04332866
0002f0 5c c2 21 bc 12 60 4d bb 33 7e 0d 3d 6b 0c ef 3c
       -0.009872999 -0.003133778 0.03454418 0.029180726
000300 d2 5a 95 bb 3a 3b 8f 3a 0e 13 89 bc 67 14 72 bd
       -0.0045579458 0.0010927685 -0.016732719 -0.05910149
000310 d2 29 30 bd 7c 58 ef bb ed a4 dd 3c 84 a2 e7 bb
       -0.043008633 -0.0073042493 0.027056182 -0.007068934
000320 2e 17 05 3c a6 0b 03 bd e0 e8 3b bd 2d 5b 95 3c
       0.008123202 -0.03199353 -0.045876384 0.018231953
000330 bd 5b 15 bb cc eb 26 bc 11 7e 87 bc b6 02 aa 3c
       -0.0022790276 -0.010188054 -0.016539605 0.020753246
000340 dc b9 c0 3c 46 a5 84 bb 00 cf f2 3c a7 55 0b 3d
       0.023526125 -0.0040480224 0.02963972 0.03401723
000350 df 75 b8 3c c4 99 11 3d 0c 67 d4 3c cd 68 14 bc
       0.022517143 0.035547033 0.025928043 -0.00905819
000360 98 13 4c 3c 7a cc aa 3c e6 4c 86 3d 8f bb 25 ba
       0.012455843 0.020849455 0.06557636 -0.0006322199
000370 83 b9 13 3d 6a f1 59 3d 5a 9a 5e 3d 3e 99 9d 3c
       0.03606559 0.053208746 0.05434642 0.01923811
000380 72 36 82 3d 9c 5c b9 bc fd 00 fd 3c ae fe 18 3c
       0.06358041 -0.022627167 0.03088426 0.009338064
000390 a3 9e 11 3d 0e 2c fe bc 0f cf 5b bb 7e da bd ba
       0.03555168 -0.031026866 -0.0033540165 -0.0014484671
0003a0 4e 5f 83 ba 34 70 d5 3b c9 b0 1f bc 96 e6 18 bd
       -0.001002291 0.00651362 -0.009746739 -0.03732928
0003b0 1e 66 2e 3d cc 59 1d bd c9 bf 19 bc 23 e4 cc bc
       0.042577855 -0.038415715 -0.009384104 -0.025011128
0003c0 f6 82 a5 bc 99 84 42 bd 77 3f 76 bc 87 86 06 3c
       -0.020204049 -0.047489736 -0.01502978 0.008210785
0003d0 88 2b 37 3c ca db 0e ba d9 d9 3c bd 7d e8 fe bc
       0.011179812 -0.0005449621 -0.046106193 -0.031116718
0003e0 5a 83 12 bd b7 14 06 bd 5f 74 74 bc 3b 0b 64 3c
       -0.035769798 -0.0327346 -0.014920323 0.013918693
0003f0 cd 87 53 bc b6 be 06 3d d8 38 11 3d eb fe ce bb
       -0.012910795 0.03289672 0.0354546 -0.0063170097

conv3.bias f4 [128]
000000 0c 78 76 3b f1 f6 73 3c 23 b4 db 3b 22 1a 1c 3d
       0.0037608175 0.014890418 0.0067048236 0.03811086
000010 30 9e 01 bc 54 0d c2 3b 20 56 06 3b 67 98 19 3b
       -0.00791125 0.005921999 0.0020498112 0.0023436786
000020 1b e7 8f 3a 6c 80 5c bc 56 7f ec 3c 02 01 06 bd
       0.0010978909 -0.013458353 0.028869312 -0.032715805
000030 92 ae 18 3b 00 09 15 3d 65 4c b6 bc a0 92 b7 3c
       0.0023297411 0.036385536 -0.022253225 0.022408783
000040 96 50 ea bc a3 7d 28 3d 3a b2 5e 3c a9 e1 ce 3c
       -0.02860288 0.04113544 0.013592297 0.025254088
000050 e9 e6 7d bc 5f 52 bf 3c 67 db d0 bc 0f 33 13 3d
       -0.015496948 0.023354707 -0.025495244 0.035937365
000060 e2 fa 19 3c a7 a7 03 3d df 1d d4 bc a8 8b c3 3a
       0.009398194 0.032142308 -0.02589315 0.001491894
000070 23 15 38 3c 8a ea f0 3b 71 fe 10 bb 96 2d b1 bc
       0.011235508 0.007352178 -0.0022124315 -0.021628182
000080 c3 02 d0 bb 1d 44 2b 3c a2 f3 77 3c 35 a4 8a bb
       -0.0063479855 0.010453251 0.01513377 -0.004231001
000090 f8 b5 c5 3c b4 06 cb 3b 35 f2 c9 bb 65 e1 12 3d
       0.024134621 0.0061958674 -0.0061629065 0.035859484
0000a0 f4 cb 08 bd 11 c2 1f 3d 02 7b 67 3b 0c f0 9d bc
       -0.03339763 0.039003436 0.003532112 -0.019279502
0000b0 97 20 0d 3d da 66 1d bd 22 0e 9c bc f4 a0 c8 bb
       0.03445491 -0.038428165 -0.019049708 -0.0061227027
0000c0 db 9a 14 3d 12 60 15 3d e1 f2 97 bc 88 29 a7 3c
       0.036280494 0.036468573 -0.01854843 0.020405546
0000d0 75 02 c0 3c c4 a5 06 bd 54 0e 3e bc 8c 40 05 3d
       0.023438672 -0.03287293 -0.011600096 0.03253226
0000e0 92 50 a0 bb 03 17 1f 3d a2 a1 83 3c 19 e0 19 3d
       -0.004892417 0.038840305 0.016068283 0.03756723
0000f0 85 c5 2e 3d f3 17 5a 3c fe aa 9e bc 83 cb 2e 3d
       0.042668838 0.013311374 -0.019368645 0.042674553
000100 a6 0a 29 bd f3 bf 23 3d dc f4 e2 3c aa f5 f1 3c
       -0.04126992 0.03997798 0.027704649 0.029536087
000110 eb ca 0b 3c 84 81 2e 3c d7 41 d9 3c 44 50 2f bd
       0.008532266 0.010650996 0.026520653 -0.042801157
000120 c3 1e 9a 3b 5d b9 bb bc 1f 14 c2 3c d7 c5 90 bc
       0.004703374 -0.022915537 0.023691235 -0.017672462
000130 96 7a b2 3c f9 d5 26 3d 2e 75 27 3c 0d 90 98 3c
       0.02178697 0.040731404 0.010220809 0.018623376
000140 32 0f d9 bc b1 52 4a b9 fd 08 7c bc 8e 37 19 bb
       -0.026496504 -0.00019295026 -0.015383002 -0.002337906
000150 30 84 cb 3c 40 9b 7e 38 52 f6 57 3c a9 38 dc 3b
       0.024843305 6.0702907e-05 0.013181286 0.0067206216
000160 36 4d 21 3d 53 56 a2 3c 6d 2f ef 3c 60 4f ce 3c
       0.039380275 0.019816553 0.029197419 0.025184333
000170 34 be 71 3c 55 f4 3c bc 04 23 22 3d d1 bf cc bc
       0.014754821 -0.011532863 0.039584175 -0.024993809
000180 c3 43 a2 bc a5 b9 06 bd 02 d9 8c bb 74 1d ae bc
       -0.019807702 -0.03289189 -0.0042983303 -0.021254279
000190 b6 cf f0 bc ef 2f 31 3d fe 44 1c 3d fd f8 1d 3d
       -0.02939592 0.043258604 0.038151734 0.03856753
0001a0 95 bc fb bb c5 aa 2e bb 02 d6 e0 3b 49 07 12 3c
       -0.007682393 -0.002665208 0.006861449 0.00891287
0001b0 93 dc 0f bd da c0 18 bd 48 73 23 3d c5 39 00 3c
       -0.035122465 -0.037293293 0.039904863 0.007826273
0001c0 94 54 c8 3c 33 d5 da bb 33 1c 02 3d 33 4d 15 bd
       0.024454392 -0.0066782474 0.031765174 -0.036450576
0001d0 99 0d d4 ba 42 5e d2 3c 32 79 fd 3c 51 d6 81 bb
       -0.0016178369 0.025679711 0.03094158 -0.003962316
0001e0 7a 7c c2 bc 5a 60 28 3d 71 9a 93 bc 0b e3 16 3d
       -0.023740996 0.041107513 -0.01801798 0.03683762
0001f0 d6 86 95 3b b0 e2 79 3b 4e 30 2b bd f7 fe 22 bc
       0.004563193 0.00381295 -0.041794114 -0.009948484
