built_models/esc50_esc50cnn_model_fold1_20250430_205742.pth (torch, 654357 bytes, 24 tensors)

mel_transform.spectrogram.window f4 [1024]
0	0x00000000	0.0
1	0x371e0000	9.417534e-06
2	0x381de000	3.7640333e-05
3	0x38b1a000	8.46982e-05
4	0x391de800	0.00015059114
5	0x3976b800	0.00023528934
6	0x39b1a400	0.0003388226
7	0x39f1c400	0.00046113133
8	0x3a1de200	0.00060227513
9	0x3a47d000	0.0007622242
10	0x3a76aa00	0.0009409487
11	0x3a953900	0.0011384785
12	0x3ab19300	0.0013547838
13	0x3ad06300	0.0015898645
14	0x3af1a800	0.0018436909
15	0x3b0ab180	0.0021162927
16	0x3b1dc980	0.0024076402
17	0x3b321b80	0.0027177036
18	0x3b47a800	0.0030465126
19	0x3b5e6e80	0.0033940375
20	0x3b766e80	0.0037602484
21	0x3b87d3c0	0.0041451156
22	0x3b950d40	0.0045486987
23	0x3ba2e300	0.004970908
24	0x3bb15500	0.005411744
25	0x3bc06340	0.0058712065
26	0x3bd00dc0	0.0063492954
27	0x3be05400	0.006845951
28	0x3bf13600	0.0073611736
29	0x3c0159e0	0.007894963
30	0x3c0a6660	0.00844726
31	0x3c13c080	0.009018064
32	0x3c1d6820	0.009607345
33	0x3c275d40	0.010215104
34	0x3c319fc0	0.01084131
35	0x3c3c2f80	0.011485934
36	0x3c470c60	0.0121489465
37	0x3c523640	0.012830317
38	0x3c5dad00	0.013530016
39	0x3c6970a0	0.014248043
40	0x3c758100	0.014984369
41	0x3c80ef00	0.015738964
42	0x3c8743b0	0.016511768
43	0x3c8dbe90	0.017302781
44	0x3c945f90	0.018111974
45	0x3c9b2690	0.018939286
46	0x3ca213a0	0.019784749
47	0x3ca92690	0.02064827
48	0x3cb05f50	0.021529824
49	0x3cb7bde0	0.022429407
50	0x3cbf4230	0.02334699
51	0x3cc6ec10	0.024282485
52	0x3ccebb90	0.025235921
53	0x3cd6b080	0.026207209
54	0x3cdecae0	0.027196348
55	0x3ce70a90	0.028203279
56	0x3cef6f80	0.029227972
57	0x3cf7f9a0	0.030270398
58	0x3d005468	0.031330496
59	0x3d04be80	0.032408237
60	0x3d093b10	0.033503592
61	0x3d0dca10	0.03461653
62	0x3d126b68	0.03574696
63	0x3d171f18	0.036894888
64	0x3d1be510	0.038060248
65	0x3d20bd40	0.039242983
66	0x3d25a7a0	0.040443063
67	0x3d2aa428	0.041660458
68	0x3d2fb2d0	0.04289514
69	0x3d34d378	0.044146985
70	0x3d3a0628	0.045416027
71	0x3d3f4ac0	0.046702147
72	0x3d44a140	0.048005342
73	0x3d4a09a0	0.049325585
74	0x3d4f83c0	0.050662756
75	0x3d550fa8	0.052016884
76	0x3d5aad38	0.05338785
77	0x3d605c68	0.054775625
78	0x3d661d38	0.05618021
79	0x3d6bef80	0.057601452
80	0x3d71d348	0.059039384
81	0x3d77c870	0.060493886
82	0x3d7dcef8	0.06196496
83	0x3d81f364	0.06345251
84	0x3d8507ec	0.064956516
85	0x3d882508	0.06647688
86	0x3d8b4ab4	0.06801358
87	0x3d8e78e8	0.06956655
88	0x3d91af98	0.0711357
89	0x3d94eec0	0.072721004
90	0x3d983658	0.0743224
91	0x3d9b8658	0.075939834
92	0x3d9edeb4	0.07757321
93	0x3da23f6c	0.07922253
94	0x3da5a86c	0.080887645
95	0x3da919b8	0.082568586
96	0x3dac933c	0.0842652
97	0x3db014f8	0.085977495
98	0x3db39ee0	0.087705374
99	0x3db730e8	0.08944875
100	0x3dbacb0c	0.09120759
101	0x3dbe6d44	0.092981845
102	0x3dc21784	0.094771415
103	0x3dc5c9c0	0.096576214
104	0x3dc983f8	0.09839624
105	0x3dcd461c	0.10023138
106	0x3dd11020	0.10208154
107	0x3dd4e204	0.103946716
108	0x3dd8bbb8	0.105826795
109	0x3ddc9d30	0.10772169
110	0x3de0866c	0.10963139
111	0x3de4775c	0.111555785
112	0x3de86ff4	0.11349478
113	0x3dec702c	0.115448326
114	0x3df07800	0.11741638
115	0x3df48760	0.11939883
116	0x3df89e40	0.12139559
117	0x3dfcbc9c	0.12340662
118	0x3e007132	0.1254318
119	0x3e0287ca	0.12747112
120	0x3e04a20e	0.12952444
121	0x3e06bffc	0.13159174
122	0x3e08e18c	0.1336729
123	0x3e0b06b8	0.13576782
124	0x3e0d2f7c	0.13787645
125	0x3e0f5bd6	0.13999876
126	0x3e118bbc	0.1421346
127	0x3e13bf28	0.14428389
128	0x3e15f61a	0.14644662
129	0x3e183088	0.14862263
130	0x3e1a6e6e	0.15081188
131	0x3e1cafc6	0.15301427
132	0x3e1ef48c	0.15522975
133	0x3e213cb8	0.15745819
134	0x3e238844	0.1596995
135	0x3e25d72e	0.16195366
136	0x3e28296e	0.16422054
137	0x3e2a7efc	0.16650003
138	0x3e2cd7d8	0.16879213
139	0x3e2f33f6	0.17109665
140	0x3e319356	0.1734136
141	0x3e33f5ec	0.1757428
142	0x3e365bb6	0.17808422
143	0x3e38c4b0	0.1804378
144	0x3e3b30ce	0.18280336
145	0x3e3da010	0.1851809
146	0x3e40126c	0.18757027
147	0x3e4287de	0.18997142
148	0x3e45005e	0.19238421
149	0x3e477be8	0.1948086
150	0x3e49fa76	0.1972445
151	0x3e4c7c00	0.19969177
152	0x3e4f0080	0.20215034
153	0x3e5187f2	0.20462015
154	0x3e54124e	0.20710108
155	0x3e569f8e	0.20959303
156	0x3e592fac	0.21209592
157	0x3e5bc2a2	0.21460965
158	0x3e5e5866	0.21713409
159	0x3e60f0f8	0.21966922
160	0x3e638c4e	0.2222149
161	0x3e662a60	0.22477102
162	0x3e68cb2a	0.22733751
163	0x3e6b6ea4	0.22991425
164	0x3e6e14ca	0.23250118
165	0x3e70bd94	0.23509818
166	0x3e7368fc	0.23770517
167	0x3e7616fa	0.24032202
168	0x3e78c788	0.24294865
169	0x3e7b7aa0	0.24558496
170	0x3e7e3036	0.24823079
171	0x3e807426	0.25088614
172	0x3e81d16c	0.2535509
173	0x3e832fea	0.25622493
174	0x3e848f9c	0.25890815
175	0x3e85f07d	0.2616004
176	0x3e87528c	0.26430166
177	0x3e88b5c4	0.26701176
178	0x3e8a1a22	0.26973063
179	0x3e8b7fa4	0.2724582
180	0x3e8ce646	0.27519435
181	0x3e8e4e04	0.27793896
182	0x3e8fb6da	0.28069192
183	0x3e9120c4	0.2834531
184	0x3e928bc0	0.28622246
185	0x3e93f7ca	0.28899986
186	0x3e9564e0	0.29178524
187	0x3e96d2fc	0.29457843
188	0x3e98421c	0.29737937
189	0x3e99b23c	0.30018795
190	0x3e9b2358	0.30300403
191	0x3e9c956b	0.30582747
192	0x3e9e0876	0.3086583
193	0x3e9f7c72	0.31149632
194	0x3ea0f15c	0.31434143
195	0x3ea26730	0.3171935
196	0x3ea3ddec	0.3200525
197	0x3ea5558c	0.3229183
198	0x3ea6ce08	0.32579064
199	0x3ea84763	0.32866964
200	0x3ea9c196	0.33155507
201	0x3eab3c9e	0.33444685
202	0x3eacb878	0.33734488
203	0x3eae351e	0.340249
204	0x3eafb28f	0.34315917
205	0x3eb130c4	0.34607518
206	0x3eb2afbd	0.34899703
207	0x3eb42f75	0.35192457
208	0x3eb5afe8	0.35485768
209	0x3eb73112	0.35779625
210	0x3eb8b2f0	0.36074018
211	0x3eba357e	0.36368936
212	0x3ebbb8b6	0.3666436
213	0x3ebd3c99	0.36960295
214	0x3ebec120	0.37256718
215	0x3ec04648	0.3755362
216	0x3ec1cc0e	0.37850994
217	0x3ec3526d	0.38148823
218	0x3ec4d960	0.38447094
219	0x3ec660e6	0.38745803
220	0x3ec7e8fc	0.3904494
221	0x3ec9719b	0.39344487
222	0x3ecafac0	0.39644432
223	0x3ecc8469	0.3994477
224	0x3ece0e91	0.40245488
225	0x3ecf9932	0.40546566
226	0x3ed1244c	0.40848005
227	0x3ed2afda	0.4114979
228	0x3ed43bd8	0.41451907
229	0x3ed5c842	0.41754347
230	0x3ed75514	0.42057097
231	0x3ed8e24a	0.42360145
232	0x3eda6fdf	0.42663476
233	0x3edbfdd2	0.42967087
234	0x3edd8c1f	0.43270966
235	0x3edf1ac0	0.43575096
236	0x3ee0a9b2	0.43879467
237	0x3ee238f2	0.4418407
238	0x3ee3c87c	0.44488895
239	0x3ee55849	0.4479392
240	0x3ee6e859	0.45099142
241	0x3ee878a8	0.45404553
242	0x3eea0931	0.45710137
243	0x3eeb99f0	0.46015882
244	0x3eed2ae1	0.46321777
245	0x3eeebc00	0.46627808
246	0x3ef04d49	0.46933964
247	0x3ef1deba	0.4724024
248	0x3ef3704d	0.47546616
249	0x3ef50200	0.47853088
250	0x3ef693ce	0.4815964
251	0x3ef825b3	0.48466262
252	0x3ef9b7ac	0.48772943
253	0x3efb49b2	0.49079663
254	0x3efcdbc6	0.49386424
255	0x3efe6de1	0.49693206

mel_transform.mel_scale.fb f4 [513, 40]
0	0x80000000	-0.0
1	0x00000000	0.0
2	0x00000000	0.0
3	0x00000000	0.0
4	0x00000000	0.0
5	0x00000000	0.0
6	0x00000000	0.0
7	0x00000000	0.0
8	0x00000000	0.0
9	0x00000000	0.0
10	0x00000000	0.0
11	0x00000000	0.0
12	0x00000000	0.0
13	0x00000000	0.0
14	0x00000000	0.0
15	0x00000000	0.0
16	0x00000000	0.0
17	0x00000000	0.0
18	0x00000000	0.0
19	0x00000000	0.0
20	0x00000000	0.0
21	0x00000000	0.0
22	0x00000000	0.0
23	0x00000000	0.0
24	0x00000000	0.0
25	0x00000000	0.0
26	0x00000000	0.0
27	0x00000000	0.0
28	0x00000000	0.0
29	0x00000000	0.0
30	0x00000000	0.0
31	0x00000000	0.0
32	0x00000000	0.0
33	0x00000000	0.0
34	0x00000000	0.0
35	0x00000000	0.0
36	0x00000000	0.0
37	0x00000000	0.0
38	0x00000000	0.0
39	0x00000000	0.0
40	0x3f31bb11	0.69426066
41	0x00000000	0.0
42	0x00000000	0.0
43	0x00000000	0.0
44	0x00000000	0.0
45	0x00000000	0.0
46	0x00000000	0.0
47	0x00000000	0.0
48	0x00000000	0.0
49	0x00000000	0.0
50	0x00000000	0.0
51	0x00000000	0.0
52	0x00000000	0.0
53	0x00000000	0.0
54	0x00000000	0.0
55	0x00000000	0.0
56	0x00000000	0.0
57	0x00000000	0.0
58	0x00000000	0.0
59	0x00000000	0.0
60	0x00000000	0.0
61	0x00000000	0.0
62	0x00000000	0.0
63	0x00000000	0.0
64	0x00000000	0.0
65	0x00000000	0.0
66	0x00000000	0.0
67	0x00000000	0.0
68	0x00000000	0.0
69	0x00000000	0.0
70	0x00000000	0.0
71	0x00000000	0.0
72	0x00000000	0.0
73	0x00000000	0.0
74	0x00000000	0.0
75	0x00000000	0.0
76	0x00000000	0.0
77	0x00000000	0.0
78	0x00000000	0.0
79	0x00000000	0.0
80	0x3f24a294	0.64310575
81	0x3eb6bad8	0.35689425
82	0x00000000	0.0
83	0x00000000	0.0
84	0x00000000	0.0
85	0x00000000	0.0
86	0x00000000	0.0
87	0x00000000	0.0
88	0x00000000	0.0
89	0x00000000	0.0
90	0x00000000	0.0
91	0x00000000	0.0
92	0x00000000	0.0
93	0x00000000	0.0
94	0x00000000	0.0
95	0x00000000	0.0
96	0x00000000	0.0
97	0x00000000	0.0
98	0x00000000	0.0
99	0x00000000	0.0
100	0x00000000	0.0
101	0x00000000	0.0
102	0x00000000	0.0
103	0x00000000	0.0
104	0x00000000	0.0
105	0x00000000	0.0
106	0x00000000	0.0
107	0x00000000	0.0
108	0x00000000	0.0
109	0x00000000	0.0
110	0x00000000	0.0
111	0x00000000	0.0
112	0x00000000	0.0
113	0x00000000	0.0
114	0x00000000	0.0
115	0x00000000	0.0
116	0x00000000	0.0
117	0x00000000	0.0
118	0x00000000	0.0
119	0x00000000	0.0
120	0x3bafa669	0.005360414
121	0x3f7ea0b3	0.9946396
122	0x00000000	0.0
123	0x00000000	0.0
124	0x00000000	0.0
125	0x00000000	0.0
126	0x00000000	0.0
127	0x00000000	0.0
128	0x00000000	0.0
129	0x00000000	0.0
130	0x00000000	0.0
131	0x00000000	0.0
132	0x00000000	0.0
133	0x00000000	0.0
134	0x00000000	0.0
135	0x00000000	0.0
136	0x00000000	0.0
137	0x00000000	0.0
138	0x00000000	0.0
139	0x00000000	0.0
140	0x00000000	0.0
141	0x00000000	0.0
142	0x00000000	0.0
143	0x00000000	0.0
144	0x00000000	0.0
145	0x00000000	0.0
146	0x00000000	0.0
147	0x00000000	0.0
148	0x00000000	0.0
149	0x00000000	0.0
150	0x00000000	0.0
151	0x00000000	0.0
152	0x00000000	0.0
153	0x00000000	0.0
154	0x00000000	0.0
155	0x00000000	0.0
156	0x00000000	0.0
157	0x00000000	0.0
158	0x00000000	0.0
159	0x00000000	0.0
160	0x00000000	0.0
161	0x3ed69377	0.41909382
162	0x3f14b644	0.58090615
163	0x00000000	0.0
164	0x00000000	0.0
165	0x00000000	0.0
166	0x00000000	0.0
167	0x00000000	0.0
168	0x00000000	0.0
169	0x00000000	0.0
170	0x00000000	0.0
171	0x00000000	0.0
172	0x00000000	0.0
173	0x00000000	0.0
174	0x00000000	0.0
175	0x00000000	0.0
176	0x00000000	0.0
177	0x00000000	0.0
178	0x00000000	0.0
179	0x00000000	0.0
180	0x00000000	0.0
181	0x00000000	0.0
182	0x00000000	0.0
183	0x00000000	0.0
184	0x00000000	0.0
185	0x00000000	0.0
186	0x00000000	0.0
187	0x00000000	0.0
188	0x00000000	0.0
189	0x00000000	0.0
190	0x00000000	0.0
191	0x00000000	0.0
192	0x00000000	0.0
193	0x00000000	0.0
194	0x00000000	0.0
195	0x00000000	0.0
196	0x00000000	0.0
197	0x00000000	0.0
198	0x00000000	0.0
199	0x00000000	0.0
200	0x00000000	0.0
201	0x00000000	0.0
202	0x3f58ca45	0.8468364
203	0x3e1cd6ee	0.15316364
204	0x00000000	0.0
205	0x00000000	0.0
206	0x00000000	0.0
207	0x00000000	0.0
208	0x00000000	0.0
209	0x00000000	0.0
210	0x00000000	0.0
211	0x00000000	0.0
212	0x00000000	0.0
213	0x00000000	0.0
214	0x00000000	0.0
215	0x00000000	0.0
216	0x00000000	0.0
217	0x00000000	0.0
218	0x00000000	0.0
219	0x00000000	0.0
220	0x00000000	0.0
221	0x00000000	0.0
222	0x00000000	0.0
223	0x00000000	0.0
224	0x00000000	0.0
225	0x00000000	0.0
226	0x00000000	0.0
227	0x00000000	0.0
228	0x00000000	0.0
229	0x00000000	0.0
230	0x00000000	0.0
231	0x00000000	0.0
232	0x00000000	0.0
233	0x00000000	0.0
234	0x00000000	0.0
235	0x00000000	0.0
236	0x00000000	0.0
237	0x00000000	0.0
238	0x00000000	0.0
239	0x00000000	0.0
240	0x00000000	0.0
241	0x00000000	0.0
242	0x3e9e0d2b	0.3086942
243	0x3f30f96a	0.69130576
244	0x00000000	0.0
245	0x00000000	0.0
246	0x00000000	0.0
247	0x00000000	0.0
248	0x00000000	0.0
249	0x00000000	0.0
250	0x00000000	0.0
251	0x00000000	0.0
252	0x00000000	0.0
253	0x00000000	0.0
254	0x00000000	0.0
255	0x00000000	0.0

conv1.weight f4 [32, 1, 3, 3]
0	0x3e99dfb6	0.3005349
1	0x3e5b6665	0.21425779
2	0xbe2aa46f	-0.16664289
3	0x3e7edf89	0.2488996
4	0xbdcffbeb	-0.101554714
5	0xbe4964dc	-0.19667381
6	0xbdf8946d	-0.12137685
7	0xbe6655cf	-0.22493671
8	0x3e2be09a	0.16784897
9	0x3e5d8e97	0.21636425
10	0xbe83be61	-0.25731185
11	0xbe8a6558	-0.27030444
12	0x3e130470	0.14357162
13	0xbc6e1a2b	-0.014532606
14	0xbcb4af43	-0.022056228
15	0xbe35efcc	-0.17767256
16	0x3d55c103	0.052186023
17	0xbd084047	-0.033264425
18	0x3e896355	0.26833597
19	0x3e11fc9c	0.14256519
20	0xbe8d63c1	-0.2761517
21	0xbe811ca6	-0.2521717
22	0x3df6efaf	0.12057435
23	0x3ea67575	0.32511488
24	0xbe03f9dc	-0.12888283
25	0xbd5d0fef	-0.053970274
26	0x3e90ea04	0.2830354
27	0x3e0bce31	0.13652875
28	0x3e6f227b	0.23352997
29	0xbe741eed	-0.23839922
30	0x3e8ac6c6	0.27104777
31	0x3d9e827e	0.07739733
32	0xbd7f1f3f	-0.062285658
33	0xbea01cdd	-0.3127202
34	0x3e7bde64	0.24596554
35	0xbe44b05f	-0.19207905
36	0xbe72a49b	-0.23695605
37	0x3c9b12d0	0.018929869
38	0x3e08c500	0.133564
39	0x3e8b5cef	0.2721934
40	0xbe04f5cb	-0.12984388
41	0xbe75b570	-0.23994994
42	0x3db658ab	0.08903631
43	0x3e2c4100	0.1682167
44	0x3e37fbcf	0.17967151
45	0x3d43fbfd	0.047847737
46	0x3cb7072c	0.022342287
47	0xbc4d1a5d	-0.0125184925
48	0xbea4a621	-0.32157996
49	0xbc850f0f	-0.016242532
50	0xbdbfcfdb	-0.09365817
51	0xbdd5bbe0	-0.10436225
52	0xbe1f43ec	-0.15553254
53	0x3ea444b3	0.32083663
54	0x3e61bd5d	0.22044893
55	0xbe047d25	-0.12938364
56	0x3e2350f3	0.15948848
57	0x3e4a4fbc	0.19756979
58	0x3e57e2ef	0.21082662
59	0x3c8f643a	0.017503846
60	0x3e64107f	0.22271918
61	0xbe85c570	-0.26127195
62	0xbdcbd0ca	-0.09951933
63	0x3e203129	0.15643753
64	0xbd6a1801	-0.0571518
65	0xbceae74e	-0.028674748
66	0x3de457ac	0.111495346
67	0x3e222315	0.15833695
68	0x3c6383b3	0.01388638
69	0x3e32c871	0.17459275
70	0x3e9b61dc	0.30348098
71	0x3e116e8c	0.14202327
72	0x3e8e15fc	0.27751148
73	0x3db4bd70	0.08825195
74	0x3e57ae48	0.21062577
75	0x3ea0410a	0.3129962
76	0x3ebad640	0.36491585
77	0x3e90f92f	0.28315112
78	0xbe858079	-0.2607458
79	0x3ea4d1c1	0.3219128
80	0x3ea34263	0.31886587
81	0xbe989fb5	-0.29809347
82	0x3e452eda	0.19256154
83	0x3e24cde9	0.16094173
84	0xbeb31f73	-0.3498493
85	0x3e58ceee	0.21172687
86	0x3e1c9145	0.15289791
87	0x3e2d8e16	0.16948733
88	0x3da090ad	0.07840095
89	0x3d8d74cc	0.06907043
90	0xbe336e14	-0.1752246
91	0xbe0a6aba	-0.13517275
92	0x3e14fe26	0.14550075
93	0xbe63fd35	-0.2226456
94	0xbe8cf56d	-0.27530995
95	0x3ec3bfdd	0.38232318
96	0xbe88bbc8	-0.26705766
97	0xbdb3a8d0	-0.08772433
98	0x3abc2482	0.0014354142
99	0x3e3d69bc	0.18497366
100	0x39429825	0.0001855796
101	0x3ea97bcb	0.3310226
102	0x3b63e49f	0.003477372
103	0xbe9ba338	-0.30397964
104	0xbe8d09f1	-0.27546647
105	0xbe172429	-0.14759888
106	0xbda6f46a	-0.08152087
107	0x3e9486a5	0.29008976
108	0xbcc293a2	-0.023752037
109	0xbd38d028	-0.04512039
110	0xbe3b0d7b	-0.18266861
111	0x3e6c454b	0.23073308
112	0xbe5a7728	-0.21334517
113	0xbe97f0c4	-0.29675877
114	0x3e1e34d8	0.15449846
115	0x3ea86dd9	0.32896307
116	0x3ce9ea61	0.028554143
117	0xbddd3d12	-0.10802664
118	0x3d64efd5	0.055892784
119	0x3e261250	0.16217923
120	0x3e8e479e	0.27789015
121	0xbc324cb0	-0.010882542
122	0x3ebb2d9d	0.36558238
123	0xbe8a3099	-0.26990202
124	0x3da295a6	0.079386994
125	0x3e967c97	0.2939193
126	0xbe65487d	-0.22390933
127	0xbe90e200	-0.28297424
128	0x3da3fa2e	0.08006702
129	0x3e99f0d6	0.30066556
130	0xbda57405	-0.080787696
131	0x3e92c19b	0.28663334
132	0x3e737973	0.23776798
133	0x3e39c148	0.18140137
134	0xbe6fe490	-0.23427033
135	0xbe4006d5	-0.18752606
136	0x3c7f900f	0.015598311
137	0x3e257639	0.1615838
138	0x3e3b67e0	0.18301344
139	0xbcf6e681	-0.03013921
140	0x3e9f7bee	0.31149238
141	0xbe5a119f	-0.21295784
142	0xbe3532fe	-0.17695233
143	0xbb9e93c8	-0.0048393942
144	0x3d7cd36b	0.06172506
145	0xbc39e48d	-0.011345995
146	0x3d755b38	0.059901446
147	0xbe995251	-0.29945615
148	0x3e8a4a8f	0.2701001
149	0xbe9b3d29	-0.303201
150	0xbc0a2a1e	-0.008432893
151	0xbd0622d0	-0.032748044
152	0x3da443c0	0.08020735
153	0x3e8f73ca	0.28018028
154	0x3e76568b	0.24056451
155	0x3e934516	0.28763646
156	0xbe9087b8	-0.28228545
157	0x3e550919	0.20804252
158	0xbe8c6a03	-0.2742463
159	0xbdf3b7ac	-0.11900267
160	0x3db95aa4	0.090504915
161	0x3dec1a28	0.115284264
162	0xbe684044	-0.22680765
163	0x3e318364	0.17335278
164	0x3e4cc286	0.1999608
165	0xbe5513a2	-0.2080827
166	0x3e221407	0.15827952
167	0x3e2fda4f	0.17173122
168	0xbd9f0c4d	-0.07766018
169	0x3da923b9	0.08258767
170	0x3dc326cf	0.095288865
171	0xbe954869	-0.29156807
172	0xbcb569e9	-0.022145228
173	0x3e89f86f	0.26947352
174	0x3e980d53	0.29697666
175	0x3d1fea31	0.0390417
176	0xbe8e385d	-0.27777377
177	0xbd93bd3d	-0.07213829
178	0xbdac836f	-0.084235065
179	0x3e0b6e32	0.13616255
180	0xbdeead84	-0.11654189
181	0xbe054479	-0.13014401
182	0xbe98675a	-0.2976635
183	0xbe19b6b2	-0.15011099
184	0x3d2ebcc5	0.042660493
185	0x3e80d3b3	0.25161514
186	0xbd61083a	-0.054939486
187	0x3d9730da	0.073823646
188	0x3ea20b01	0.3164902
189	0x3d08d53a	0.033406474
190	0x3e24dbf1	0.16099526
191	0xbbea3e7f	-0.0071485634
192	0x3e908d5e	0.28232855
193	0x3e0230b2	0.12713888
194	0xbe2d1647	-0.1690303
195	0xbe7e845e	-0.24855182
196	0xbe21cd92	-0.15801075
197	0xbd086770	-0.03330177
198	0x3cfc8eca	0.030829806
199	0x3e80eff5	0.25183073
200	0x3cb6fc8c	0.02233722
201	0x3d86ece6	0.065881535
202	0xbd4aef62	-0.0495447
203	0xbe3414be	-0.17586038
204	0x3e9af478	0.3026464
205	0xbe1ff81a	-0.15621987
206	0xbea1d2f8	-0.3160627
207	0x3d53fcd6	0.051754795
208	0xbe5485d3	-0.20754175
209	0x3e7743c4	0.24146944
210	0xbcfe7101	-0.031059744
211	0x3e57f838	0.21090782
212	0xbe87f46a	-0.2655366
213	0xbde71ac2	-0.112844005
214	0xbdfda22b	-0.12384447
215	0x3e8dc3ef	0.27688548
216	0x3e9806cc	0.29692686
217	0x3e9359f7	0.28779575
218	0xbe4bcf81	-0.19903375
219	0x3ebaa3d8	0.36453128
220	0x3ebdc4ee	0.37064308
221	0x3e64362c	0.2228629
222	0x3a1b70d9	0.00059295964
223	0xbd30d0fb	-0.04316805
224	0x3e66e77b	0.2254924
225	0x3d651137	0.05592462
226	0xbe7b7233	-0.24555282
227	0xbe6952fe	-0.22785565
228	0x3d675301	0.056475643
229	0x3e452c37	0.19255148
230	0xbd08ab8f	-0.033366736
231	0x3e633b6a	0.22190633
232	0xbd7f3382	-0.06230498
233	0xbe0ad303	-0.13557057
234	0xbe2e5f11	-0.17028452
235	0x3dfb8b08	0.122823775
236	0xbe908f7e	-0.28234476
237	0x3df85810	0.121261716
238	0x3e85a169	0.2609971
239	0xbe28e762	-0.16494516
240	0xbe5fa78f	-0.21841262
241	0xbd098573	-0.033574533
242	0x3e7ddc99	0.24791183
243	0x3dea83db	0.11450931
244	0xbb794ed9	-0.0038041382
245	0xbdbe7a34	-0.09300652
246	0xbe28e043	-0.16491799
247	0x3e89b056	0.26892346
248	0x3e0e6f09	0.13909544
249	0xbe9e4c06	-0.30917376
250	0xbc9e573a	-0.019328702
251	0xbe90a41c	-0.28250206
252	0x3e9efebf	0.3105373
253	0xbe050545	-0.12990291
254	0x3d9f25d5	0.07770888
255	0x3de1c019	0.11022968

conv1.bias f4 [32]
0	0x3ea39c9f	0.3195543
1	0xbd9ad8ad	-0.07560859
2	0xbe3a017f	-0.18164633
3	0x3e36260a	0.17787948
4	0xbe4c47db	-0.19949286
5	0xbe8f8c6a	-0.28036815
6	0x3d45258d	0.048131514
7	0xbe33bb05	-0.17551811
8	0xbbd6c4d1	-0.006554224
9	0x3ea4654c	0.32108533
10	0x3ce9f3d0	0.028558642
11	0x3e25e2da	0.16199818
12	0x3d22c284	0.039736286
13	0x3e6997f5	0.22811873
14	0x3e0d13a2	0.1377702
15	0x3da7a312	0.081854
16	0x3e960eb1	0.29308084
17	0x3e8954d3	0.26822528
18	0xbd2e5451	-0.04256088
19	0xbea566dd	-0.3230504
20	0xbd22867a	-0.039679028
21	0x3da4d447	0.08048301
22	0xbe24129b	-0.16022722
23	0xbdd7e47e	-0.10541628
24	0xbd125135	-0.035721976
25	0xbe43c7bc	-0.19119161
26	0xbea6eb15	-0.32601228
27	0x3c86a2ff	0.016435144
28	0x3e86a8a2	0.26300532
29	0x3e2f9add	0.1714892
30	0x3df0a544	0.11750272
31	0x3e0e8f70	0.13921905

bn1.weight f4 [32]
0	0x3f7effe8	0.9960923
1	0x3f75d641	0.9603005
2	0x3f7afb7e	0.98039997
3	0x3f838bb0	1.0277004
4	0x3f7ac189	0.9795156
5	0x3f7970c0	0.9743767
6	0x3f765cdd	0.9623545
7	0x3f6eddd4	0.9330723
8	0x3f739fde	0.9516581
9	0x3f7a290d	0.9771889
10	0x3f75e83b	0.9605748
11	0x3f84627c	1.0342555
12	0x3f845f27	1.0341538
13	0x3f772863	0.96546
14	0x3f7dcea7	0.9914345
15	0x3f84d7ea	1.0378392
16	0x3f798df5	0.97482234
17	0x3f7b78c1	0.9823113
18	0x3f792de7	0.97335666
19	0x3f809032	1.0044005
20	0x3f817549	1.0113918
21	0x3f86579f	1.049549
22	0x3f8172de	1.011318
23	0x3f83e850	1.0305271
24	0x3f6f2b2c	0.9342525
25	0x3f8071d6	1.003474
26	0x3f8178f1	1.0115033
27	0x3f80493d	1.002235
28	0x3f7276c9	0.947125
29	0x3f768b07	0.9630589
30	0x3f836ed7	1.0268201
31	0x3f7ea33f	0.99467844

bn1.bias f4 [32]
0	0xbd0d1037	-0.03443929
1	0xbd0af47a	-0.033924557
2	0xbb5f34ab	-0.0034058492
3	0xbc9571f8	-0.018242821
4	0xbd234dbb	-0.03986905
5	0xbc49f0ac	-0.012325447
6	0xbd324993	-0.043527197
7	0xbd49e806	-0.04929354
8	0xbd27647f	-0.040867325
9	0xbcbf6b63	-0.023366636
10	0xbd271de0	-0.040799975
11	0x3d98cbe5	0.07460765
12	0x3d34134b	0.04396371
13	0xbd0b210a	-0.033967055
14	0xbd5f0095	-0.054443914
15	0xbb1952dd	-0.0023395338
16	0x3c971140	0.018440843
17	0xbd99f85e	-0.075180754
18	0xbcd8e435	-0.026476005
19	0x3d06ca1e	0.032907598
20	0x3daf83a0	0.08570027
21	0x3d215190	0.039384425
22	0x3c3f268c	0.011666905
23	0xbbcfff73	-0.0063475906
24	0xbd00f6b3	-0.03148527
25	0x3cc145f1	0.023592921
26	0x3b688770	0.0035481118
27	0xbb318cbe	-0.0027091946
28	0xbd4aaf79	-0.04948375
29	0xbd9025cc	-0.07038459
30	0x3c7aefa2	0.015315922
31	0x3d74ad05	0.059735317

bn1.running_mean f4 [32]
0	0x3eab5d8a	0.33469802
1	0xbdae36e9	-0.08506567
2	0xbe3459e1	-0.17612411
3	0x3e3d5ba4	0.1849199
4	0xbe522894	-0.20523292
5	0xbe8e829d	-0.27834025
6	0x3d72db5a	0.05929122
7	0xbe373fa3	-0.17895369
8	0x3c5738a6	0.013136065
9	0x3ea43346	0.3207037
10	0x3ccebd00	0.025236607
11	0x3e3899ab	0.1802737
12	0x3cd54696	0.026034635
13	0x3e6d12c4	0.2315169
14	0x3df70ede	0.120633826
15	0x3daca366	0.08429603
16	0x3e994250	0.29933405
17	0x3e99858b	0.29984698
18	0xbd1a65cd	-0.03769474
19	0xbea5fe2e	-0.32420486
20	0xbd856faa	-0.06515439
21	0x3dba874c	0.09107837
22	0xbe151b52	-0.14561203
23	0xbdd27c38	-0.10277599
24	0xbcafad04	-0.021444805
25	0xbe5408a7	-0.20706426
26	0xbead023a	-0.3379076
27	0x3cc7432d	0.024324024
28	0x3e8a7872	0.27045017
29	0x3e2edef1	0.17077233
30	0x3e066375	0.13123877
31	0x3e097d72	0.1342676

bn1.running_var f4 [32]
0	0x3d33c7ba	0.043891646
1	0x3df2a023	0.1184695
2	0x3e248bf6	0.16069016
3	0x3d7cbca9	0.061703358
4	0x3dba9e1f	0.091121905
5	0x3def1f77	0.11675923
6	0x3e9e0f58	0.3087108
7	0x3f58bc38	0.846622
8	0x404e27e6	3.2211852
9	0x3e254eda	0.1614336
10	0x3ed0d65c	0.40788543
11	0x3d23064b	0.039800923
12	0x3da28494	0.079354435
13	0x3f27c389	0.6553274
14	0x3ded7cf0	0.115960956
15	0x3d642793	0.055701803
16	0x3d2896fc	0.041159615
17	0x3e8c38e5	0.27387157
18	0x3e048a26	0.12943324
19	0x3b991b6d	0.004672459
20	0x3d89122e	0.066929206
21	0x3d429572	0.047505803
22	0x3d1afdf8	0.03783986
23	0x3bc4ba9b	0.0060036904
24	0x400654c0	2.0989227
25	0x3d3f1d0f	0.04665857
26	0x3caed9b7	0.021344049
27	0x3e1d0c07	0.1533662
28	0x3eda304f	0.42614982
29	0x3f7bbebe	0.98337924
30	0x3d34a801	0.044105534
31	0x3c9683a1	0.018373312

conv2.weight f4 [64, 32, 3, 3]
0	0x3c6308c9	0.013857075
1	0x3bcdf7b2	0.006285631
2	0x3d38360a	0.04497341
3	0x3ca3d930	0.020001024
4	0xbd186b0f	-0.037211474
5	0x3d667703	0.056265842
6	0xbc5cc2a4	-0.01347414
7	0xbda2e282	-0.07953359
8	0xbc82fa35	-0.015988449
9	0x3945cfad	0.0001886475
10	0x3ba09f98	0.0049018376
11	0xbc9cb7f8	-0.019130692
12	0xbd4e11a9	-0.05030981
13	0x3d90abf7	0.0706405
14	0xbd115240	-0.03547883
15	0xbc390857	-0.011293492
16	0xb8411d07	-4.604182e-05
17	0xbd5be67b	-0.0536866
18	0x3d70ad65	0.058759112
19	0x3d2f5e7b	0.042814713
20	0xbc40e256	-0.011772713
21	0x3d18ef12	0.03733737
22	0x3d5c2f1e	0.053755872
23	0xbd0e5db4	-0.03475733
24	0x3c2c76be	0.010526357
25	0xbcbb2864	-0.022846408
26	0x3b9e68a6	0.0048342524
27	0xbcc0cd0a	-0.02353527
28	0xbd6b6dee	-0.057477884
29	0xbc9bdd33	-0.019026374
30	0x3d1b94c0	0.037983656
31	0x3d3a36f3	0.04546256
32	0x3c15a835	0.009134342
33	0x3a3a5aaf	0.000710885
34	0xbd7729ff	-0.060342785
35	0xbb39309d	-0.0028257736
36	0xbcdf4231	-0.027253242
37	0xbcc1ab66	-0.0236413
38	0x3d609c6d	0.05483668
39	0xbc91b792	-0.017787728
40	0x3c4e0897	0.01257529
41	0x3c48ca39	0.012255245
42	0x3bf8a812	0.007588395
43	0x3d0a6d7e	0.033795826
44	0xbd4481aa	-0.04797522
45	0xbbfb943f	-0.0076775844
46	0x3bb2163f	0.005434781
47	0x3d115678	0.035482854
48	0xbcf29b26	-0.029614996
49	0x3d38fb25	0.045161385
50	0xbd1bd9ef	-0.038049635
51	0xbd597d13	-0.053097796
52	0x3d17b178	0.03703448
53	0xbceda733	-0.02901039
54	0xbcbc1d38	-0.022963151
55	0x3d5545ca	0.05206851
56	0x3d349c61	0.044094447
57	0xbd8a45e0	-0.06751609
58	0x3bf36734	0.0074280743
59	0x3c1506a0	0.009095818
60	0x3d16fe5d	0.036863673
61	0xbcd7d751	-0.026347788
62	0xbbf2ca96	-0.007409404
63	0xbd712635	-0.058874328
64	0xbc5d3a49	-0.013502666
65	0xbd0bfb46	-0.03417518
66	0x3c509b5f	0.012732356
67	0x3c9123f7	0.017717345
68	0xbb8480b6	-0.004043664
69	0xbceaa0c2	-0.028641108
70	0x3d6da633	0.058019828
71	0x3d45ee3e	0.04832291
72	0xbc40a492	-0.011757987
73	0xbd03cd16	-0.032178007
74	0xbd6606aa	-0.0561587
75	0x3d205ff9	0.039154027
76	0xbb97dc57	-0.004634421
77	0x3b968b18	0.004594218
78	0xbd524419	-0.051334474
79	0x3d8b261a	0.06794377
80	0x3cd47382	0.025933985
81	0x3ad9a78c	0.0016605719
82	0x3d1f56a3	0.038900983
83	0xbcbefc50	-0.023313671
84	0x3c4991e4	0.012302849
85	0x3d68b717	0.056815233
86	0xbd84c313	-0.0648252
87	0x3d2e2d95	0.04252394
88	0xbcbbf30e	-0.022943046
89	0xbd717b64	-0.058955565
90	0xbbd709db	-0.006562454
91	0xbc8fff82	-0.01757789
92	0x3c813da6	0.015776467
93	0x3c652acd	0.013987255
94	0x3b39669b	0.0028289917
95	0xbd173f0f	-0.03692537
96	0xbd9a4017	-0.075317554
97	0xbd734721	-0.059394006
98	0x3d54dae1	0.05196655
99	0x3d123e4a	0.035703935
100	0x3d3b092f	0.045663055
101	0x3ba3d617	0.0049998867
102	0xbca5ddb5	-0.02024732
103	0xbda600f1	-0.08105648
104	0xbd8e296b	-0.069414936
105	0xbc0564ba	-0.008141691
106	0xbbbe832e	-0.0058139777
107	0xbde63340	-0.11240244
108	0x3c8325a5	0.016009161
109	0xbd38be40	-0.04510331
110	0x3d8242ec	0.063604206
111	0xbd424d9f	-0.047437306
112	0x3c058af4	0.008150805
113	0xbd089cd3	-0.033352684
114	0x3d1aadf5	0.037763555
115	0xbc9664fa	-0.018358696
116	0x3d8cd1aa	0.06875928
117	0x3d63f0fd	0.055649746
118	0x3d7ddedb	0.06198011
119	0xbc0c0c32	-0.008547829
120	0xbcab3107	-0.020897401
121	0x3d576aa9	0.052591953
122	0xbccfaa9e	-0.025349911
123	0x3d35ecfc	0.04441546
124	0xbd0ced9a	-0.034406282
125	0x3d4a2b12	0.04935748
126	0x3d2f3010	0.042770445
127	0x3cef8a0c	0.02924063
128	0x3b5865b0	0.0033019595
129	0xbcf2a37e	-0.029618975
130	0x3d0c36e4	0.034232035
131	0x3cc88ab8	0.024480209
132	0xbc9d3e75	-0.01919482
133	0xbd1f2062	-0.038849242
134	0x3d430aa8	0.047617584
135	0x3cbec15d	0.023285562
136	0x3c4bdd0c	0.012442838
137	0xbd8b5a5b	-0.06804343
138	0xbd8ab5ec	-0.0677298
139	0xbd2ddaf8	-0.042445153
140	0xbcbc2daa	-0.022970993
141	0x3baa30ae	0.0051937914
142	0x3b88afb0	0.004171334
143	0xbde7e8af	-0.11323678
144	0x3d38f020	0.045150876
145	0x3d8dae2c	0.06917986
146	0x3d8fad1f	0.07015442
147	0xba02cef2	-0.00049899437
148	0x3ccd996a	0.025097568
149	0xbcf495a3	-0.029856509
150	0xbd478f82	-0.048720844
151	0xbd18e4ae	-0.03732746
152	0x3d3433dc	0.04399477
153	0xbd734ebe	-0.059401266
154	0xbd1ee17a	-0.03878925
155	0xba1e2de3	-0.00060340593
156	0xbd79d87d	-0.060997475
157	0xba052a1f	-0.0005079824
158	0xbb8bb1f7	-0.0042631584
159	0x3d0b2b1e	0.033976667
160	0x3d136eef	0.035994466
161	0x3d1a4d62	0.037671454
162	0xbd258c23	-0.040416848
163	0x3d56c724	0.05243601
164	0x3cf584e9	0.029970603
165	0xbd2faaf9	-0.04288766
166	0x3ce6d994	0.028179921
167	0xbd150e3b	-0.036390524
168	0x3d77d22d	0.060503174
169	0x3d3a5e69	0.045500193
170	0x3d16a480	0.036777973
171	0x3c983780	0.018581152
172	0xbbabc284	-0.005241694
173	0xbc657194	-0.01400413
174	0xbd67dcd9	-0.0566071
175	0xbcc1e11a	-0.023666907
176	0xbd352e72	-0.044233747
177	0x3be0fad9	0.006865841
178	0x3d2b4f4c	0.04182367
179	0xbc9baf2d	-0.019004429
180	0xbcbda5f8	-0.02315043
181	0x3d3c27e9	0.0459365
182	0xbc80be4b	-0.015715739
183	0x3c149749	0.009069272
184	0xbd018640	-0.03162217
185	0x3d2cbea6	0.042174004
186	0x3d199f85	0.037505645
187	0x3d55052e	0.052006893
188	0x3cbe407c	0.023224108
189	0xbd56d773	-0.052451562
190	0xbcf13944	-0.029446252
191	0xbd03823f	-0.032106634
192	0xbccd880a	-0.025089283
193	0xbdb5b092	-0.08871569
194	0xbdd8473e	-0.10560463
195	0xbd8501ef	-0.064945094
196	0xbc8d18fd	-0.01722383
197	0xbd6269cf	-0.05527669
198	0x3cb75ef8	0.022384152
199	0xbcccedfb	-0.025015822
200	0x3cce48f6	0.025181275
201	0x3c67cb4d	0.014147592
202	0x3c1bac05	0.009501462
203	0xbd8874de	-0.06662916
204	0xbd55ad60	-0.052167296
205	0x3c7ed915	0.015554686
206	0x3cac2558	0.0210139
207	0x3d0ad71b	0.033896547
208	0x3d228c9b	0.039684873
209	0x3cab00f1	0.020874472
210	0x3d19ca89	0.03754667
211	0x3c816cc0	0.015798926
212	0xbc658a19	-0.014009976
213	0xbd4cb925	-0.049981255
214	0x3d7bbdf7	0.06146046
215	0xbd0cc40f	-0.034366664
216	0x3d12a1e3	0.03579892
217	0xbb1c26c5	-0.002382682
218	0x3d71af3d	0.05900501
219	0x3d295667	0.041342165
220	0xbccc9d94	-0.024977483
221	0x3cc8ece5	0.024527023
222	0xbd41e938	-0.047341555
223	0x3d72a56b	0.059239786
224	0xbd08bfd0	-0.03338605
225	0x3d28e357	0.041232433
226	0x3d1ae17d	0.0378127
227	0x3d7ea273	0.062166642
228	0x3c6afe7c	0.0143429
229	0x3ad3e5c1	0.0016166494
230	0x3c00e221	0.007866413
231	0x3ca0d178	0.019631132
232	0xbc5966a0	-0.013269097
233	0x3d21354b	0.039357465
234	0xbcd806f0	-0.026370496
235	0x3d34f8c0	0.04418254
236	0xbc1fdc79	-0.009757155
237	0xbcc5b9c5	-0.024136433
238	0x3d445321	0.04793084
239	0x3d6313bc	0.055438742
240	0x3b90af46	0.0044154255
241	0x3b2719b2	0.0025497493
242	0xbd07bd5d	-0.033139575
243	0x3c582425	0.013192211
244	0x3d86be45	0.0657926
245	0xbd050ec7	-0.032484796
246	0xbda1bbd7	-0.07897156
247	0xbd4aeea2	-0.049543984
248	0xb98618b8	-0.0002557689
249	0x3ca2dee3	0.019881671
250	0xbd8d9e0a	-0.06914909
251	0xbd34cef9	-0.044142697
252	0xbc25e40b	-0.01012517
253	0xbd360e09	-0.04444698
254	0xbcdf3f64	-0.027251907
255	0xbbdda981	-0.006764591

conv2.bias f4 [64]
0	0x3b60d252	0.0034305048
1	0xbb2fc959	-0.0026822893
2	0xbd42990b	-0.047509234
3	0xbbceb3f5	-0.0063080736
4	0xbd2bda2c	-0.04195611
5	0xbccc42b7	-0.024934156
6	0xbcfa89c6	-0.030583274
7	0x3d2ce903	0.042214405
8	0x3d591fc1	0.0530088
9	0x3d019999	0.031640623
10	0x3ccfbdcf	0.025359062
11	0xbbb96792	-0.0056580985
12	0x3d357005	0.044296283
13	0x3d1e4e02	0.038648613
14	0xbd52798e	-0.051385455
15	0xbd199b5b	-0.037501674
16	0xbd0ecef8	-0.03486535
17	0x3cc3f004	0.02391816
18	0x3d1eb9b1	0.038751308
19	0x3d7579d9	0.059930656
20	0x3d094f73	0.033523034
21	0xbd02f6c4	-0.031973615
22	0x3d58cdb3	0.052930545
23	0x3cafa693	0.021441733
24	0xbc305f93	-0.010764974
25	0xbd4f1a9f	-0.050562497
26	0xbd56a52b	-0.05240361
27	0x3cd81986	0.026379358
28	0x3cb56644	0.02214349
29	0x3cfab488	0.030603662
30	0xbd307f84	-0.04309036
31	0xbd348e7c	-0.044081196
32	0x3d710f61	0.058852557
33	0x3d443717	0.0479041
34	0x3d41261f	0.047155496
35	0xbb161977	-0.0022903362
36	0x3d3d34cb	0.046192925
37	0xbcb882a9	-0.022523241
38	0xbd166af4	-0.036723092
39	0xbc8485ef	-0.016177146
40	0xbd1b452f	-0.037907775
41	0x3d165552	0.03670246
42	0x3c167204	0.009182457
43	0xbc8f9d97	-0.0175312
44	0xbd2e87f7	-0.042610135
45	0xbbf21cbf	-0.0073886807
46	0x3c4fbc5c	0.012679186
47	0x3d1fd356	0.039019905
48	0x3c46be62	0.012130352
49	0x3cadf3d4	0.02123443
50	0x3caeed41	0.021353366
51	0xbc0a6d20	-0.008448869
52	0x3d41c335	0.047305305
53	0x3c68b2d6	0.014202794
54	0x3d0aa8ff	0.033852573
55	0x3c78ca82	0.015185
56	0x3cb7e528	0.022448137
57	0xbd37b8a9	-0.04485384
58	0x3d683b3c	0.056697115
59	0xbca45a8f	-0.020062713
60	0xbd2a5df8	-0.04159352
61	0x3d2fbd63	0.042905223
62	0xbd74e8af	-0.059792217
63	0x3d1a0b18	0.037608236

bn2.weight f4 [64]
0	0x3f81a4ac	1.0128379
1	0x3f76ee0c	0.9645698
2	0x3f6b2034	0.91846013
3	0x3f7d8c87	0.9904255
4	0x3f83a4b2	1.0284636
5	0x3f7df456	0.9920095
6	0x3f7eb920	0.9950123
7	0x3f7d5216	0.9895338
8	0x3f8753d6	1.057246
9	0x3f770539	0.96492344
10	0x3f872239	1.0557319
11	0x3f835de5	1.0263029
12	0x3f706f67	0.93919986
13	0x3f83bafe	1.029144
14	0x3f80d022	1.0063517
15	0x3f80868f	1.0041064
16	0x3f82c76c	1.0217109
17	0x3f6f05e0	0.9336834
18	0x3f7dda25	0.9916099
19	0x3f780758	0.96886206
20	0x3f7504ec	0.95710635
21	0x3f77171e	0.9651965
22	0x3f863f42	1.0488055
23	0x3f7218f2	0.94569314
24	0x3f7ffa93	0.9999172
25	0x3f783af4	0.96964955
26	0x3f83605d	1.0263783
27	0x3f82afb1	1.0209867
28	0x3f79137b	0.9729535
29	0x3f796ef3	0.9743492
30	0x3f773baa	0.96575415
31	0x3f81d7dd	1.0144001
32	0x3f77e794	0.96837735
33	0x3f76933a	0.963184
34	0x3f8692da	1.0513566
35	0x3f79dc30	0.97601604
36	0x3f8ac08e	1.0840013
37	0x3f75e023	0.9604513
38	0x3f7f3763	0.9969389
39	0x3f823353	1.0171913
40	0x3f818804	1.0119634
41	0x3f81fe7d	1.0155789
42	0x3f834e2b	1.025823
43	0x3f7d1d64	0.9887297
44	0x3f80797a	1.0037072
45	0x3f769969	0.96327835
46	0x3f8050b5	1.002463
47	0x3f863937	1.048621
48	0x3f7cc4ad	0.98737603
49	0x3f809459	1.0045272
50	0x3f889c69	1.0672733
51	0x3f6ef107	0.9333653
52	0x3f8349e3	1.0256923
53	0x3f85f232	1.0464537
54	0x3f7eadff	0.99484247
55	0x3f7534c4	0.9578364
56	0x3f8354bb	1.0260233
57	0x3f7743fe	0.9658812
58	0x3f7d6536	0.9898256
59	0x3f89eb57	1.0774945
60	0x3f7bb21c	0.9831865
61	0x3f6f5e16	0.9350294
62	0x3f8b319e	1.0874517
63	0x3f7758e9	0.9662004

bn2.bias f4 [64]
0	0x3bb1ad81	0.0054222946
1	0xbd9bd056	-0.07608096
2	0xbdd031af	-0.101657264
3	0xbd892b99	-0.06697769
4	0xbd6f7802	-0.058464058
5	0xbcc0df22	-0.023543898
6	0xbd2d7fb2	-0.042358108
7	0xbca1c2a5	-0.019746134
8	0xbccdfc0d	-0.025144601
9	0xbda159f5	-0.07878486
10	0xbd6d9e98	-0.058012575
11	0xbbac967b	-0.005266962
12	0xbd8e1c69	-0.069390126
13	0xbc0fbcf7	-0.00877308
14	0xbd9262c3	-0.071477436
15	0x3ac830cc	0.0015273332
16	0xbbbc7bed	-0.005752078
17	0xbdcd7738	-0.10032505
18	0x3caa67b0	0.020801395
19	0xbd941982	-0.07231428
20	0xbda5c0f3	-0.08093443
21	0xbdeb64e0	-0.1149385
22	0xbbe5dd6a	-0.00701492
23	0xbdacd6f6	-0.08439438
24	0xbd8404a0	-0.06446195
25	0xbd36a0ad	-0.044586826
26	0xbd9bc1ce	-0.07605325
27	0xbd9e4cb6	-0.07729475
28	0xbdeec32c	-0.1165832
29	0xbdd26c43	-0.102745555
30	0xbd3992fc	-0.04530619
31	0x3c871250	0.016488224
32	0xbd51d4b9	-0.05122826
33	0xbd94847f	-0.07251834
34	0x3cf12e47	0.029441012
35	0xbdaf5cf5	-0.08562652
36	0x3d271edf	0.040800925
37	0xbdb0c8d3	-0.08632054
38	0xbd544f11	-0.051833216
39	0x3c5139d2	0.012770133
40	0xbd6bcf70	-0.057570875
41	0xbd638b8c	-0.055553004
42	0x3c3d0fde	0.011539428
43	0xbd84712b	-0.064668976
44	0xbd208160	-0.03918588
45	0xbdc8e3a0	-0.09809041
46	0xbd70c298	-0.05877933
47	0xbd0d6d87	-0.03452828
48	0xbcf3f0e4	-0.029777952
49	0xbc302bb5	-0.010752608
50	0xbcd61b44	-0.026136048
51	0xbda07274	-0.0783433
52	0xbd998032	-0.074951544
53	0xbcecedc7	-0.028921975
54	0xbd76fa29	-0.060297165
55	0xbd1ed202	-0.038774498
56	0xbc8d1483	-0.017221695
57	0xbdd18e10	-0.102321744
58	0xbcd906b2	-0.02649245
59	0xbccfd7a8	-0.025371388
60	0xbd77c7e0	-0.06049335
61	0xbdccbb5e	-0.09996675
62	0x3bb95485	0.0056558275
63	0xbd30f58e	-0.04320293

bn2.running_mean f4 [64]
0	0xbee5a51d	-0.44852534
1	0x3f3d310d	0.7390297
2	0x3f70be10	0.9404001
3	0xbf9167a9	-1.135976
4	0xbf6785ac	-0.9043834
5	0xbe50eb83	-0.2040234
6	0xbefc1c51	-0.49240354
7	0xbf7b4004	-0.98144555
8	0xbfb72ecb	-1.4311155
9	0xbfb6e10a	-1.4287426
10	0xbf3fc0d7	-0.74903625
11	0xbf44a244	-0.768101
12	0xbe50c162	-0.2038627
13	0xbfd07961	-1.6287042
14	0x3fdd7b4d	1.7303253
15	0xbfe5b1db	-1.7944902
16	0xbfde1962	-1.7351496
17	0xbeb75306	-0.3580553
18	0xbf62b55c	-0.8855798
19	0xbf402877	-0.75061744
20	0x3f473e24	0.77829194
21	0xbe321bdb	-0.17393439
22	0xbf0d3314	-0.55156064
23	0xbf39d885	-0.7259601
24	0x3f7c1e78	0.9848399
25	0xbeeb1088	-0.4591105
26	0xbe50c7ee	-0.20388767
27	0xbf47377e	-0.7781905
28	0x3ff79dba	1.9345009
29	0x3ff010d6	1.8755138
30	0xbf0f5afa	-0.55998194
31	0xbfc2d1b4	-1.5220246
32	0x3cd50e47	0.026007785
33	0xbffc4266	-1.9707763
34	0xbf6a3dc3	-0.9150049
35	0xbedb1f0c	-0.42797124
36	0xbedd9ebb	-0.43285164
37	0xbeb8d091	-0.36096624
38	0xbe2459fb	-0.1604995
39	0xbfacf566	-1.351239
40	0xc00a74ee	-2.1633868
41	0xbf4abeda	-0.79197466
42	0xbfade72b	-1.3586172
43	0xbfc43bb9	-1.5330726
44	0xbeb0e86c	-0.34552324
45	0x3e6af995	0.2294677
46	0xbf90209e	-1.1259954
47	0xbf56ec2d	-0.83954126
48	0xbf837ff9	-1.0273429
49	0xbee9e680	-0.4568367
50	0xbf5a7e77	-0.8534922
51	0x3e93ce8e	0.28868526
52	0xbd8dfb1e	-0.069326624
53	0xbf311e5b	-0.69186944
54	0xc0135d31	-2.302563
55	0x3fa97299	1.3238097
56	0xbf029bb0	-0.5101881
57	0x4014c292	2.3243756
58	0xbf94142b	-1.1568655
59	0xbf35cb18	-0.7101302
60	0x3f0f2b85	0.5592578
61	0xbf89abc0	-1.0755539
62	0xbe77e613	-0.2420886
63	0xbf00add4	-0.5026524

bn2.running_var f4 [64]
0	0x3f4ef5ab	0.8084361
1	0x3f32c200	0.6982727
2	0x40484fe4	3.1298761
3	0x3fc86b68	1.5657778
4	0x3eee736d	0.46572438
5	0x3ef49fa6	0.47778052
6	0x3ea5a9da	0.3235615
7	0x3f423ef2	0.75877297
8	0x3fb1c0a1	1.3886911
9	0x3fc6cba5	1.5530897
10	0x3f4042c4	0.75101876
11	0x3f5a011d	0.8515795
12	0x3f56ebda	0.8395363
13	0x3fe05519	1.752597
14	0x3fc5c0c0	1.5449448
15	0x3fc92ba5	1.5716444
16	0x3fadb83a	1.3571846
17	0x4001c95d	2.0279152
18	0x3f56e7a7	0.83947223
19	0x3f198b46	0.5997814
20	0x3fff1428	1.9928026
21	0x3f59ef74	0.85131
22	0x3f001767	0.5003571
23	0x3f5900cb	0.84766835
24	0x3f91c71a	1.1388886
25	0x3f3413b5	0.7034257
26	0x3f32abcf	0.6979341
27	0x3f1d8db3	0.6154434
28	0x4031771c	2.7728949
29	0x3fcaad43	1.5834125
30	0x3f0b50b2	0.54420006
31	0x3f899503	1.07486
32	0x3f8b6d68	1.0892763
33	0x40a22b15	5.067759
34	0x3f10bf2d	0.5654171
35	0x3f439855	0.76404315
36	0x3f45c9f5	0.77261287
37	0x3f4cf3b4	0.8005936
38	0x3e9de964	0.30842125
39	0x3fc922f2	1.571379
40	0x402b6168	2.6778202
41	0x3f21a798	0.6314635
42	0x3f8a51bd	1.0806195
43	0x3fa15b61	1.2606012
44	0x3f12e8ac	0.5738628
45	0x3f7cfae2	0.98820317
46	0x3faa279d	1.3293339
47	0x3f9c7888	1.2224283
48	0x3f5aa929	0.8541437
49	0x3f82c874	1.0217423
50	0x3f33e64d	0.70273286
51	0x3fd5df73	1.6708816
52	0x3f3ab7be	0.7293662
53	0x3eb98445	0.36233726
54	0x40570b13	3.360051
55	0x3f55a899	0.83460385
56	0x3f0dab09	0.55339104
57	0x40733080	3.7998352
58	0x401c624a	2.443499
59	0x3f7c9b64	0.9867461
60	0x3f1708f5	0.5899804
61	0x3fc6b700	1.5524597
62	0x3f30f3dd	0.69122106
63	0x3f6845e6	0.90731657

conv3.weight f4 [128, 64, 3, 3]
0	0x3d66dd27	0.05636325
1	0x3d8617e4	0.065475255
2	0x3c839489	0.016062038
3	0xbce531e6	-0.027977895
4	0x3d230ffd	0.03981017
5	0xbc273912	-0.010206478
6	0x3bdf14b2	0.006807887
7	0x3cef1b82	0.029187921
8	0x3cf77bf8	0.03021048
9	0x3c52e11c	0.012871053
10	0xbb3b0057	-0.0028534138
11	0xbc301394	-0.010746855
12	0x3821ac2f	3.854575e-05
13	0xbcc737e4	-0.024318643
14	0x3c98fcb4	0.018675186
15	0x3c1384fc	0.009003874
16	0xbd25c03a	-0.040466525
17	0xbd4dbcae	-0.050228767
18	0x3d18d8fc	0.037316307
19	0xbc807a8c	-0.015683435
20	0xbd022c37	-0.031780448
21	0xb6b50960	-5.3953117e-06
22	0xbd0eff53	-0.034911465
23	0xbcd1bb10	-0.025601894
24	0x3d50b8d8	0.05095753
25	0x3d04f34a	0.03245858
26	0xbcb5333e	-0.02211916
27	0x3d303102	0.043015487
28	0x3d563feb	0.05230705
29	0x3d117b6a	0.035518087
30	0x3c220fdd	0.009891477
31	0xbc4bb2a2	-0.012432726
32	0xbc4367ac	-0.011926573
33	0x3cad0758	0.021121666
34	0xbb60a77d	-0.0034279518
35	0xbcfca340	-0.030839562
36	0xbbda48ca	-0.006661509
37	0xbc20d584	-0.009816531
38	0xbc4e135a	-0.012577856
39	0xbd1eb115	-0.038743097
40	0xbc42d2c7	-0.011891074
41	0xbce7849c	-0.028261475
42	0x3d2b3965	0.041802783
43	0x39e87044	0.00044334133
44	0x3d01c868	0.031685263
45	0xbc7b8608	-0.01535178
46	0x39e6234f	0.00043895326
47	0x3d5345e4	0.051580325
48	0x3c7fd64f	0.01561506
49	0xbd78c5d7	-0.06073555
50	0xbca23423	-0.019800251
51	0xba9212d6	-0.001114453
52	0xbd386175	-0.045014817
53	0xbd4bafa6	-0.04972806
54	0x3c135333	0.008992004
55	0x3c7f3b41	0.015578092
56	0x3cee5f83	0.029098278
57	0x3c1a9497	0.009434841
58	0x3d5f17b5	0.05446597
59	0x3c4b49f4	0.0124077685
60	0x3c24a0cd	0.0100481035
61	0xbc327f36	-0.010894587
62	0xbc8582a8	-0.016297653
63	0x3c18c304	0.009323839
64	0xbba657f4	-0.005076403
65	0x3c84711c	0.016167216
66	0x3cef2c2b	0.029195866
67	0x3c07b324	0.008282457
68	0xbcc3d95e	-0.02390736
69	0x3d34a6a3	0.04410423
70	0x3d492f5b	0.049117427
71	0x3ca2372a	0.019801695
72	0x3d16582f	0.036705192
73	0x3d2cda39	0.0422003
74	0x3ce28672	0.027652
75	0x3c991e3e	0.018691178
76	0x3c3e2a45	0.0116067575
77	0x3d1af37f	0.037829872
78	0x3d92162d	0.07133136
79	0x3d6216a4	0.055197373
80	0x3c0246de	0.007951466
81	0x3b325f5b	0.002721748
82	0x3c4bc977	0.01243817
83	0xbacd8047	-0.0015678488
84	0xbd19c6d4	-0.037543133
85	0xbc4a3c3c	-0.012343463
86	0x3c528897	0.012849948
87	0xbc3a1e3a	-0.011359746
88	0xbcf8895f	-0.030338941
89	0x3b87448c	0.0041280445
90	0x3d5d07c9	0.053962503
91	0x3bb32445	0.00546697
92	0xbbd52566	-0.0065047024
93	0x3cbb7635	0.022883514
94	0x3badc87f	0.005303442
95	0xbd1557e6	-0.03646078
96	0x3d801ebd	0.06255863
97	0xbbe2ecad	-0.0069251866
98	0xbbceb243	-0.0063078715
99	0x3bed1eb7	0.0072363275
100	0x3c6ea1f5	0.014564981
101	0x3da793d9	0.081824966
102	0x3d9aba96	0.0755512
103	0x3d3b08bd	0.04566263
104	0x3cb9b8eb	0.022671184
105	0x3b673186	0.003527732
106	0x3d64f889	0.055901084
107	0x3d6a39d4	0.057184055
108	0x3d3448aa	0.04401461
109	0x3c900834	0.017582037
110	0x3c982f65	0.018577287
111	0x3c4eb556	0.012616476
112	0x3d279cbb	0.040920954
113	0xbc8d4e4e	-0.017249253
114	0x3c88dbe2	0.01670641
115	0x3ce8c1fa	0.028412808
116	0xbce1cd08	-0.027563587
117	0x3c64ff9b	0.013976957
118	0x3c290e55	0.010318358
119	0x3c580c09	0.013186463
120	0xb9c565d8	-0.00037650648
121	0xbd1a37e6	-0.037650965
122	0x3d05c4d8	0.032658428
123	0x3d56d273	0.052446794
124	0xbc847ccc	-0.016172789
125	0x3d63f2de	0.055651538
126	0x3a9829f2	0.001160918
127	0x3d02e10a	0.031952895
128	0xbc78d422	-0.015187295
129	0xbc2aa4bd	-0.010415253
130	0x3bb6a67c	0.0055740457
131	0xbb8ca042	-0.004291565
132	0x3c95ec74	0.018301226
133	0x3c6d0880	0.014467359
134	0xbce1514d	-0.027504588
135	0xbc7d0d58	-0.015445076
136	0xbd000707	-0.0312567
137	0x3c7c65ce	0.0154051315
138	0xbd034a6d	-0.0320534
139	0x3d0c3254	0.034227684
140	0x3d000419	0.031253908
141	0xbcd6490a	-0.026157875
142	0x3c9a3bce	0.018827345
143	0xbca144d4	-0.01968614
144	0x3b203e56	0.0024451218
145	0xbd436d6e	-0.047711782
146	0x3cea9b5d	0.028638536
147	0xbd169081	-0.036758903
148	0xbd0173fd	-0.031604756
149	0x3ce0b777	0.027431233
150	0xbd058330	-0.032595813
151	0xbc180c46	-0.00928027
152	0x3d2819bf	0.04104018
153	0x3b2b0f00	0.002610147
154	0xbbad6519	-0.005291593
155	0xbbd83978	-0.0065986477
156	0xbcd874ca	-0.026422877
157	0x3d0432c3	0.032274973
158	0xbd390357	-0.0451692
159	0xbca9df70	-0.020736426
160	0xbc6389b7	-0.013887814
161	0xbd7062b2	-0.058687873
162	0x3d22693f	0.03965115
163	0xbb200875	-0.0024419103
164	0x3c174b24	0.0092342235
165	0x3d29cf24	0.04145731
166	0x3c87614c	0.016525887
167	0xbcacb493	-0.021082198
168	0xbb9bd630	-0.0047557577
169	0x3d26530e	0.04060655
170	0x3d760c3a	0.060070254
171	0xbb720743	-0.0036930598
172	0xbcf214f5	-0.029551009
173	0x3c98cce1	0.018652381
174	0xbc8f28c3	-0.017475491
175	0x3ce9d7fb	0.02854537
176	0xbcfc8a55	-0.03082768
177	0xbc990a48	-0.01868166
178	0x3cbf251e	0.023333129
179	0x3d18d055	0.037308056
180	0xbca310c6	-0.01990546
181	0x3d139c5d	0.03603779
182	0xbd31d4a8	-0.043415695
183	0xbb835c49	-0.004008804
184	0xba466c45	-0.0007569234
185	0x3d3924b1	0.045201007
186	0x3d81b9fe	0.06334303
187	0x3ca7a26f	0.020463197
188	0x3d4e694a	0.05039338
189	0xbcf14541	-0.029451968
190	0x3c8ccd7e	0.01718783
191	0xbd06b3b1	-0.03288621
192	0xbcacc603	-0.021090513
193	0x3c78ef94	0.015193839
194	0xbc8b27ff	-0.016986845
195	0xbb29c56d	-0.0025905028
196	0x3ce150f1	0.027504416
197	0xbc87f0b5	-0.01659427
198	0xbcad8d77	-0.02118562
199	0x3cf1a745	0.029498706
200	0xbc88e013	-0.01670841
201	0x3cd3c7e2	0.025852147
202	0x3cb7649e	0.022386845
203	0x39faf2f3	0.00047864727
204	0x3d08f1db	0.033433776
205	0x3cf1700a	0.02947237
206	0x3d19fdef	0.037595686
207	0x3c8b3a4d	0.016995573
208	0xbce77460	-0.028253734
209	0x3b931a59	0.004489225
210	0x391bca89	0.00014857402
211	0xbb3a853b	-0.002846076
212	0xbca2eed9	-0.019889282
213	0xbc085128	-0.00832013
214	0xbc2b79b3	-0.010466027
215	0x3c49a7a5	0.012308036
216	0xbccb1906	-0.024792206
217	0x3cf0bc5e	0.029386695
218	0x3d11abaf	0.03556412
219	0x3c2e177a	0.010625714
220	0x3bd7f632	0.006590628
221	0x3b973403	0.0046143546
222	0xbc48e6c8	-0.012262054
223	0xbcd0348a	-0.025415678
224	0x3d2d1b9c	0.04226266
225	0x3d9d0008	0.076660216
226	0x3c2536b1	0.01008384
227	0x3cca3076	0.024681311
228	0x3bebb3b4	0.007193053
229	0x3d38ca31	0.0451147
230	0x3c82ae98	0.015952393
231	0xbc520ba7	-0.012820161
232	0x3caf1153	0.021370566
233	0xbd42f76b	-0.047599237
234	0x3cd65723	0.026164597
235	0x3d56e2d9	0.052462433
236	0x3c90825a	0.017640281
237	0x3d4f8dfe	0.050672524
238	0x3d57b566	0.05266323
239	0x3d78e055	0.060760815
240	0x3c944ce1	0.018103065
241	0x3d140bb6	0.03614398
242	0x3d3d473f	0.046210524
243	0xbcb2f157	-0.021843595
244	0xbd424c09	-0.047435794
245	0xbc9546b8	-0.018222198
246	0x3a3f7583	0.00073035824
247	0x3c64226a	0.013924221
248	0xbc8e1e2a	-0.017348368
249	0xbc71e32c	-0.014763635
250	0x3ca494b0	0.020090431
251	0xbc4ddf78	-0.012565486
252	0x3cd7bf6d	0.026336396
253	0x3bc1f21c	0.0059187543
254	0xbc9be1b5	-0.019028524
255	0xbae3c6ad	-0.0017377936

conv3.bias f4 [128]
0	0x3c8fc910	0.017551929
1	0x3cbd6334	0.023118593
2	0xbb340a61	-0.0027472007
3	0xbca2fdac	-0.01989635
4	0xbcd9fc39	-0.026609527
5	0x3c056232	0.008141087
6	0x3c059062	0.008152099
7	0xbb918e88	-0.00444204
8	0xbc7a4e0c	-0.015277397
9	0x3d0ed41f	0.034870263
10	0xbd04e3d5	-0.03244384
11	0x3c54bf56	0.012985071
12	0xbcd7cb1f	-0.026341973
13	0x3c57256b	0.01313148
14	0x3ac4c169	0.0015011254
15	0x3d15f3aa	0.03660933
16	0x3d004584	0.031316295
17	0xbd2dca79	-0.04242942
18	0x3b73a86d	0.0037179247
19	0x3cf62841	0.030048491
20	0x3cb73a65	0.022366712
21	0xbba95c1d	-0.0051684515
22	0x3c2947d7	0.010332069
23	0xba9508b6	-0.0011370394
24	0xbd2c69ed	-0.042093206
25	0x3d201e62	0.039091475
26	0xbd35e994	-0.04441221
27	0x3c8cc333	0.017182922
28	0x3bc19722	0.005907909
29	0xbb1ccc90	-0.002392564
30	0x3ac4e1b0	0.0015020873
31	0x3ca64338	0.020295724
32	0x3c3b6c84	0.011439446
33	0x3c4a499d	0.012346652
34	0xbd1ce454	-0.03830369
35	0xbce53d8d	-0.027983451
36	0xbd1e454c	-0.038640305
37	0xbb970937	-0.004609253
38	0x3d1f3834	0.03887196
39	0x3c0dc53d	0.008652982
40	0x3b439612	0.0029844088
41	0xbcddf180	-0.027092695
42	0x3cd83988	0.02639462
43	0x3ba0852a	0.004898687
44	0x3c05030c	0.008118402
45	0x3d229bcf	0.039699372
46	0x3ac7c001	0.0015239717
47	0xbc0bc384	-0.008530501
48	0x3cc81134	0.024422266
49	0xbcc4326c	-0.023949824
50	0xbc67309b	-0.01411071
51	0xbcb26780	-0.021777868
52	0x3d1128b7	0.03543922
53	0xbcdb18b1	-0.026745172
54	0xbd0db064	-0.034592047
55	0x3c5928bd	0.013254342
56	0x3cf8dbed	0.030378306
57	0xbbae16aa	-0.0053127604
58	0x3c13cbb7	0.009020737
59	0xbc72e2c9	-0.014824578
60	0x3ca21538	0.019785509
61	0xbbfd2f98	-0.007726621
62	0x3cb7c05d	0.022430593
63	0xbc897992	-0.016781602
64	0xbcfc275c	-0.030780487
65	0x3c5faab2	0.013651537
66	0xbcb0c2b9	-0.021577226
67	0xbb036e62	-0.0020054807
68	0x3b430417	0.0029757076
69	0x3d18364f	0.037161168
70	0xbce7a48e	-0.028276708
71	0x3c102ecb	0.008800219
72	0x3ce8a4b7	0.028398855
73	0xbcd78eea	-0.026313264
74	0xbd020093	-0.03173883
75	0x3cdf4f89	0.027259605
76	0xbbeddf2d	-0.0072592706
77	0xbca6b3ce	-0.02034941
78	0x3d087da3	0.03332294
79	0xbcb5f557	-0.022211714
80	0xbd2254dc	-0.03963171
81	0xbd1f550e	-0.038899474
82	0x3bfc075c	0.007691307
83	0xbb19e6d6	-0.0023483536
84	0x3ccf23c5	0.02528561
85	0x3d2ac200	0.04168892
86	0xbcbb3958	-0.022854492
87	0xba11d3aa	-0.00055628514
88	0xbca4ada4	-0.02010233
89	0x3b176038	0.0023098122
90	0xbcb9538e	-0.02262285
91	0xbd14da54	-0.036341026
92	0xbb9e24e9	-0.0048261774
93	0x3cb1d0cc	0.021706007
94	0x3ce4a8a1	0.02791244
95	0x3c8c0299	0.017091082
96	0x3d07f585	0.03319313
97	0x3c6e5cff	0.014548539
98	0x3c801b0d	0.015637899
99	0x3cb12dbf	0.021628259
100	0xbcbb0c69	-0.022833066
101	0xbbb781c4	-0.005600186
102	0xbbaf2951	-0.0053455015
103	0x3d085266	0.033281706
104	0xbca8d294	-0.020608224
105	0xbc5f7c3d	-0.013640461
106	0x3cec31ff	0.028832434
107	0xbc3d472c	-0.011552613
108	0xbcf9f6bd	-0.030513162
109	0xbca9e675	-0.020739773
110	0xbc366b99	-0.011134052
111	0x3ced2480	0.028948069
112	0x3b625dee	0.003454085
113	0x3d0d77ac	0.034537956
114	0xbcf54c0e	-0.029943492
115	0xbc42c9db	-0.011888946
116	0xbbf2b0cf	-0.007406331
117	0x3bbe8c0d	0.005815035
118	0xbd3f1e3f	-0.046659704
119	0xb96c4b2a	-0.00022534715
120	0xbcc8ca49	-0.02451052
121	0xbd24398f	-0.040093955
122	0xbd1bf9db	-0.038080078
123	0xbcc43ed0	-0.023955733
124	0x3c9b5779	0.018962609
125	0xbc45ae7a	-0.012065524
126	0xbc26f18e	-0.010189427
127	0xbc140ac5	-0.009035771
