built_models/esc50_esc50cnn_model_fold2_20250430_202925.pth (torch, 654357 bytes, 24 tensors)

mel_transform.spectrogram.window f4 [1024]
0.0 9.417534e-06 3.7640333e-05 8.46982e-05 0.00015059114 0.00023528934 0.0003388226 0.00046113133
0.00060227513 0.0007622242 0.0009409487 0.0011384785 0.0013547838 0.0015898645 0.0018436909 0.0021162927
0.0024076402 0.0027177036 0.0030465126 0.0033940375 0.0037602484 0.0041451156 0.0045486987 0.004970908
0.005411744 0.0058712065 0.0063492954 0.006845951 0.0073611736 0.007894963 0.00844726 0.009018064
0.009607345 0.010215104 0.01084131 0.011485934 0.0121489465 0.012830317 0.013530016 0.014248043
0.014984369 0.015738964 0.016511768 0.017302781 0.018111974 0.018939286 0.019784749 0.02064827
0.021529824 0.022429407 0.02334699 0.024282485 0.025235921 0.026207209 0.027196348 0.028203279
0.029227972 0.030270398 0.031330496 0.032408237 0.033503592 0.03461653 0.03574696 0.036894888
0.038060248 0.039242983 0.040443063 0.041660458 0.04289514 0.044146985 0.045416027 0.046702147
0.048005342 0.049325585 0.050662756 0.052016884 0.05338785 0.054775625 0.05618021 0.057601452
0.059039384 0.060493886 0.06196496 0.06345251 0.064956516 0.06647688 0.06801358 0.06956655
0.0711357 0.072721004 0.0743224 0.075939834 0.07757321 0.07922253 0.080887645 0.082568586
0.0842652 0.085977495 0.087705374 0.08944875 0.09120759 0.092981845 0.094771415 0.096576214
0.09839624 0.10023138 0.10208154 0.103946716 0.105826795 0.10772169 0.10963139 0.111555785
0.11349478 0.115448326 0.11741638 0.11939883 0.12139559 0.12340662 0.1254318 0.12747112
0.12952444 0.13159174 0.1336729 0.13576782 0.13787645 0.13999876 0.1421346 0.14428389
0.14644662 0.14862263 0.15081188 0.15301427 0.15522975 0.15745819 0.1596995 0.16195366
0.16422054 0.16650003 0.16879213 0.17109665 0.1734136 0.1757428 0.17808422 0.1804378
0.18280336 0.1851809 0.18757027 0.18997142 0.19238421 0.1948086 0.1972445 0.19969177
0.20215034 0.20462015 0.20710108 0.20959303 0.21209592 0.21460965 0.21713409 0.21966922
0.2222149 0.22477102 0.22733751 0.22991425 0.23250118 0.23509818 0.23770517 0.24032202
0.24294865 0.24558496 0.24823079 0.25088614 0.2535509 0.25622493 0.25890815 0.2616004
0.26430166 0.26701176 0.26973063 0.2724582 0.27519435 0.27793896 0.28069192 0.2834531
0.28622246 0.28899986 0.29178524 0.29457843 0.29737937 0.30018795 0.30300403 0.30582747
0.3086583 0.31149632 0.31434143 0.3171935 0.3200525 0.3229183 0.32579064 0.32866964
0.33155507 0.33444685 0.33734488 0.340249 0.34315917 0.34607518 0.34899703 0.35192457
0.35485768 0.35779625 0.36074018 0.36368936 0.3666436 0.36960295 0.37256718 0.3755362
0.37850994 0.38148823 0.38447094 0.38745803 0.3904494 0.39344487 0.39644432 0.3994477
0.40245488 0.40546566 0.40848005 0.4114979 0.41451907 0.41754347 0.42057097 0.42360145
0.42663476 0.42967087 0.43270966 0.43575096 0.43879467 0.4418407 0.44488895 0.4479392
0.45099142 0.45404553 0.45710137 0.46015882 0.46321777 0.46627808 0.46933964 0.4724024
0.47546616 0.47853088 0.4815964 0.48466262 0.48772943 0.49079663 0.49386424 0.49693206
00000000: 0000 0000 0000 1e37 00e0 1d38 00a0 b138
00000010: 00e8 1d39 00b8 7639 00a4 b139 00c4 f139
00000020: 00e2 1d3a 00d0 473a 00aa 763a 0039 953a
00000030: 0093 b13a 0063 d03a 00a8 f13a 80b1 0a3b
00000040: 80c9 1d3b 801b 323b 00a8 473b 806e 5e3b
00000050: 806e 763b c0d3 873b 400d 953b 00e3 a23b
00000060: 0055 b13b 4063 c03b c00d d03b 0054 e03b
00000070: 0036 f13b e059 013c 6066 0a3c 80c0 133c
00000080: 2068 1d3c 405d 273c c09f 313c 802f 3c3c
00000090: 600c 473c 4036 523c 00ad 5d3c a070 693c
000000a0: 0081 753c 00ef 803c b043 873c 90be 8d3c
000000b0: 905f 943c 9026 9b3c a013 a23c 9026 a93c
000000c0: 505f b03c e0bd b73c 3042 bf3c 10ec c63c
000000d0: 90bb ce3c 80b0 d63c e0ca de3c 900a e73c
000000e0: 806f ef3c a0f9 f73c 6854 003d 80be 043d
000000f0: 103b 093d 10ca 0d3d 686b 123d 181f 173d
00000100: 10e5 1b3d 40bd 203d a0a7 253d 28a4 2a3d
00000110: d0b2 2f3d 78d3 343d 2806 3a3d c04a 3f3d
00000120: 40a1 443d a009 4a3d c083 4f3d a80f 553d
00000130: 38ad 5a3d 685c 603d 381d 663d 80ef 6b3d
00000140: 48d3 713d 70c8 773d f8ce 7d3d 64f3 813d
00000150: ec07 853d 0825 883d b44a 8b3d e878 8e3d
00000160: 98af 913d c0ee 943d 5836 983d 5886 9b3d
00000170: b4de 9e3d 6c3f a23d 6ca8 a53d b819 a93d
00000180: 3c93 ac3d f814 b03d e09e b33d e830 b73d
00000190: 0ccb ba3d 446d be3d 8417 c23d c0c9 c53d
000001a0: f883 c93d 1c46 cd3d 2010 d13d 04e2 d43d
000001b0: b8bb d83d 309d dc3d 6c86 e03d 5c77 e43d
000001c0: f46f e83d 2c70 ec3d 0078 f03d 6087 f43d
000001d0: 409e f83d 9cbc fc3d 3271 003e ca87 023e
000001e0: 0ea2 043e fcbf 063e 8ce1 083e b806 0b3e
000001f0: 7c2f 0d3e d65b 0f3e bc8b 113e 28bf 133e
00000200: 1af6 153e 8830 183e 6e6e 1a3e c6af 1c3e
00000210: 8cf4 1e3e b83c 213e 4488 233e 2ed7 253e
00000220: 6e29 283e fc7e 2a3e d8d7 2c3e f633 2f3e
00000230: 5693 313e ecf5 333e b65b 363e b0c4 383e
00000240: ce30 3b3e 10a0 3d3e 6c12 403e de87 423e
00000250: 5e00 453e e87b 473e 76fa 493e 007c 4c3e
00000260: 8000 4f3e f287 513e 4e12 543e 8e9f 563e
00000270: ac2f 593e a2c2 5b3e 6658 5e3e f8f0 603e
00000280: 4e8c 633e 602a 663e 2acb 683e a46e 6b3e
00000290: ca14 6e3e 94bd 703e fc68 733e fa16 763e
000002a0: 88c7 783e a07a 7b3e 3630 7e3e 2674 803e
000002b0: 6cd1 813e ea2f 833e 9c8f 843e 7df0 853e
000002c0: 8c52 873e c4b5 883e 221a 8a3e a47f 8b3e
000002d0: 46e6 8c3e 044e 8e3e dab6 8f3e c420 913e
000002e0: c08b 923e caf7 933e e064 953e fcd2 963e
000002f0: 1c42 983e 3cb2 993e 5823 9b3e 6b95 9c3e
00000300: 7608 9e3e 727c 9f3e 5cf1 a03e 3067 a23e
00000310: ecdd a33e 8c55 a53e 08ce a63e 6347 a83e
00000320: 96c1 a93e 9e3c ab3e 78b8 ac3e 1e35 ae3e
00000330: 8fb2 af3e c430 b13e bdaf b23e 752f b43e
00000340: e8af b53e 1231 b73e f0b2 b83e 7e35 ba3e
00000350: b6b8 bb3e 993c bd3e 20c1 be3e 4846 c03e
00000360: 0ecc c13e 6d52 c33e 60d9 c43e e660 c63e
00000370: fce8 c73e 9b71 c93e c0fa ca3e 6984 cc3e
00000380: 910e ce3e 3299 cf3e 4c24 d13e daaf d23e
00000390: d83b d43e 42c8 d53e 1455 d73e 4ae2 d83e
000003a0: df6f da3e d2fd db3e 1f8c dd3e c01a df3e
000003b0: b2a9 e03e f238 e23e 7cc8 e33e 4958 e53e
000003c0: 59e8 e63e a878 e83e 3109 ea3e f099 eb3e
000003d0: e12a ed3e 00bc ee3e 494d f03e bade f13e
000003e0: 4d70 f33e 0002 f53e ce93 f63e b325 f83e
000003f0: acb7 f93e b249 fb3e c6db fc3e e16d fe3e

mel_transform.mel_scale.fb f4 [513, 40]
-0.0 0.0 0.0 0.0 0.0 0.0 0.0 0.0
0.0 0.0 0.0 0.0 0.0 0.0 0.0 0.0
0.0 0.0 0.0 0.0 0.0 0.0 0.0 0.0
0.0 0.0 0.0 0.0 0.0 0.0 0.0 0.0
0.0 0.0 0.0 0.0 0.0 0.0 0.0 0.0
0.69426066 0.0 0.0 0.0 0.0 0.0 0.0 0.0
0.0 0.0 0.0 0.0 0.0 0.0 0.0 0.0
0.0 0.0 0.0 0.0 0.0 0.0 0.0 0.0
0.0 0.0 0.0 0.0 0.0 0.0 0.0 0.0
0.0 0.0 0.0 0.0 0.0 0.0 0.0 0.0
0.64310575 0.35689425 0.0 0.0 0.0 0.0 0.0 0.0
0.0 0.0 0.0 0.0 0.0 0.0 0.0 0.0
0.0 0.0 0.0 0.0 0.0 0.0 0.0 0.0
0.0 0.0 0.0 0.0 0.0 0.0 0.0 0.0
0.0 0.0 0.0 0.0 0.0 0.0 0.0 0.0
0.005360414 0.9946396 0.0 0.0 0.0 0.0 0.0 0.0
0.0 0.0 0.0 0.0 0.0 0.0 0.0 0.0
0.0 0.0 0.0 0.0 0.0 0.0 0.0 0.0
0.0 0.0 0.0 0.0 0.0 0.0 0.0 0.0
0.0 0.0 0.0 0.0 0.0 0.0 0.0 0.0
0.0 0.41909382 0.58090615 0.0 0.0 0.0 0.0 0.0
0.0 0.0 0.0 0.0 0.0 0.0 0.0 0.0
0.0 0.0 0.0 0.0 0.0 0.0 0.0 0.0
0.0 0.0 0.0 0.0 0.0 0.0 0.0 0.0
0.0 0.0 0.0 0.0 0.0 0.0 0.0 0.0
0.0 0.0 0.8468364 0.15316364 0.0 0.0 0.0 0.0
0.0 0.0 0.0 0.0 0.0 0.0 0.0 0.0
0.0 0.0 0.0 0.0 0.0 0.0 0.0 0.0
0.0 0.0 0.0 0.0 0.0 0.0 0.0 0.0
0.0 0.0 0.0 0.0 0.0 0.0 0.0 0.0
0.0 0.0 0.3086942 0.69130576 0.0 0.0 0.0 0.0
0.0 0.0 0.0 0.0 0.0 0.0 0.0 0.0
00000000: 0000 0080 0000 0000 0000 0000 0000 0000
00000010: 0000 0000 0000 0000 0000 0000 0000 0000
00000020: 0000 0000 0000 0000 0000 0000 0000 0000
00000030: 0000 0000 0000 0000 0000 0000 0000 0000
00000040: 0000 0000 0000 0000 0000 0000 0000 0000
00000050: 0000 0000 0000 0000 0000 0000 0000 0000
00000060: 0000 0000 0000 0000 0000 0000 0000 0000
00000070: 0000 0000 0000 0000 0000 0000 0000 0000
00000080: 0000 0000 0000 0000 0000 0000 0000 0000
00000090: 0000 0000 0000 0000 0000 0000 0000 0000
000000a0: 11bb 313f 0000 0000 0000 0000 0000 0000
000000b0: 0000 0000 0000 0000 0000 0000 0000 0000
000000c0: 0000 0000 0000 0000 0000 0000 0000 0000
000000d0: 0000 0000 0000 0000 0000 0000 0000 0000
000000e0: 0000 0000 0000 0000 0000 0000 0000 0000
000000f0: 0000 0000 0000 0000 0000 0000 0000 0000
00000100: 0000 0000 0000 0000 0000 0000 0000 0000
00000110: 0000 0000 0000 0000 0000 0000 0000 0000
00000120: 0000 0000 0000 0000 0000 0000 0000 0000
00000130: 0000 0000 0000 0000 0000 0000 0000 0000
00000140: 94a2 243f d8ba b63e 0000 0000 0000 0000
00000150: 0000 0000 0000 0000 0000 0000 0000 0000
00000160: 0000 0000 0000 0000 0000 0000 0000 0000
00000170: 0000 0000 0000 0000 0000 0000 0000 0000
00000180: 0000 0000 0000 0000 0000 0000 0000 0000
00000190: 0000 0000 0000 0000 0000 0000 0000 0000
000001a0: 0000 0000 0000 0000 0000 0000 0000 0000
000001b0: 0000 0000 0000 0000 0000 0000 0000 0000
000001c0: 0000 0000 0000 0000 0000 0000 0000 0000
000001d0: 0000 0000 0000 0000 0000 0000 0000 0000
000001e0: 69a6 af3b b3a0 7e3f 0000 0000 0000 0000
000001f0: 0000 0000 0000 0000 0000 0000 0000 0000
00000200: 0000 0000 0000 0000 0000 0000 0000 0000
00000210: 0000 0000 0000 0000 0000 0000 0000 0000
00000220: 0000 0000 0000 0000 0000 0000 0000 0000
00000230: 0000 0000 0000 0000 0000 0000 0000 0000
00000240: 0000 0000 0000 0000 0000 0000 0000 0000
00000250: 0000 0000 0000 0000 0000 0000 0000 0000
00000260: 0000 0000 0000 0000 0000 0000 0000 0000
00000270: 0000 0000 0000 0000 0000 0000 0000 0000
00000280: 0000 0000 7793 d63e 44b6 143f 0000 0000
00000290: 0000 0000 0000 0000 0000 0000 0000 0000
000002a0: 0000 0000 0000 0000 0000 0000 0000 0000
000002b0: 0000 0000 0000 0000 0000 0000 0000 0000
000002c0: 0000 0000 0000 0000 0000 0000 0000 0000
000002d0: 0000 0000 0000 0000 0000 0000 0000 0000
000002e0: 0000 0000 0000 0000 0000 0000 0000 0000
000002f0: 0000 0000 0000 0000 0000 0000 0000 0000
00000300: 0000 0000 0000 0000 0000 0000 0000 0000
00000310: 0000 0000 0000 0000 0000 0000 0000 0000
00000320: 0000 0000 0000 0000 45ca 583f eed6 1c3e
00000330: 0000 0000 0000 0000 0000 0000 0000 0000
00000340: 0000 0000 0000 0000 0000 0000 0000 0000
00000350: 0000 0000 0000 0000 0000 0000 0000 0000
00000360: 0000 0000 0000 0000 0000 0000 0000 0000
00000370: 0000 0000 0000 0000 0000 0000 0000 0000
00000380: 0000 0000 0000 0000 0000 0000 0000 0000
00000390: 0000 0000 0000 0000 0000 0000 0000 0000
000003a0: 0000 0000 0000 0000 0000 0000 0000 0000
000003b0: 0000 0000 0000 0000 0000 0000 0000 0000
000003c0: 0000 0000 0000 0000 2b0d 9e3e 6af9 303f
000003d0: 0000 0000 0000 0000 0000 0000 0000 0000
000003e0: 0000 0000 0000 0000 0000 0000 0000 0000
000003f0: 0000 0000 0000 0000 0000 0000 0000 0000

conv1.weight f4 [32, 1, 3, 3]
-0.20603956 0.15492949 0.12562421 0.24466278 0.0340401 0.19691227 0.3755101 -0.027323177
-0.27952653 0.060510136 -0.22772859 -0.21653573 -0.008183287 -0.20030834 -0.09784962 -0.13024543
0.07900607 -0.27464423 -0.29561117 0.10955182 -0.025222925 0.09611214 0.018728204 -0.10774973
0.22278413 0.32111087 0.11495017 -0.19331828 -0.29695192 -0.21863025 0.15372388 0.20082492
-0.13219014 0.2952939 0.2121807 -0.1458123 -0.18874837 0.18542817 -0.3357759 0.21521021
-0.31920505 -0.33279416 0.17564678 -0.28794292 0.10507798 0.17434743 -0.296498 -0.11370803
0.31463474 0.25496763 0.044275496 -0.0073286416 -0.23645435 0.040438984 -0.19583967 0.0029961735
-0.06415823 0.2519966 -0.06862212 0.31777647 -0.081017636 0.23470558 -0.10782704 0.2180799
-0.080416985 0.28871217 -0.011269995 -0.14446114 0.14639044 -0.24963085 -0.23496656 0.22800139
0.2821793 -0.24299337 -0.071096174 0.18167435 -0.119318604 -0.054611657 0.32498646 -0.0064676306
-0.21501005 0.15648417 0.31858203 0.16115569 -0.15921988 0.07559977 -0.09694353 -0.08477199
-0.2748599 0.021307757 0.1136187 0.14158376 -0.30441606 0.10857685 0.23956138 -0.124575295
-0.31702515 -0.01666571 -0.2431613 -0.2520674 -0.05246182 -0.19580722 -0.043180406 0.047015406
0.07515904 0.22630547 -0.17472382 -0.112675406 -0.24316208 -0.059584558 -0.21288665 -0.21776424
-0.3100149 -0.18237369 -0.028555453 0.061334644 0.09591176 -0.26941523 -0.14532275 -0.18388504
-0.2653312 0.06659442 -0.091769 0.03972716 0.23471126 -0.16793455 0.07628442 -0.1202057
0.20198032 0.16176067 -0.22719462 0.10066628 0.07477608 0.032101065 -0.24682505 -0.14562681
0.1135752 0.28213388 -0.23837216 0.21622582 -0.22102775 -0.21461686 0.21601349 0.30575657
0.27295113 -0.21972744 -0.2604607 -0.22409596 0.089237206 -0.06292899 -0.19064009 -0.19256817
-0.12458901 0.28230768 -0.12811127 0.35745567 -0.14978668 0.02457578 0.17091614 0.05277946
0.22799487 -0.12382679 0.26896894 0.12707707 0.3183107 -0.18474458 -0.3176649 -0.2129796
0.19844076 0.19397761 -0.27567497 -0.18489392 0.27133718 -0.16417693 0.27273056 -0.005907236
0.07165565 -0.21956594 0.12818673 -0.06684417 -0.21737222 -0.017169105 -0.19057573 0.25697976
0.059123185 -0.31343165 0.34929958 -0.096354924 -0.30970877 -0.017332869 -0.07349488 -0.07089858
0.19003436 -0.21366467 -0.21595629 0.1942099 0.18797806 0.03566537 -0.13585016 -0.33442083
0.05371389 -0.072384484 0.11067555 -0.19750047 -0.13563934 -0.13534637 0.2639737 0.12528954
-0.13260803 0.014424678 -0.21942945 0.28142232 -0.07652702 -0.039782066 -0.18342182 0.21674122
0.24078262 0.11828132 0.0543411 -0.28815153 0.15569079 0.049717814 0.30648446 0.090228364
0.058591224 -0.00028758022 -0.07468073 -0.027703708 -0.29893067 -0.026742823 -0.27715635 -0.23631135
-0.019912533 0.008793894 -0.12072263 -0.026603956 -0.104303405 -0.21706481 0.11625238 0.026872838
-0.096084945 -0.15382949 -0.056976832 0.009204468 -0.0743989 -0.19356832 0.2605311 -0.070228584
0.0645126 -0.27311826 -0.2681504 0.044806626 0.20693362 0.031836536 -0.053932738 -0.12713131
00000000: 09fc 52be d6a5 1e3e a2a3 003e e188 7a3e
00000010: a26d 0b3d 5fa3 493e dc42 c03e dbd4 dfbc
00000020: 1a1e 8fbe 7ad9 773d af31 69be 8bbb 5dbe
00000030: 3213 06bc a11d 4dbe 6265 c8bd 0f5f 05be
00000040: efcd a13d 2b9e 8cbe 595a 97be b45c e03d
00000050: 4fa0 cebc 71d6 c43d e46b 993c e4ab dcbd
00000060: 8621 643e a568 a43e ff6a eb3d 3af5 45be
00000070: 150a 98be 9ce0 5fbe cb69 1d3e 0ca5 4d3e
00000080: da5c 07be c330 973e e645 593e d24f 15be
00000090: 4147 41be e2e0 3d3e d2ea abbe 1160 5c3e
000000a0: d86e a3be ff63 aabe c0dc 333e 416d 93be
000000b0: 2033 d73d 2288 323e 96ce 97be c1df e8bd
000000c0: ce17 a13e 1e8b 823e 395a 353d 1a25 f0bb
000000d0: 1721 72be 59a3 253d 328a 48be 735b 443b
000000e0: 6465 83bd b305 813e c189 8cbd 99b3 a23e
000000f0: 93ec a5bd a956 703e 6cd4 dcbd 5650 5f3e
00000100: a9b1 a4bd 15d2 933e c9a5 38bc 9fed 13be
00000110: 60e7 153e 3b9f 7fbe 139b 70be 3279 693e
00000120: ce79 903e 41d3 78be df9a 91bd d708 3a3e
00000130: 505d f4bd 79b0 5fbd a064 a63e 6bee d3bb
00000140: 982b 5cbe 633d 203e 2f1d a33e ff05 253e
00000150: 890a 23be 0dd4 9a3d 548a c6bd f09c adbd
00000160: 70ba 8cbe 9b8d ae3c ecb0 e83d 55fb 103e
00000170: 6cdc 9bbe 8a5d de3d 944f 753e 5521 ffbd
00000180: 1f51 a2be 8786 88bc 47ff 78be fa0e 81be
00000190: 35e2 56bd b081 48be f0dd 30bd 3a93 403d
000001a0: fcec 993d 9fbc 673e cdea 32be 5dc2 e6bd
000001b0: 7bff 78be f00e 74bd f5fe 59be 97fd 5ebe
000001c0: 46ba 9ebe 2bc0 3abe 20ed e9bc 093a 7b3d
000001d0: 636d c43d cbf0 89be 7dcf 14be 5c4c 3cbe
000001e0: 7ed9 87be a862 883d 63f1 bbbd f2b8 223d
000001f0: 2658 703e 09f7 2bbe 023b 9c3d 682e f6bd
00000200: eed3 4e3e 97a4 253e b5a5 68be 1f2a ce3d
00000210: 3424 993d 687c 033d b5bf 7cbe 321f 15be
00000220: 1d9a e83d da73 903e d517 74be 4d6a 5d3e
00000230: 1955 62be 86c4 5bbe a432 5d3e 208c 9c3e
00000240: 40c0 8b3e 3b00 61be 1b5b 85be 6979 65be
00000250: ffc1 b63d eae0 80bd 2837 43be 9730 45be
00000260: 8628 ffbd a28a 903e 9a2f 03be 6e04 b73e
00000270: ae61 19be 2553 c93c a404 2f3e 462f 583d
00000280: 7d77 693e e698 fdbd 4cb6 893e 7e20 023e
00000290: 9ff9 a23e af2d 3dbe f9a4 a2be 5317 5abe
000002a0: 0e34 4b3e 11a2 463e 4525 8dbe d554 3dbe
000002b0: b5ec 8a3e ff1d 28be 57a3 8b3e 7d91 c1bb
000002c0: 33c0 923d e5d5 60be 6243 033e 99e5 88bd
000002d0: d396 5ebe 39a6 8cbc 4926 43be da92 833e
000002e0: 272b 723d 1d7a a0be 65d7 b23e bb55 c5bd
000002f0: 2692 9ebe a9fd 8dbc 7c84 96bd 4633 91bd
00000300: 5e98 423e e9ca 5abe a523 5dbe f6de 463e
00000310: 527d 403e da15 123d 4e1c 0bbe 3539 abbe
00000320: 1903 5c3d 513e 94bd dda9 e23d 903d 4abe
00000330: 0ae5 0abe 3d98 0abe 9027 873e e74b 003e
00000340: 66ca 07be 7c55 6c3c 1db2 60be 9616 903e
00000350: 33ba 9cbd 85f2 22bd eed2 3bbe 69f1 5d3e
00000360: b88f 763e 7a3d f23d c694 5e3d 9988 93be
00000370: 686d 1f3e e8a4 4b3d 88eb 9c3e a6c9 b83d
00000380: 5afd 6f3d 5dc6 96b9 36f2 98bd e3f2 e2bc
00000390: 710d 99be c413 dbbc 70e7 8dbe 9afb 71be
000003a0: 9c1f a3bc 4414 103c 6d3d f7bd 8af0 d9bc
000003b0: 069d d5bd 3d46 5ebe ba15 ee3d 6d24 dc3c
000003c0: 2fc8 c4bd 7a85 1dbe 8a60 69bd 56ce 163c
000003d0: 735e 98bd c636 46be 5564 853e 01d4 8fbd
000003e0: 2f1f 843d 28d6 8bbe 024b 89be 2787 373d
000003f0: 68e6 533e 0767 023d 93e8 5cbd b62e 02be

conv1.bias f4 [32]
0.27965182 0.11599515 -0.0869746 -0.073751815 0.034246072 0.086554445 -0.0246169 -0.10021467
0.093240395 0.09332152 0.0035615142 0.10224692 -0.3019891 0.2021972 -0.2816675 0.2132988
0.012370042 -0.03358288 0.092758946 0.2877891 0.0072224736 -0.058058407 0.12247684 0.28212205
-0.25500566 -0.15225017 0.013023511 -0.073480286 0.315622 -0.09093097 -0.1476602 0.092928566
00000000: 862e 8f3e dd8e ed3d bd1f b2bd 310b 97bd
00000010: 9c45 0c3d 7543 b13d 62a9 c9bc 593d cdbd
00000020: d2f4 be3d 5a1f bf3d 4b68 693b d566 d13d
00000030: 519e 9abe c80c 4f3e b936 90be 006b 5a3e
00000040: b7ab 4a3c 348e 09bd 67f8 bd3d 1859 933e
00000050: 80aa ec3b a7ce 6dbd 23d5 fa3d 4d72 903e
00000060: 1a90 82be 78e7 1bbe 9060 553c d57c 96bd
00000070: 3599 a13e 043a babd 3c34 17be 5551 be3d

bn1.weight f4 [32]
0.9844528 0.97043467 1.0255828 0.9891962 0.9679065 1.0125066 0.995896 1.0025789
1.0450504 1.037036 0.9973445 0.99054354 0.97412103 0.98019624 1.0045983 1.0063
0.9928699 0.98480797 1.0463244 0.9866735 0.97867745 0.9834764 0.9763755 1.0013527
0.9989372 0.9955803 0.96787554 0.99819714 1.0103383 0.97594327 1.0021516 0.9965767
00000000: 1905 7c3f 686e 783f 4c46 833f f63b 7d3f
00000010: b8c8 773f d199 813f 0af3 7e3f 8154 803f
00000020: 36c4 853f 98bd 843f f851 7f3f 4394 7d3f
00000030: ff5f 793f 24ee 7a3f ad96 803f 70ce 803f
00000040: b92c 7e3f 601c 7c3f f5ed 853f a296 7c3f
00000050: 9b8a 7a3f 1cc5 7b3f bff3 793f 532c 803f
00000060: 59ba 7f3f 5ade 7e3f b1c6 773f d989 7f3f
00000070: c452 813f 6bd7 793f 8146 803f a71f 7f3f

bn1.bias f4 [32]
-0.024601672 0.023824448 -0.017027285 0.04265026 -0.0072590727 -0.024824718 -0.015095724 -0.031391926
-0.040069863 -0.015415272 0.026601274 -0.017765285 0.022052905 0.016297616 0.0017423688 -0.03942504
0.015197575 -0.022036336 0.010036785 -0.01364076 0.03923965 0.07124175 0.020557435 0.056261487
-0.01700342 0.0016835483 -0.033486597 0.0026580102 -0.020953799 0.011041157 0.020290576 0.0146465255
00000000: 7289 c9bc 7d2b c33c ce7c 8bbc 0ab2 2e3d
00000010: 84dd edbb 355d cbbc 0e54 77bc d294 00bd
00000020: 4c20 24bd 5690 7cbc eaea d93c 8188 91bc
00000030: 4ba8 b43c 9482 853c 3260 e43a 277c 21bd
00000040: 40ff 783c 8c85 b4bc 5471 243c 7f7d 5fbc
00000050: c1b9 203d 32e7 913d 1168 a83c 7272 663d
00000060: c24a 8bbc 82aa dc3a 3e29 09bd 0332 2e3b
00000070: 4da7 abbc f8e5 343c 6c38 a63c fbf7 6f3c

bn1.running_mean f4 [32]
0.28285518 0.10155161 -0.10693627 -0.115932174 0.017160594 0.07702483 -0.039086133 -0.07314965
0.0894942 0.13452917 0.010153157 0.077249 -0.33161905 0.16906337 -0.2718512 0.22186187
0.009484948 -0.009636564 0.12674482 0.28631985 -0.0137872705 -0.07262731 0.100873075 0.2817158
-0.23945634 -0.15433548 0.0038259292 -0.07958676 0.32715383 -0.10651274 -0.17055593 0.09464844
00000000: 65d2 903e 4afa cf3d 6701 dbbd d96d edbd
00000010: 6094 8c3c 32bf 9d3d c818 20bd 7ccf 95bd
00000020: bc48 b73d 04c2 093e 6d59 263c b934 9e3d
00000030: f9c9 a9be f31e 2d3e 1530 8bbe c22f 633e
00000040: c166 1b3c aee2 1dbc 65c9 013e 8498 923e
00000050: 01e4 61bc a1bd 94bd 8b96 ce3d 0e3d 903e
00000060: 0b34 75be 1f0a 1ebe 71bc 7a3b 62fe a2bd
00000070: b580 a73e 5a23 dabd 37a6 2ebe 0bd7 c13d

bn1.running_var f4 [32]
0.34569165 0.8696724 0.26429474 0.12112019 0.5492665 0.094678834 0.11648578 0.0802252
0.05151086 0.08500399 0.1926199 0.2073811 1.0749619 0.5454013 0.019682175 0.12931743
0.7012499 0.39920413 0.07627069 0.03200774 0.2509294 0.05803012 0.31406102 0.005539146
0.48020968 0.80461687 0.3285384 0.21706766 0.09451247 0.23293595 0.06144613 0.088706546
00000000: 7ffe b03e daa2 5e3f a451 873e dd0d f83d
00000010: bb9c 0c3f fae6 c13d 1990 ee3d 1c4d a43d
00000020: 0dfd 523d 9216 ae3d 273e 453e b65b 543e
00000030: 5a98 893f 6b9f 0b3f 833c a13c ca6b 043e
00000040: 1d85 333f 7c64 cc3e cf33 9c3d 8c1a 033d
00000050: d179 803e feb0 6d3d 9bcc a03e b981 b53b
00000060: 0bde f53e 5ffb 4d3f 2f36 a83e fc46 5e3e
00000070: c18f c13d c386 6e3e f0ae 7b3d c7ab b53d

conv2.weight f4 [64, 32, 3, 3]
-0.038971372 0.06685962 -0.03249015 0.026650377 -0.02264172 0.013240712 -0.05065996 0.03438046
-0.0021664454 0.0022505692 -0.02606418 0.009514407 0.028787356 0.045469992 -0.041146155 -0.021400606
0.05012298 -0.0049118455 0.034224715 -0.021827733 0.032640398 0.005392397 -0.029961491 -0.0111305
-0.07069668 -0.07124316 -0.05925382 0.012494421 0.042268567 -0.028722538 -0.028768629 0.0041292515
-0.017016152 -0.037736174 -0.057595655 0.027795628 0.0015586932 0.016375849 0.027580146 0.032480244
0.042355705 -0.016076922 0.017134221 -0.04510728 0.05858428 0.059129395 0.06613438 0.005973087
-0.003980943 0.041020077 -0.018141992 0.012352399 -0.03305497 -0.032769013 0.051829778 0.0427827
0.060579456 0.050346263 -0.020716336 0.021911774 -0.038245667 -0.025191717 -0.07246201 0.006560612
0.0116691375 0.036521673 -0.0021521717 0.016601775 0.070403986 -0.0068037077 0.026080996 0.0020533984
-0.049105268 0.021732662 -0.006213838 -0.009299 -0.057537366 0.030989248 0.009485763 -0.0671243
-0.041774355 0.058621697 0.05211718 -0.03880719 0.06934182 0.08186328 0.081287265 0.052352082
0.0026168206 -0.008327671 -0.031082915 -0.013332847 0.0036918567 -0.05889004 0.019503586 -0.01929435
0.065017775 -0.034662116 0.00031680003 0.040824037 -0.023938475 0.034108836 0.03591696 0.023772202
0.034337852 -0.0017453615 -0.025378272 0.018177811 -0.030583812 -0.01972713 -0.05797761 0.04213709
-0.0028009226 0.01679334 0.055004507 0.00053685764 0.0004162917 4.5927285e-05 0.052772008 -0.009670084
-0.0440882 0.05350651 -0.0053315484 -0.0035205472 0.03927398 0.047028303 0.024486715 0.060793035
-0.035128694 0.009051537 0.029691149 0.03869566 -0.027982144 -0.047043774 0.00143962 -0.014454213
-0.039747704 -0.028735006 -0.036480736 -0.011956397 -0.041749556 -0.007276387 -0.059276544 -0.0518359
0.019127194 -0.015676904 -0.044818517 0.004350584 -0.041582163 -0.0074887658 -0.017239766 -0.023575325
-0.016807279 0.035837714 -0.04025845 -0.031457976 -0.028792528 -0.028769486 0.059870176 -0.0043865554
-0.050689705 -0.04151707 0.01745158 -0.027873218 0.038805455 -0.036506515 0.07403061 0.068751946
0.05968928 0.0021478783 0.040389054 0.03915709 0.004124104 0.005592374 -0.037981406 0.05701159
0.029329516 0.03991078 0.02261607 0.018320596 0.020097569 -0.008672929 -0.006139058 -0.025361413
0.018128844 0.00072357047 0.0021074528 0.030591113 0.030564109 -0.03226943 0.024254907 -0.032221492
0.020794746 0.016567815 0.009749388 -0.012288993 -0.04996625 0.015934143 0.0260685 -0.016328843
0.012877362 0.012429786 -0.055108745 -0.045058 -0.027895473 -0.022371158 -0.022325996 -0.05385825
-0.0071524456 0.036645085 0.031974047 -0.015169932 -0.019294303 0.0401724 0.021540506 -0.03149979
-0.013069256 -0.030118968 0.038985014 -0.028081726 -0.02878551 0.05900057 -0.06859576 -0.050484143
-0.052313566 -0.015490447 0.019837847 -0.03157939 -0.040243417 0.03453134 0.04806712 -0.013645409
0.046198346 -0.024235789 0.0003012594 -0.012902244 -0.044586502 -0.013431217 0.03260983 0.03399742
-0.0134254815 0.023738317 0.040689282 0.045284778 -0.028825223 0.016132997 -0.05688618 0.023946127
0.0092958035 0.0196934 0.019380994 0.03012342 -0.032250162 -0.05796184 0.023894204 0.0106206415
00000000: 72a0 1fbd b2ed 883d 6414 05bd e451 da3c
00000010: 217b b9bc 92ef 583c d180 4fbd 86d2 0c3d
00000020: ecfa 0dbb 497e 133b 8c84 d5bc 51e2 1b3c
00000030: 76d3 eb3c be3e 3a3d df88 28bd 5350 afbc
00000040: c14d 4d3d 8cf3 a0bb 372f 0c3d 13d0 b2bc
00000050: f0b1 053d b4b2 b03b cd71 f5bc b35c 36bc
00000060: 6cc9 90bd efe7 91bd 22b4 72bd 66b5 4c3c
00000070: ce21 2d3d 874b ebbc 30ac ebbc ac4e 873b
00000080: 7565 8bbc 3f91 1abd 6ce9 6bbd a8b3 e33c
00000090: 114d cc3a a526 863c c2ef e13c 010a 053d
000000a0: 2d7d 2d3d c0b3 83bc 115d 8c3c 69c2 38bd
000000b0: 12f6 6f3d aa31 723d 7671 873d e3b9 c33b
000000c0: 9272 82bb ab04 283d 849e 94bc b761 4a3c
000000d0: a664 07bd cd38 06bd 764b 543d ea3c 2f3d
000000e0: 2a22 783d e237 4e3d 4eb5 a9bc 5280 b33c
000000f0: 7da7 1cbd dc5e cebc f666 94bd 67fa d63b
00000100: e92f 3f3c c097 153d 730b 0dbb 7200 883c
00000110: f72f 903d a3f1 debb d0a7 d53c 4f92 063b
00000120: 9b22 49bd b208 b23c 739d cbbb d55a 18bc
00000130: 4dac 6bbd 2add fd3c 2c6a 1b3c 7778 89bd
00000140: 961b 2bbd 4e1d 703d d378 553d 4af4 1ebd
00000150: 1603 8e3d efa7 a73d f079 a63d 236f 563d
00000160: f77e 2b3b c970 08bc 99a1 febc 0372 5abc
00000170: 14f3 713b af36 71bd fcc5 9f3c 2f0f 9ebc
00000180: 0a28 853d ddf9 0dbd 2e18 a639 1b37 273d
00000190: 9f1a c4bc b5b5 0b3d aa1d 133d ecbd c23c
000001a0: d9a5 0c3d 9dc4 e4ba 18e6 cfbc a2e9 943c
000001b0: e78a fabc ca9a a1bc ee79 6dbd f197 2c3d
000001c0: af8f 37bb 3092 893c 684c 613d e8bb 0c3a
000001d0: ba41 da39 0ca2 4038 7627 583d 466f 1ebc
000001e0: d495 34bd a429 5b3d 45b4 aebb fbb8 66bb
000001f0: c1dd 203d c0a0 403d 5d98 c83c 1e02 793d
00000200: 1be3 0fbd e64c 143c da3a f33c 577f 1e3d
00000210: cf3a e5bc f9b0 40bd a2b1 bc3a 5dd1 6cbc
00000220: 7dce 22bd ad65 ebbc d36c 15bd c4e4 43bc
00000230: 9501 2bbd c26e eebb f6cb 72bd e151 54bd
00000240: a2b0 9c3c da6c 80bc 9f93 37bd 588f 8e3b
00000250: 0f52 2abd 5264 f5bb 693a 8dbc 0a21 c1bc
00000260: 6baf 89bc 91ca 123d 0be6 24bd 14da 00bd
00000270: 4fde ebbc fcad ebbc 6e3a 753d 18bd 8fbb
00000280: 02a0 4fbd ce0d 2abd 9ef6 8e3c 6056 e4bc
00000290: 78f2 1e3d db87 15bd 5c9d 973d d2cd 8c3d
000002a0: bf7c 743d 6bc3 0c3b fe6e 253d 2f63 203d
000002b0: 7e23 873b 3c40 b73b 6492 1bbd fc84 693d
000002c0: 7444 f03c 7c79 233d 5645 b93c 1315 963c
000002d0: a8a3 a43c e718 0ebc 272a c9bb bdc2 cfbc
000002e0: f182 943c fead 3d3a 311d 0a3b 379a fa3c
000002f0: 9561 fa3c f32c 04bd 3ab2 c63c affa 03bd
00000300: be59 aa3c 3ab9 873c e6bb 1f3c c657 49bc
00000310: 69a9 4cbd 5288 823c 9b8d d53c 11c4 85bc
00000320: 92fb 523c 4da6 4b3c b5b9 61bd bd8e 38bd
00000330: 0c85 e4bc b843 b7bc 02e5 b6bc 789a 5cbd
00000340: 105f eabb 2819 163d 38f7 023d 4e8b 78bc
00000350: 160f 9ebc d18b 243d b775 b03c ec05 01bd
00000360: 6f20 56bc 0ebc f6bc c0ae 1f3d a60b e6bc
00000370: 97cf ebbc 95aa 713d ef7b 8cbd 76c8 4ebd
00000380: c046 56bd a5cb 7dbc fb82 a23c 6459 01bd
00000390: 48d6 24bd bc70 0d3d 07e2 443d fe90 5fbc
000003a0: 7a3a 3d3d 228a c6bc 5af2 9d39 ef63 53bc
000003b0: 56a0 36bd 9b0e 5cbc e391 053d e140 0b3d
000003c0: 8df6 5bbc dc76 c23c cea9 263d 887c 393d
000003d0: e022 ecbc 5929 843c 7c01 69bd ab2a c43c
000003e0: 6d4d 183c 0e54 a13c e4c4 9e3c 64c5 f63c
000003f0: bf18 04bd 6569 6dbd c7bd c33c 3302 2e3c

conv2.bias f4 [64]
-0.04709694 0.023920516 0.009630283 -0.053610742 0.0038963577 0.03793958 0.007956443 0.006088723
-0.04284749 -0.03997796 -0.021188669 -0.010688594 0.004563308 0.03258888 -0.009427103 -0.022865012
0.0012008005 -0.006200405 -0.0311571 -0.014147018 0.008757571 0.021536846 0.010379697 0.046767898
0.025620697 0.040597055 -0.0038377559 0.01700128 -0.03866711 0.0032341615 0.035901405 0.021449199
-0.03799544 0.022439409 -0.003496521 -0.026899323 -0.01769045 0.006643222 -0.040250793 -0.020174997
0.050261244 -0.009138598 0.00064750714 0.005874597 -0.0011513554 -0.0070840144 0.05291095 0.0075863604
0.0049117603 0.055137992 -0.02146897 0.019594671 -0.05264415 -0.035085108 -0.04487613 0.011231817
0.045486603 0.039337702 0.046127375 -0.021000309 -0.043776095 0.0066252686 0.032685135 0.054408316
00000000: b9e8 40bd f5f4 c33c 56c8 1d3c f096 5bbd
00000010: 095a 7f3b 8866 1b3d be5b 023c e983 c73b
00000020: da80 2fbd eebf 23bd dc93 adbc 361f 2fbc
00000030: cd87 953b eb7b 053d 2374 1abc 684f bbbc
00000040: 2e64 9d3a c42c cbbb 2d3d ffbc e5c8 67bc
00000050: ea7b 0f3c 0a6e b03c 9b0f 2a3c b28f 3f3d
00000060: 7fe2 d13c 1949 263d dc82 7bbb 4546 8b3c
00000070: 6761 1ebd 3af4 533b 5a0d 133d 3bb6 af3c
00000080: 1ba1 1bbd dad2 b73c e325 65bb f85b dcbc
00000090: 90eb 90bc 63af d93b 04de 24bd 0946 a5bc
000000a0: bcde 4d3d 0fba 15bc 78bd 293a b17f c03b
000000b0: 14e9 96ba 0521 e8bb 27b9 583d 0197 f83b
000000c0: d5f2 a03b 60d8 613d b2df afbc 0185 a03c
000000d0: 64a1 57bd 67b5 0fbd 08d0 37bd a805 383c
000000e0: 2950 3a3d 9220 213d 0ff0 3c3d d708 acbc
000000f0: 904e 33bd c818 d93b d9e0 053d 41db 5e3d

bn2.weight f4 [64]
1.0123707 1.0279979 1.0268548 1.0146713 1.0069315 1.0120059 1.001807 0.9634476
1.0103375 0.97454196 0.96804565 0.9828271 0.97182035 1.0341178 1.004442 0.9878648
0.99866444 1.016649 0.9815859 1.0269542 0.9839031 1.0017762 0.9905553 1.0429512
0.99661773 0.99206114 0.97651213 1.0062054 0.97936684 0.9554405 0.9908878 0.9718766
1.0279461 1.0320178 0.97331965 0.9612496 1.0432512 0.9841256 1.011298 1.0119481
1.0016961 0.98839724 1.0156387 1.0060873 1.0042605 0.9908224 1.0148067 0.9776493
0.99057513 1.0208306 0.9708346 0.96105844 1.0167915 0.9834442 1.0127461 1.0051554
0.9882602 1.0009097 1.0048705 0.9818026 0.98733455 1.0383589 1.0042589 0.9966006
00000000: 5d95 813f 6f95 833f fa6f 833f c0e0 813f
00000010: 22e3 803f 6989 813f 363b 803f 80a4 763f
00000020: bd52 813f 957b 793f d7d1 773f 8f9a 7b3f
00000030: 38c9 783f f95d 843f 8e91 803f b5e4 7c3f
00000040: 79a8 7f3f 8e21 823f 3749 7b3f 3c73 833f
00000050: 13e1 7b3f 343a 803f 0895 7d3f 6d7f 853f
00000060: 5722 7f3f b8f7 7d3f b3fc 793f 57cb 803f
00000070: c9b7 7a3f c097 743f d3aa 7d3f e8cc 783f
00000080: bd93 833f 2919 843f 7a2b 793f 7414 763f
00000090: 4189 853f a8ef 7b3f 3672 813f 8487 813f
000000a0: 9437 803f 9a07 7d3f 7300 823f 78c7 803f
000000b0: 9c8b 803f 89a6 7d3f 30e5 813f 3947 7a3f
000000c0: 5596 7d3f 94aa 823f 9e88 783f ed07 763f
000000d0: 3926 823f 00c3 7b3f aaa1 813f efa8 803f
000000e0: 9ffe 7c3f cf1d 803f 999f 803f 6a57 7b3f
000000f0: f5c1 7c3f f2e8 843f 8e8b 803f 3821 7f3f

bn2.bias f4 [64]
-0.04139313 -1.7174787e-05 -0.024721844 -0.022404814 -0.043691587 -0.002567747 -0.009075985 -0.05764447
-0.014100058 -0.06370626 -0.044459462 -0.021380257 -0.030770471 -0.017741757 -0.005682627 -0.013231296
-0.029392548 0.0011722756 -0.046809874 0.01466695 -0.04883344 -0.012678366 -0.03894464 0.012274023
-0.035282273 -0.056388512 -0.048170246 -0.008179563 -0.004432727 -0.04803988 -0.019059598 -0.05923742
0.0080796555 -0.004988652 -0.069047146 -0.021192132 -0.009684585 -0.048538852 -0.009746337 -0.004282177
-0.0009244407 -0.015255253 0.0062482916 -0.04933314 -0.0056107426 -0.0422575 -0.011918393 -0.022200797
-0.017292246 -0.0036291245 -0.02711756 -0.04092645 -0.04791262 -0.034069553 0.03812752 -0.03342234
-0.00643622 -0.022866245 -0.013274243 -0.014794738 -0.01997103 -0.004177762 0.019134201 -0.04196218
00000000: d88b 29bd 9312 90b7 7785 cabc 4d8a b7bc
00000010: f3f5 32bd a547 28bb 71b3 14bc 9c1c 6cbd
00000020: ee03 67bc 6d78 82bd 201b 36bd a625 afbc
00000030: 5b12 fcbc 2957 91bc 5535 babb 14c8 58bc
00000040: a4c8 f0bc 0ba7 993a b6bb 3fbd a64d 703c
00000050: 9305 48bd ecb8 4fbc 6a84 1fbd fc18 493c
00000060: 2584 10bd a4f7 66bd 2a4e 45bd 9303 06bc
00000070: 6940 91bb 77c5 44bd e022 9cbc f0a2 72bd
00000080: 8860 043c d977 a3bb 9768 8dbd 1f9b adbc
00000090: 18ac 1ebc add0 46bd 1aaf 1fbc 8151 8cbb
000000a0: 2a56 72ba 2bf1 79bc 78be cc3b 8c11 4abd
000000b0: 52da b7bb 3316 2dbd 5d45 43bc 72de b5bc
000000c0: 78a8 8dbc 9bd6 6dbb a525 debc 7ea2 27bd
000000d0: 0640 44bd 848c 0bbd 9a2b 1c3d dde5 08bd
000000e0: ede6 d2bb fe51 bbbc 367c 59bc a165 72bc
000000f0: 499a a3bc 9ce5 88bb 54bf 9c3c 89e0 2bbd

bn2.running_mean f4 [64]
0.27227348 -1.0785595 -0.14903894 0.021815496 -0.008441069 -0.4797097 -0.84302026 0.8948099
-0.33237043 -0.13571146 0.70117104 1.361333 -0.54627 -0.3769931 -0.32035154 -0.31691888
-0.22882192 -1.4138972 0.2542519 -0.76636946 -0.6864106 -0.6475994 -0.48984239 -0.81094515
-0.1163983 0.82715285 0.68253136 0.025042515 0.00016275754 1.1425545 -0.9831717 0.6465758
-0.6415898 -1.0785738 -0.21328382 -0.8169564 -0.6583984 0.29216766 -0.44900766 -0.51466393
-0.5795787 -1.2402272 -1.6773828 0.034515638 0.39217484 -0.3181706 -1.346529 -1.252993
-0.39000925 -1.0213181 0.15385853 0.5230729 -0.107118145 -0.5737424 -0.56963485 -0.19740625
-0.97819227 -1.5122014 -1.3014926 -0.6760095 0.1713284 -0.0614766 -0.7318719 -0.38226962
00000000: 6e67 8b3e 3d0e 8abf aa9d 18be 69b6 b23c
00000010: 694c 0abc 839c f5be 2dd0 57bf 4312 653f
00000020: 752c aabe f2f7 0abe f27f 333f 2940 ae3f
00000030: 5ad8 0bbf 3d05 c1be 1e05 a4be 3143 a2be
00000040: 4b50 6abe 95fa b4bf 4e2d 823e ca30 44bf
00000050: 9bb8 2fbf 13c9 25bf 9fcc fabe 1a9a 4fbf
00000060: 3b62 eebd 4ac0 533f 60ba 2e3f f625 cd3c
00000070: e5a9 2a39 3a3f 923f 24b1 7bbf fe85 253f
00000080: 3b3f 24bf b50e 8abf 1367 5abe 0e24 51bf
00000090: cc8c 28bf 0097 953e 55e4 e5be 04c1 03bf
000000a0: 455f 14bf c4bf 9ebf 7bb4 d6bf 4560 0d3d
000000b0: 24cb c83e 42e7 a2be 105b acbf 1362 a0bf
000000c0: 4baf c7be 8dba 82bf 178d 1d3e 1be8 053f
000000d0: c260 dbbd c8e0 12bf 97d3 11bf dd24 4abe
000000e0: cf6a 7abf d18f c1bf 4f97 a6bf f50e 2dbf
000000f0: b670 2f3e e3ce 7bbd f55b 3bbf d8b8 c3be

bn2.running_var f4 [64]
0.33277953 0.7767565 0.1961486 0.36052263 0.32149002 0.34166044 0.9101092 1.1016403
0.28322446 0.6137039 0.80899906 0.7715288 0.61837643 0.22470981 0.3077801 0.2533842
0.67119324 1.8085426 1.0941627 0.38644075 0.7205176 0.36912188 0.24545358 0.4624829
0.24832587 0.8531207 1.2915826 0.30478865 0.2848816 0.6468329 0.62286484 0.835171
0.4922031 0.5920181 0.2760893 0.980578 0.4643376 0.3143943 0.21335925 0.40110737
0.6581041 1.1930137 1.4958897 0.28309062 0.29419035 0.75130284 0.64183474 1.6208696
0.46243006 0.6619292 0.2680708 1.5935016 0.3941548 0.4121967 0.41751382 0.3472346
0.53353167 1.6133026 1.1490122 0.22040145 1.0856806 0.40978736 0.3151843 0.4482205
00000000: 1462 aa3e 84d9 463f 2edb 483e 6c96 b83e
00000010: 579a a43e 1eee ae3e ebfc 683f 8d02 8d3f
00000020: cc02 913e b31b 1d3f 901a 4f3f e982 453f
00000030: eb4d 1e3f 541a 663e 5a95 9d3e 93bb 813e
00000040: 52d3 2b3f 537e e73f 860d 8c3f 90db c53e
00000050: d773 383f 8bfd bc3e 2f58 7b3e 8fca ec3e
00000060: 2349 7e3e 1e66 5a3f 9452 a53f 420d 9c3e
00000070: 00dc 913e d796 253f 1274 1f3f c4cd 553f
00000080: 0b02 fc3e 808e 173f 945b 8d3e 2907 7b3f
00000090: a8bd ed3e 4af8 a03e d97a 5a3e f25d cd3e
000000a0: 8379 283f acb4 983f 5079 bf3f 41f1 903e
000000b0: 1ea0 963e 6255 403f 484f 243f a878 cf3f
000000c0: a2c3 ec3e 3174 293f 9340 893e dcf7 cb3f
000000d0: a8ce c93e 720b d33e 5fc4 d53e bcc8 b13e
000000e0: 8895 083f b380 ce3f d512 933f ebb0 613e
000000f0: 95f7 8a3f a6cf d13e d65f a13e 287d e53e

conv3.weight f4 [128, 64, 3, 3]
0.028027203 -0.01463706 -0.044110995 0.011678068 0.028858647 0.035012476 -0.021141699 0.03223414
-0.015338511 -0.004550275 0.005815634 -0.014909072 0.023218563 -0.023720112 0.026826805 -0.01702507
0.020660853 -0.022568807 0.022011483 0.023500679 0.020107877 -0.035509832 -0.040644087 -0.0418812
0.007827019 -0.0052684452 0.028447455 0.004576287 0.0005579869 -0.030327795 -0.052423496 -0.009067768
-0.045287684 -0.03973976 -0.024065135 -0.040697094 -0.057830222 -0.02383768 -0.019157445 -0.04230178
-0.0016042251 -0.058786068 -0.0445814 -0.0008278229 -0.04160882 0.032720324 -0.028641032 0.024770375
0.02926706 0.021295598 0.011845237 0.049369555 0.026724815 -0.013056671 -0.024277283 -0.020104703
-0.04214305 0.022500645 -0.028897395 -0.010814729 -0.0031744244 -0.013800898 0.025095472 -0.00859328
-0.022460565 -0.020614916 -0.013420517 0.018336797 -0.018848715 0.010819616 -0.050141286 -0.048426386
0.0064050597 0.0011815613 -0.0016508139 -0.021098087 -0.012868163 0.012709845 -0.016151821 -0.043197434
-0.0204069 0.014207421 0.017590705 -0.0012929812 0.016720258 0.017349385 -0.012074702 -0.024235783
0.0011484219 0.00614144 -0.011420041 0.036110185 0.009628457 0.061399642 -0.007981124 0.0431042
-0.013390462 -0.0119491415 0.0008058536 0.019039428 -0.02413602 0.032038633 -0.020797018 0.006050548
-0.035548143 -0.036726266 0.033068996 -0.006215093 -0.0012945085 -0.023654472 -0.027369853 -0.040218495
0.024476506 -0.0017282782 -0.0024491772 -0.021996697 0.014020451 0.029485377 0.07041934 0.03841574
0.02482143 0.013890874 0.058126595 0.063485906 -0.0038690122 0.009291585 -0.021195047 0.01163715
-0.05543655 -0.03987716 -0.041540027 0.00075257756 0.0024824154 -0.019874219 -0.025350282 -0.008781021
0.030474093 0.042956967 0.02786467 -0.031148637 -0.023184069 0.046113968 -0.011786481 0.0066237613
0.0095898295 0.04236815 -0.025453415 -0.035067637 0.020809969 -0.03781268 0.026954781 -0.0057548955
0.005451991 0.015590412 0.027366295 0.055332717 0.0054185907 0.018888235 0.029842941 0.030417262
0.04238082 0.006115855 -0.045092482 0.018987158 -0.03777684 0.0027597512 -0.04559116 -0.01640222
-0.020201163 -0.032442965 0.006048789 -0.015330922 0.015891893 0.02567563 -0.027806945 0.04239647
-0.008916258 0.017193766 0.022557268 0.03400952 -0.0043685716 -0.021465804 -0.026250036 -0.06140514
-0.0349411 -0.02366314 -0.013172326 0.031061081 0.00619582 -0.013769496 0.040441968 -0.006578081
-0.018715 0.016316365 0.011659519 0.0022953702 -0.013789342 0.023379445 0.04612839 0.024408378
0.055775493 -0.029815605 -0.02202386 -0.00851791 0.036170974 0.008606113 -0.021013742 0.018648485
0.0015680905 0.019441653 0.02579885 0.010985386 -0.011776648 0.05461958 -0.006392148 0.029530846
-0.03178532 0.0040966347 -0.007210616 -0.019790856 0.026432047 0.0048521548 -0.0074390527 -0.02572402
-0.05958088 -0.031212935 -0.05876994 -0.016834728 -0.04881266 -0.0077117477 -0.05580082 -0.0009263532
-0.021215765 -0.028802088 -0.007543125 0.028320584 0.034239557 -0.007226376 0.0056271744 0.05699399
-0.0006754668 0.0096188355 -0.0051254383 0.010996383 -0.01937829 -0.028176362 0.00026856206 0.023376469
0.04328067 -0.0012574 -0.048489768 -0.015018881 -0.015331999 -0.002820318 0.024227744 0.06147091
00000000: 4e99 e53c 48d0 6fbc bbad 34bd 5e55 3f3c
00000010: f868 ec3c 3e69 0f3d 5b31 adbc f207 043d
00000020: 614e 7bbc 791a 95bb 1391 be3b 2e45 74bc
00000030: db34 be3c ae50 c2bc e3c3 db3c 2978 8bbc
00000040: f340 a93c 38e2 b8bc 6d51 b43c 7f84 c03c
00000050: 46b9 a43c c272 11bd 6a7a 26bd 9f8b 2bbd
00000060: e63c 003c eca2 acbb a30a e93c aef4 953b
00000070: de45 123a ff71 f8bc 05ba 56bd fa90 14bc
00000080: 947f 39bd 29c6 22bd 3f24 c5bc ffb1 26bd
00000090: 62df 6cbd 3d47 c3bc 13f0 9cbc a244 2dbd
000000a0: dd44 d2ba a9c9 70bd fc9a 36bd 4102 59ba
000000b0: 036e 2abd bf05 063d 99a0 eabc 3eeb ca3c
000000c0: 79c1 ef3c 1b74 ae3c 8612 423c bb37 4a3d
000000d0: 00ee da3c a6eb 55bc 27e1 c6bc 9eb2 a4bc
000000e0: 319e 2cbd 4653 b83c 3bba ecbc 4330 31bc
000000f0: 010a 50bb 291d 62bc 0595 cd3c d4ca 0cbc
00000100: 38ff b7bc 9de0 a8bc bae1 5bbc 0d37 963c
00000110: 9f68 9abc c244 313c f360 4dbd bf5a 46bd
00000120: 89e1 d13b 9ede 9a3a 1f60 d8ba e5d5 acbc
00000130: fdd4 52bc f43c 503c d350 84bc cbef 30bd
00000140: 5f2c a7bc 3ec6 683c 621a 903c 4079 a9ba
00000150: ecf8 883c 4c20 8e3c f9d4 45bc 1f8a c6bc
00000160: a586 963a 223e c93b 201b 3bbc 46e8 133d
00000170: adc0 1d3c 317e 7b3d 43c3 02bc 088e 303d
00000180: ab63 5bbc 55c6 43bc eb3f 533a 93f8 9b3c
00000190: e7b8 c5bc f13a 033d 825e aabc ad43 c63b
000001a0: ee9a 11bd 486e 16bd 5b73 073d fba7 cbbb
000001b0: 7fac a9ba 06c7 c1bc be36 e0bc 26bc 24bd
000001c0: f482 c83c 6587 e2ba 6082 20bb 6b32 b4bc
000001d0: 09b6 653c 518b f13c 0438 903d d359 1d3d
000001e0: 5056 cb3c 8c96 633c 2716 6e3d e604 823d
000001f0: 418f 7dbb bb3b 183c 3ca1 adbc bfa9 3e3c
00000200: 7011 63bd 3c56 23bd e025 2abd a048 453a
00000210: 05b0 223b 42cf a2bc 65ab cfbc 46de 0fbc
00000220: cea4 f93c a5f3 2f3d 7344 e43c 6d2b ffbc
00000230: 84ec bdbc 00e2 3c3d 161c 41bc 230c d93b
00000240: a91e 1d3c 3a8a 2d3d ae83 d0bc 15a3 0fbd
00000250: ab79 aa3c 78e1 1abd 46d0 dc3c 9093 bcbb
00000260: 9ea6 b23b ed6e 7f3c 482f e03c 8fa4 623d
00000270: 6f8e b13b 80bb 9a3c 2f79 f43c 9f2d f93c
00000280: 8397 2d3d 8367 c83b e5b2 38bd f58a 9b3c
00000290: e3bb 1abd f1dc 343b ccbd 3abd f35d 86bc
000002a0: e97c a5bc eae2 04bd eb34 c63b 8c2e 7bbc
000002b0: b72f 823c b355 d23c 64cb e3bc eca7 2d3d
000002c0: 7f15 12bc f1d9 8c3c 05ca b83c 914d 0b3d
000002d0: 3c26 8fbb 0ed9 afbc 510a d7bc f583 7bbd
000002e0: 661e 0fbd 34d9 c1bc bdd0 57bc cf73 fe3c
000002f0: 4e06 cb3b 7499 61bc 7aa6 253d f18c d7bb
00000300: 3350 99bc e6a9 853c 9107 3f3c ec6d 163b
00000310: b1ec 61bc 4086 bf3c 1ff1 3c3d 14f4 c73c
00000320: d874 643d db3f f4bc 626b b4bc b48e 0bbc
00000330: 0428 143d a700 0d3c 0325 acbc b5c4 983c
00000340: 6388 cd3a 1a44 9f3c 1c58 d33c 0cfc 333c
00000350: d8f2 40bc c8b8 5f3d 3975 d1bb acea f13c
00000360: 5331 02bd 103d 863b 0847 ecbb 6f20 a2bc
00000370: 0588 d83c d3fe 9e3b 4cc3 f3bb 2ebb d2bc
00000380: 150b 74bd 45b2 ffbc c0b8 70bd fce8 89bc
00000390: c9ef 47bd d4b2 fcbb 678f 64bd 83d6 72ba
000003a0: afcc adbc 5bf2 ebbc 522c f7bb 9200 e83c
000003b0: c73e 0c3d 3ccb ecbb 2964 b83b 8872 693d
000003c0: cf11 31ba 5298 1d3c 4bf3 a7bb 2c2a 343c
000003d0: 38bf 9ebc 1dd2 e6bc cacd 8c39 0280 bf3c
000003e0: 1247 313d 58cf a4ba 359d 46bd c111 76bc
000003f0: 1133 7bbc 16d5 38bb 4379 c63c ecc8 7b3d

conv3.bias f4 [128]
0.037884537 -0.03435345 0.004098232 -0.026534246 -0.022637838 -0.030525211 -0.03865522 -0.022885643
-0.026616199 0.0047113746 -0.03836445 -0.0073416033 -0.035291746 0.019691791 -0.026393162 0.023044223
0.0031714218 -0.036360204 -0.03777546 -0.03699721 0.022501625 0.0049999095 0.0057441434 -0.02298659
-0.03223781 0.024600996 -0.029020522 0.030802973 -0.023097098 0.023370624 -0.008131958 -0.0076499428
-0.019742347 -0.032256197 -0.012564275 -0.03143935 0.03968688 0.018823355 0.022074673 0.031356584
0.00844965 -0.0004076775 0.0035939235 0.03127701 -0.032572802 -0.02327155 -0.035747867 0.03444734
0.006521181 0.0075021395 0.0024840052 -0.030732306 -0.02228021 -0.017254125 -0.0029628552 0.030775493
-0.029991074 -0.039488528 0.018239638 0.028667418 0.025052492 -0.007472019 -0.009851587 -0.036356833
0.00020995013 -0.009764837 -0.001364868 -0.0022375379 -0.020069305 0.0073552085 -0.0314566 0.019935243
-0.03186109 -0.041401774 -0.03815262 -0.022963205 -0.038916085 0.025551666 -0.035120964 0.005959684
-0.021619491 0.03530886 -0.004472673 -0.028141567 -0.030180942 0.024932612 0.010118549 -0.020583803
-0.0030927625 0.007851702 -0.016495517 0.02850845 -0.018434996 -0.013398102 0.03184167 -0.016725894
0.012077122 0.031026788 0.014651075 -0.026278406 0.0077782334 0.0029599797 0.040503006 -0.02407881
-0.021716064 -0.007544977 0.016857231 -0.011156068 0.022007605 0.030168839 -0.005339215 -0.005194017
-0.005214195 -0.017602216 -0.03269493 -0.008405475 -0.0028275792 0.01910146 -0.029999118 0.0062832725
0.008592002 -0.012892095 0.020813499 -0.03203734 -0.020207394 -0.0034345558 0.013043259 -0.02486299
00000000: d12c 1b3d 34b6 0cbd 764a 863b 595e d9bc
00000010: fd72 b9bc 0210 fabc f054 1ebd ac7a bbbc
00000020: 370a dabc e061 9a3b 0b24 1dbd d591 f0bb
00000030: 148e 10bd ae50 a13c 7936 d8bc 3dc7 bc3c
00000040: a1d7 4f3b 70ee 14bd 71ba 1abd 638a 17bd
00000050: 5455 b83c 48d6 a33b 5e39 bc3b 604e bcbc
00000060: cb0b 04bd 0788 c93c 72bc edbc 8456 fc3c
00000070: 2036 bdbc c073 bf3c e73b 05bc 5fac fabb
00000080: b4ba a1bc 131f 04bd 64da 4dbc 8cc6 00bd
00000090: b68e 223d 7033 9a3c f2d5 b43c c36f 003d
000000a0: 6770 0a3c 8cbd d5b9 0888 6b3b 521c 003d
000000b0: 0f6b 05bd faa3 bebc 5b6c 12bd a718 0d3d
000000c0: a2af d53b 82d4 f53b b1ca 223b 51c2 fbbc
000000d0: fd84 b6bc 8658 8dbc 762c 42bb e31c fc3c
000000e0: d7af f5bc b9be 21bd 4b6b 953c efd7 ea3c
000000f0: e23a cd3c d7d7 f4bb 8d68 21bc e7ea 14bd
00000100: 0f26 5c39 b2fc 1fbc 5fe5 b2ba a8a3 12bb
00000110: 6268 a4bc f603 f13b a3d8 00bd 3c4f a33c
00000120: c680 02bd e894 29bd ec45 1cbd 551d bcbc
00000130: 7966 1fbd ba51 d13c 00db 0fbd 7449 c33b
00000140: 5c1b b1bc 06a0 103d 808f 92bb 2589 e6bc
00000150: 063e f7bc 7a3f cc3c 45c8 253c 5d9f a8bc
00000160: f2af 4abb 6da4 003c 9b21 87bc 8e8a e93c
00000170: fd04 97bc b683 5bbc 696c 023d be04 89bc
00000180: 1fdf 453c e42b fe3c 100b 703c d045 d7bc
00000190: 8de0 fe3b 38fc 413b 7be6 253d ed40 c5bc
000001a0: e3e5 b1bc db3b f7bb 2d18 8a3c f1c7 36bc
000001b0: 4b49 b43c a424 f73c 95f4 aebb 9332 aabb
000001c0: d6db aabb 8632 90bc 1eeb 05bd 1eb7 09bc
000001d0: e84e 39bb aa7a 9c3c b6c0 f5bc e9e3 cd3b
000001e0: 78c5 0c3c 5e39 53bc 1281 aa3c 9639 03bd
000001f0: fa89 a5bc 4916 61bb 65b3 553c 78ad cbbc

bn3.weight f4 [128]
1.0236043 1.0419554 1.0699759 1.0247947 1.018759 1.0169528 1.0263301 1.017304
1.0304556 1.03599 1.0551488 1.0351734 1.0313991 1.0370035 1.0405656 1.0406581
1.0538387 1.0339574 1.017974 1.0427566 1.0240904 1.0278071 1.0521369 1.049624
1.0341622 1.0491912 1.057091 1.0238968 1.0375577 1.0374119 1.0246907 1.0327346
1.0512136 1.0351764 1.0532135 1.0201218 1.0531832 1.0437133 1.0238173 1.0095986
1.0009266 1.0497869 1.013839 1.0322688 1.0351892 1.0382526 1.0611379 1.0135044
1.031226 1.0500417 1.0244675 1.0281268 1.0449224 1.052229 1.0385038 1.0532361
1.0623621 1.0240576 1.0657914 1.0592983 1.0285406 1.0166426 1.0555872 1.0375761
1.0306027 1.0411224 1.0403528 1.0721382 1.0381875 1.0523107 1.0306102 1.0341098
1.0532818 1.0467293 1.0671252 1.0413815 1.0168321 1.0382553 1.0091825 1.0582136
1.0358658 1.0177817 1.0655205 1.0222155 1.0361943 1.0399987 1.0310878 1.0247184
1.008494 1.010849 1.0467148 1.0440444 1.0449544 1.0311056 1.0520685 1.0412023
1.0381184 1.04627 1.0338762 1.0363144 1.0221835 1.0109913 1.0316387 1.0233867
1.0488881 1.0439842 1.0317293 1.047997 1.0065027 1.0257357 1.0353858 1.0441422
1.0386648 1.0240799 1.0434495 1.0374597 1.0024204 1.0410866 1.0308527 1.0328267
1.0609906 1.038433 1.037802 1.0051184 1.0553908 1.0398023 1.0403422 1.039468
00000000: 7705 833f cb5e 853f f8f4 883f 792c 833f
00000010: b266 823f 822b 823f c95e 833f 0437 823f
00000020: f8e5 833f 529b 843f 1e0f 873f 9080 843f
00000030: e304 843f 88bc 843f 4131 853f 4934 853f
00000040: 30e4 863f b758 843f f94c 823f 0c79 853f
00000050: 6515 833f 2f8f 833f 6cac 863f 145a 863f
00000060: 6d5f 843f e64b 863f c24e 873f 0d0f 833f
00000070: b1ce 843f eac9 843f 1129 833f a630 843f
00000080: 2b8e 863f a980 843f b3cf 863f 5a93 823f
00000090: b5ce 863f 6698 853f 720c 833f 873a 813f
000000a0: 5d1e 803f 6b5f 863f 7ac5 813f 6221 843f
000000b0: 1481 843f 76e5 843f 5ed3 873f 83ba 813f
000000c0: 37ff 833f c467 863f c021 833f a999 833f
000000d0: 04c0 853f 71af 863f b1ed 843f 71d0 863f
000000e0: 7bfb 873f 5214 833f da6b 883f 1697 873f
000000f0: 38a7 833f 5821 823f 7b1d 873f 4bcf 843f
00000100: caea 833f 8043 853f 482a 853f d33b 893f
00000110: 54e3 843f 1eb2 863f 09eb 833f b65d 843f
00000120: f0d1 863f 3afb 853f 8f97 883f fd4b 853f
00000130: 8e27 823f 8de5 843f e42c 813f 8b73 873f
00000140: 4097 843f ac46 823f fa62 883f f5d7 823f
00000150: 04a2 843f ad1e 853f affa 833f f929 833f
00000160: 5516 813f 8063 813f c0fa 853f 3fa3 853f
00000170: 11c1 853f 45fb 833f 2eaa 863f 1e46 853f
00000180: 10e1 843f 2dec 853f 0e56 843f f3a5 843f
00000190: e9d6 823f 2a68 813f bd0c 843f 56fe 823f
000001a0: f741 863f 46a1 853f b50f 843f c424 863f
000001b0: 15d5 803f 4f4b 833f 8687 843f 74a6 853f
000001c0: f8f2 843f 0d15 833f c18f 853f 7bcb 843f
000001d0: 504f 803f 5342 853f fbf2 833f aa33 843f
000001e0: 8ace 873f 5feb 843f b2d6 843f b8a7 803f
000001f0: 0c17 873f 3e18 853f ef29 853f 4a0d 853f

bn3.bias f4 [128]
-0.002838077 0.010982347 0.021290302 0.0154560525 0.0011226342 -0.006687413 0.018526187 0.009392063
0.008380765 0.012927827 0.038645376 0.011757507 0.020668125 0.016464919 0.015614867 0.017543884
0.008162998 0.019814488 0.00091075635 0.021746729 0.010212789 0.013987136 0.022514326 0.013127127
-0.00016356859 0.035096418 0.026358364 0.0019926783 0.018178582 0.017640274 0.005818064 0.010688184
0.023837218 0.011433142 0.030778002 0.0066577666 0.010413034 0.009114682 0.00832737 -0.016407248
0.0018395061 0.0238641 -0.008383106 0.0028071888 0.016442263 0.01195821 0.016482197 -0.003899913
0.01725612 0.017242063 0.0028805984 0.0105849635 0.031535774 0.01612052 0.023609834 0.027309192
0.038192663 0.009791679 0.021431712 0.02845296 -0.0012350235 -0.0006085411 0.016416227 0.016488962
0.014113709 0.008645701 0.014565812 0.035785303 0.009684434 0.030268166 0.0051840316 0.015552227
0.019023554 0.029033963 0.033043653 0.019591609 0.009308984 0.016953219 -0.006870025 0.033721644
0.012374177 -0.00051227893 0.01789265 0.0029692668 0.01420928 0.026877565 0.011481549 0.018657174
-0.006585997 -0.0011295405 0.032217782 0.021760657 0.018444711 0.005322033 0.02575628 0.026576543
0.018210012 0.02602799 0.01348931 0.010630593 -0.0040923674 0.0028443555 0.0074320287 0.0013213936
0.018250538 0.009644729 0.018836979 0.018689038 0.0022542872 0.01773423 0.017507445 0.015916504
0.015300353 0.005358454 0.01792236 0.010046878 -0.0073681567 0.013470669 0.0012173378 0.014513427
0.032057874 0.0289856 0.008150951 -0.0011352118 0.01908288 0.0067401235 0.017655786 0.009933397
00000000: 08ff 39bb 4def 333c 0069 ae3c 623b 7d3c
00000010: 5a25 933a 1622 dbbb 3bc4 973c 2be1 193c
00000020: 7a4f 093c 3dcf 533c 9d4a 1e3d 8fa2 403c
00000030: 3350 a93c 70e1 863c 80d5 7f3c 31b8 8f3c
00000040: 18be 053c fe51 a23c d3bf 6e3a 3226 b23c
00000050: 8b53 273c 4d2a 653c f76f b83c 2913 573c
00000060: 9c83 2bb9 43c1 0f3d 7fed d73c 9897 023b
00000070: 40eb 943c 5682 903c 75a5 be3b 7e1d 2f3c
00000080: 4546 c33c 1352 3b3c 2622 fc3c 6529 da3b
00000090: 6e9b 2a3c bf55 153c 856f 083c 7e68 86bc
000000a0: 951b f13a a57e c33c 4c59 09bc d0f8 373b
000000b0: edb1 863c 5eec 433c ac05 873c af95 7fbb
000000c0: b55c 8d3c 3a3f 8d3c 6cc8 3c3b 8e6c 2d3c
000000d0: a82b 013d 2e0f 843c 6969 c13c 87b7 df3c
000000e0: e96f 1c3d 476d 203c 8f91 af3c 2f16 e93c
000000f0: 83e0 a1ba 8086 1fba 537b 863c dc13 873c
00000100: 303d 673c b3a6 0d3c 72a5 6e3c 9c93 123d
00000110: 76ab 1e3c f2f4 f73c cfde a93b c5ce 7e3c
00000120: 49d7 9b3c a2d8 ed3c c858 073d 957e a03c
00000130: b584 183c 7ae1 8a3c f21d e1bb b51f 0a3d
00000140: 0fbd 4a3c 754a 06ba 9b93 923c 0898 423b
00000150: 0ace 683c 572e dc3c 1b1d 3c3c eed6 983c
00000160: 59cf d7bb 170d 94ba cbf6 033d 6843 b23c
00000170: 5d19 973c 7364 ae3b d6fe d23c 0db7 d93c
00000180: 2a2d 953c a738 d53c 4402 5d3c f02b 2e3c
00000190: 4419 86bb 5e68 3a3b 6088 f33b 9d32 ad3a
000001a0: 2782 953c ed04 1e3c 0250 9a3c c119 993c
000001b0: aabc 133b 6047 913c c66b 8f3c 5463 823c
000001c0: 55ae 7a3c f895 af3b ead1 923c a99b 243c
000001d0: 9470 f1bb 15b4 5c3c 148f 9f3a bac9 6d3c
000001e0: 1e4f 033d 3673 ed3c 918b 053c 63cb 94ba
000001f0: b353 9c3c 41dc dc3b dea2 903c b0bf 223c
