built_models/esc50_esc50cnn_model_fold2_20250430_222605.pth (torch, 654357 bytes, 24 tensors)

mel_transform.spectrogram.window f4 [1024]
0	0x00000000	0.0
1	0x371e0000	9.417534e-06
2	0x381de000	3.7640333e-05
3	0x38b1a000	8.46982e-05
4	0x391de800	0.00015059114
5	0x3976b800	0.00023528934
6	0x39b1a400	0.0003388226
7	0x39f1c400	0.00046113133
8	0x3a1de200	0.00060227513
9	0x3a47d000	0.0007622242
10	0x3a76aa00	0.0009409487
11	0x3a953900	0.0011384785
12	0x3ab19300	0.0013547838
13	0x3ad06300	0.0015898645
14	0x3af1a800	0.0018436909
15	0x3b0ab180	0.0021162927
16	0x3b1dc980	0.0024076402
17	0x3b321b80	0.0027177036
18	0x3b47a800	0.0030465126
19	0x3b5e6e80	0.0033940375
20	0x3b766e80	0.0037602484
21	0x3b87d3c0	0.0041451156
22	0x3b950d40	0.0045486987
23	0x3ba2e300	0.004970908
24	0x3bb15500	0.005411744
25	0x3bc06340	0.0058712065
26	0x3bd00dc0	0.0063492954
27	0x3be05400	0.006845951
28	0x3bf13600	0.0073611736
29	0x3c0159e0	0.007894963
30	0x3c0a6660	0.00844726
31	0x3c13c080	0.009018064
32	0x3c1d6820	0.009607345
33	0x3c275d40	0.010215104
34	0x3c319fc0	0.01084131
35	0x3c3c2f80	0.011485934
36	0x3c470c60	0.0121489465
37	0x3c523640	0.012830317
38	0x3c5dad00	0.013530016
39	0x3c6970a0	0.014248043
40	0x3c758100	0.014984369
41	0x3c80ef00	0.015738964
42	0x3c8743b0	0.016511768
43	0x3c8dbe90	0.017302781
44	0x3c945f90	0.018111974
45	0x3c9b2690	0.018939286
46	0x3ca213a0	0.019784749
47	0x3ca92690	0.02064827
48	0x3cb05f50	0.021529824
49	0x3cb7bde0	0.022429407
50	0x3cbf4230	0.02334699
51	0x3cc6ec10	0.024282485
52	0x3ccebb90	0.025235921
53	0x3cd6b080	0.026207209
54	0x3cdecae0	0.027196348
55	0x3ce70a90	0.028203279
56	0x3cef6f80	0.029227972
57	0x3cf7f9a0	0.030270398
58	0x3d005468	0.031330496
59	0x3d04be80	0.032408237
60	0x3d093b10	0.033503592
61	0x3d0dca10	0.03461653
62	0x3d126b68	0.03574696
63	0x3d171f18	0.036894888
64	0x3d1be510	0.038060248
65	0x3d20bd40	0.039242983
66	0x3d25a7a0	0.040443063
67	0x3d2aa428	0.041660458
68	0x3d2fb2d0	0.04289514
69	0x3d34d378	0.044146985
70	0x3d3a0628	0.045416027
71	0x3d3f4ac0	0.046702147
72	0x3d44a140	0.048005342
73	0x3d4a09a0	0.049325585
74	0x3d4f83c0	0.050662756
75	0x3d550fa8	0.052016884
76	0x3d5aad38	0.05338785
77	0x3d605c68	0.054775625
78	0x3d661d38	0.05618021
79	0x3d6bef80	0.057601452
80	0x3d71d348	0.059039384
81	0x3d77c870	0.060493886
82	0x3d7dcef8	0.06196496
83	0x3d81f364	0.06345251
84	0x3d8507ec	0.064956516
85	0x3d882508	0.06647688
86	0x3d8b4ab4	0.06801358
87	0x3d8e78e8	0.06956655
88	0x3d91af98	0.0711357
89	0x3d94eec0	0.072721004
90	0x3d983658	0.0743224
91	0x3d9b8658	0.075939834
92	0x3d9edeb4	0.07757321
93	0x3da23f6c	0.07922253
94	0x3da5a86c	0.080887645
95	0x3da919b8	0.082568586
96	0x3dac933c	0.0842652
97	0x3db014f8	0.085977495
98	0x3db39ee0	0.087705374
99	0x3db730e8	0.08944875
100	0x3dbacb0c	0.09120759
101	0x3dbe6d44	0.092981845
102	0x3dc21784	0.094771415
103	0x3dc5c9c0	0.096576214
104	0x3dc983f8	0.09839624
105	0x3dcd461c	0.10023138
106	0x3dd11020	0.10208154
107	0x3dd4e204	0.103946716
108	0x3dd8bbb8	0.105826795
109	0x3ddc9d30	0.10772169
110	0x3de0866c	0.10963139
111	0x3de4775c	0.111555785
112	0x3de86ff4	0.11349478
113	0x3dec702c	0.115448326
114	0x3df07800	0.11741638
115	0x3df48760	0.11939883
116	0x3df89e40	0.12139559
117	0x3dfcbc9c	0.12340662
118	0x3e007132	0.1254318
119	0x3e0287ca	0.12747112
120	0x3e04a20e	0.12952444
121	0x3e06bffc	0.13159174
122	0x3e08e18c	0.1336729
123	0x3e0b06b8	0.13576782
124	0x3e0d2f7c	0.13787645
125	0x3e0f5bd6	0.13999876
126	0x3e118bbc	0.1421346
127	0x3e13bf28	0.14428389
128	0x3e15f61a	0.14644662
129	0x3e183088	0.14862263
130	0x3e1a6e6e	0.15081188
131	0x3e1cafc6	0.15301427
132	0x3e1ef48c	0.15522975
133	0x3e213cb8	0.15745819
134	0x3e238844	0.1596995
135	0x3e25d72e	0.16195366
136	0x3e28296e	0.16422054
137	0x3e2a7efc	0.16650003
138	0x3e2cd7d8	0.16879213
139	0x3e2f33f6	0.17109665
140	0x3e319356	0.1734136
141	0x3e33f5ec	0.1757428
142	0x3e365bb6	0.17808422
143	0x3e38c4b0	0.1804378
144	0x3e3b30ce	0.18280336
145	0x3e3da010	0.1851809
146	0x3e40126c	0.18757027
147	0x3e4287de	0.18997142
148	0x3e45005e	0.19238421
149	0x3e477be8	0.1948086
150	0x3e49fa76	0.1972445
151	0x3e4c7c00	0.19969177
152	0x3e4f0080	0.20215034
153	0x3e5187f2	0.20462015
154	0x3e54124e	0.20710108
155	0x3e569f8e	0.20959303
156	0x3e592fac	0.21209592
157	0x3e5bc2a2	0.21460965
158	0x3e5e5866	0.21713409
159	0x3e60f0f8	0.21966922
160	0x3e638c4e	0.2222149
161	0x3e662a60	0.22477102
162	0x3e68cb2a	0.22733751
163	0x3e6b6ea4	0.22991425
164	0x3e6e14ca	0.23250118
165	0x3e70bd94	0.23509818
166	0x3e7368fc	0.23770517
167	0x3e7616fa	0.24032202
168	0x3e78c788	0.24294865
169	0x3e7b7aa0	0.24558496
170	0x3e7e3036	0.24823079
171	0x3e807426	0.25088614
172	0x3e81d16c	0.2535509
173	0x3e832fea	0.25622493
174	0x3e848f9c	0.25890815
175	0x3e85f07d	0.2616004
176	0x3e87528c	0.26430166
177	0x3e88b5c4	0.26701176
178	0x3e8a1a22	0.26973063
179	0x3e8b7fa4	0.2724582
180	0x3e8ce646	0.27519435
181	0x3e8e4e04	0.27793896
182	0x3e8fb6da	0.28069192
183	0x3e9120c4	0.2834531
184	0x3e928bc0	0.28622246
185	0x3e93f7ca	0.28899986
186	0x3e9564e0	0.29178524
187	0x3e96d2fc	0.29457843
188	0x3e98421c	0.29737937
189	0x3e99b23c	0.30018795
190	0x3e9b2358	0.30300403
191	0x3e9c956b	0.30582747
192	0x3e9e0876	0.3086583
193	0x3e9f7c72	0.31149632
194	0x3ea0f15c	0.31434143
195	0x3ea26730	0.3171935
196	0x3ea3ddec	0.3200525
197	0x3ea5558c	0.3229183
198	0x3ea6ce08	0.32579064
199	0x3ea84763	0.32866964
200	0x3ea9c196	0.33155507
201	0x3eab3c9e	0.33444685
202	0x3eacb878	0.33734488
203	0x3eae351e	0.340249
204	0x3eafb28f	0.34315917
205	0x3eb130c4	0.34607518
206	0x3eb2afbd	0.34899703
207	0x3eb42f75	0.35192457
208	0x3eb5afe8	0.35485768
209	0x3eb73112	0.35779625
210	0x3eb8b2f0	0.36074018
211	0x3eba357e	0.36368936
212	0x3ebbb8b6	0.3666436
213	0x3ebd3c99	0.36960295
214	0x3ebec120	0.37256718
215	0x3ec04648	0.3755362
216	0x3ec1cc0e	0.37850994
217	0x3ec3526d	0.38148823
218	0x3ec4d960	0.38447094
219	0x3ec660e6	0.38745803
220	0x3ec7e8fc	0.3904494
221	0x3ec9719b	0.39344487
222	0x3ecafac0	0.39644432
223	0x3ecc8469	0.3994477
224	0x3ece0e91	0.40245488
225	0x3ecf9932	0.40546566
226	0x3ed1244c	0.40848005
227	0x3ed2afda	0.4114979
228	0x3ed43bd8	0.41451907
229	0x3ed5c842	0.41754347
230	0x3ed75514	0.42057097
231	0x3ed8e24a	0.42360145
232	0x3eda6fdf	0.42663476
233	0x3edbfdd2	0.42967087
234	0x3edd8c1f	0.43270966
235	0x3edf1ac0	0.43575096
236	0x3ee0a9b2	0.43879467
237	0x3ee238f2	0.4418407
238	0x3ee3c87c	0.44488895
239	0x3ee55849	0.4479392
240	0x3ee6e859	0.45099142
241	0x3ee878a8	0.45404553
242	0x3eea0931	0.45710137
243	0x3eeb99f0	0.46015882
244	0x3eed2ae1	0.46321777
245	0x3eeebc00	0.46627808
246	0x3ef04d49	0.46933964
247	0x3ef1deba	0.4724024
248	0x3ef3704d	0.47546616
249	0x3ef50200	0.47853088
250	0x3ef693ce	0.4815964
251	0x3ef825b3	0.48466262
252	0x3ef9b7ac	0.48772943
253	0x3efb49b2	0.49079663
254	0x3efcdbc6	0.49386424
255	0x3efe6de1	0.49693206

mel_transform.mel_scale.fb f4 [513, 40]
0	0x80000000	-0.0
1	0x00000000	0.0
2	0x00000000	0.0
3	0x00000000	0.0
4	0x00000000	0.0
5	0x00000000	0.0
6	0x00000000	0.0
7	0x00000000	0.0
8	0x00000000	0.0
9	0x00000000	0.0
10	0x00000000	0.0
11	0x00000000	0.0
12	0x00000000	0.0
13	0x00000000	0.0
14	0x00000000	0.0
15	0x00000000	0.0
16	0x00000000	0.0
17	0x00000000	0.0
18	0x00000000	0.0
19	0x00000000	0.0
20	0x00000000	0.0
21	0x00000000	0.0
22	0x00000000	0.0
23	0x00000000	0.0
24	0x00000000	0.0
25	0x00000000	0.0
26	0x00000000	0.0
27	0x00000000	0.0
28	0x00000000	0.0
29	0x00000000	0.0
30	0x00000000	0.0
31	0x00000000	0.0
32	0x00000000	0.0
33	0x00000000	0.0
34	0x00000000	0.0
35	0x00000000	0.0
36	0x00000000	0.0
37	0x00000000	0.0
38	0x00000000	0.0
39	0x00000000	0.0
40	0x3f31bb11	0.69426066
41	0x00000000	0.0
42	0x00000000	0.0
43	0x00000000	0.0
44	0x00000000	0.0
45	0x00000000	0.0
46	0x00000000	0.0
47	0x00000000	0.0
48	0x00000000	0.0
49	0x00000000	0.0
50	0x00000000	0.0
51	0x00000000	0.0
52	0x00000000	0.0
53	0x00000000	0.0
54	0x00000000	0.0
55	0x00000000	0.0
56	0x00000000	0.0
57	0x00000000	0.0
58	0x00000000	0.0
59	0x00000000	0.0
60	0x00000000	0.0
61	0x00000000	0.0
62	0x00000000	0.0
63	0x00000000	0.0
64	0x00000000	0.0
65	0x00000000	0.0
66	0x00000000	0.0
67	0x00000000	0.0
68	0x00000000	0.0
69	0x00000000	0.0
70	0x00000000	0.0
71	0x00000000	0.0
72	0x00000000	0.0
73	0x00000000	0.0
74	0x00000000	0.0
75	0x00000000	0.0
76	0x00000000	0.0
77	0x00000000	0.0
78	0x00000000	0.0
79	0x00000000	0.0
80	0x3f24a294	0.64310575
81	0x3eb6bad8	0.35689425
82	0x00000000	0.0
83	0x00000000	0.0
84	0x00000000	0.0
85	0x00000000	0.0
86	0x00000000	0.0
87	0x00000000	0.0
88	0x00000000	0.0
89	0x00000000	0.0
90	0x00000000	0.0
91	0x00000000	0.0
92	0x00000000	0.0
93	0x00000000	0.0
94	0x00000000	0.0
95	0x00000000	0.0
96	0x00000000	0.0
97	0x00000000	0.0
98	0x00000000	0.0
99	0x00000000	0.0
100	0x00000000	0.0
101	0x00000000	0.0
102	0x00000000	0.0
103	0x00000000	0.0
104	0x00000000	0.0
105	0x00000000	0.0
106	0x00000000	0.0
107	0x00000000	0.0
108	0x00000000	0.0
109	0x00000000	0.0
110	0x00000000	0.0
111	0x00000000	0.0
112	0x00000000	0.0
113	0x00000000	0.0
114	0x00000000	0.0
115	0x00000000	0.0
116	0x00000000	0.0
117	0x00000000	0.0
118	0x00000000	0.0
119	0x00000000	0.0
120	0x3bafa669	0.005360414
121	0x3f7ea0b3	0.9946396
122	0x00000000	0.0
123	0x00000000	0.0
124	0x00000000	0.0
125	0x00000000	0.0
126	0x00000000	0.0
127	0x00000000	0.0
128	0x00000000	0.0
129	0x00000000	0.0
130	0x00000000	0.0
131	0x00000000	0.0
132	0x00000000	0.0
133	0x00000000	0.0
134	0x00000000	0.0
135	0x00000000	0.0
136	0x00000000	0.0
137	0x00000000	0.0
138	0x00000000	0.0
139	0x00000000	0.0
140	0x00000000	0.0
141	0x00000000	0.0
142	0x00000000	0.0
143	0x00000000	0.0
144	0x00000000	0.0
145	0x00000000	0.0
146	0x00000000	0.0
147	0x00000000	0.0
148	0x00000000	0.0
149	0x00000000	0.0
150	0x00000000	0.0
151	0x00000000	0.0
152	0x00000000	0.0
153	0x00000000	0.0
154	0x00000000	0.0
155	0x00000000	0.0
156	0x00000000	0.0
157	0x00000000	0.0
158	0x00000000	0.0
159	0x00000000	0.0
160	0x00000000	0.0
161	0x3ed69377	0.41909382
162	0x3f14b644	0.58090615
163	0x00000000	0.0
164	0x00000000	0.0
165	0x00000000	0.0
166	0x00000000	0.0
167	0x00000000	0.0
168	0x00000000	0.0
169	0x00000000	0.0
170	0x00000000	0.0
171	0x00000000	0.0
172	0x00000000	0.0
173	0x00000000	0.0
174	0x00000000	0.0
175	0x00000000	0.0
176	0x00000000	0.0
177	0x00000000	0.0
178	0x00000000	0.0
179	0x00000000	0.0
180	0x00000000	0.0
181	0x00000000	0.0
182	0x00000000	0.0
183	0x00000000	0.0
184	0x00000000	0.0
185	0x00000000	0.0
186	0x00000000	0.0
187	0x00000000	0.0
188	0x00000000	0.0
189	0x00000000	0.0
190	0x00000000	0.0
191	0x00000000	0.0
192	0x00000000	0.0
193	0x00000000	0.0
194	0x00000000	0.0
195	0x00000000	0.0
196	0x00000000	0.0
197	0x00000000	0.0
198	0x00000000	0.0
199	0x00000000	0.0
200	0x00000000	0.0
201	0x00000000	0.0
202	0x3f58ca45	0.8468364
203	0x3e1cd6ee	0.15316364
204	0x00000000	0.0
205	0x00000000	0.0
206	0x00000000	0.0
207	0x00000000	0.0
208	0x00000000	0.0
209	0x00000000	0.0
210	0x00000000	0.0
211	0x00000000	0.0
212	0x00000000	0.0
213	0x00000000	0.0
214	0x00000000	0.0
215	0x00000000	0.0
216	0x00000000	0.0
217	0x00000000	0.0
218	0x00000000	0.0
219	0x00000000	0.0
220	0x00000000	0.0
221	0x00000000	0.0
222	0x00000000	0.0
223	0x00000000	0.0
224	0x00000000	0.0
225	0x00000000	0.0
226	0x00000000	0.0
227	0x00000000	0.0
228	0x00000000	0.0
229	0x00000000	0.0
230	0x00000000	0.0
231	0x00000000	0.0
232	0x00000000	0.0
233	0x00000000	0.0
234	0x00000000	0.0
235	0x00000000	0.0
236	0x00000000	0.0
237	0x00000000	0.0
238	0x00000000	0.0
239	0x00000000	0.0
240	0x00000000	0.0
241	0x00000000	0.0
242	0x3e9e0d2b	0.3086942
243	0x3f30f96a	0.69130576
244	0x00000000	0.0
245	0x00000000	0.0
246	0x00000000	0.0
247	0x00000000	0.0
248	0x00000000	0.0
249	0x00000000	0.0
250	0x00000000	0.0
251	0x00000000	0.0
252	0x00000000	0.0
253	0x00000000	0.0
254	0x00000000	0.0
255	0x00000000	0.0

conv1.weight f4 [32, 1, 3, 3]
0	0xbce4e083	-0.027939087
1	0x3ea7ede7	0.32798693
2	0x3e235ec9	0.15954126
3	0xbe5ea889	-0.21743979
4	0x3e496f8f	0.19671462
5	0xbd91f000	-0.071258545
6	0x3d475c67	0.048672106
7	0x3de9ed8c	0.114222616
8	0xbec84444	-0.39114583
9	0xbe8d35b1	-0.27580026
10	0xbc0c1ba5	-0.008551513
11	0xbe75cfe5	-0.24005087
12	0xbd9c5262	-0.07632901
13	0x3dfc7c6d	0.1232842
14	0x3d80e1aa	0.06293042
15	0x3e1fbfbd	0.15600486
16	0x3e367f39	0.17821969
17	0x3e9200ef	0.28516337
18	0xbe8a7475	-0.27041975
19	0xbdee17c5	-0.116256274
20	0x3d19a49f	0.03751051
21	0x3e91b0f1	0.28455308
22	0xbe7a8d69	-0.24468006
23	0x3e85a283	0.2610055
24	0xbe82bdb2	-0.2553535
25	0x3ea766e3	0.32695684
26	0x3d7fda9f	0.062464353
27	0xbd5f9651	-0.054586712
28	0x3ce854aa	0.028360683
29	0x3e9372db	0.28798565
30	0xbea08874	-0.31354105
31	0xbe888fe6	-0.26672286
32	0xbe713460	-0.23555136
33	0x3e2cb51c	0.16865963
34	0xbd892a7e	-0.06697558
35	0x3e0bf3f6	0.13667282
36	0xbea07b23	-0.31343946
37	0x3d1e12e0	0.03859222
38	0xbe20b9a7	-0.15695821
39	0x399a712d	0.00029457491
40	0xbeaed77b	-0.34148774
41	0x3dee7318	0.11643046
42	0x3ea5eaa1	0.3240557
43	0x3ea2873f	0.3174381
44	0x3e87130c	0.2638172
45	0xbe99daae	-0.30049652
46	0xbd87a63e	-0.06623505
47	0x3e7f2461	0.24916221
48	0xbdd6dea1	-0.10491682
49	0xbe18df55	-0.14928944
50	0x3e4427a5	0.19155748
51	0xbe78815a	-0.24268094
52	0x3db06317	0.0861265
53	0x3e9de054	0.3083521
54	0xbe9b24aa	-0.3030141
55	0x3e471571	0.19441773
56	0xbe8c923e	-0.27455324
57	0xbe5e4159	-0.21704616
58	0xbd170e06	-0.03687861
59	0x3a80a4f6	0.0009814787
60	0x3e8019d3	0.25019702
61	0x3ea1b00e	0.31579632
62	0xbdf4aca7	-0.11946993
63	0xbdddd729	-0.10832054
64	0xbe87aa23	-0.26496992
65	0x3e5a5423	0.21321158
66	0x3ea8c891	0.3296552
67	0xbdee8b0a	-0.11647613
68	0x3d6c8ee2	0.05775345
69	0xbe40313d	-0.18768783
70	0x3e90238e	0.28152126
71	0xbe767600	-0.24068451
72	0xbdd9bd8b	-0.106318556
73	0xbe502650	-0.20327115
74	0x3d08828d	0.033327628
75	0xbe8ed3f4	-0.27896082
76	0xbe84766b	-0.25871596
77	0x3df86325	0.12128285
78	0xbdbb9b3d	-0.09160469
79	0xbcb1d161	-0.021706285
80	0xbe075e8c	-0.1321966
81	0x3de3deff	0.111265175
82	0x3e2424f4	0.16029721
83	0xbea312cd	-0.3185028
84	0x3e1c0a1c	0.15238231
85	0x3d9111d9	0.07083482
86	0xbe4e7298	-0.20160902
87	0xbc71c7e3	-0.014757129
88	0xbdf05725	-0.117353715
89	0x3db40f8e	0.08792029
90	0x3eb09206	0.34486407
91	0xbe261c5b	-0.16221754
92	0xbe4eb5ee	-0.20186588
93	0xbe0ceac9	-0.13761438
94	0x3e49e1e7	0.19715081
95	0xbd55052a	-0.052006878
96	0x3d20773c	0.03917621
97	0xbe82e569	-0.2556565
98	0x3e69514d	0.2278492
99	0xbdd35b9d	-0.10320208
100	0x3eb37dc2	0.35056883
101	0x3e758986	0.23978242
102	0xbe964216	-0.29347295
103	0xbe15c8f7	-0.14627443
104	0xbe01666f	-0.12636732
105	0x3e22c822	0.15896657
106	0xbe883a90	-0.2660718
107	0x3e55f7df	0.20895337
108	0x3df77fdc	0.12084934
109	0x3e04bec3	0.12963395
110	0xbe2c8a0c	-0.16849536
111	0x3e574c82	0.21025279
112	0x3e434946	0.1907092
113	0xbea18c2d	-0.31552258
114	0x3e2fab58	0.17155206
115	0x3c490b13	0.012270707
116	0xbdd1b88f	-0.1024028
117	0xbea92fef	-0.33044383
118	0xbd27c922	-0.0409633
119	0x3eaf21c3	0.34205446
120	0xbe8b142d	-0.2716383
121	0xbdf9c8c4	-0.12196496
122	0xbc47ea57	-0.012201867
123	0x3e1c3067	0.15252839
124	0x3e838408	0.2568667
125	0xbe0e89d7	-0.13919769
126	0x3e3e800b	0.18603532
127	0x3e475707	0.19466792
128	0x3dae64a8	0.085152924
129	0x3e5da7ac	0.21645993
130	0x3df38f5e	0.118925795
131	0x3e45edb2	0.19328955
132	0x3dbb70d9	0.09152383
133	0x3e73fe43	0.23827462
134	0x3e1dbe9e	0.15404746
135	0xbd1886a6	-0.037237786
136	0x3eb99299	0.36244658
137	0x3e79558b	0.24349038
138	0xbe602889	-0.21890463
139	0xbe39291c	-0.18082088
140	0xbd9cfbc1	-0.07665206
141	0xbe76fdaf	-0.2412021
142	0x3ca27efd	0.019835943
143	0xbd5c4df0	-0.053785264
144	0x3e52a077	0.20569025
145	0x3e3110bd	0.17291541
146	0xbe3ad94e	-0.18246958
147	0x3e244f9c	0.16045994
148	0xbe9a4a63	-0.30134878
149	0x3d1cd7b9	0.038291667
150	0xbe9ae66e	-0.3025393
151	0x3d0a7a17	0.03380784
152	0x3d9fbf40	0.0780015
153	0x3ea8dc8f	0.32980773
154	0x3e910f11	0.28331807
155	0x3e211566	0.15730819
156	0xbe05da61	-0.13071586
157	0xbe823193	-0.25428447
158	0x3e205c59	0.15660228
159	0xbcbc93d2	-0.023019705
160	0xbdcb4365	-0.09924964
161	0xbdfb7df4	-0.12279883
162	0xbe59b2c4	-0.212596
163	0xbca9508a	-0.020668287
164	0x3e4f6095	0.20251687
165	0x3e72bf1d	0.23705716
166	0xbe27ba08	-0.16379559
167	0x3e161e64	0.1466003
168	0xbe89e235	-0.26930395
169	0xbe3c1e69	-0.18370976
170	0x3e9566ae	0.291799
171	0xbe0467f0	-0.12930274
172	0x3e9b174d	0.30291215
173	0x3e29cd6c	0.16582268
174	0xbc8191f4	-0.015816666
175	0xbea1b747	-0.31585142
176	0x3d32ed6b	0.04368345
177	0x3ba35b9c	0.004985286
178	0x3e30ffe4	0.17285115
179	0xbd5083e5	-0.050907034
180	0xbbf5dd7f	-0.007503211
181	0xbd500972	-0.050790258
182	0x3e263b43	0.16233544
183	0xbd891bdf	-0.06694769
184	0x3d646d39	0.055768225
185	0x3e4fdf72	0.20300081
186	0xbe655a30	-0.22397685
187	0xbd394dcd	-0.045240212
188	0xbe11f35b	-0.14252989
189	0xbd4179cf	-0.047235306
190	0xbe5b0392	-0.2138808
191	0x3e6e4151	0.23267104
192	0xbe829ebc	-0.2551173
193	0xbde93cb4	-0.11388531
194	0x3d8967b2	0.067092314
195	0xbe0bc765	-0.13650282
196	0xbd7a33d9	-0.061084602
197	0x3e5aa817	0.21353184
198	0x3e75754a	0.23970523
199	0xbe5b4eff	-0.21416853
200	0x3e63e64b	0.22255819
201	0x3e02f8aa	0.1279017
202	0xbe46ac75	-0.19401725
203	0x3e858b52	0.26082855
204	0xbeaf83e1	-0.34280303
205	0xbe17a39d	-0.14808507
206	0x3e0473ac	0.1293475
207	0x3d8e6e11	0.06954587
208	0x3e2c8e06	0.16851053
209	0x3e0cc73c	0.13747877
210	0x3d0e4e88	0.034742862
211	0xbe98252f	-0.2971587
212	0xbe92cbf5	-0.28671232
213	0x3e2a075a	0.16604367
214	0xbe673183	-0.22577481
215	0x3d3dfba2	0.046382554
216	0x3e7f6b9f	0.24943398
217	0xbc2029ab	-0.009775559
218	0x3e38d9cf	0.18051837
219	0xbe981882	-0.29706198
220	0xbdc7bd56	-0.0975291
221	0xbe5352d6	-0.20637068
222	0xbe052d95	-0.1300567
223	0x3ea3378b	0.31878313
224	0xbbfe6355	-0.007763306
225	0x3e8f39d6	0.27973813
226	0xbd288c79	-0.04114959
227	0xbebc986f	-0.36835048
228	0xbe3917fc	-0.18075556
229	0x3d65062a	0.05591408
230	0xbe900802	-0.2813111
231	0x3e4e202b	0.20129459
232	0x3e82e73e	0.2556705
233	0x3e4d5bd5	0.20054562
234	0xbdc5364e	-0.096294984
235	0x3ecd986b	0.40155348
236	0x3e9709fd	0.29499808
237	0x3e3a9a23	0.18222861
238	0xbd8a5f03	-0.06756403
239	0xbe393051	-0.18084837
240	0xbe1655ff	-0.14681242
241	0xbe393908	-0.18088162
242	0xbe6556f1	-0.22396447
243	0xbd996d0e	-0.07491504
244	0xbc865c93	-0.016401565
245	0xbc93f167	-0.018059446
246	0x3eabd885	0.3356363
247	0xbdc56a2e	-0.09639393
248	0x3e4551d6	0.19269499
249	0xbeaa90f3	-0.33313712
250	0x3e452d0c	0.19255465
251	0xbe238505	-0.15968712
252	0xbe10d3cb	-0.14143293
253	0x3e88eb6d	0.26742116
254	0xbe447530	-0.19185328
255	0xbd00992c	-0.031396076

conv1.bias f4 [32]
0	0xbdadd9e7	-0.08488827
1	0xbe15289e	-0.14566275
2	0x3e6bebcc	0.23039168
3	0xbe03b452	-0.12861755
4	0xbe25d609	-0.16194929
5	0x3ea2c273	0.31788978
6	0xbdfc02d2	-0.123052254
7	0x3d574657	0.052557316
8	0xbe1b0bb8	-0.15141189
9	0x3d6b0137	0.057374205
10	0xbbfcb234	-0.007711673
11	0x3d235b88	0.039882213
12	0xbd3f1a56	-0.046655975
13	0xbcdea1c4	-0.027176745
14	0xbe6181bb	-0.22022144
15	0xbc5c7f13	-0.013458031
16	0xbd657f4a	-0.056029595
17	0x3e36529c	0.1780495
18	0xbd621d71	-0.05520386
19	0x3e446cb3	0.1918209
20	0xbe46700a	-0.19378677
21	0xbe399783	-0.18124203
22	0xbe23ab42	-0.15983298
23	0xbdb316fe	-0.0874462
24	0xbe8dea61	-0.2771788
25	0x3eb729ea	0.35774165
26	0x3e96478b	0.29351458
27	0x3dbc25ea	0.09186919
28	0xbea1fed3	-0.31639728
29	0xbdbce752	-0.09223808
30	0xbba7e809	-0.0051240963
31	0x3cc843e7	0.02444644

bn1.weight f4 [32]
0	0x3f7ad6fb	0.97984284
1	0x3f872dc3	1.056084
2	0x3f838cf8	1.0277395
3	0x3f4dbd7a	0.80367243
4	0x3f88c593	1.0685295
5	0x3f890696	1.0705135
6	0x3f7e1ca6	0.99262464
7	0x3f7716fa	0.96519434
8	0x3f599dd9	0.8500648
9	0x3f7509ac	0.95717883
10	0x3f8376b2	1.0270598
11	0x3f84521f	1.0337561
12	0x3f859aef	1.0437907
13	0x3f5fa0e5	0.8735488
14	0x3f6bef71	0.92162234
15	0x3f64effe	0.894287
16	0x3f5074f9	0.81428486
17	0x3f72e672	0.9488288
18	0x3f8314a8	1.0240679
19	0x3f6cb5c1	0.92464834
20	0x3f66a011	0.9008799
21	0x3f70d845	0.9408
22	0x3f941db5	1.1571566
23	0x3f4c5bd9	0.7982765
24	0x3f6b2eda	0.91868365
25	0x3f84b707	1.0368356
26	0x3f78d53d	0.97200376
27	0x3f897f85	1.0742041
28	0x3f80678a	1.0031598
29	0x3f87a095	1.0595881
30	0x3f459416	0.77179086
31	0x3f6777f1	0.9041739

bn1.bias f4 [32]
0	0xbe4bc027	-0.19897519
1	0xbe184f07	-0.14873897
2	0xbd8a0a53	-0.067402504
3	0xbba62ce5	-0.00507127
4	0xbdd5421d	-0.10413001
5	0x3e34f892	0.17672947
6	0xbd9d9493	-0.07694354
7	0x3da80332	0.082037345
8	0xbd91ad5c	-0.07113144
9	0x3be90ec0	0.007112354
10	0x3dbab8a0	0.09117246
11	0x3d702c0c	0.058635756
12	0xbe3acb42	-0.18241599
13	0x3c8632f8	0.016381726
14	0xbe7b424b	-0.24537008
15	0xbd942bab	-0.072348915
16	0xbd2f605b	-0.0428165
17	0xbe4291a6	-0.19000873
18	0x3d5b7da1	0.053586606
19	0xbdf2e528	-0.11860114
20	0xbca56e63	-0.020194238
21	0xbced43fb	-0.02896308
22	0xbbb87493	-0.005629131
23	0xbc053e74	-0.008132566
24	0x3d8e0331	0.069342025
25	0xbde31ee9	-0.1108988
26	0x3d515b9b	0.051112752
27	0xbc4073ae	-0.01174633
28	0xbe3ec651	-0.18630339
29	0x3e76d319	0.24103965
30	0xbe26cd70	-0.16289306
31	0xbe730f27	-0.23736249

bn1.running_mean f4 [32]
0	0xbd840f2d	-0.06448207
1	0xbe3144bf	-0.17311381
2	0x3e5be1d6	0.21472868
3	0xbdf67a88	-0.1203509
4	0xbe4101db	-0.18848364
5	0x3e9f5457	0.31119034
6	0xbe12561f	-0.14290665
7	0x3d42cca2	0.047558434
8	0xbe243cd4	-0.16038829
9	0x3d66c00e	0.0563355
10	0xbbfe295d	-0.0077563957
11	0x3d6dc76e	0.05805152
12	0xbd342d3e	-0.04398846
13	0xbd000975	-0.03125902
14	0xbe52de2d	-0.20592566
15	0x3c41f14c	0.011837315
16	0xbd3efa21	-0.04662526
17	0x3e58f58b	0.21187417
18	0xbd5fdcd9	-0.054653976
19	0x3e51223f	0.2042322
20	0xbe3e190c	-0.18564242
21	0xbe3bc208	-0.18335736
22	0xbe15a250	-0.14612699
23	0xbd92fde7	-0.07177334
24	0xbe863e03	-0.26219186
25	0x3eb119e2	0.3459006
26	0x3ea59851	0.3234277
27	0x3db92f48	0.09042221
28	0xbea6e978	-0.32599998
29	0xbe063751	-0.13107039
30	0xbc970bdc	-0.018438272
31	0x3d1ab283	0.0377679

bn1.running_var f4 [32]
0	0x3d4dec86	0.050274394
1	0x3e0eef58	0.1395849
2	0x3d121210	0.035661757
3	0x3e22c769	0.15896381
4	0x3e59c111	0.21265055
5	0x3d3c46b6	0.045965873
6	0x3dbf8919	0.09352321
7	0x3c141831	0.009038971
8	0x3f3d2630	0.73886395
9	0x3c702d2c	0.014659207
10	0x3b9f8c1c	0.0048689973
11	0x3d13a484	0.036045566
12	0x3d9c6e7d	0.076382615
13	0x3d817666	0.06321411
14	0x3fe535d6	1.7907054
15	0x3dcd5547	0.10026031
16	0x3cbeb540	0.023279786
17	0x3df9c5a7	0.12195902
18	0x3ccb8910	0.02484563
19	0x3cfaa9be	0.030598518
20	0x3d386f32	0.04502792
21	0x3dea924a	0.11453684
22	0x3d4ece54	0.05048974
23	0x3d901fec	0.070373386
24	0x3cf942bf	0.030427335
25	0x3dd25851	0.10270751
26	0x3dca604a	0.09881647
27	0x3cc80696	0.024417203
28	0x3e26d79b	0.16293184
29	0x3e18e52e	0.14931175
30	0x3f23629b	0.63822335
31	0x4011ff83	2.2812202

conv2.weight f4 [64, 32, 3, 3]
0	0xbab75448	-0.001398691
1	0xbb214db8	-0.0024612974
2	0xbb82f6d4	-0.0039967094
3	0x3d46c91c	0.048531637
4	0x3d0edad5	0.034876663
5	0xbd0ee1a6	-0.034883164
6	0xbd26c6bc	-0.04071687
7	0xbd85a50f	-0.06525623
8	0xbd8bf8e2	-0.0683458
9	0xbacb78a5	-0.0015523626
10	0xbd0ebc22	-0.034847386
11	0xbd4e79eb	-0.05040924
12	0x3d1f19cc	0.03884296
13	0xbd949c2c	-0.0725635
14	0xbd4aa7de	-0.049476497
15	0x3e0355e3	0.12825732
16	0x3d996b04	0.07491115
17	0x3d03ad8c	0.03214793
18	0xbc20b2a2	-0.009808214
19	0xbdb82c11	-0.0899278
20	0xbdde98f6	-0.10869019
21	0x3d6f5c5b	0.058437686
22	0x3c76ed5f	0.015071242
23	0x3d27d2af	0.040972408
24	0xbcdb3ba2	-0.026761834
25	0xbd394417	-0.04523095
26	0x3d3ab059	0.045578334
27	0xbd03ab7a	-0.032145955
28	0xbb0a1b6e	-0.0021073478
29	0xbdad68e8	-0.08467275
30	0xbdafad4c	-0.08577976
31	0xbda11794	-0.07865825
32	0xbbce84d8	-0.0063024573
33	0xbdadf5ee	-0.08494173
34	0xbca056d6	-0.019572657
35	0xbd5b0cf2	-0.053479142
36	0x3d765d69	0.060147677
37	0x3c92a4c7	0.017900838
38	0x3d03ae1f	0.032148477
39	0xbd4c3eec	-0.049864694
40	0xbd1ae507	-0.037816074
41	0x3c2c6975	0.01052319
42	0x3dc9542e	0.09830509
43	0x3dd7a844	0.10530141
44	0x3dbb0745	0.09132246
45	0xbbedb21c	-0.0072538983
46	0xbdaf6c41	-0.0856557
47	0xbb698c06	-0.003563644
48	0xbd303d8b	-0.043027442
49	0xbe2c4c85	-0.16826065
50	0x3c72d350	0.014820889
51	0x3dab77dc	0.08372471
52	0x3b3f3ff8	0.0029182415
53	0x3db9aab3	0.090657614
54	0xbc97d30e	-0.018533256
55	0x3bb697c9	0.0055722934
56	0x3c8fb4d8	0.017542288
57	0xbd5bd140	-0.053666353
58	0xba16f150	-0.0005758004
59	0xbdc55151	-0.096346505
60	0xbc1b6415	-0.009484311
61	0xbce11ae7	-0.027478648
62	0x3cdab9d9	0.026699947
63	0xbd99b33a	-0.07504888
64	0xbdab839e	-0.08374713
65	0xbdad408a	-0.084595755
66	0x3b87b868	0.004141856
67	0xbc3660aa	-0.011131445
68	0x3d18a524	0.037266865
69	0xbd176681	-0.03696299
70	0xbdb12099	-0.08648796
71	0xbc8f4e62	-0.01749343
72	0x3bf4020a	0.007446532
73	0x3d71a9ec	0.05899994
74	0x3d9022f0	0.07037914
75	0x3c8eaf17	0.017417474
76	0x3d0cd569	0.03438321
77	0x3c91c8b9	0.017795907
78	0x3adef2fe	0.0017009673
79	0xbd46ba1b	-0.048517328
80	0xbd8f1da0	-0.069880724
81	0x3cd3edd1	0.025870236
82	0xbc8240fa	-0.015900124
83	0xbc647e0e	-0.013946069
84	0xbaa99297	-0.0012937364
85	0xbc16420e	-0.009171022
86	0xbcb9af05	-0.022666464
87	0xbcb1fd2f	-0.021727173
88	0xbd20dd26	-0.039273404
89	0xbd244df7	-0.040113416
90	0x3d150bca	0.036388196
91	0x3ce47aaa	0.027890522
92	0x3bb7b650	0.00560645
93	0xbd167b07	-0.03673842
94	0xbc956fc1	-0.018241765
95	0xbcda8610	-0.026675254
96	0xbca4777f	-0.020076511
97	0xbc3b7c8d	-0.011443269
98	0xbcad3e67	-0.02114792
99	0x3d61513f	0.055009123
100	0xbd38b4e6	-0.045094393
101	0xbb87bb4e	-0.0041422015
102	0x3c9b49b3	0.018956041
103	0xbc16ca34	-0.009203482
104	0xbd3f41e4	-0.046693698
105	0x3d13aa8d	0.03605132
106	0x3a69a81b	0.00089132943
107	0x3daab2be	0.083348736
108	0xbd042ed6	-0.03227123
109	0x3c7c5973	0.015402186
110	0xbd3cc690	-0.0460878
111	0xbcb8083c	-0.022464864
112	0xbd42cb9f	-0.04755747
113	0xbd9531b0	-0.07284868
114	0xbcb9a3f3	-0.022661185
115	0xbca63562	-0.020289127
116	0xba95cdba	-0.0011429109
117	0xbd481481	-0.04884768
118	0xbd4a5674	-0.049398854
119	0x3c72779e	0.014799027
120	0xbd8252f0	-0.06363475
121	0xba1d5cae	-0.0006002885
122	0xbd94750d	-0.07248888
123	0x3c818cda	0.015814234
124	0xbc8d9f76	-0.017287951
125	0xbced0ab5	-0.02893577
126	0xbc97d3fb	-0.018533697
127	0xbd7792b4	-0.06044264
128	0x3c050dca	0.008120963
129	0xbd11d0dc	-0.035599574
130	0xbda9e2cf	-0.082952134
131	0x3b64a147	0.0034886168
132	0xbcd758f2	-0.02628753
133	0xbd94c973	-0.07264986
134	0xbcd55efd	-0.02604627
135	0xbcb339e9	-0.0218782
136	0xbe0c1da1	-0.13683178
137	0xbdbcaf5c	-0.09213135
138	0xbde21f2b	-0.11041101
139	0xbddfcda4	-0.10927895
140	0xbc409a5c	-0.011755552
141	0x3c3924cf	0.01130028
142	0xbd0927ca	-0.03348521
143	0x3d539ad0	0.051661313
144	0xbdb13fe4	-0.08654764
145	0xbd0bc7b6	-0.034126006
146	0xbd984cb2	-0.074365035
147	0x3a9e0d6d	0.0012058445
148	0xbd5315a3	-0.051534306
149	0x3c34bbc9	0.0110311
150	0x3d7d1141	0.061784033
151	0xbcf058cb	-0.029339215
152	0x3c50bb19	0.01273992
153	0x3d8fa1f4	0.07013312
154	0xbcfb5701	-0.030681135
155	0x3cf9247a	0.030412901
156	0x3c7a6206	0.01528216
157	0x3d25958b	0.04042582
158	0xbd8fda73	-0.07024088
159	0xbc1c85d6	-0.009553393
160	0xbd421244	-0.0473807
161	0xbd8d3e57	-0.06896656
162	0xbd924214	-0.0714151
163	0xbcd17800	-0.025569916
164	0x3c1facf6	0.009745827
165	0x3d4cb3dc	0.049976215
166	0xbc8852d2	-0.016641054
167	0x3db54d6f	0.0885266
168	0xbbbc304e	-0.005743063
169	0xbe07145f	-0.13191365
170	0xbc68194e	-0.014166189
171	0x3d69640f	0.05698019
172	0x3cf0f3e2	0.029413167
173	0x3cc114e4	0.023569532
174	0xbc5bc6a0	-0.013414055
175	0xbd8606a5	-0.06544236
176	0xbdabd9b7	-0.08391135
177	0x3d08acc8	0.033367902
178	0xbd400ddf	-0.04688823
179	0x3c89a2d6	0.016801279
180	0xbdbabb10	-0.091177106
181	0xbdc15a75	-0.094410814
182	0xbd650c37	-0.055919852
183	0xbce6bc5d	-0.02816599
184	0xbd9c6eb0	-0.076382995
185	0xbbde8b65	-0.0067915195
186	0xbcfb35e5	-0.030665347
187	0x3d26b06b	0.04069559
188	0xbc947538	-0.0181223
189	0xbc05aa5e	-0.0081582945
190	0xbd1b90bc	-0.037979826
191	0x3cadb497	0.021204276
192	0xbd85c3d6	-0.06531493
193	0xbc384753	-0.011247474
194	0xbd9dec9a	-0.07711144
195	0xbd2d75f4	-0.042348817
196	0xbdd0c5b4	-0.10193959
197	0xbcb94542	-0.022616033
198	0xbde503b3	-0.11182346
199	0xbdf233c8	-0.11826283
200	0xbd2ebeea	-0.04266254
201	0x3d470045	0.04858424
202	0x3dac8102	0.08423044
203	0x3d7cb8eb	0.06169979
204	0xbdaafdf1	-0.08349217
205	0xbd930aff	-0.07179832
206	0xbdaa4da9	-0.08315594
207	0xbb8881c5	-0.0041658604
208	0xbdac4562	-0.08411671
209	0xbdd16f65	-0.10226325
210	0xbd28f906	-0.041253112
211	0xbd87a840	-0.06623888
212	0xbe0701d2	-0.13184288
213	0x3c3412c5	0.010990803
214	0xbd0a9113	-0.03382976
215	0xbda98b9a	-0.0827858
216	0xbaf59f66	-0.0018739521
217	0xbcb1d1d1	-0.021706494
218	0xbb26a661	-0.002542876
219	0xbd9ef6c5	-0.07761911
220	0xbd6e3459	-0.05815539
221	0xbd3e9cf9	-0.04653642
222	0x3b97c914	0.0046321247
223	0x3c0362f6	0.0080192
224	0xbc9a819e	-0.018860634
225	0x3dbdced1	0.09267963
226	0x3dd9ef99	0.10641403
227	0x3bedb1d3	0.0072538643
228	0x3d6a500a	0.057205237
229	0xbc652c3e	-0.013987599
230	0x3be41f45	0.0069617354
231	0x3e2a6bf4	0.16642743
232	0x3e0a20b1	0.13489033
233	0x3dacbf6a	0.08434947
234	0xbd31605c	-0.043304786
235	0xbdce48db	-0.1007249
236	0xbd6a4ff4	-0.057205155
237	0x3d24a5f0	0.040197313
238	0x3becb369	0.007223536
239	0xbd7f3441	-0.062305693
240	0xbd12d8e6	-0.03585138
241	0x3d52ce29	0.05146614
242	0x3d2caef3	0.042159032
243	0x3d30daf2	0.043177553
244	0xbccb829b	-0.024842551
245	0xbdb6049b	-0.08887597
246	0xbca1b25f	-0.019738374
247	0x3cbc4141	0.022980334
248	0xbd1ea2e9	-0.038729582
249	0xbd3a84db	-0.045536857
250	0xbd61da3f	-0.055139776
251	0xbdfb3f8a	-0.122679785
252	0x3de0defb	0.1098003
253	0x3dcfc4ec	0.10144982
254	0x3d1848fe	0.037178986
255	0xbc8bec61	-0.017080488

conv2.bias f4 [64]
0	0x3d671a57	0.056421604
1	0x3d2585cc	0.0404108
2	0x3d30e72d	0.043189216
3	0x3cdc9101	0.026924612
4	0xbd1e1a2a	-0.03859917
5	0xbcb5b3ec	-0.02218052
6	0x399310a3	0.0002805042
7	0x3c7fb38d	0.015606773
8	0x3cc5bd44	0.0241381
9	0xbd9870cc	-0.07443389
10	0x3d332c84	0.043743625
11	0xbca63614	-0.020289458
12	0xbd127516	-0.035756193
13	0xbcd9e637	-0.026599033
14	0x3c2e4f85	0.010639076
15	0x3d0155ad	0.031575847
16	0xbd3b5549	-0.04573563
17	0x3cfb2623	0.030657833
18	0xbd3e8841	-0.04651666
19	0xbbd098ad	-0.0063658566
20	0xbd396158	-0.04525885
21	0xbd0c0cf1	-0.03419203
22	0xbba35dab	-0.0049855313
23	0x3d324870	0.043526113
24	0xbd3a26b4	-0.045447066
25	0xbd609a42	-0.05483461
26	0x3d15531c	0.036456212
27	0x3cd7ec93	0.026357925
28	0xbd363bd2	-0.044490643
29	0xbd62d6f1	-0.055380765
30	0x3c6edf10	0.014579549
31	0x3d420df3	0.047376584
32	0xbc66342f	-0.0140505275
33	0x3b044bef	0.0020186862
34	0x3cbd11d6	0.023079794
35	0x3d42f866	0.047600172
36	0xbd98f194	-0.07467952
37	0x3d27fb28	0.041011006
38	0x3cb10368	0.02160807
39	0xbd0a4e9a	-0.033766367
40	0x3cc5466e	0.024081435
41	0xbd0f226c	-0.034944937
42	0x3c5b157c	0.0133718215
43	0xbd2997b1	-0.04140443
44	0xbd4ee88d	-0.050514746
45	0x3cd08f54	0.02545897
46	0xbc65ce6c	-0.014026266
47	0xbd051b4b	-0.03249673
48	0xbccb4b7c	-0.024816267
49	0x3c47f353	0.012204009
50	0x3d10696b	0.035256784
51	0xbd62c3f9	-0.055362675
52	0xbd75e01e	-0.060028188
53	0x3c1959c6	0.009359783
54	0xbbd59b91	-0.006518789
55	0xbc9a5e9b	-0.01884394
56	0xbd045738	-0.03230974
57	0x3d138429	0.03601471
58	0x3d92d034	0.07168618
59	0xbca75dc3	-0.020430451
60	0x3c8a386e	0.01687261
61	0x3bde2e22	0.006780402
62	0xbd1f9977	-0.038964715
63	0xbd0caed6	-0.034346424

bn2.weight f4 [64]
0	0x3f892029	1.071294
1	0x3f6e884f	0.9317674
2	0x3f685897	0.9076018
3	0x3f7cfcbb	0.98823136
4	0x3f6f943a	0.9358555
5	0x3f7ac108	0.9795079
6	0x3f64e7d6	0.89416254
7	0x3f6bca4c	0.92105556
8	0x3f7b22ac	0.9809978
9	0x3f7a71c1	0.97829825
10	0x3f637f5a	0.888662
11	0x3f69fcb7	0.9140124
12	0x3f79854b	0.97469014
13	0x3f6d7037	0.9274935
14	0x3f7ad686	0.97983587
15	0x3f876267	1.0576905
16	0x3f7f903d	0.99829465
17	0x3f5bf6ae	0.8592328
18	0x3f8004d4	1.0001473
19	0x3f76b1e0	0.96365166
20	0x3f84e2ad	1.0381676
21	0x3f787e39	0.970676
22	0x3f6a785d	0.9158991
23	0x3f7a9246	0.97879446
24	0x3f7a744b	0.978337
25	0x3f891aeb	1.071134
26	0x3f7354fb	0.95051545
27	0x3f81d5cc	1.0143371
28	0x3f80fd1a	1.007724
29	0x3f768bd2	0.963071
30	0x3f7ffe64	0.99997544
31	0x3f7cb52e	0.9871396
32	0x3f671754	0.9026997
33	0x3f7df4a7	0.99201435
34	0x3f795cc2	0.9740716
35	0x3f824766	1.0178039
36	0x3f84538a	1.0337994
37	0x3f782f49	0.9694715
38	0x3f8cb560	1.0992851
39	0x3f7717dd	0.9652079
40	0x3f73906d	0.9514225
41	0x3f706d30	0.93916607
42	0x3f82fcf0	1.023344
43	0x3f884a60	1.0647697
44	0x3f7249e5	0.94644004
45	0x3f880ce8	1.0628939
46	0x3f8fb572	1.1227248
47	0x3f6a3f75	0.9150308
48	0x3f883117	1.0639981
49	0x3f7104a5	0.9414771
50	0x3f7977ee	0.97448623
51	0x3f71e738	0.94493437
52	0x3f6b06d8	0.9180732
53	0x3f7b13d3	0.98077124
54	0x3f7e1f57	0.9926657
55	0x3f6597e3	0.89684886
56	0x3f82a261	1.0205804
57	0x3f62c466	0.8858093
58	0x3f825252	1.0181372
59	0x3f87ecbc	1.0619121
60	0x3f938dd2	1.1527655
61	0x3f5a2912	0.8521892
62	0x3f755ea2	0.95847523
63	0x3f882cb2	1.063864

bn2.bias f4 [64]
0	0xbd944ad5	-0.072408356
1	0xbea2a340	-0.31765175
2	0xbe28c147	-0.1647998
3	0xbe0a9411	-0.13533045
4	0xbe5fdcc2	-0.21861556
5	0xbe1fd278	-0.15607631
6	0xbe90ba86	-0.28267306
7	0xbe354c1b	-0.17704813
8	0xbe397c78	-0.18113887
9	0xbe32e547	-0.17470275
10	0xbe58e765	-0.2118202
11	0xbe3526c6	-0.17690572
12	0xbe9a23f6	-0.3010556
13	0xbe96b0de	-0.29431814
14	0xbe870fa8	-0.26379132
15	0xbdfa70b3	-0.12228527
16	0xbe3016f3	-0.17196254
17	0xbe39d98c	-0.18149394
18	0xbded4511	-0.11585439
19	0xbe7b065e	-0.24514148
20	0xbe3aac56	-0.18229803
21	0xbdfae320	-0.12250352
22	0xbe949e49	-0.29027012
23	0xbddd74e0	-0.10813308
24	0xbe7908aa	-0.24319711
25	0xbd48a0a2	-0.048981316
26	0xbe3722f1	-0.17884423
27	0xbe86b582	-0.26310354
28	0xbe969086	-0.29407138
29	0xbe4420ef	-0.19153188
30	0xbe5d8dca	-0.2163612
31	0xbe6680d4	-0.22510082
32	0xbe920769	-0.28521279
33	0xbe8149d9	-0.25251654
34	0xbe3db2f6	-0.185253
35	0xbe181ef8	-0.14855564
36	0xbe8e1cd4	-0.2775637
37	0xbd677fdd	-0.056518424
38	0xbd9e4511	-0.07728017
39	0xbdd74bcc	-0.10512504
40	0xbe928d34	-0.28623354
41	0xbe9a4ffc	-0.30139148
42	0xbde0a551	-0.109690316
43	0xbca6e186	-0.02037121
44	0xbe390ac8	-0.18070519
45	0xbe210e1b	-0.15728037
46	0xbdba2a89	-0.09090144
47	0xbe8a09cd	-0.26960602
48	0x3c64d3a9	0.013966479
49	0xbe271976	-0.16318306
50	0xbe8b50aa	-0.2720998
51	0xbe1f8b0f	-0.1558039
52	0xbe3d0605	-0.18459328
53	0xbe646df3	-0.22307567
54	0xbe19c64d	-0.15017052
55	0xbe86e779	-0.26348475
56	0xbdf0b577	-0.11753362
57	0xbe84ea20	-0.25959873
58	0xbe6ada35	-0.22934802
59	0x3da984da	0.082772925
60	0xbe12926e	-0.14313671
61	0xbe4422a5	-0.19153841
62	0x3c5c4ea1	0.013446481
63	0xbe871569	-0.26383522

bn2.running_mean f4 [64]
0	0xbfe7d02c	-1.8110404
1	0x403b00c4	2.9219217
2	0x3face592	1.3507559
3	0xc00ae334	-2.1701174
4	0xbfe366e8	-1.776578
5	0xc00c49b5	-2.1919987
6	0x402771be	2.6163173
7	0xbfe22ef5	-1.767058
8	0xbff58a48	-1.9182825
9	0xbfc6a5bc	-1.5519328
10	0xbf9351ca	-1.1509335
11	0xbff95d58	-1.9481611
12	0x3dc53cd8	0.09630746
13	0xbf947c89	-1.1600505
14	0xbf928740	-1.1447525
15	0xbfce2dd4	-1.6107736
16	0xc02200ca	-2.5312982
17	0xbfe41576	-1.7819049
18	0xbf98fbbf	-1.1951827
19	0xbe9600a9	-0.2929738
20	0xbf8a31fe	-1.0796506
21	0xbf925b21	-1.143406
22	0xbeb8f8c2	-0.36127287
23	0xbfb7fb62	-1.4373591
24	0xbf8ea11c	-1.1142917
25	0xc019a985	-2.4009717
26	0xbf9e6b61	-1.237652
27	0xbf92293f	-1.1418837
28	0xc029e9d0	-2.6548958
29	0xc03d6a6b	-2.9596202
30	0xbf448745	-0.76768905
31	0xbf72c65d	-0.9483393
32	0xbfbcaa62	-1.4739497
33	0xbf786837	-0.9703402
34	0xbfb9798f	-1.4490222
35	0xc03a212b	-2.9082744
36	0xbf4d0084	-0.8007891
37	0xc0707f8e	-3.7577853
38	0xbf967318	-1.1753874
39	0xbf110742	-0.566517
40	0xbf58b101	-0.84645087
41	0xbfaed513	-1.3658775
42	0xbfdae036	-1.7099674
43	0xc012b6e7	-2.2924135
44	0xbf9f4f96	-1.2446163
45	0xc012d8f2	-2.2944913
46	0xbfa93b6c	-1.3221259
47	0xc0181025	-2.3759854
48	0xc039bbeb	-2.9020946
49	0xbfd5301a	-1.6655304
50	0xbf87776c	-1.058332
51	0xc043e6e0	-3.0609665
52	0xbf7ba43f	-0.98297495
53	0xc0375abf	-2.8649137
54	0xbfb0d333	-1.3814453
55	0xc0242c82	-2.5652165
56	0xc06ec739	-3.7309096
57	0xbdadd7f5	-0.08488456
58	0xc0046f48	-2.069292
59	0xbfcc8bcf	-1.5980166
60	0xbf4727dc	-0.77795196
61	0xbdb73e2b	-0.089474045
62	0xbfa5133e	-1.2896497
63	0xbfb7886d	-1.4338509

bn2.running_var f4 [64]
0	0x405a59e1	3.4117358
1	0x40f55fbf	7.6679378
2	0x3fff0904	1.9924626
3	0x4111dba4	9.116123
4	0x40b9b5fc	5.803465
5	0x408841a2	4.258012
6	0x406d7e09	3.7108176
7	0x409903b8	4.781704
8	0x4055b59b	3.3392093
9	0x400a8fa2	2.1650167
10	0x404eb588	3.2298298
11	0x40bae4fe	5.840453
12	0x3ffb2ce4	1.9623075
13	0x409be465	4.87163
14	0x403bad9b	2.932471
15	0x404f5dcc	3.2401
16	0x40c1feb7	6.062343
17	0x4095b842	4.6787424
18	0x40c7baf0	6.2415695
19	0x40696c40	3.647232
20	0x4002a83e	2.0415187
21	0x4049d2e7	3.1534975
22	0x3fa9f79c	1.3278689
23	0x405a7f79	3.4140303
24	0x401d1174	2.4541903
25	0x40c5f919	6.1866574
26	0x4076c5f8	3.855833
27	0x4003921d	2.055793
28	0x40c56de0	6.1696625
29	0x4085b9c7	4.178928
30	0x3fbd97dc	1.4811969
31	0x4043646c	3.0530043
32	0x400a07ed	2.1567338
33	0x402374df	2.5540082
34	0x402d1da7	2.7049348
35	0x40f1b6cf	7.5535655
36	0x402eb2c9	2.7296622
37	0x418c08ed	17.504358
38	0x406341a8	3.5508823
39	0x405b46f1	3.426205
40	0x4040c388	3.0119343
41	0x40467142	3.1006627
42	0x402e31fa	2.7218003
43	0x408fd70f	4.4950023
44	0x40185f0f	2.380802
45	0x40b98a07	5.798099
46	0x406d3c03	3.7067878
47	0x40906772	4.5126276
48	0x40bb34fb	5.8502173
49	0x401f268f	2.4867284
50	0x3fefbe42	1.8729937
51	0x41029f0b	8.163829
52	0x408242ab	4.070638
53	0x409d6910	4.919075
54	0x3fe52d6a	1.7904484
55	0x40bc46da	5.883649
56	0x410abdf8	8.671379
57	0x3ff273b2	1.8941557
58	0x40856e73	4.1697326
59	0x4056335f	3.3468854
60	0x406b8f94	3.6806383
61	0x40481bb8	3.1266918
62	0x403f5e58	2.9901333
63	0x405d130d	3.4542878

conv3.weight f4 [128, 64, 3, 3]
0	0xbd4c6c35	-0.04990788
1	0xbd3135e5	-0.04326429
2	0xbd199cef	-0.03750318
3	0x3cc9b88c	0.024624132
4	0x3a0ad19f	0.0005295518
5	0xbd3ec378	-0.046573132
6	0xbd857969	-0.06517298
7	0xbc12fefe	-0.008971928
8	0x3b71dd6e	0.0036905664
9	0x3d428b02	0.04749585
10	0x3d756ccd	0.059918214
11	0x3dbccbdc	0.092185706
12	0x3daf57bd	0.085616566
13	0x3d0ca60f	0.034338053
14	0x3d1162a3	0.035494458
15	0x3da6ac01	0.08138276
16	0x3d858120	0.06518769
17	0x3da8ffb7	0.08251899
18	0xbd9f31d4	-0.07773176
19	0xbd9e57d4	-0.07731596
20	0xbc92fa8d	-0.017941738
21	0xbd7b2150	-0.061311066
22	0xbcba771c	-0.022761874
23	0xbcbe8894	-0.023258485
24	0xbd0647bb	-0.03278325
25	0x3a8b5e4b	0.001063296
26	0x3cf98717	0.030459924
27	0xbc93c9a1	-0.01804048
28	0xbd35973d	-0.044333685
29	0xbcba4208	-0.022736564
30	0xbd1b6f7e	-0.037948124
31	0xbc7c6067	-0.0154038435
32	0xbd27b3b4	-0.040942863
33	0xbc7efaea	-0.015562752
34	0x3c1ac787	0.009446985
35	0x3cc5870e	0.02411225
36	0x3db6cae4	0.08925417
37	0x3d30cd07	0.04316428
38	0x3de069cd	0.1095768
39	0x3d8cf4cc	0.06882629
40	0x3d16b9ac	0.036798164
41	0xbbc16237	-0.0059016007
42	0x3ca0b256	0.019616287
43	0xbd36b46f	-0.04460567
44	0x3c13d7b7	0.009023598
45	0xbc747290	-0.014919892
46	0x3d2f3427	0.042774346
47	0x3c81707a	0.015800703
48	0xbc808635	-0.015688995
49	0xbc56a716	-0.01310136
50	0x3ce08ac6	0.027409922
51	0x3c9c71f7	0.019097311
52	0x3d9e4321	0.077276476
53	0x3d8052e9	0.06265814
54	0x3ca1d9cc	0.019757174
55	0xbc1d7cf3	-0.00961231
56	0xbb38c7d0	-0.002819527
57	0x3d2298c4	0.03969647
58	0x3d315ed8	0.04330334
59	0x3b85c29c	0.004082037
60	0x3c906d93	0.017630374
61	0x3cea0351	0.028566035
62	0x3cbba15d	0.022904092
63	0xbdaade9c	-0.083432406
64	0xbdd3e65d	-0.10346673
65	0xbda8b570	-0.082377315
66	0xbcecad19	-0.028891133
67	0xbd05db67	-0.03267994
68	0xbdba320e	-0.090915784
69	0xbd869737	-0.06571811
70	0xbd9491ee	-0.072543964
71	0xbd5f733c	-0.054553255
72	0xbc9add75	-0.018904427
73	0xbb4a2d07	-0.0030849592
74	0xbc83d53d	-0.01609289
75	0xbcfa0e2d	-0.030524338
76	0xbce36cdd	-0.027761871
77	0xbd36738f	-0.0445438
78	0x3d6683ac	0.056277916
79	0x3d01d6da	0.03169904
80	0x3daf756f	0.085673206
81	0xbdc39c0b	-0.09551247
82	0xbdbe535a	-0.09293242
83	0xbc8e230c	-0.017350696
84	0xbd9e94f1	-0.07743252
85	0xbddf6347	-0.109076075
86	0xbd91d361	-0.071203955
87	0xbdb991fd	-0.09061048
88	0xbc604a1e	-0.013689546
89	0x3c88b04b	0.016685626
90	0x3b7491ce	0.0037318352
91	0xbd8143b4	-0.063117415
92	0xbc52c3a9	-0.012864032
93	0x3bc097dc	0.005877478
94	0x3c553918	0.0130141005
95	0xbd134ab1	-0.035959903
96	0x3ca350fe	0.019936081
97	0x3d6cc081	0.057800774
98	0x3d1a7ec8	0.037718564
99	0xbbe7dd05	-0.007075908
100	0x3a6cd5bd	0.0009034535
101	0xbd6984d1	-0.05701143
102	0xbc596ecc	-0.013271045
103	0xbbea5f28	-0.007152457
104	0xbd1e3648	-0.038625985
105	0xbd5230ab	-0.051315945
106	0xbd1e4476	-0.03863951
107	0xbd3b511c	-0.04573165
108	0xbce2067f	-0.027590988
109	0x3c39fa7a	0.011351222
110	0xbc5f7687	-0.013639099
111	0xbd113b44	-0.03545691
112	0x3cb49331	0.022042843
113	0x3ce7551e	0.02823883
114	0xbc255a18	-0.010092281
115	0xbbfb2b3d	-0.0076650665
116	0x3d5cef97	0.05393943
117	0x3e1e26e1	0.15444519
118	0x3dc05650	0.09391463
119	0x3dac7f3a	0.08422704
120	0x3ddfd732	0.10929717
121	0x3dda838f	0.10669624
122	0x3d1f3d34	0.038876727
123	0x3deb8462	0.114998594
124	0x3dc46d03	0.09591105
125	0x3dad99bc	0.08476588
126	0x3c07d2f9	0.008290046
127	0xbc01660e	-0.007897867
128	0x3d0b1f27	0.033965256
129	0xbc26d3f4	-0.0101823695
130	0x3b4d3fe9	0.003131861
131	0x3cd78664	0.0263092
132	0x3d8d2f0c	0.06893739
133	0x3cd46ac2	0.025929812
134	0x3d8f3161	0.0699184
135	0x3c606781	0.013696552
136	0xbc877400	-0.016534805
137	0xbcfc1c6c	-0.030775271
138	0x3d5bc095	0.053650457
139	0xbc4576e6	-0.012052273
140	0x3b4d1c2b	0.0031297307
141	0xbcbf4bac	-0.023351513
142	0x3ca82b91	0.020528587
143	0xbcc63a63	-0.024197763
144	0x3dfe7b5b	0.12425872
145	0x3da6a7dd	0.08137486
146	0x3d419f61	0.047271136
147	0x3d2e7a5f	0.04259717
148	0x3d077f77	0.033080544
149	0x3d7fee1f	0.06248295
150	0x3d5c3995	0.053765852
151	0x3c85b268	0.016320422
152	0xbce5e404	-0.028062828
153	0xbcf78e11	-0.03021911
154	0xbd053def	-0.032529768
155	0xbd93754b	-0.07200106
156	0xbdb133b4	-0.0865244
157	0xbd20c31b	-0.039248567
158	0x3c06bb75	0.008223404
159	0xb9f32781	-0.00046378004
160	0xbd1ba320	-0.037997365
161	0x3cd405e7	0.02588172
162	0xbd380a2a	-0.04493157
163	0xbd40f4b6	-0.047108375
164	0x3a43565b	0.00074515276
165	0x3ce6cec7	0.028174771
166	0x3d48d4b1	0.049030963
167	0x3b16963f	0.0022977737
168	0x3d187780	0.03722334
169	0x3d41fa79	0.04735801
170	0x3d17ecde	0.03709113
171	0x3c20163b	0.009770925
172	0x3cc461d1	0.023972424
173	0xbcce4fd0	-0.025184542
174	0xbccfb386	-0.025354158
175	0xbd4d668c	-0.050146624
176	0xbbbd9b14	-0.005786309
177	0xbd52094b	-0.051278394
178	0xbd55304e	-0.05204802
179	0x3c9266f0	0.01787135
180	0x3d9ed127	0.077547364
181	0x3d8a664c	0.06757793
182	0x3d5f978c	0.054587886
183	0x3d35c1c0	0.044374228
184	0x3daf3cba	0.085565045
185	0x3d37a8a9	0.04483858
186	0x3d8b696c	0.06807217
187	0x3dffd3ec	0.12491593
188	0x3de5780f	0.1120454
189	0x3d8fd775	0.07023517
190	0x3d5ef394	0.054431513
191	0x3d564d34	0.05231972
192	0x3cdcc577	0.026949627
193	0x3b23988c	0.0024962751
194	0x3d80e72f	0.06294095
195	0x3d08091e	0.03321182
196	0x3d207677	0.039175477
197	0x3d91c0bf	0.071168415
198	0x3d32e6ea	0.043677248
199	0x3ce9b352	0.02852789
200	0x3dc93c06	0.09825902
201	0x3cc13675	0.023585537
202	0x3d5b5c3e	0.053554766
203	0x3be09ea3	0.0068548485
204	0x3d242d2c	0.04008214
205	0x3c5f317e	0.01362264
206	0x3d3d1bdd	0.04616915
207	0xbd27f715	-0.04100712
208	0xbd936851	-0.07197631
209	0xbd9ac391	-0.075568326
210	0xbd0dab37	-0.03458711
211	0xbd287985	-0.041131515
212	0xbdca5e46	-0.098812625
213	0xbd3d7999	-0.046258543
214	0xbcf0c180	-0.029389143
215	0xbda19cc6	-0.0789123
216	0x3d30c48b	0.043156188
217	0x3d0143e2	0.03155888
218	0x3d69e5ea	0.05710403
219	0x3d914138	0.070925176
220	0x3cfdaf06	0.030967247
221	0x3da8232a	0.08209832
222	0xbb95ad38	-0.0045677684
223	0x3bc1dd01	0.0059162383
224	0xbd119e6d	-0.035551477
225	0x3d0223e6	0.031772517
226	0xbcc49b34	-0.023999788
227	0xbd0309d1	-0.031991784
228	0x3d8eb011	0.06967176
229	0x3d67f9f5	0.056634862
230	0x3d935bbb	0.071952306
231	0x3cd8ef94	0.026481427
232	0x3d26c3eb	0.040714186
233	0xbc47bdb7	-0.012191228
234	0xbbd92369	-0.0066265357
235	0x3ce199c9	0.02753915
236	0xbd2a4d14	-0.041577414
237	0xbcef88f3	-0.029240107
238	0xbc63428f	-0.013870849
239	0xbbad44dc	-0.0052877497
240	0xbdbdc935	-0.09266893
241	0xbda334b6	-0.07969038
242	0xbcb0b805	-0.021572122
243	0xbdad7b59	-0.08470792
244	0xbd9be70d	-0.07612429
245	0xbd6dc34e	-0.058047585
246	0x3d800f2f	0.06252896
247	0x3c26e7a3	0.010187062
248	0xbc829041	-0.015937926
249	0x3da270ed	0.07931695
250	0x3c67d430	0.014149711
251	0xbd8612a0	-0.06546521
252	0x3d12bb16	0.03582295
253	0xbd474c67	-0.048656847
254	0x3c09d991	0.008413688
255	0x3c85de0a	0.016341228

conv3.bias f4 [128]
0	0xbca28ad7	-0.019841595
1	0x3d36c15e	0.044618003
2	0x3d0423ff	0.03226089
3	0x3c807255	0.015679518
4	0xbcea653a	-0.028612722
5	0xbd30079f	-0.042976018
6	0xbc04df6f	-0.008109911
7	0x368eeb2c	4.2593074e-06
8	0xbc2c780e	-0.01052667
9	0xbce3c8fa	-0.027805794
10	0xbc103329	-0.00880126
11	0xbd199763	-0.03749789
12	0xbc83eac9	-0.016103165
13	0x3c8652d7	0.016396923
14	0xbc940bb2	-0.018071983
15	0x3cfd31d3	0.030907547
16	0xbb4d938e	-0.0031368467
17	0xbcaca62a	-0.021075327
18	0x3c5cce6f	0.013476952
19	0x3c6c06fe	0.014405964
20	0x3ce3a9db	0.027790954
21	0x3cb72aa4	0.0223592
22	0x3d10f596	0.03539046
23	0xbcc22a4e	-0.023701813
24	0x3d3ca253	0.046053242
25	0x3cf20fdc	0.029548578
26	0xb8ea8143	-0.000111820664
27	0x3cb889d0	0.022526652
28	0xbd084a67	-0.03327408
29	0xbc764b72	-0.015032636
30	0x3c4bd4cb	0.0124408705
31	0xbd0dd654	-0.034628227
32	0xbaf2cb3d	-0.0018523704
33	0xbc571223	-0.013126883
34	0xbd099571	-0.033589784
35	0x3c893932	0.016750906
36	0x3d00b8be	0.031426184
37	0x3cd11b8f	0.025525836
38	0x3c8b2ad4	0.016988195
39	0xbc955db8	-0.018233165
40	0xbb78edd4	-0.0037983553
41	0x3d0b9f76	0.03408762
42	0x3c92ec98	0.017935082
43	0xbc6ef19d	-0.014583972
44	0xbcab8211	-0.020936044
45	0x3d0637ef	0.032768186
46	0xba5ac17e	-0.00083448726
47	0x3d44655d	0.04794823
48	0xbd01115e	-0.031510703
49	0x3d430e9f	0.047621366
50	0x3cbfb91a	0.023403693
51	0x3d12b8c8	0.035820752
52	0x3af01292	0.0018316081
53	0x3cf6d9e8	0.030133203
54	0xbc8c5638	-0.017130956
55	0x3ce5a13c	0.028030984
56	0x3c0b140c	0.008488666
57	0x3c940871	0.018070431
58	0xbbfad899	-0.007655215
59	0xbce7a3c7	-0.028276337
60	0x3d0c44e8	0.0342454
61	0xbcac6de0	-0.021048486
62	0xbb1b5e6a	-0.0023707398
63	0x3cac889b	0.021061232
64	0xbc59cdba	-0.013293678
65	0x3ce0ab74	0.027425505
66	0x3d158d5b	0.03651176
67	0x3cdb5dfd	0.026778216
68	0x3d0f745c	0.03502308
69	0x3d148bac	0.036266014
70	0x3d42a518	0.047520727
71	0xbb94de0f	-0.004543073
72	0x3d361a29	0.044458542
73	0x3d136f23	0.03599466
74	0xbc3bde4d	-0.011466575
75	0xbd0db65e	-0.034597747
76	0xbbdf3250	-0.0068114176
77	0xba3f75ab	-0.00073036057
78	0x3c1b5652	0.00948103
79	0x3cdc5755	0.026897112
80	0xbc3bd5d8	-0.011464559
81	0x3cfc848f	0.030824928
82	0x3d253e75	0.040342767
83	0xbc870306	-0.016480934
84	0x3d53c60b	0.05170254
85	0x3d159c97	0.03652629
86	0xb8d2537c	-0.000100291305
87	0xbd1e98a1	-0.038719777
88	0x3d0bbbd5	0.034114677
89	0xbce3d5c8	-0.0278119
90	0xbcafef58	-0.021476433
91	0xb9b72fc8	-0.0003494008
92	0xbc2f412d	-0.010696691
93	0x3ca456e0	0.020060956
94	0x3d212184	0.039338604
95	0x3d15ccec	0.03657238
96	0x3af95c1d	0.0019024644
97	0x3a63f926	0.0008696489
98	0xbd2a8e42	-0.041639574
99	0x3d296404	0.041355148
100	0x3cae706a	0.021293838
101	0xbd3b68a1	-0.04575408
102	0xbcfcb79d	-0.030849272
103	0x3d25b2ec	0.040453836
104	0xbc54bee3	-0.012984964
105	0xbcf1900c	-0.029487632
106	0x3c4c95e3	0.012486908
107	0x3d223df5	0.039609868
108	0xbd19e107	-0.03756812
109	0x3d6ca966	0.05777874
110	0xbccad347	-0.024758948
111	0x3ccabef1	0.024749251
112	0xbc80b1c3	-0.015709763
113	0xbcf2d618	-0.029643103
114	0x3d1f2abe	0.03885912
115	0xbb9315ac	-0.0044886675
116	0xbbc1906b	-0.0059071085
117	0x3c6d2744	0.014474694
118	0xbc9c7b63	-0.019101804
119	0x3c3b99c0	0.011450231
120	0x3c0d7f40	0.008636296
121	0x3c21a716	0.009866497
122	0xbcec6271	-0.028855534
123	0xbd40e157	-0.0470899
124	0x3d194b83	0.03742553
125	0x3d0c8f5a	0.0343164
126	0x3a3c2a90	0.0007177973
127	0xbb656d5e	-0.0035007815
