built_models/esc50_esc50cnn_model_fold2_20250430_210354.pth (torch, 654357 bytes, 24 tensors)

mel_transform.spectrogram.window f4 [1024]
000000 00 00 00 00 00 00 1e 37 00 e0 1d 38 00 a0 b1 38
       0.0 9.417534e-06 3.7640333e-05 8.46982e-05
000010 00 e8 1d 39 00 b8 76 39 00 a4 b1 39 00 c4 f1 39
       0.00015059114 0.00023528934 0.0003388226 0.00046113133
000020 00 e2 1d 3a 00 d0 47 3a 00 aa 76 3a 00 39 95 3a
       0.00060227513 0.0007622242 0.0009409487 0.0011384785
000030 00 93 b1 3a 00 63 d0 3a 00 a8 f1 3a 80 b1 0a 3b
       0.0013547838 0.0015898645 0.0018436909 0.0021162927
000040 80 c9 1d 3b 80 1b 32 3b 00 a8 47 3b 80 6e 5e 3b
       0.0024076402 0.0027177036 0.0030465126 0.0033940375
000050 80 6e 76 3b c0 d3 87 3b 40 0d 95 3b 00 e3 a2 3b
       0.0037602484 0.0041451156 0.0045486987 0.004970908
000060 00 55 b1 3b 40 63 c0 3b c0 0d d0 3b 00 54 e0 3b
       0.005411744 0.0058712065 0.0063492954 0.006845951
000070 00 36 f1 3b e0 59 01 3c 60 66 0a 3c 80 c0 13 3c
       0.0073611736 0.007894963 0.00844726 0.009018064
000080 20 68 1d 3c 40 5d 27 3c c0 9f 31 3c 80 2f 3c 3c
       0.009607345 0.010215104 0.01084131 0.011485934
000090 60 0c 47 3c 40 36 52 3c 00 ad 5d 3c a0 70 69 3c
       0.0121489465 0.012830317 0.013530016 0.014248043
0000a0 00 81 75 3c 00 ef 80 3c b0 43 87 3c 90 be 8d 3c
       0.014984369 0.015738964 0.016511768 0.017302781
0000b0 90 5f 94 3c 90 26 9b 3c a0 13 a2 3c 90 26 a9 3c
       0.018111974 0.018939286 0.019784749 0.02064827
0000c0 50 5f b0 3c e0 bd b7 3c 30 42 bf 3c 10 ec c6 3c
       0.021529824 0.022429407 0.02334699 0.024282485
0000d0 90 bb ce 3c 80 b0 d6 3c e0 ca de 3c 90 0a e7 3c
       0.025235921 0.026207209 0.027196348 0.028203279
0000e0 80 6f ef 3c a0 f9 f7 3c 68 54 00 3d 80 be 04 3d
       0.029227972 0.030270398 0.031330496 0.032408237
0000f0 10 3b 09 3d 10 ca 0d 3d 68 6b 12 3d 18 1f 17 3d
       0.033503592 0.03461653 0.03574696 0.036894888
000100 10 e5 1b 3d 40 bd 20 3d a0 a7 25 3d 28 a4 2a 3d
       0.038060248 0.039242983 0.040443063 0.041660458
000110 d0 b2 2f 3d 78 d3 34 3d 28 06 3a 3d c0 4a 3f 3d
       0.04289514 0.044146985 0.045416027 0.046702147
000120 40 a1 44 3d a0 09 4a 3d c0 83 4f 3d a8 0f 55 3d
       0.048005342 0.049325585 0.050662756 0.052016884
000130 38 ad 5a 3d 68 5c 60 3d 38 1d 66 3d 80 ef 6b 3d
       0.05338785 0.054775625 0.05618021 0.057601452
000140 48 d3 71 3d 70 c8 77 3d f8 ce 7d 3d 64 f3 81 3d
       0.059039384 0.060493886 0.06196496 0.06345251
000150 ec 07 85 3d 08 25 88 3d b4 4a 8b 3d e8 78 8e 3d
       0.064956516 0.06647688 0.06801358 0.06956655
000160 98 af 91 3d c0 ee 94 3d 58 36 98 3d 58 86 9b 3d
       0.0711357 0.072721004 0.0743224 0.075939834
000170 b4 de 9e 3d 6c 3f a2 3d 6c a8 a5 3d b8 19 a9 3d
       0.07757321 0.07922253 0.080887645 0.082568586
000180 3c 93 ac 3d f8 14 b0 3d e0 9e b3 3d e8 30 b7 3d
       0.0842652 0.085977495 0.087705374 0.08944875
000190 0c cb ba 3d 44 6d be 3d 84 17 c2 3d c0 c9 c5 3d
       0.09120759 0.092981845 0.094771415 0.096576214
0001a0 f8 83 c9 3d 1c 46 cd 3d 20 10 d1 3d 04 e2 d4 3d
       0.09839624 0.10023138 0.10208154 0.103946716
0001b0 b8 bb d8 3d 30 9d dc 3d 6c 86 e0 3d 5c 77 e4 3d
       0.105826795 0.10772169 0.10963139 0.111555785
0001c0 f4 6f e8 3d 2c 70 ec 3d 00 78 f0 3d 60 87 f4 3d
       0.11349478 0.115448326 0.11741638 0.11939883
0001d0 40 9e f8 3d 9c bc fc 3d 32 71 00 3e ca 87 02 3e
       0.12139559 0.12340662 0.1254318 0.12747112
0001e0 0e a2 04 3e fc bf 06 3e 8c e1 08 3e b8 06 0b 3e
       0.12952444 0.13159174 0.1336729 0.13576782
0001f0 7c 2f 0d 3e d6 5b 0f 3e bc 8b 11 3e 28 bf 13 3e
       0.13787645 0.13999876 0.1421346 0.14428389
000200 1a f6 15 3e 88 30 18 3e 6e 6e 1a 3e c6 af 1c 3e
       0.14644662 0.14862263 0.15081188 0.15301427
000210 8c f4 1e 3e b8 3c 21 3e 44 88 23 3e 2e d7 25 3e
       0.15522975 0.15745819 0.1596995 0.16195366
000220 6e 29 28 3e fc 7e 2a 3e d8 d7 2c 3e f6 33 2f 3e
       0.16422054 0.16650003 0.16879213 0.17109665
000230 56 93 31 3e ec f5 33 3e b6 5b 36 3e b0 c4 38 3e
       0.1734136 0.1757428 0.17808422 0.1804378
000240 ce 30 3b 3e 10 a0 3d 3e 6c 12 40 3e de 87 42 3e
       0.18280336 0.1851809 0.18757027 0.18997142
000250 5e 00 45 3e e8 7b 47 3e 76 fa 49 3e 00 7c 4c 3e
       0.19238421 0.1948086 0.1972445 0.19969177
000260 80 00 4f 3e f2 87 51 3e 4e 12 54 3e 8e 9f 56 3e
       0.20215034 0.20462015 0.20710108 0.20959303
000270 ac 2f 59 3e a2 c2 5b 3e 66 58 5e 3e f8 f0 60 3e
       0.21209592 0.21460965 0.21713409 0.21966922
000280 4e 8c 63 3e 60 2a 66 3e 2a cb 68 3e a4 6e 6b 3e
       0.2222149 0.22477102 0.22733751 0.22991425
000290 ca 14 6e 3e 94 bd 70 3e fc 68 73 3e fa 16 76 3e
       0.23250118 0.23509818 0.23770517 0.24032202
0002a0 88 c7 78 3e a0 7a 7b 3e 36 30 7e 3e 26 74 80 3e
       0.24294865 0.24558496 0.24823079 0.25088614
0002b0 6c d1 81 3e ea 2f 83 3e 9c 8f 84 3e 7d f0 85 3e
       0.2535509 0.25622493 0.25890815 0.2616004
0002c0 8c 52 87 3e c4 b5 88 3e 22 1a 8a 3e a4 7f 8b 3e
       0.26430166 0.26701176 0.26973063 0.2724582
0002d0 46 e6 8c 3e 04 4e 8e 3e da b6 8f 3e c4 20 91 3e
       0.27519435 0.27793896 0.28069192 0.2834531
0002e0 c0 8b 92 3e ca f7 93 3e e0 64 95 3e fc d2 96 3e
       0.28622246 0.28899986 0.29178524 0.29457843
0002f0 1c 42 98 3e 3c b2 99 3e 58 23 9b 3e 6b 95 9c 3e
       0.29737937 0.30018795 0.30300403 0.30582747
000300 76 08 9e 3e 72 7c 9f 3e 5c f1 a0 3e 30 67 a2 3e
       0.3086583 0.31149632 0.31434143 0.3171935
000310 ec dd a3 3e 8c 55 a5 3e 08 ce a6 3e 63 47 a8 3e
       0.3200525 0.3229183 0.32579064 0.32866964
000320 96 c1 a9 3e 9e 3c ab 3e 78 b8 ac 3e 1e 35 ae 3e
       0.33155507 0.33444685 0.33734488 0.340249
000330 8f b2 af 3e c4 30 b1 3e bd af b2 3e 75 2f b4 3e
       0.34315917 0.34607518 0.34899703 0.35192457
000340 e8 af b5 3e 12 31 b7 3e f0 b2 b8 3e 7e 35 ba 3e
       0.35485768 0.35779625 0.36074018 0.36368936
000350 b6 b8 bb 3e 99 3c bd 3e 20 c1 be 3e 48 46 c0 3e
       0.3666436 0.36960295 0.37256718 0.3755362
000360 0e cc c1 3e 6d 52 c3 3e 60 d9 c4 3e e6 60 c6 3e
       0.37850994 0.38148823 0.38447094 0.38745803
000370 fc e8 c7 3e 9b 71 c9 3e c0 fa ca 3e 69 84 cc 3e
       0.3904494 0.39344487 0.39644432 0.3994477
000380 91 0e ce 3e 32 99 cf 3e 4c 24 d1 3e da af d2 3e
       0.40245488 0.40546566 0.40848005 0.4114979
000390 d8 3b d4 3e 42 c8 d5 3e 14 55 d7 3e 4a e2 d8 3e
       0.41451907 0.41754347 0.42057097 0.42360145
0003a0 df 6f da 3e d2 fd db 3e 1f 8c dd 3e c0 1a df 3e
       0.42663476 0.42967087 0.43270966 0.43575096
0003b0 b2 a9 e0 3e f2 38 e2 3e 7c c8 e3 3e 49 58 e5 3e
       0.43879467 0.4418407 0.44488895 0.4479392
0003c0 59 e8 e6 3e a8 78 e8 3e 31 09 ea 3e f0 99 eb 3e
       0.45099142 0.45404553 0.45710137 0.46015882
0003d0 e1 2a ed 3e 00 bc ee 3e 49 4d f0 3e ba de f1 3e
       0.46321777 0.46627808 0.46933964 0.4724024
0003e0 4d 70 f3 3e 00 02 f5 3e ce 93 f6 3e b3 25 f8 3e
       0.47546616 0.47853088 0.4815964 0.48466262
0003f0 ac b7 f9 3e b2 49 fb 3e c6 db fc 3e e1 6d fe 3e
       0.48772943 0.49079663 0.49386424 0.49693206

mel_transform.mel_scale.fb f4 [513, 40]
000000 00 00 00 80 00 00 00 00 00 00 00 00 00 00 00 00
       -0.0 0.0 0.0 0.0
000010 00 00 00 00 00 00 00 00 00 00 00 00 00 00 00 00
       0.0 0.0 0.0 0.0
000020 00 00 00 00 00 00 00 00 00 00 00 00 00 00 00 00
       0.0 0.0 0.0 0.0
000030 00 00 00 00 00 00 00 00 00 00 00 00 00 00 00 00
       0.0 0.0 0.0 0.0
000040 00 00 00 00 00 00 00 00 00 00 00 00 00 00 00 00
       0.0 0.0 0.0 0.0
000050 00 00 00 00 00 00 00 00 00 00 00 00 00 00 00 00
       0.0 0.0 0.0 0.0
000060 00 00 00 00 00 00 00 00 00 00 00 00 00 00 00 00
       0.0 0.0 0.0 0.0
000070 00 00 00 00 00 00 00 00 00 00 00 00 00 00 00 00
       0.0 0.0 0.0 0.0
000080 00 00 00 00 00 00 00 00 00 00 00 00 00 00 00 00
       0.0 0.0 0.0 0.0
000090 00 00 00 00 00 00 00 00 00 00 00 00 00 00 00 00
       0.0 0.0 0.0 0.0
0000a0 11 bb 31 3f 00 00 00 00 00 00 00 00 00 00 00 00
       0.69426066 0.0 0.0 0.0
0000b0 00 00 00 00 00 00 00 00 00 00 00 00 00 00 00 00
       0.0 0.0 0.0 0.0
0000c0 00 00 00 00 00 00 00 00 00 00 00 00 00 00 00 00
       0.0 0.0 0.0 0.0
0000d0 00 00 00 00 00 00 00 00 00 00 00 00 00 00 00 00
       0.0 0.0 0.0 0.0
0000e0 00 00 00 00 00 00 00 00 00 00 00 00 00 00 00 00
       0.0 0.0 0.0 0.0
0000f0 00 00 00 00 00 00 00 00 00 00 00 00 00 00 00 00
       0.0 0.0 0.0 0.0
000100 00 00 00 00 00 00 00 00 00 00 00 00 00 00 00 00
       0.0 0.0 0.0 0.0
000110 00 00 00 00 00 00 00 00 00 00 00 00 00 00 00 00
       0.0 0.0 0.0 0.0
000120 00 00 00 00 00 00 00 00 00 00 00 00 00 00 00 00
       0.0 0.0 0.0 0.0
000130 00 00 00 00 00 00 00 00 00 00 00 00 00 00 00 00
       0.0 0.0 0.0 0.0
000140 94 a2 24 3f d8 ba b6 3e 00 00 00 00 00 00 00 00
       0.64310575 0.35689425 0.0 0.0
000150 00 00 00 00 00 00 00 00 00 00 00 00 00 00 00 00
       0.0 0.0 0.0 0.0
000160 00 00 00 00 00 00 00 00 00 00 00 00 00 00 00 00
       0.0 0.0 0.0 0.0
000170 00 00 00 00 00 00 00 00 00 00 00 00 00 00 00 00
       0.0 0.0 0.0 0.0
000180 00 00 00 00 00 00 00 00 00 00 00 00 00 00 00 00
       0.0 0.0 0.0 0.0
000190 00 00 00 00 00 00 00 00 00 00 00 00 00 00 00 00
       0.0 0.0 0.0 0.0
0001a0 00 00 00 00 00 00 00 00 00 00 00 00 00 00 00 00
       0.0 0.0 0.0 0.0
0001b0 00 00 00 00 00 00 00 00 00 00 00 00 00 00 00 00
       0.0 0.0 0.0 0.0
0001c0 00 00 00 00 00 00 00 00 00 00 00 00 00 00 00 00
       0.0 0.0 0.0 0.0
0001d0 00 00 00 00 00 00 00 00 00 00 00 00 00 00 00 00
       0.0 0.0 0.0 0.0
0001e0 69 a6 af 3b b3 a0 7e 3f 00 00 00 00 00 00 00 00
       0.005360414 0.9946396 0.0 0.0
0001f0 00 00 00 00 00 00 00 00 00 00 00 00 00 00 00 00
       0.0 0.0 0.0 0.0
000200 00 00 00 00 00 00 00 00 00 00 00 00 00 00 00 00
       0.0 0.0 0.0 0.0
000210 00 00 00 00 00 00 00 00 00 00 00 00 00 00 00 00
       0.0 0.0 0.0 0.0
000220 00 00 00 00 00 00 00 00 00 00 00 00 00 00 00 00
       0.0 0.0 0.0 0.0
000230 00 00 00 00 00 00 00 00 00 00 00 00 00 00 00 00
       0.0 0.0 0.0 0.0
000240 00 00 00 00 00 00 00 00 00 00 00 00 00 00 00 00
       0.0 0.0 0.0 0.0
000250 00 00 00 00 00 00 00 00 00 00 00 00 00 00 00 00
       0.0 0.0 0.0 0.0
000260 00 00 00 00 00 00 00 00 00 00 00 00 00 00 00 00
       0.0 0.0 0.0 0.0
000270 00 00 00 00 00 00 00 00 00 00 00 00 00 00 00 00
       0.0 0.0 0.0 0.0
000280 00 00 00 00 77 93 d6 3e 44 b6 14 3f 00 00 00 00
       0.0 0.41909382 0.58090615 0.0
000290 00 00 00 00 00 00 00 00 00 00 00 00 00 00 00 00
       0.0 0.0 0.0 0.0
0002a0 00 00 00 00 00 00 00 00 00 00 00 00 00 00 00 00
       0.0 0.0 0.0 0.0
0002b0 00 00 00 00 00 00 00 00 00 00 00 00 00 00 00 00
       0.0 0.0 0.0 0.0
0002c0 00 00 00 00 00 00 00 00 00 00 00 00 00 00 00 00
       0.0 0.0 0.0 0.0
0002d0 00 00 00 00 00 00 00 00 00 00 00 00 00 00 00 00
       0.0 0.0 0.0 0.0
0002e0 00 00 00 00 00 00 00 00 00 00 00 00 00 00 00 00
       0.0 0.0 0.0 0.0
0002f0 00 00 00 00 00 00 00 00 00 00 00 00 00 00 00 00
       0.0 0.0 0.0 0.0
000300 00 00 00 00 00 00 00 00 00 00 00 00 00 00 00 00
       0.0 0.0 0.0 0.0
000310 00 00 00 00 00 00 00 00 00 00 00 00 00 00 00 00
       0.0 0.0 0.0 0.0
000320 00 00 00 00 00 00 00 00 45 ca 58 3f ee d6 1c 3e
       0.0 0.0 0.8468364 0.15316364
000330 00 00 00 00 00 00 00 00 00 00 00 00 00 00 00 00
       0.0 0.0 0.0 0.0
000340 00 00 00 00 00 00 00 00 00 00 00 00 00 00 00 00
       0.0 0.0 0.0 0.0
000350 00 00 00 00 00 00 00 00 00 00 00 00 00 00 00 00
       0.0 0.0 0.0 0.0
000360 00 00 00 00 00 00 00 00 00 00 00 00 00 00 00 00
       0.0 0.0 0.0 0.0
000370 00 00 00 00 00 00 00 00 00 00 00 00 00 00 00 00
       0.0 0.0 0.0 0.0
000380 00 00 00 00 00 00 00 00 00 00 00 00 00 00 00 00
       0.0 0.0 0.0 0.0
000390 00 00 00 00 00 00 00 00 00 00 00 00 00 00 00 00
       0.0 0.0 0.0 0.0
0003a0 00 00 00 00 00 00 00 00 00 00 00 00 00 00 00 00
       0.0 0.0 0.0 0.0
0003b0 00 00 00 00 00 00 00 00 00 00 00 00 00 00 00 00
       0.0 0.0 0.0 0.0
0003c0 00 00 00 00 00 00 00 00 2b 0d 9e 3e 6a f9 30 3f
       0.0 0.0 0.3086942 0.69130576
0003d0 00 00 00 00 00 00 00 00 00 00 00 00 00 00 00 00
       0.0 0.0 0.0 0.0
0003e0 00 00 00 00 00 00 00 00 00 00 00 00 00 00 00 00
       0.0 0.0 0.0 0.0
0003f0 00 00 00 00 00 00 00 00 00 00 00 00 00 00 00 00
       0.0 0.0 0.0 0.0

conv1.weight f4 [32, 1, 3, 3]
000000 64 f2 55 be 2e 6b 33 be 3b 1a 1e be e7 20 89 3e
       -0.20893246 -0.17521355 -0.15439694 0.26782915
000010 7c 99 0b be 1a f9 c1 3e 12 ee 90 be 0d 24 1e 3e
       -0.13632768 0.37885362 -0.28306633 0.1544344
000020 96 6a 45 3d 54 29 5c 3e 0f 71 67 3e 72 cd 89 be
       0.04819735 0.2150014 0.22601722 -0.26914555
000030 0f 06 8b 3e 60 48 f7 3d cd 6c 9b be 91 ae 14 3e
       0.2715306 0.12074351 -0.30356446 0.14519717
000040 f0 ec 1a 3e 47 40 9a bd c3 5b 10 3d 1b c1 a4 3d
       0.15129447 -0.07531791 0.03524376 0.080446444
000050 6e cb 5c bd f9 f7 b4 3e 15 c8 aa 3e a8 92 8d 3e
       -0.053904943 0.35345438 0.33355775 0.27650952
000060 b7 c4 2d 3d 12 3a 32 be c6 a8 ac ba 88 0e 28 be
       0.04242393 -0.17404965 -0.0013172857 -0.16411793
000070 82 f8 c2 3d 5d 72 91 3e 69 ce 60 3d 10 4e 4c 3e
       0.09520055 0.28407565 0.054884348 0.19951653
000080 5e d4 4c be aa a4 c9 3e 0c 5c 82 3e 30 53 c6 3d
       -0.20002887 0.3938344 0.2546085 0.096838355
000090 ae 4a 14 be 9b ec a1 3e 8a 9d 23 be 01 76 79 3e
       -0.14481613 0.31625828 -0.15978065 0.24361421
0000a0 44 0b bd 3d be 7f 79 be 83 74 0d 3e e5 41 c9 3d
       0.09230664 -0.24365136 0.13813977 0.098270215
0000b0 b3 b4 72 be 01 58 8e bd 5e ee ef 3d 65 9d 89 be
       -0.23701744 -0.06950379 0.11715387 -0.26877895
0000c0 d5 e6 10 3e 7a 20 40 be f5 cd 8f 3c 60 f1 2e 3e
       0.14150555 -0.18762389 0.017554263 0.17084265
0000d0 57 07 09 3e e3 b3 52 3d f1 2b 92 be e8 4d 01 be
       0.13381706 0.051441085 -0.2854915 -0.12627375
0000e0 36 a0 90 3e eb 6d 4e 3d 81 73 09 bd dc 03 83 3e
       0.2824723 0.050397795 -0.03355742 0.25588882
0000f0 b1 85 2d bd 4d 61 fa bd 04 73 99 3d 56 33 0e 3e
       -0.042363826 -0.1222559 0.074926406 0.1388677
000100 16 dc 1c 3d 10 86 cf 3d b8 7b 8a ba fb 9e 83 3e
       0.038295828 0.10132992 -0.0010565436 0.2570723
000110 0d 8f a9 be 6e 17 45 3d 65 ca 2b be f6 1f 5c bc
       -0.33116952 0.048118047 -0.16776426 -0.013435354
000120 a1 f1 04 3e 0d 20 9a 3e 1f cf 14 3e 98 df b6 be
       0.12982799 0.30102578 0.14532135 -0.35717463
000130 6f 25 45 bd 1e e6 ba 3d 9d 59 97 3c 41 47 48 3d
       -0.048131403 0.091259226 0.018475348 0.048896078
000140 8a ac 7f be 98 62 ae 3d c0 1b 51 3e 98 ff 8c be
       -0.24968162 0.08514899 0.20420742 -0.27538753
000150 36 a8 38 3d 45 c3 83 3d 85 10 7c 3e d9 16 81 be
       0.045082293 0.06433729 0.24615677 -0.25212744
000160 2b ce 09 be f7 ec 3c be 4c cf 7f be 15 19 26 3e
       -0.13457553 -0.1844977 -0.24981421 0.16220506
000170 61 f7 1e be f8 46 ab 3d 25 80 5d 3d 4a 67 5b 3e
       -0.15524055 0.083631456 0.054077286 0.2142612
000180 00 e2 9b 3d 46 2f 52 3e 52 d5 79 3e dd 89 a0 be
       0.076114655 0.20525846 0.24397781 -0.3135518
000190 f0 de 42 3e 32 8e 57 be 13 15 bb 3d 0e ca 05 be
       0.19030356 -0.21050337 0.09134879 -0.13065359
0001a0 fc 65 0c bd 7e 6c ea bd fb db b1 be 98 44 89 be
       -0.034276947 -0.114464745 -0.34738144 -0.26810145
0001b0 ca 5b 6d be f7 7f 74 be f7 43 7e bd 31 11 98 3e
       -0.23179546 -0.2387694 -0.062076535 0.29700616
0001c0 3b 8a 0b be 19 2c f0 3d 3c 4b 82 3e 3b 38 69 3e
       -0.1362695 0.11727161 0.25448024 0.22775356
0001d0 d1 59 01 be ba 1e 7e bd 9b d7 7f be 57 cd 14 be
       -0.12631918 -0.062041022 -0.2498459 -0.14531456
0001e0 ef d4 f2 bd 20 a1 95 3d bd fe a1 bd 63 62 36 3e
       -0.1185702 0.07306123 -0.079099156 0.17810969
0001f0 2f 69 46 3e 2b d4 26 3e 6f e9 b0 3e c8 10 3d bd
       0.19376062 0.16291873 0.34553096 -0.046158582
000200 6f ce 96 3e 27 66 db bd 8d 6c f1 bd 02 c8 42 3e
       0.2945437 -0.107128434 -0.117882825 0.1902161
000210 84 ff 33 be f7 8f 9a be 84 e9 c5 bd a6 ae 8a 3e
       -0.1757794 -0.3018796 -0.0966368 0.2708637
000220 88 5b 6b be b8 31 9b 3e 3f c6 92 be 5a 03 41 be
       -0.22984135 0.3031137 -0.28666875 -0.18848935
000230 32 e0 71 3e f7 49 3d be 51 c1 82 3a 8d e8 84 3d
       0.2362068 -0.18485247 0.0009975826 0.06489668
000240 73 01 8a be 04 41 90 be a5 7a b9 bc 8c 58 7e 3e
       -0.2695423 -0.28174603 -0.02264149 0.24838465
000250 47 c7 20 3e e0 4b 3e 3e 4d 21 64 be 56 70 36 3e
       0.15701018 0.18583632 -0.22278328 0.1781629
000260 4d e0 db 3d 16 50 26 be 7a 19 1d 3e 57 9c 22 bc
       0.10736141 -0.16241488 0.1534175 -0.00992497
000270 42 87 90 be 14 d3 10 3e f4 34 16 be 94 0e 5f bd
       -0.28228194 0.1414302 -0.14668638 -0.054457262
000280 12 2b 8f 3d f8 fd aa 3e 22 50 9c be 68 a6 0a 3e
       0.06990637 0.33396888 -0.30529886 0.13540041
000290 08 ce 53 bc c5 e3 46 3e 44 d9 96 3e 29 9a 88 3e
       -0.01292754 0.19422825 0.29462636 0.26680115
0002a0 f5 da ae 3d d0 88 6b be 13 fc b3 be ec dc 82 be
       0.085378565 -0.23001409 -0.35153255 -0.25559175
0002b0 3d 0c 6b 3d b0 5f 5f 3e de 1d 51 be 88 7e a8 be
       0.05738472 0.21813846 -0.2042155 -0.32909036
0002c0 20 26 8e 3e 00 94 dd 3d ec 6f 2d bd c3 6d 5e 3e
       0.27763462 0.108192444 -0.042343065 0.21721558
0002d0 b1 64 92 bd df 8c 52 3e bc 71 32 3e f9 d5 89 3e
       -0.071481116 0.2056155 0.17426199 0.2692106
0002e0 43 7e 87 bd ff 1f a4 3d 75 e5 e1 3d a9 73 da bd
       -0.066158794 0.08013915 0.110300936 -0.10666592
0002f0 c8 9d d6 3d 2d 89 4c be 74 30 ae bd 4a a9 84 be
       0.10479313 -0.19974203 -0.085053355 -0.25910407
000300 33 8c 20 bd 29 ad 86 bd 88 e5 55 be 32 bb 08 bd
       -0.039196204 -0.065759964 -0.2088834 -0.03338165
000310 99 68 91 3e 58 ae b5 3e 95 c5 2a 3e 1d 26 47 3e
       0.28400114 0.35484576 0.16676934 0.19448133
000320 8e be a7 be 8d f3 da bc 6f 1e b3 3d 1d 57 d9 3d
       -0.3276257 -0.026727462 0.08746039 0.10612319
000330 53 e5 cc bd 8f e9 1d bd 6d fc e7 bd 50 54 58 3e
       -0.100046776 -0.038552817 -0.11327443 0.21125913
000340 28 5c 66 be 63 e8 81 3b eb ef 97 3e 3e f4 8c be
       -0.22496092 0.0039644702 0.2967523 -0.27530092
000350 36 6c 1d be b0 37 14 bd 89 be 14 3e 73 40 c4 bd
       -0.1537331 -0.03618592 0.14525808 -0.09582605
000360 41 79 ad 3e 4b 00 3f 3e c2 60 90 bd 43 4c 83 be
       0.33881572 0.18652456 -0.07049705 -0.2564412
000370 11 05 b1 bd 8b 11 41 be c3 79 9a 3e f2 36 cd bd
       -0.086435445 -0.18854348 0.30171022 -0.100202456
000380 be f4 4e be 31 a2 81 3c 4e 53 73 be 8c ae 35 3e
       -0.20210549 0.01582441 -0.23762247 0.17742366
000390 c8 e7 9f be 65 d5 98 bd c7 fd 76 be 8c 83 1e be
       -0.31231523 -0.07462577 -0.24120246 -0.15479869
0003a0 a3 75 ea bb 6b f9 85 be 1b 39 2f 3e 61 ef cc 3d
       -0.0071551367 -0.26166853 0.17111628 0.100065954
0003b0 64 91 6b 3e f5 d1 10 be 83 1a 12 3e 7d 84 99 3d
       0.23004681 -0.14142592 0.14267926 0.07495973
0003c0 53 e3 81 be 39 cf d8 bd 0c 10 23 bd 2a fd 00 3d
       -0.25368747 -0.105863996 -0.039810225 0.031491436
0003d0 6f 2c 37 3e a5 24 73 3e dc af c2 3c 54 c5 29 3e
       0.17888044 0.23744448 0.023765497 0.16579181
0003e0 de 8a 2e 3c 41 57 8b b6 b3 c0 ae be 8b 2a e3 bd
       0.010653226 -4.1526805e-06 -0.34131393 -0.11092099
0003f0 1a cd 06 be f2 f5 b0 3d 3c 3a 8f be e2 77 ac 3e
       -0.13164178 0.0864066 -0.27974117 0.33685213

conv1.bias f4 [32]
000000 ec 11 82 be 91 da 8b bc ff 49 b5 3c 1a 95 c5 bc
       -0.25404298 -0.017071994 0.02213001 -0.024118949
000010 3b 0f 51 3d e2 bd 89 3c ac d4 38 3e ea ab 66 bd
       0.051039916 0.016814176 0.18049878 -0.056316294
000020 e1 c1 f5 bd 52 7b 9f 3d 06 23 93 3e 1c c1 49 3e
       -0.1199987 0.07787193 0.28737658 0.19702572
000030 7c 1e b1 3d cf 60 0a 3e 98 ad 82 3e 83 13 aa be
       0.086483926 0.13513492 0.25523067 -0.3321801
000040 b9 c3 c9 bd 67 ce 1b bc 5f aa de 3d b1 c9 a2 3e
       -0.09851784 -0.009509659 0.108723395 0.31794503
000050 06 a4 79 be fe 1e b4 be a7 fe 87 3e f7 7d c1 bd
       -0.24378976 -0.35179895 0.26561472 -0.09447854
000060 7b 89 37 3d 7c f7 05 3e d6 41 f8 3c 3f 6d 53 3b
       0.044808846 0.13082689 0.03030483 0.003226116
000070 85 7d 7e 3e d4 b9 0f bd 77 9b 84 be 40 1f a7 3d
       0.2485257 -0.03508933 -0.2589986 0.08160257

bn1.weight f4 [32]
000000 54 30 86 3f c4 b3 6d 3f 10 f4 67 3f 76 50 5c 3f
       1.0483499 0.92852426 0.90606785 0.86060274
000010 60 2d 8b 3f 8f de 84 3f 99 36 7d 3f 90 3f 81 3f
       1.0873222 1.038042 0.98911434 1.0097523
000020 19 95 7d 3f 84 67 67 3f 6f 6c 71 3f 3d df 5a 3f
       0.9905563 0.9039233 0.9430608 0.85496885
000030 e4 d3 86 3f 32 d9 8c 3f bc 5d 6f 3f 69 66 79 3f
       1.0533414 1.1003783 0.935024 0.9742189
000040 ef ec 81 3f 89 0a 85 3f 67 f6 8a 3f b3 86 81 3f
       1.0150431 1.039384 1.0856446 1.0119232
000050 57 1d 65 3f 4f f7 82 3f e9 b2 6b 3f 0f 23 71 3f
       0.89497894 1.0231723 0.9206987 0.9419412
000060 31 37 81 3f 36 98 67 3f 09 3a 83 3f bf 95 7d 3f
       1.0094968 0.9046663 1.0252086 0.9905662
000070 ca 0a 80 3f 7b ba 80 3f ff ef 67 3f 3f 3a 71 3f
       1.0003293 1.0056909 0.9060058 0.942295

bn1.bias f4 [32]
000000 c9 f9 64 bd 20 ff 3f be 6b 0a c1 bd d1 e5 74 be
       -0.055902276 -0.18749666 -0.09425815 -0.23915793
000010 34 b1 06 be f2 65 b6 bd 69 2a 48 be ae 4c e5 bd
       -0.13153535 -0.08906163 -0.19547428 -0.11196266
000020 0d bb a1 3d 69 01 05 3b e3 3c 61 be bf 77 58 3c
       0.07897005 0.002029503 -0.21995883 0.013212143
000030 2e fa 2c bd e7 86 56 3e 67 44 7b 3d 3b 3e 2e 3e
       -0.042230777 0.20949899 0.06134453 0.17015927
000040 7e a6 a5 bd 9f 44 c3 bd 50 d2 1d bd 82 c7 79 bd
       -0.080883965 -0.09534573 -0.038530648 -0.06098128
000050 3a a4 5a be cf ec 0a bd 2b fd 2e 3c 5c e4 43 bd
       -0.2135171 -0.033917245 0.010680477 -0.047825202
000060 44 a3 ec 3c 5e ee 25 3d da b7 bf bd de 4e 1b bd
       0.028886445 0.040510528 -0.09361239 -0.03791701
000070 51 f0 d7 ba 5c 10 4c be c0 51 ca bb 05 7e 22 bd
       -0.0016474818 -0.19928116 -0.006174296 -0.039670963

bn1.running_mean f4 [32]
000000 05 98 8c be 77 e3 45 bc 8e 7b d6 3c fb 5c bd bc
       -0.27459732 -0.012078158 0.026181962 -0.023115626
000010 65 44 54 3d c4 69 99 3b 7e 44 34 3e 0f 9b 33 bd
       0.05182304 0.0046817977 0.17604253 -0.043849047
000020 9f be c3 bd 62 7f ac 3d a1 75 8b 3e 61 e0 43 3e
       -0.095578425 0.08422734 0.2723818 0.19128563
000030 a7 16 7e 3d 82 b6 e4 3d 56 9d 91 3e e8 a4 a2 be
       0.06203332 0.11167623 0.2844035 -0.31766438
000040 91 97 f9 bd d5 d3 68 bc 1f 71 da 3d fb 8a a1 3e
       -0.12187112 -0.014210661 0.106661074 0.31551346
000050 02 3d 6e be 12 58 c2 be 56 03 8a 3e b0 cc c1 bd
       -0.2326546 -0.37957817 0.2695567 -0.09462869
000060 45 14 81 3d 4c 54 08 3e 5f af 5c 3d 7e 83 d0 3c
       0.06302694 0.13313407 0.053878184 0.025453325
000070 ac b8 70 3e 06 4a da bc 43 38 89 be 46 23 d5 3d
       0.23507947 -0.026646625 -0.26800737 0.104071185

bn1.running_var f4 [32]
000000 a4 a0 19 3d 47 3f 6d 3e 58 6b 47 3f 35 bf 63 3f
       0.037506714 0.2316867 0.7789817 0.88963634
000010 ff 84 fc 3c 87 1b 27 3d 93 05 df 3c 53 c5 99 3c
       0.030825136 0.040797736 0.027224338 0.01877085
000020 0c af 33 3d b1 9e a4 3d 4f fc d0 3e f1 c4 8a 3f
       0.04386811 0.080380805 0.40817496 1.0841352
000030 32 d1 92 3d 51 82 a0 3d 80 70 d1 3d 93 d0 05 3d
       0.07168807 0.07837356 0.10226536 0.032669615
000040 7d cd 72 3d 1c 5e 0d 3d 85 c2 9f 3d 93 a1 29 3d
       0.059278 0.034513578 0.078007735 0.041413855
000050 d4 98 d3 3e b6 0b 28 3e 30 99 8f 3c f8 cb f7 3c
       0.41327536 0.16410717 0.0175291 0.030248627
000060 7c 89 57 3d 28 53 88 3f 90 11 b1 3d 7e e3 c5 3d
       0.05262135 1.0650377 0.08645928 0.09662531
000070 fe 1f 51 3d d0 0a 79 3d ec ad d3 3d 72 b5 4f 3d
       0.0510559 0.060801327 0.10335907 0.05071015

conv2.weight f4 [64, 32, 3, 3]
000000 4f 06 0e 3d 0c 4f ec 3c 03 e0 d9 3c 6b 43 95 3d
       0.034673985 0.028846286 0.026596075 0.072882496
000010 2c db 11 3e 07 fa 13 3e a8 74 8c bd 86 a7 6b bd
       0.14243764 0.14450847 -0.06858188 -0.05753281
000020 54 fb a2 ba 1e 8e 6f 3d e8 7a f1 bc a8 fd 3c 3d
       -0.0012434521 0.058485143 -0.029477552 0.046140343
000030 ed 76 00 bd e1 02 c9 bc e0 fd c5 3c 42 7c 7e bd
       -0.031363416 -0.024537506 0.024168909 -0.06213022
000040 0b 82 56 bd dc a6 6a bd bb 3a 05 3d 50 6a 41 3b
       -0.052370112 -0.057288036 0.032526713 0.002951283
000050 71 7a b0 3d f3 11 98 3b 38 0a 0f bc 45 82 75 3d
       0.08617104 0.0046408116 -0.008730464 0.059938688
000060 1b 7c 22 bd fb e7 e4 bc ac b4 2e 3c 5c 41 67 bc
       -0.039669137 -0.027942648 0.010663193 -0.014114704
000070 fe c1 ad 3d 00 86 b8 3d aa ee 1b bd 7c a9 25 bc
       0.08484267 0.090099335 -0.038069405 -0.010111209
000080 d4 2e 76 3d b3 f8 7f 3c a8 2a 37 bd 37 92 91 bd
       0.060103253 0.015623259 -0.044718415 -0.071079664
000090 19 98 10 bd 09 13 de 3c 83 85 2f bd d7 06 03 bd
       -0.0353013 0.027108686 -0.042851936 -0.031988945
0000a0 a4 72 56 bd 83 ec 4d bc cc a3 85 be 44 12 d0 bd
       -0.052355424 -0.012568596 -0.2610153 -0.10159734
0000b0 18 56 0c be 64 1c d0 38 66 4f 84 bd 55 42 91 bd
       -0.13704717 9.923501e-05 -0.064604566 -0.0709273
0000c0 94 b5 bb 3c 16 15 de 3c 15 f3 4e bd 9e 1a 1c bd
       0.022913732 0.027109664 -0.05052479 -0.03811132
0000d0 30 62 2d bd e1 4e d5 bd af 42 5a 3b 7c b8 bb 3c
       -0.042329967 -0.104154356 0.0033303907 0.022915117
0000e0 3d 49 ec 3a 1b fb 58 3d 5f ad 93 3d 0b b6 1b 3c
       0.0018027198 0.052973848 0.07210802 0.009503852
0000f0 e1 a0 d7 bc d9 cc 29 be 3c e9 aa bd 6b 44 19 3d
       -0.02632183 -0.1658205 -0.08345267 0.037418764
000100 09 4f 96 3d 88 cb 19 3d 05 df 7b bc 52 7a 15 3d
       0.073392935 0.03754762 -0.015372996 0.036493607
000110 da 45 b7 3d ac 07 b3 bd 73 69 01 3c 6a 49 57 bd
       0.0894887 -0.08741698 0.007898676 -0.052560247
000120 df 1c c3 3d 57 f3 af 3d 10 e9 dc 3c eb 4c 24 bc
       0.09526991 0.08591335 0.026966602 -0.010028104
000130 f2 76 35 3d e7 2a 2a 3d b6 05 cf bc 90 2e 62 bc
       0.04430289 0.04154482 -0.025271278 -0.013805047
000140 0c 46 32 bd d6 10 dd 3c b4 61 62 bd 4c c2 67 bd
       -0.043523833 0.026985567 -0.05526896 -0.05658178
000150 bc 8d 16 bd bc 28 94 bd 3b 73 07 3d 26 d5 9c 3c
       -0.036756262 -0.07234332 0.033068877 0.019144606
000160 8d 5a 25 3d 50 24 77 3d 16 d4 8a 3c 03 6e b8 ba
       0.04036956 0.060337365 0.016946834 -0.0014070872
000170 63 aa 13 bd b8 0a 54 bd 11 28 57 bc 28 2c 0f 3d
       -0.036051165 -0.051768035 -0.013132111 0.03495422
000180 1b e7 56 bc 8a 91 ab bd c5 04 6c bd 4f f0 42 bd
       -0.013116623 -0.08377369 -0.057621736 -0.047592457
000190 6a 8f 2a 3d 95 75 27 3d 88 68 34 bd 40 ed 96 bd
       0.041640677 0.04088362 -0.044045 -0.073694706
0001a0 c3 30 fe 3b d4 e2 02 bd 84 b2 97 3b 89 a3 15 3d
       0.0077572777 -0.0319546 0.004629435 0.036532912
0001b0 de 2a c0 bc d8 13 69 bd a4 f0 1b bd 1c 06 e7 ba
       -0.02345794 -0.05690369 -0.03807129 -0.0017625722
0001c0 cf 22 d3 bc 34 ec 2c 3d 37 01 0a be c3 4a 4e bd
       -0.025773434 0.04221745 -0.13477026 -0.050364267
0001d0 fa 21 50 bd fa 67 5a bc b5 03 1b 3c 02 ac 88 bd
       -0.050813653 -0.013330454 0.009461333 -0.06673433
0001e0 d3 23 51 bd 6d 5c 11 3a c3 b4 62 3c 37 66 ff bd
       -0.051059555 0.00055450835 0.013837042 -0.12470668
0001f0 ea d4 93 bd 0c 44 e5 bd c4 55 1c 3d 02 98 6b 3d
       -0.072183445 -0.111946195 0.03816773 0.057518013
000200 12 37 b0 3d 39 96 b3 bd 43 69 8a bd 36 a1 2f bb
       0.08604254 -0.08768887 -0.06758358 -0.002679897
000210 0d 0f e1 3c fd d0 20 bd 5a dd e5 bc 79 12 e4 3c
       0.027472997 -0.039261807 -0.02805965 0.02784084
000220 58 82 ae 3d d7 09 00 3e 58 dc 8d bd 7a 26 4b bc
       0.08520955 0.12503754 -0.06926793 -0.01239931
000230 aa 8c 05 3d c6 e1 34 bb 14 7d 0e bd f8 0b 1b bc
       0.03260485 -0.0027600392 -0.034787253 -0.009463303
000240 88 07 7d 3c 6b 7b a0 bd e4 04 6c bd 38 54 2f 3c
       0.01544369 -0.0783604 -0.05762185 0.010701232
000250 48 5f 86 b9 72 ce 83 3d fa 24 c8 bb 38 68 96 bd
       -0.00025629462 0.06435861 -0.0061079236 -0.07344097
000260 05 c7 19 bd 1e 5d 24 bc df d9 e7 bc 29 f5 1d bd
       -0.037543315 -0.0100319665 -0.028302131 -0.03856388
000270 6c 7a d6 bd a5 5c 8c bd f3 ea 53 3c e4 02 33 bd
       -0.10472569 -0.06853608 0.012934434 -0.04370393
000280 c1 47 05 bd 34 16 94 bd 5e d8 d5 bc 76 ee e6 3c
       -0.032539133 -0.072307974 -0.026104148 0.028189879
000290 51 c9 08 3d 0e e5 83 3d e0 1b e1 3d cd 42 e4 3d
       0.033395115 0.06440173 0.10991645 0.11145554
0002a0 d4 ee 12 3c 04 03 e7 3b 89 be a4 3d 1c 7f 74 bd
       0.008968074 0.00704992 0.08044154 -0.059691533
0002b0 99 08 89 3d ae c6 a3 3d 5a 71 88 bd ed fc b1 bd
       0.06691093 0.079968795 -0.06662245 -0.0869082
0002c0 e5 65 5e bc c9 17 aa bd d7 67 1d be e8 5d d3 3c
       -0.013574098 -0.08305318 -0.15371643 0.025801614
0002d0 bb fa a4 39 e6 11 95 3d db 5e 00 3c 17 e7 96 ba
       0.00031467326 0.072788045 0.007835115 -0.0011512962
0002e0 59 1d b7 3d a0 89 bb 3d ef 98 b5 3c 02 ef c8 3c
       0.089411445 0.09157109 0.022167651 0.02452803
0002f0 23 83 39 bc fd b5 c8 3c 27 c3 6e bc 0f 8e 69 3b
       -0.011322769 0.024500841 -0.014572895 0.0035637652
000300 37 ff aa 3c d4 81 64 3d bb e7 f3 3c c0 d5 37 3d
       0.020873649 0.055787876 0.029773584 0.044881582
000310 c9 8c 11 3c a5 33 3e bd eb bc 86 bd c4 f5 98 bd
       0.008883663 -0.04643597 -0.06579002 -0.07468751
000320 b7 d5 a3 3c 59 30 2f bc a0 47 cc 39 e1 fc 9c bd
       0.019999368 -0.010692679 0.00038963277 -0.0766542
000330 1f 56 6c 3c 6c fa 51 3d 78 91 2b 3d b1 89 10 3d
       0.01442483 0.05126421 0.041886777 0.035287563
000340 44 56 5a bd 49 62 81 3d 30 ea 9a bc 77 be 2e 3c
       -0.053304926 0.063175745 -0.018910497 0.010665528
000350 2f 9e d6 3c 41 5c d5 bc 23 72 9e bc 9f b8 89 bc
       0.026198475 -0.026044967 -0.019341534 -0.016811667
000360 3a c7 c1 3c 2e e4 a6 3d 64 1b 48 3d 41 e2 7f bd
       0.023654569 0.081489906 0.048854247 -0.062471632
000370 ed aa b2 ba 70 e4 86 bd ef 7e 0a be 28 11 d7 bd
       -0.0013631262 -0.0658654 -0.13524984 -0.10501319
000380 22 f7 f7 bb b9 ed 79 bd 5e c8 63 bd 9d 7c 3d 3d
       -0.0075673023 -0.061017726 -0.055611007 0.04626142
000390 c0 11 96 bd d1 ed 08 3d f2 37 4d 3b 62 17 e3 bb
       -0.07327604 0.033429924 0.0031313864 -0.0069302777
0003a0 2b f9 01 3b 56 89 16 bd 54 f4 83 3d fe 1f 5a 3d
       0.0019832354 -0.036752068 0.06443086 0.053253166
0003b0 29 19 a3 3b 1b db 82 3d 3e 86 d2 3c 90 aa a9 3b
       0.0049773646 0.06389447 0.025698777 0.0051778033
0003c0 a9 65 3c bd 88 49 89 3b df cd fa 3b a3 96 66 3d
       -0.04599539 0.004189674 0.0076539363 0.056296002
0003d0 c1 b1 70 bc 9f 7f 02 3d 96 84 83 3d 65 96 b5 3d
       -0.014690817 0.03185999 0.06421773 0.08866576
0003e0 32 9d ca bc df c0 2d bc db f2 d0 bc c2 81 0b bd
       -0.02473316 -0.010605066 -0.025506428 -0.034059294
0003f0 e2 10 08 bc 14 eb 9a bc ba 81 e2 bc ee d0 bc bb
       -0.008304806 -0.018910922 -0.02764975 -0.005762211

conv2.bias f4 [64]
000000 ca 96 6b bd 67 38 d8 bb 72 e1 10 3d ef 07 97 bb
       -0.05751685 -0.0065985206 0.03537125 -0.0046091
000010 d0 10 26 bd 4f 6a 1d bd 7d df 15 3d af 3e 30 3d
       -0.040543377 -0.038431462 0.03659009 0.04302853
000020 36 2d 77 3d 4a f3 4c bb f3 ac e8 3c 1d a0 d9 bc
       0.06034585 -0.0031272941 0.028402781 -0.026565606
000030 7d 24 d5 bc 0f 3d 1a bd 33 c0 f5 3c 69 d9 17 bd
       -0.026018376 -0.037655886 0.029998874 -0.037072573
000040 0d b2 42 bd 97 ad be bb 38 85 64 3c b9 c5 59 3d
       -0.047533084 -0.0058190334 0.013947777 0.05316708
000050 a4 f2 ff 3c f2 b9 4f 3d 2f da 13 3d 24 a9 40 bd
       0.03124363 0.05071444 0.036096748 -0.047036305
000060 93 a6 5b 3c 4b 04 49 3b 96 31 3d 3d ec 0f ad bc
       0.013406414 0.0030672725 0.046189867 -0.021125756
000070 0d db 5d bd 0e 20 38 bd a6 dc e4 bb 68 01 f5 3c
       -0.05416398 -0.044952445 -0.006984311 0.029907897
000080 2d 8b 11 bd b6 0f c8 3b 60 49 dd 3c 11 e4 7c 3d
       -0.03553312 0.0061053885 0.027012527 0.06174094
000090 39 7c 4a 3c 42 01 e1 39 dd f9 8e 3c 20 ad 44 3d
       0.012358719 0.0004291628 0.017453128 0.048016667
0000a0 21 13 db bc 39 a2 b6 bc fc 1b 01 bb 92 4d 6b bc
       -0.02674252 -0.02229415 -0.0019700518 -0.014361756
0000b0 b7 46 e5 3c 29 9d 63 bd 3a eb c6 bc 25 a5 51 bd
       0.027987821 -0.0555698 -0.024282087 -0.051182885
0000c0 a7 c5 59 bd 26 03 dd 3c 94 76 02 bd fa 91 5d 3d
       -0.05316701 0.02697904 -0.031851366 0.054094292
0000d0 2c 96 19 3d 26 ec f0 bc 02 9b 58 3d fb 52 73 3c
       0.03749673 -0.02940948 0.052882202 0.014851327
0000e0 2f 98 4a 3d 86 fb 6e 3d 07 05 d9 bb 22 6e 28 bd
       0.04946154 0.05834534 -0.0066229138 -0.041120656
0000f0 4e e0 6d bc 17 25 8e bd 1e 54 76 bd 8c 2d 94 3c
       -0.01451881 -0.06940668 -0.060138814 0.018088125

bn2.weight f4 [64]
000000 f1 6e 91 3f d2 94 85 3f d7 04 90 3f 8a 60 70 3f
       1.1361982 1.0436041 1.1251477 0.93897307
000010 bd ca 66 3f 3a ae 56 3f 7d 60 89 3f 0b da 63 3f
       0.90153104 0.838596 1.0732571 0.8900458
000020 57 46 87 3f 4b 5a 81 3f 2c a7 6e 3f 37 44 78 3f
       1.0568341 1.010568 0.93223834 0.9697909
000030 93 ad 6a 3f cc 18 81 3f 13 36 7a 3f b5 1f 81 3f
       0.91671103 1.0085692 0.9773876 1.0087801
000040 ab d0 89 3f 33 74 88 3f 0c ba 71 3f 08 90 60 3f
       1.0766805 1.0660461 0.9442451 0.87719774
000050 de fa 7d 3f 96 1a 68 3f 28 48 79 3f 34 40 87 3f
       0.9921092 0.90665567 0.97375727 1.0566468
000060 6a 13 7e 3f f2 16 65 3f 34 da 83 3f 85 fa 7f 3f
       0.99248374 0.89488137 1.0300965 0.9999164
000070 fa b4 7d 3f e5 92 74 3f aa 27 87 3f 7a ec 55 3f
       0.99104273 0.95536643 1.055898 0.8356396
000080 b8 cc 82 3f 55 37 71 3f 62 48 7b 3f 44 24 8f 3f
       1.0218725 0.94225055 0.9815732 1.1182942
000090 2c 0c 91 3f 9b 3d 6c 3f d6 72 86 3f 69 80 4a 3f
       1.133184 0.922815 1.0503795 0.7910219
0000a0 eb 6b 6f 3f 0a b8 64 3f 1d ed 71 3f de 46 86 3f
       0.93524045 0.8934332 0.9450243 1.0490377
0000b0 1d 39 8c 3f 84 c3 82 3f 6a 6f 8b 3f 48 e1 8a 3f
       1.095493 1.0215917 1.0893376 1.085
0000c0 7e c8 79 3f 7e ab 7f 3f 75 bd 7e 3f 13 2a 7c 3f
       0.9757155 0.9987105 0.9950784 0.985017
0000d0 83 b4 92 3f 42 95 82 3f 02 0a 78 3f 78 0f 89 3f
       1.1461338 1.02018 0.9689027 1.0707846
0000e0 9f ac 78 3f cb 0e 7b 3f 3a dc 7b 3f 93 22 85 3f
       0.971384 0.9806945 0.98382914 1.0401176
0000f0 e7 9b 73 3f 69 14 8b 3f 1b a4 63 3f c0 ea 5c 3f
       0.95159763 1.0865604 0.8892228 0.862957

bn2.bias f4 [64]
000000 1a b6 fc bc 96 f5 1e be 82 46 17 be db 57 97 be
       -0.030848552 -0.15523371 -0.1477299 -0.29559216
000010 7b be 0a be db 7c 7d be 92 c2 81 bd fe 35 74 be
       -0.13549225 -0.2475466 -0.063359395 -0.23848721
000020 42 fa f7 bc 5c 48 34 be 0c d9 54 be 32 53 36 be
       -0.0302707 -0.17605728 -0.20785922 -0.17805174
000030 7e 1e a5 be f1 44 a8 be ee e1 6d 3c 46 18 29 be
       -0.32249826 -0.32865098 0.014519198 -0.16513166
000040 40 7e 4e bd 01 65 61 bb a6 ea 3f be 43 a0 85 be
       -0.05041337 -0.0034392478 -0.18741855 -0.26098832
000050 33 ba 0a be 9f 31 87 be b7 d8 dd bd 72 2c 34 bd
       -0.13547592 -0.26405045 -0.10832351 -0.0439877
000060 e4 76 8d be 59 56 ed bd b3 08 5a bd 82 11 0c be
       -0.2762977 -0.11588735 -0.053230952 -0.13678554
000070 e2 d8 1d be 96 43 42 be 60 7f 4e be ca a6 ba be
       -0.15414765 -0.18971094 -0.20165777 -0.36455375
000080 8c 3e 99 bd 67 59 aa bd 12 5a 74 be b5 73 81 bd
       -0.07482633 -0.083178334 -0.23862484 -0.063208975
000090 fe 3a 81 be 93 ee 46 be 48 68 a5 bd 1b 73 5c be
       -0.2524032 -0.19426946 -0.08076531 -0.21528284
0000a0 d5 a2 8c be eb 87 85 be 75 07 93 be 9c fb 35 bd
       -0.2746798 -0.2608026 -0.28716627 -0.044429407
0000b0 c1 57 cd bd 7d 3d 44 be 9b 64 34 be 08 5a fd bd
       -0.10026503 -0.19164081 -0.17616503 -0.12370688
0000c0 26 f1 2b be 80 c6 37 be 46 a4 89 bd cf cb 23 be
       -0.1679121 -0.17946815 -0.06720786 -0.15995716
0000d0 42 c8 97 bd be 6c a3 bd 27 be ad be d1 47 90 bd
       -0.07411243 -0.07979725 -0.33934137 -0.07044948
0000e0 60 6c 28 be 04 db 50 be b2 ec c9 bc 3e 88 84 bd
       -0.16447592 -0.20396048 -0.024648998 -0.06471299
0000f0 13 89 81 be 22 e3 47 bd 1a 24 b8 be 2b 8d 7f be
       -0.25299892 -0.048800595 -0.35965043 -0.24956195

bn2.running_mean f4 [64]
000000 e8 93 88 bf c5 e2 6c be 90 f5 fe bf ed cf 26 bf
       -1.0670137 -0.2313338 -1.991869 -0.6516102
000010 09 61 ce 3f 39 13 c0 bd ff 1a df bf 59 47 95 3e
       1.6123363 -0.093786664 -1.7430114 0.29155996
000020 a8 50 ec bf fd b0 06 c0 68 f8 eb bf 5d c2 8b bf
       -1.8462114 -2.1045525 -1.8435183 -1.091869
000030 3b fb 94 bf bc 51 5d 3e 45 84 a7 bf 37 72 7a be
       -1.163917 0.2161321 -1.308724 -0.24457632
000040 04 6f 20 c0 e2 9d 0e c0 96 94 9a bf d2 38 44 bf
       -2.5067759 -2.2283864 -1.2076595 -0.766492
000050 ad 32 d9 bf 54 d4 cd bf 45 f9 3a c0 c7 72 d9 bf
       -1.696859 -1.6080422 -2.9214642 -1.6988152
000060 32 c7 93 be e5 dd bf bf de 64 94 bf 6a d1 2c bf
       -0.2886291 -1.4989592 -1.1593282 -0.6750704
000070 15 1f 78 bf 00 fe 2c c0 0e 15 5c bf 6a 9f 76 bf
       -0.9692243 -2.703003 -0.85969627 -0.96336997
000080 67 8e a1 bf 9a 17 5e c0 f9 83 0a c0 5f 4f f8 bf
       -1.2621583 -3.4701905 -2.164305 -1.9399222
000090 61 0d c9 bf ac 47 fc 3f b8 0d 16 c0 fc 67 25 3e
       -1.5707208 1.9709373 -2.3445873 0.16152948
0000a0 6e 6b 86 3f 4f 0f bd bc 93 c4 74 bf 77 98 ac bf
       1.0501535 -0.023078589 -0.9561245 -1.3484029
0000b0 0e 0a 9a bf 54 ff 98 bf d7 07 da bf d2 06 dd bf
       -1.2034318 -1.195292 -1.7033643 -1.7267706
0000c0 d3 49 c5 bf 0a b9 e1 bf 4d 17 3b c0 ac ec 91 bf
       -1.5413154 -1.7634594 -2.9232972 -1.1400352
0000d0 b3 c6 08 c0 1b 9f a7 bf b1 d7 b4 3f 60 07 df bf
       -2.1371276 -1.309543 1.4128324 -1.7424126
0000e0 88 d9 d8 bf 23 93 a4 bf 86 83 00 c0 2f a2 08 c0
       -1.6941385 -1.2857403 -2.0080276 -2.134899
0000f0 c1 21 b4 bf 10 49 ae bf d2 3e 10 bf b5 fe cb 3f
       -1.4072801 -1.3616047 -0.56345856 1.5937105

bn2.running_var f4 [64]
000000 94 a9 02 40 f4 09 2d 40 d3 7e 74 40 d0 ac 9a 3f
       2.0416002 2.7037325 3.8202407 1.2083988
000010 50 26 d7 3f 58 12 c4 40 95 4a 85 40 0c 66 04 40
       1.6808567 6.127239 4.1653543 2.0687284
000020 ed c6 47 40 b4 8f 92 40 e1 54 74 40 19 af 31 40
       3.1215165 4.580042 3.8176806 2.776312
000030 36 20 5a 40 f9 d1 55 3f 7d 80 6e 40 4c 13 19 40
       3.408216 0.8352352 3.7265923 2.3918028
000040 23 3c 94 40 6d 78 8f 40 6f 28 9e 40 ac 37 0d 40
       4.632341 4.4834504 4.9424357 2.206523
000050 46 01 7f 40 49 7b 63 40 6d dd 9a 40 52 4c 4b 40
       3.9844527 3.5543997 4.8395295 3.1765332
000060 1d 61 4a 40 2b 63 88 40 22 b1 06 40 e0 a5 eb 3f
       3.1621773 4.2621055 2.1045613 1.8409996
000070 65 15 02 40 92 8a cd 40 c6 4f df 3f 58 9a 0b 40
       2.0325558 6.4231653 1.744622 2.1812954
000080 94 82 83 40 0a 0a 40 41 88 77 4d 40 30 5c 9b 40
       4.1096897 12.002451 3.2104206 4.8550034
000090 f1 3c 5e 40 db df 33 40 5b af bb 40 1e ce a5 40
       3.4724696 2.810538 5.8651557 5.181411
0000a0 4b d8 fe 3f c6 a7 de 3f f6 41 57 40 7a 45 46 40
       1.9909757 1.739495 3.363401 3.0979905
0000b0 c5 ab 23 40 b1 be ab 3f b4 1a 75 40 1f 58 2c 40
       2.557359 1.3417569 3.8297548 2.6928785
0000c0 cf 96 7e 40 8a c2 33 40 fc 22 cb 40 dd d3 60 40
       3.9779546 2.8087487 6.3480206 3.512931
0000d0 96 2c 75 40 21 6e 12 40 68 ee b6 3f 29 ad 87 40
       3.8308463 2.2879717 1.4291506 4.2398877
0000e0 71 3e 30 40 98 c0 05 40 f2 0b 8e 40 e0 0d 72 40
       2.7538111 2.08988 4.438958 3.7820969
0000f0 bd a8 c9 3f 01 ee 63 40 b0 79 01 40 80 a3 82 40
       1.575462 3.5614016 2.0230522 4.0824585

conv3.weight f4 [128, 64, 3, 3]
000000 e0 86 23 3d cf dd 5c 3d c4 d8 0e 3d ea b6 83 3c
       0.03992355 0.05392247 0.034874693 0.016078431
000010 31 81 95 bc 8c c6 96 bb 81 17 b5 3c e2 c6 22 3d
       -0.01825008 -0.0046013054 0.022105934 0.03974045
000020 92 06 73 3d 5c cd 8a bd f9 e8 3c bb 84 6c 22 bd
       0.059332438 -0.067774504 -0.0028825386 -0.03965427
000030 10 a4 c2 bc d7 90 d4 3b 42 5b 40 bd d3 b7 94 bd
       -0.023759872 0.006486993 -0.04696203 -0.07261624
000040 29 89 8f bd 70 d3 4a bc 0c 77 e1 3c 62 e6 59 3d
       -0.07008583 -0.012379512 0.027522586 0.053198226
000050 21 7c e4 3b 48 d5 5e 3d 6b bb 16 3d 9c df 19 3d
       0.006972805 0.05440262 0.03679983 0.037566766
000060 7a 79 c6 3d 70 b6 30 3d 45 43 73 3d b7 6d ba 3b
       0.096911386 0.043142736 0.059390325 0.0056893486
000070 24 8d 3a ba 1b db 98 ba 01 bc e0 bc 88 e8 ce bc
       -0.00071163685 -0.0011661978 -0.027433397 -0.025257364
000080 f8 93 9c bb 71 34 de 3c 35 f2 e0 3c a7 eb dc 3c
       -0.0047783814 0.027124615 0.027459243 0.026967837
000090 51 7e 06 bd 08 1d ea bc 8f 26 66 bb 64 ad 71 bd
       -0.03283531 -0.028578296 -0.0035118198 -0.05900325
0000a0 7c ac ce bc 5a 2c b1 bc ef f7 54 bd 47 59 e3 bc
       -0.025228731 -0.021627594 -0.05199426 -0.027752532
0000b0 fb 54 f2 bc 65 29 fd 3a 0a 05 ed 3b dd 92 1b bd
       -0.029581537 0.0019314705 0.0072332667 -0.037981857
0000c0 5d 30 ea 3b 47 54 f0 bc 3b 9c 9e 3c ac 44 cd bc
       0.0071468786 -0.029337062 0.019361606 -0.02505716
0000d0 c6 73 d9 3c 22 dd 35 3d 80 16 a7 bc af dd 04 3d
       0.026544463 0.04440034 -0.020396471 0.032437976
0000e0 3e 27 fc bc a9 97 15 bd a7 5e d4 bc c5 fa 74 bc
       -0.03078043 -0.036521588 -0.02592404 -0.014952366
0000f0 0c 7e 15 bd 4c ce 3a bd e4 9e 02 bd 6d c6 b6 3b
       -0.03649716 -0.045606896 -0.03188981 0.0055778534
000100 e8 dd ad bc 18 c8 0b 3b 21 df b0 bc f3 ef a7 3c
       -0.021223977 0.0021328982 -0.021590771 0.020500159
000110 17 45 8b 3c 98 05 a3 bb d6 80 2a 3d d6 9a 59 bd
       0.017000718 -0.004975032 0.041626774 -0.05312618
000120 8f 7d 5e bc 1b a4 0b bc 82 b5 00 3c 66 45 5e bd
       -0.01357974 -0.0085230125 0.007855775 -0.054265402
000130 0c 93 12 bd 5e bf 28 bd 12 d3 fa 3a 6e 17 6e bc
       -0.035784766 -0.041198127 0.001913639 -0.014531953
000140 5b 6b 51 bd b5 31 81 3d e9 f3 31 3d 86 c0 92 3d
       -0.051127773 0.06308309 0.0434455 0.07165627
000150 b3 21 9f bb 72 0d b7 bc 12 7a 14 bc 7e cf b6 bc
       -0.004856312 -0.022345278 -0.009062307 -0.022315737
000160 c1 37 af bd bc d3 32 bd 17 21 0a 3b 14 8e c1 3c
       -0.08555556 -0.043658957 0.0021076852 0.023627318
000170 4c 3d 65 3b bf 9f 98 3c a1 af 27 3c e1 6e c9 3c
       0.0034979163 0.01863086 0.010234744 0.024589004
000180 61 87 1a bb 3c 1d e8 3c 9d 0b c5 bc ed 4b 19 bb
       -0.0023579227 0.028334253 -0.02405339 -0.0023391203
000190 93 ce f1 3c 7a c8 15 bc 83 03 0b bd d4 d5 27 bc
       0.029517448 -0.009142036 -0.033938896 -0.010243852
0001a0 c5 5e 06 bd 0a 5a f4 bc 04 95 5b bd 93 1e 5b bd
       -0.032805223 -0.02982809 -0.05360891 -0.053495955
0001b0 74 03 93 bd 86 74 16 bd 5b 9c 59 bd a4 92 60 bd
       -0.07178393 -0.03673222 -0.053127628 -0.054827347
0001c0 35 b1 58 bc 6c 23 99 bd 66 da 46 3c fa ca 57 3d
       -0.013225843 -0.07477459 0.012137031 0.052683808
0001d0 bd 04 7a bc 70 27 2c 3e 33 f4 1a 3e 38 2b dc 3d
       -0.015259919 0.16811919 0.15132217 0.10750431
0001e0 d5 27 e0 3d 73 ee 9e 3d 51 8c 85 3d d7 16 52 3d
       0.10945097 0.07760324 0.06520904 0.051291313
0001f0 96 35 b8 3d 79 81 c6 3d d9 92 06 bc b1 dc 84 3c
       0.08994596 0.09692664 -0.008213722 0.016218515
000200 39 72 97 3c 1c 52 6b 3c da e3 d8 3b 2a 82 f4 b9
       0.018487083 0.014362838 0.006618959 -0.00046636286
000210 bf c9 99 3c 86 58 61 bd 8f ac 9d 3c 7b ea 28 bd
       0.018772958 -0.055016063 0.019247321 -0.041239243
000220 53 de 5f 39 f7 ed e4 bc 07 0c 34 bd db 19 ae bc
       0.0002134976 -0.027945502 -0.043956783 -0.021252563
000230 da 33 3e bb f0 3c ba 3c 18 db a6 3c 37 84 33 3c
       -0.0029022605 0.022734135 0.020368144 0.010956815
000240 a8 c2 9b bc af e5 3d bc 99 71 25 bc 7b 60 2a bd
       -0.019013718 -0.011590405 -0.010097885 -0.041595917
000250 04 f0 0f 3b e8 ed ca bb 53 a8 63 bb 2f c4 07 bd
       0.0021963129 -0.0061929114 -0.003473778 -0.03314608
000260 cc e3 b3 bc dc 85 73 bc 27 98 51 3c 58 46 00 bc
       -0.021959208 -0.0148634575 0.012792624 -0.007829271
000270 71 04 b2 bb 3c 0f 86 bd 67 96 ff bc b7 35 4c bd
       -0.0054326584 -0.065458745 -0.031199647 -0.049855914
000280 e5 26 d4 bc 75 38 40 bd 4c 0e 63 bb 33 ac 25 bd
       -0.025897453 -0.04692884 -0.0034645973 -0.040447425
000290 1f bd 56 bd 2e f9 35 3b e2 f7 a6 3c 9f 9b 9b 3c
       -0.052426454 0.002776693 0.020381872 0.018995104
0002a0 ac bf d8 3c 33 57 47 bb 26 70 02 3c df 62 31 3d
       0.026458584 -0.0030416965 0.007961309 0.04330718
0002b0 6e bc 79 3d 38 5a be 3d 21 c5 41 3c 49 33 d1 bc
       0.060970716 0.092945516 0.011826784 -0.02553715
0002c0 6f 19 dd bc 28 58 c7 bb 1a da 71 3a 49 e3 7f 3c
       -0.026989667 -0.006083507 0.000922592 0.015618154
0002d0 50 fb 62 3d 10 79 24 3d 27 d7 0f 3d ff 72 09 3d
       0.05541545 0.040154517 0.035117295 0.033556934
0002e0 09 a5 09 bb cf 66 ec bb 93 30 f1 bb c5 70 03 3d
       -0.002100291 -0.007214404 -0.007360527 0.032089967
0002f0 86 cd d3 bc b7 69 0b 3d 26 00 ac bc 46 4f 2b 3b
       -0.025854837 0.034036364 -0.020996165 0.002613978
000300 df b3 d9 3c 99 a9 b9 bb 0c 7f 39 3c 82 2c d2 3a
       0.026575027 -0.0056659696 0.011321794 0.0016034993
000310 7a ad d3 3c 4f 84 d1 bc d7 83 37 3c 7e 4e 32 3d
       0.025839556 -0.025575785 0.011200867 0.043531887
000320 2f 2e f5 bb 1d f3 89 3c d3 2b f9 bb ec f3 07 bc
       -0.007482312 0.016839558 -0.007604101 -0.008297902
000330 c4 78 e4 bc 28 a5 03 bd 89 f4 01 3c 33 84 cc 3c
       -0.027889617 -0.032139927 0.007931837 0.024965381
000340 7f fd a4 3b 8e d3 ef 3c 3d 12 a1 bc df 18 44 bc
       0.005035102 0.029275682 -0.019662017 -0.01196882
000350 fe ad f1 bc f3 e3 ac bd 50 b4 14 bd 05 2a 2f bd
       -0.029501911 -0.08441915 -0.036304772 -0.042764682
000360 25 0f bf bd f4 09 cc bd 49 16 19 be 45 57 7b bd
       -0.093290605 -0.09962836 -0.14949907 -0.061362524
000370 c2 58 aa bd 17 5f bb bd 68 13 12 3c ca cb 9f 3c
       -0.083177105 -0.09148996 0.00891576 0.019506354
000380 a3 90 4d 3a 47 1b 2a 3b f6 94 ae bb 86 26 df bb
       0.0007841682 0.00259562 -0.005327816 -0.0068100123
000390 40 8d 68 bd 05 51 40 bd 0b f2 89 bd ef 7f 48 bd
       -0.05677533 -0.046952266 -0.06735619 -0.048950132
0003a0 c4 d5 85 bd bd bc 5f bd 45 2c ee ba cd e1 02 bd
       -0.06534913 -0.054623354 -0.0018171152 -0.03195362
0003b0 fb c7 7f 3c ad 99 5a bc 81 77 19 3c fa 58 00 bd
       0.015611644 -0.013342303 0.009366871 -0.031334855
0003c0 75 9c 02 bc bb 3c 4b bc 9f c4 ef 3a ca 14 69 3d
       -0.007971873 -0.012404616 0.001829285 0.05690459
0003d0 73 23 68 3d ab f6 5c 3d 88 06 26 3d 47 fd 54 3d
       0.056674432 0.05394618 0.040533572 0.051999357
0003e0 2f 2a 43 3d 76 47 05 bc 22 53 c6 bc 00 fd 1d bd
       0.04764765 -0.008134713 -0.024209563 -0.038571358
0003f0 39 03 cf bc d4 65 fb bc 76 64 05 bd 05 8f 26 3c
       -0.025270091 -0.030688204 -0.03256651 0.010165934

conv3.bias f4 [128]
000000 81 89 08 3d ca 97 29 3d 0e eb 4c bc dd 9a 8f 3c
       0.03333426 0.041404523 -0.012507213 0.0175299
000010 41 83 d5 bc 1b ef a2 3b 3c dd 76 3b 93 fd 31 3c
       -0.026063563 0.0049723512 0.0037668487 0.010863679
000020 67 16 bd bc 29 30 8b bc 3e 3a 4e bc 7c 72 8e 3c
       -0.023081971 -0.016990738 -0.012587128 0.017388575
000030 29 b1 23 bc f8 f3 e5 bc 65 4b ca ba 1d bf 67 3c
       -0.009990969 -0.028070435 -0.0015433846 0.014144686
000040 91 5d 06 bc 47 1c 74 bb ad 73 0e 3d b7 5c bf 3c
       -0.008201019 -0.00372483 0.034778286 0.02335964
000050 75 23 9a bc 93 a2 6e bb 77 1a 31 bd 31 94 a6 3b
       -0.018815735 -0.003641282 -0.04323813 0.0050835838
000060 50 a5 51 3d 54 b0 43 3c e6 2e 86 bc 9e 88 fe 3c
       0.051183045 0.011943895 -0.016379785 0.031071004
000070 60 35 3b 3d 17 65 d9 3b 23 82 b2 bc f9 e1 75 bc
       0.0457052 0.0066343653 -0.02179057 -0.015007489
000080 d9 fc 3d 3d f2 f4 84 bb 4f c7 2f 3d ef e9 48 3c
       0.046383712 -0.00405752 0.042914685 0.012262805
000090 f6 ea 8a 3c 8e 7d ad bc d9 d0 ae bb 7c 9d 11 3c
       0.016957741 -0.021178033 -0.005334955 0.008887645
0000a0 89 2d 25 3c dc 83 ab 3c 34 b9 30 bd e2 cf bb bb
       0.010081657 0.020936899 -0.043145373 -0.0057315687
0000b0 99 66 85 3c b9 f1 d4 bc 61 84 24 3c 78 ee 57 39
       0.016284274 -0.025994169 0.010041327 0.00020592834
0000c0 fb e0 0d 3c e4 7e 91 bb 7a ad 4d bc 73 5e 92 bc
       0.008659597 -0.0044401754 -0.012553567 -0.017867303
0000d0 b8 5a f7 bb c8 dd 12 bd 4a 5f 18 3c 93 ba 66 bb
       -0.0075486563 -0.03585604 0.009300062 -0.0035206422
0000e0 6e 0e 92 bb b3 54 c6 bc ed 9b fe 3b e1 b8 d0 ba
       -0.0044572866 -0.02421031 0.0077700526 -0.0015924239
0000f0 8e f3 37 3c 4f 26 a1 3c 31 c8 00 bc 9b 0d 1b bd
       0.011227502 0.019671587 -0.007860229 -0.037854772
000100 5f 1e b3 bc b7 d3 65 bc 1f 37 b7 3b 54 d9 a0 bb
       -0.021865068 -0.0140275275 0.0055912877 -0.00490872
000110 52 8e f3 3c 1a 8c 13 3d dd 4d 2c 3d 0e e4 49 bc
       0.02973095 0.036022283 0.042066444 -0.012322439
000120 cb 7c 19 bd f6 58 ac bb 2e 06 23 3d f5 ff 4c 3c
       -0.037472527 -0.0052596284 0.039800815 0.012512197
000130 80 fc ee 3b 7f 0c d6 3c 22 6f fd bc 45 e6 be 3c
       0.007293284 0.026129005 -0.030936781 0.02330316
000140 a7 32 19 3d ee 90 af bb 79 bf 94 bc 3d dc df bb
       0.03740182 -0.005357853 -0.018157708 -0.0068316744
000150 f0 ce 80 3c 99 6b f4 bb b8 36 14 3c 1e 3a a4 3b
       0.015723675 -0.0074591157 0.009046249 0.005011811
000160 e9 04 eb 3c e6 f6 fd bc 41 f1 cd 3c 1d 46 30 bc
       0.028688865 -0.03100152 0.025139453 -0.010758904
000170 78 c8 a6 3b 73 99 84 3b 6d 67 29 3d 19 17 a5 ba
       0.0050898157 0.004046613 0.0413584 -0.0012595385
000180 48 e2 01 3d 34 79 bf bb 78 e7 08 3d 3b 50 dd 3c
       0.03170994 -0.005843306 0.03342387 0.027015796
000190 57 89 c9 bc 7a 48 c1 3c f0 6d 36 3c ea 5b 87 bc
       -0.024601622 0.02359413 0.01113461 -0.01652332
0001a0 89 91 44 3c 97 90 04 3d 3d 3c 3e bc 3e 83 5d 3c
       0.011997589 0.032364454 -0.011611042 0.01352006
0001b0 66 70 f3 3c 23 cc bb bb e3 71 2d 3c ba 9d 9d bc
       0.029716682 -0.005731122 0.010586235 -0.019240249
0001c0 11 c0 8a bb 28 bf ba 3b 1b 70 03 bd 11 8b 6b 3c
       -0.004234322 0.005699057 -0.032089334 0.014376418
0001d0 84 bb b7 3a 1f c6 07 3d ed 25 ff 3c d3 70 91 bc
       0.0014017676 0.033147927 0.031146014 -0.017753994
0001e0 37 0f 7f bc ce fd 7c 3c ff 8c ce bc 79 ac 47 bb
       -0.015567592 0.015441371 -0.025213717 -0.0030467792
0001f0 e0 64 b0 bb f6 97 da 3c 3c 6c f0 bb f0 cc 79 ba
       -0.005383119 0.026683789 -0.0073371213 -0.0009529134
